neuromancer/datasets/Flexy_air/device_test_models/model4/best_policy_flexy1.pth (torch, 34935 bytes, 9 tensors)

weight f4 [128, 20]
0	0xbe06e120	-0.13171816
1	0x3e0dbb16	0.13840899
2	0xbd858c60	-0.06520915
3	0xbde09c23	-0.10967281
4	0x3cdb8190	0.026795179
5	0xbce3d2b0	-0.027810425
6	0x3e38a218	0.18030584
7	0xbe0645fc	-0.13112634
8	0xbd1ecc88	-0.038769275
9	0xbe347369	-0.1762215
10	0x3de82a7c	0.11336228
11	0x3c1ad1c0	0.009449422
12	0xbd1d95a8	-0.0384728
13	0x3b276c80	0.0025546849
14	0xbde93830	-0.1138767
15	0x3e1132c8	0.14179528
16	0xbd4c1430	-0.04982394
17	0x3e219e9c	0.15783161
18	0x3e24b928	0.16086257
19	0xbd193138	-0.037400454
20	0xbc892480	-0.016741037
21	0x3d319178	0.04335162
22	0xbc273b10	-0.010206953
23	0x3e177890	0.14792085
24	0xbd0b9a0c	-0.034082457
25	0xbe1c1b5a	-0.15244809
26	0xbdb1738a	-0.086646155
27	0xbd154d1c	-0.03645049
28	0x3e3360e6	0.17517433
29	0x3e033b52	0.12815598
30	0x3daf9a34	0.08574334
31	0xbdef5773	-0.116866015
32	0x3dffa598	0.124827564
33	0xbd0621d0	-0.03274709
34	0xbd888c56	-0.06667392
35	0x3e61028e	0.21973631
36	0x3e303ea0	0.1721139
37	0xbe0b3c4e	-0.13597223
38	0xbc65ec60	-0.014033407
39	0x3e606a34	0.21915513
40	0xbe024c2a	-0.12724367
41	0x3de5c844	0.11219838
42	0x3e37d3c2	0.17951873
43	0xbe309647	-0.17244826
44	0x3e50a546	0.20375547
45	0xbe2bcb9b	-0.16776888
46	0x3e571b74	0.21006566
47	0xbdde9990	-0.108691335
48	0xbe1432e9	-0.14472546
49	0x3e181fdc	0.14855903
50	0x3b8afa20	0.004241243
51	0x3e02f7b6	0.12789807
52	0x3e4f518e	0.20245954
53	0xbdf9dc18	-0.12200183
54	0x3e2a5acc	0.16636199
55	0x3dc35a80	0.09538746
56	0x3e3ea316	0.186169
57	0x3e632f92	0.22186115
58	0xbd718490	-0.058964312
59	0x3e1c037a	0.15235701
60	0xbd6179f8	-0.05504796
61	0x3d882f2c	0.06649622
62	0xbe186ffe	-0.14886472
63	0xbd1f2560	-0.038854003
64	0x3e5acbe2	0.21366838
65	0xbdf2c0bb	-0.11853167
66	0x3db833cc	0.089942545
67	0xbd646e30	-0.055769145
68	0x3e27ae9c	0.16375202
69	0xbd113400	-0.03544998
70	0xbdbe59c4	-0.09294465
71	0xbe60a2f3	-0.2193716
72	0xbd905c68	-0.07048875
73	0x3e2b6b60	0.16740179
74	0x3e492ec6	0.19646749
75	0x3ba3c400	0.0049977303
76	0xbdd80d9e	-0.10549472
77	0xbe18649f	-0.14882134
78	0x3d904fa8	0.07046443
79	0xbde1d05e	-0.11026071
80	0x3e5fb7f2	0.21847513
81	0x3d412ee0	0.047163844
82	0x3dc7fca8	0.09764987
83	0x3e5bcf8e	0.21465895
84	0x3de9e568	0.11420709
85	0xbdf648d4	-0.120256096
86	0xbe34825f	-0.17627858
87	0xbcf7fd08	-0.030272022
88	0x3dbc3f78	0.09191793
89	0x3dd64474	0.10462275
90	0x3def4c38	0.116844594
91	0xbafd5700	-0.0019328296
92	0x3d494b18	0.04914388
93	0x3e5696a4	0.20955902
94	0xba316400	-0.00067669153
95	0xbe163170	-0.14667296
96	0x3cd86970	0.026417464
97	0xbd09c90c	-0.033639
98	0xbe576b39	-0.21036996
99	0xbe13b748	-0.14425385
100	0xbdbdd39c	-0.09268877
101	0x3e060cae	0.13090774
102	0xbe2d6135	-0.16931613
103	0x3bc8a080	0.0061226487
104	0x3d722928	0.05912128
105	0xbd9b4a42	-0.07582523
106	0x3d87290c	0.06599626
107	0xbe155066	-0.14581451
108	0x3db66dec	0.08907685
109	0xbe477bef	-0.1948087
110	0x3d20b298	0.03923282
111	0x3dfe5e1c	0.12420294
112	0xbdf3cf00	-0.119047165
113	0xbc4a4c40	-0.012347281
114	0x3d0456f8	0.032309502
115	0xbe253d6e	-0.16136715
116	0x3db9016c	0.09033474
117	0xbdaf7756	-0.085676834
118	0x3e58286a	0.21109167
119	0xbe10c796	-0.14138636
120	0xbe3d794e	-0.18503305
121	0xbdc4bbec	-0.09606156
122	0xbe359cdf	-0.17735623
123	0xbe62c264	-0.22144467
124	0x3e3de92e	0.18545982
125	0xbe1b1dcb	-0.15148084
126	0x3e0d96a2	0.13826993
127	0xbd3b7d90	-0.045774043
128	0x3cbbf548	0.022944108
129	0xbde27286	-0.11057
130	0xbdae9da8	-0.08526164
131	0xbc696a20	-0.014246494
132	0x3db6ddcc	0.08929023
133	0xbe591421	-0.21199085
134	0x3cedcb40	0.029027581
135	0x3d917210	0.07101834
136	0x3ca0eb20	0.019643366
137	0x3ce65490	0.028116494
138	0x3cf5a1c0	0.029984355
139	0xbe05e2c9	-0.13074793
140	0xbdd1bdce	-0.102412805
141	0xbced3898	-0.02895765
142	0xbe31d42e	-0.17366096
143	0x3e563c4c	0.20921439
144	0x3df6039c	0.12012407
145	0xbc4eca20	-0.012621433
146	0x3e18ceb0	0.14922595
147	0x3d0e84e8	0.034794718
148	0x3db14400	0.08655548
149	0x3bced1e0	0.00631164
150	0xbe3fa148	-0.18713868
151	0xbe5fba68	-0.21848452
152	0x3db70f9c	0.08938524
153	0xbcbd3038	-0.023094282
154	0xbd466bd0	-0.04844266
155	0x3dae33f0	0.08506
156	0xbdc87c0c	-0.09789285
157	0xbdbdffca	-0.092773035
158	0xbdc254cc	-0.0948883
159	0xbddca252	-0.10773148
160	0xbd92df54	-0.07171503
161	0xbe30b4e6	-0.17256507
162	0x3e3af19a	0.18256226
163	0xbe084e74	-0.13311177
164	0x3e5ad05a	0.21368542
165	0xbd82c1f0	-0.06384647
166	0x3e0c9600	0.13729095
167	0xbd82a3dc	-0.0637891
168	0x3d4c8cd0	0.049938977
169	0x3e10cf7c	0.14141649
170	0x3e3e9d7c	0.18614763
171	0xbd70d89c	-0.058800325
172	0x3dee6344	0.11640027
173	0xbd3c8744	-0.046027437
174	0x3dc7525c	0.09732506
175	0x3d987aec	0.074453205
176	0xbd656d04	-0.05601217
177	0x3bf941c0	0.007606715
178	0x3bbb8b00	0.005723357
179	0xbc230060	-0.00994882
180	0x3d4e7b18	0.05041036
181	0x3e10e0d8	0.14148271
182	0xbd9cb33a	-0.07651372
183	0xbc7186e0	-0.014741629
184	0xbe5a810b	-0.21338288
185	0x3e3c27d0	0.18374562
186	0xbdae0f6c	-0.08499035
187	0xbe1da0df	-0.15393399
188	0x3dac6dec	0.084194034
189	0xbdb48cb0	-0.088158965
190	0x3e3ea61a	0.1861805
191	0xbe5dfc2c	-0.21678227
192	0x3be0ca80	0.0068600774
193	0xbd19cd54	-0.03754933
194	0xbe3b2aff	-0.1827812
195	0xbe3b92a6	-0.1831766
196	0x3dd2d4b8	0.10294479
197	0xbe399e1d	-0.18126722
198	0xbe33d5c6	-0.17562017
199	0xbdafb9ee	-0.08580385
200	0xbe63c336	-0.22242436
201	0x3b14e480	0.0022719204
202	0xbdf7d227	-0.1210063
203	0x3e611014	0.2197879
204	0x3e5b270c	0.21401614
205	0xbc1e9c10	-0.009680763
206	0x3e1599a8	0.14609396
207	0x3d36baa0	0.044611573
208	0xbe172136	-0.14758763
209	0xbe4ce61f	-0.20009659
210	0x3de6ea9c	0.11275217
211	0xbd0a8d20	-0.033825994
212	0xbe45c04c	-0.19311637
213	0x3c4c94c0	0.012486637
214	0x3e1cf494	0.15327674
215	0xbe406220	-0.18787432
216	0xbd6cb27c	-0.057787403
217	0xbb884ba0	-0.004159406
218	0xbc35a6d0	-0.0110871345
219	0xbe409e41	-0.18810369
220	0x3daffe14	0.085933834
221	0xbafb1600	-0.0019156337
222	0x3e04135a	0.12898007
223	0xbdb319a0	-0.08745122
224	0x3e4c3c14	0.19944793
225	0xbd874068	-0.066040814
226	0xbdeff28c	-0.11716184
227	0x3e1a0688	0.15041554
228	0x3e1692d8	0.14704454
229	0xbd8f6d5a	-0.07003279
230	0x3e2db272	0.16962603
231	0xbbb172a0	-0.0054152757
232	0xbe2325f6	-0.1593245
233	0xbdb3eb74	-0.087851435
234	0xbe48dde4	-0.19615895
235	0xbe43129a	-0.19050065
236	0x3d3d5ba0	0.04622996
237	0x3e5ebecc	0.2175247
238	0x3e26c12a	0.16284624
239	0xbcd4b088	-0.025963083
240	0xbda01b6c	-0.0781773
241	0xbdfc930d	-0.12332735
242	0xbc9a95f0	-0.018870324
243	0x3c4e81b0	0.012604162
244	0xbe02be24	-0.12767845
245	0xbd8e5e5e	-0.06951593
246	0x3e2c9476	0.16853508
247	0xbd3a5ba8	-0.045497566
248	0x3e048cc8	0.12944329
249	0xbe5377fb	-0.20651238
250	0xbd3178f4	-0.04332824
251	0xbd84f3c0	-0.06491804
252	0x3e4bfc8e	0.1992056
253	0xbe57d290	-0.21076417
254	0xbd3b4194	-0.045716837
255	0xbe02b45c	-0.12764114

bias f4 [1, 20]
0	0x00000000	0.0
1	0x00000000	0.0
2	0x00000000	0.0
3	0x00000000	0.0
4	0x00000000	0.0
5	0x00000000	0.0
6	0x00000000	0.0
7	0x00000000	0.0
8	0x00000000	0.0
9	0x00000000	0.0
10	0x00000000	0.0
11	0x00000000	0.0
12	0x00000000	0.0
13	0x00000000	0.0
14	0x00000000	0.0
15	0x00000000	0.0
16	0x00000000	0.0
17	0x00000000	0.0
18	0x00000000	0.0
19	0x00000000	0.0

weight f4 [20, 128]
0	0xbc1cdc78	-0.009574048
1	0x3da6dc88	0.08147532
2	0x3d9b1310	0.07571995
3	0x3c98c45c	0.018648319
4	0x3d68dfd7	0.056854095
5	0x3da99359	0.082800575
6	0x3d432935	0.04764672
7	0xbce44934	-0.027866937
8	0xbd7e4aa3	-0.062082898
9	0x3d511cf7	0.051053014
10	0xbbc460e8	-0.0059929974
11	0xbcf3d462	-0.029764358
12	0xbd9969d2	-0.07490887
13	0x3ce03e90	0.027373582
14	0x3d302176	0.04300066
15	0x3d9f0f08	0.07766539
16	0xbd201e4e	-0.0390914
17	0xbcfe908a	-0.031074781
18	0x3d3e2e70	0.046431005
19	0x3d22101a	0.039566137
20	0x3d1f4ed5	0.03889354
21	0xbcb58c16	-0.022161525
22	0x3d1bcf39	0.03803942
23	0xbd8bf09f	-0.06833004
24	0xbd2832ca	-0.04106406
25	0x3dbb5390	0.09146798
26	0x3db46e6f	0.08810126
27	0x3c9e3f2c	0.019317232
28	0x3c694eeb	0.014240007
29	0x3cfde3f3	0.030992484
30	0x3c4312f5	0.011906375
31	0x3d7aa640	0.061193705
32	0x3c6248b6	0.013811281
33	0x3d25dde6	0.040494822
34	0x3d920d33	0.07131424
35	0x3dc82a95	0.09773747
36	0x3dbc16d0	0.09184039
37	0x3dd1374f	0.102156274
38	0x3bff3d0a	0.007789259
39	0x3d342082	0.043976314
40	0xbd584a1d	-0.052805055
41	0x3d141ffc	0.036163315
42	0x3c491d20	0.01227501
43	0xbb98eff7	-0.004667278
44	0x3cadeddc	0.021231584
45	0xbc8bd5c7	-0.01706971
46	0x3d4b18c3	0.04958416
47	0xbc3ece55	-0.011645873
48	0x3d9b85ac	0.07593855
49	0x3d89b660	0.067242384
50	0xbd2d50cc	-0.042313382
51	0x3db1f10a	0.08688553
52	0xbd88c948	-0.06679016
53	0xbc2e8d20	-0.010653764
54	0x3d2de8c9	0.04245833
55	0x3c8b8c9c	0.017034821
56	0x3da36bea	0.07979567
57	0xbc4ae1df	-0.012382953
58	0xbcea0205	-0.028565416
59	0xbda02407	-0.07819372
60	0x3c28d2e5	0.010304187
61	0x3be8903a	0.0070972713
62	0xbdb7b899	-0.08970756
63	0xbc3946c6	-0.011308378
64	0x3daec6b8	0.08533996
65	0x3cd93850	0.02651611
66	0x3d2b507a	0.041824795
67	0x3cd1a9ca	0.025593657
68	0xbd505f29	-0.050872
69	0x3bcc1342	0.0062278816
70	0xbc5d35cd	-0.013501597
71	0xbcd401a5	-0.02587969
72	0xbc26fdf6	-0.010192385
73	0x3cc2f2f7	0.023797495
74	0x3d43fa60	0.047846198
75	0xbd676c4f	-0.056499775
76	0x3dceaf3a	0.100920156
77	0xbcbc383a	-0.02297603
78	0x38efab9f	0.00011428375
79	0x3da0a9ec	0.0784491
80	0xbd56efc0	-0.052474737
81	0xbcf03903	-0.02932406
82	0x3cd7b94b	0.026333472
83	0xbd785c1e	-0.060634725
84	0xbc622b2d	-0.013804239
85	0x3d130457	0.03589281
86	0xbca8de9d	-0.020613963
87	0xbcd7ba50	-0.026333958
88	0xbd870225	-0.06592206
89	0xbd91435f	-0.07092928
90	0xbd407f62	-0.04699648
91	0xbd8b37ea	-0.06797774
92	0x3d6c181f	0.05764019
93	0xbd4f040a	-0.05054096
94	0xbd593288	-0.053026706
95	0x3afc733b	0.0019260416
96	0x3cf3ff37	0.029784782
97	0xbd1cf4b2	-0.038319297
98	0xbc1378dc	-0.009000983
99	0x3d9e9b54	0.0774447
100	0x3b5bd79c	0.0033545261
101	0x3b9f6676	0.004864509
102	0x3cc28471	0.023744794
103	0x3d9b3c43	0.075798534
104	0x3d8da49a	0.06916161
105	0x3d08219d	0.03323518
106	0xbd8a4151	-0.06750739
107	0x3dc48d53	0.09597268
108	0x3d11e155	0.035615284
109	0x3c8783dd	0.01654237
110	0xbcd218b7	-0.02564655
111	0x3c10f214	0.008846778
112	0x3cd51679	0.026011692
113	0x3db23fdb	0.08703586
114	0x3dbd8486	0.092537925
115	0xbd0a6482	-0.033787258
116	0xbd1b4c9e	-0.037914865
117	0xbd637a8a	-0.055536784
118	0x3d5f8978	0.05457446
119	0xbd889058	-0.066681564
120	0xbd4587f8	-0.048225373
121	0x3d08cf91	0.033401076
122	0x3d4015e9	0.046895895
123	0x3d46915d	0.048478473
124	0x3d33c569	0.043889437
125	0x3dc51cd3	0.096246384
126	0x3b33296c	0.0027337922
127	0x3d5cadf8	0.053876847
128	0x3c1a491b	0.009416844
129	0x3da6056a	0.081065014
130	0x3d7107c9	0.058845315
131	0xbd97de74	-0.074154764
132	0x3b914633	0.004433417
133	0xbd042177	-0.032258477
134	0xbd85282b	-0.06501802
135	0x3db1f540	0.08689356
136	0x3d8a5c71	0.06755913
137	0xbd876f74	-0.06613055
138	0x3cb71328	0.022348002
139	0x3d916ad0	0.07100451
140	0x3c478570	0.01217781
141	0x3c9338dc	0.017971449
142	0xbd9e423a	-0.077274755
143	0xbda1e5d5	-0.07905165
144	0x3dbfd7f6	0.09367363
145	0x3d22b6f0	0.039725244
146	0x3d43fd22	0.047848828
147	0xbd8711b0	-0.065951705
148	0xbd7b1e0e	-0.06130796
149	0x3dd9eaf1	0.10640515
150	0xbc2b4555	-0.010453542
151	0x3d53a98b	0.05167536
152	0xbbfebe14	-0.007774124
153	0x3dbb05c0	0.09131956
154	0x3db7dec0	0.08978033
155	0x3db077b7	0.08616584
156	0x3d05a5b8	0.032628745
157	0xbd3c735b	-0.04600845
158	0x3dc1525b	0.09439536
159	0xbc9b8fce	-0.01898947
160	0xbc1a133c	-0.009404
161	0xbe0b0a5f	-0.13578175
162	0xbd84a786	-0.06477265
163	0x3c8aca7c	0.016942255
164	0xbd24da0c	-0.04024701
165	0xbe0af655	-0.1357053
166	0xbd623b1a	-0.055232145
167	0xbd24f29f	-0.040270444
168	0xbd16c65b	-0.03681026
169	0xbde4b2b5	-0.11166898
170	0xbd0510a6	-0.03248658
171	0xbd9a8177	-0.07544225
172	0xbd06e958	-0.032937378
173	0x3b179277	0.0023128071
174	0x3d01d053	0.031692814
175	0xbe02d0e6	-0.12775001
176	0xbdb90b9f	-0.0903542
177	0xbe1190a2	-0.1421533
178	0xbde80138	-0.113283575
179	0xbdf4af17	-0.11947458
180	0x3bb47e45	0.0055082166
181	0xbdb9fa6f	-0.090809695
182	0xbe123d3c	-0.14281172
183	0xbdde8721	-0.108656175
184	0xbda650bd	-0.08120868
185	0xbdd725d8	-0.10505265
186	0xbde6a71b	-0.112623416
187	0xbde97853	-0.11399903
188	0xbe07da48	-0.13266861
189	0xbcd430d1	-0.025902184
190	0xbe07ff1c	-0.1328091
191	0xbd0714e9	-0.032978926
192	0x3c74f3b3	0.014950681
193	0x3db8c359	0.090216346
194	0x3da95da2	0.08269812
195	0x3d127ed3	0.03576548
196	0xbd967e85	-0.073483504
197	0xbd870ec4	-0.06594613
198	0x3dc236df	0.09483122
199	0x3dbdda1d	0.092701174
200	0x3d843721	0.064558275
201	0xbd84724d	-0.06467114
202	0xbd233830	-0.039848506
203	0x3d19c52d	0.037541557
204	0xbcf58486	-0.029970419
205	0x3d8bc1dc	0.06824085
206	0x3cd6a030	0.02619943
207	0x3da9c39e	0.08289264
208	0xbd46a145	-0.048493642
209	0x3d896dc4	0.06710389
210	0x3c9f87f7	0.019474013
211	0xbd6eb538	-0.058278292
212	0x3db9eb37	0.09078067
213	0x3bd3e385	0.0064663314
214	0x3d9724b8	0.073800504
215	0xbd405f80	-0.046966076
216	0x3dbfb0f1	0.09359921
217	0xbd2185ae	-0.039434128
218	0x3cef13b5	0.029184202
219	0x3d127158	0.035752624
220	0x3d07f6cd	0.033194352
221	0xbd0b71a6	-0.03404393
222	0x3c3ee90c	0.011652242
223	0x3d04590f	0.032311495
224	0xbdeb28e8	-0.114824116
225	0xbdc21987	-0.09477525
226	0xbdfa0a04	-0.122089416
227	0xbcb76f5f	-0.022391973
228	0x3c035863	0.0080166785
229	0xbce4719c	-0.027886204
230	0xbd13dc1b	-0.03609858
231	0xbdbd3597	-0.09238737
232	0xbd9b4420	-0.07581353
233	0xbdd1af30	-0.102384925
234	0xbdf69db2	-0.12041797
235	0xbe156d1d	-0.14592405
236	0xbdb7daad	-0.08977256
237	0xbe1311cc	-0.14362258
238	0xbe01e934	-0.12686616
239	0xbd239877	-0.039940324
240	0xbd27c592	-0.040959902
241	0xbdf6cee4	-0.1205118
242	0xbc093a6c	-0.008375745
243	0xbddb8125	-0.10717992
244	0xbe064586	-0.13112459
245	0x3be5bcac	0.007011017
246	0xbe02e197	-0.12781368
247	0xbd8a9e11	-0.0676843
248	0xbb3d96a6	-0.0028928905
249	0xbd02ecda	-0.03196416
250	0xbd790e85	-0.060804863
251	0xbe0b6a41	-0.13614751
252	0xbdd9509a	-0.10611077
253	0xbdd3abe8	-0.10335523
254	0xbdda2896	-0.106522724
255	0x3c7e04b6	0.015504053

weight f4 [20, 20]
0	0xbdea9336	-0.114538595
1	0x3e1d4af2	0.1536062
2	0x3e106d6a	0.14104238
3	0x3e414bfc	0.18876642
4	0xbdfae222	-0.12250163
5	0xbd67af48	-0.056563646
6	0xbdb80536	-0.08985369
7	0x3d1280d0	0.035767376
8	0xbd5c1840	-0.053734064
9	0x3dc558dc	0.09636089
10	0x3ca6d7f8	0.020366654
11	0xbbb69120	-0.0055714995
12	0xbd3caa3c	-0.046060786
13	0x3e5f644a	0.21815601
14	0xbd4bf468	-0.04979363
15	0xbdf0dc34	-0.117607504
16	0xbe0bbb50	-0.13645673
17	0xbdbf1c30	-0.09331548
18	0x3c982f58	0.018577263
19	0xbc948eb8	-0.01813446
20	0x3e291260	0.16510916
21	0xbe458b5c	-0.19291443
22	0x3da80ff8	0.08206171
23	0xbe2ffc3c	-0.17186064
24	0x3c916010	0.017746001
25	0x3e0f4fea	0.13995329
26	0x3d9519a8	0.07280284
27	0xbd6f4d5c	-0.058423385
28	0xbe0b1492	-0.13582066
29	0x3e21cdc2	0.15801147
30	0xbd5d026c	-0.053957388
31	0x3db48918	0.08815211
32	0xbd1bdaf0	-0.038050592
33	0xbd8510f2	-0.06497373
34	0xbd09d4a8	-0.03365007
35	0x3d08df70	0.03341621
36	0x3e4e5ec6	0.2015334
37	0x3de349a8	0.11098033
38	0xbe13d227	-0.14435636
39	0xbda2c23c	-0.079472035
40	0xbdf6bf21	-0.12048174
41	0xbdf438e1	-0.11924911
42	0xbe22db13	-0.15903883
43	0xbd3c34ec	-0.045948908
44	0x3d3a1a50	0.04543525
45	0x3e44f0d0	0.19232488
46	0x3d8e09e4	0.0693548
47	0x3b895060	0.0041904896
48	0xbe4e6ef2	-0.2015951
49	0x3e5fbc46	0.21849164
50	0xbdfd71f5	-0.12375251
51	0x3d4a7860	0.049431205
52	0xbc990e10	-0.018683463
53	0xbdc39b06	-0.09551053
54	0x3debc6a8	0.115125
55	0x3e1d2d5e	0.15349337
56	0x3df2d9b4	0.1185793
57	0x3d7b2d90	0.06132275
58	0xbcb8e7f0	-0.022571534
59	0xbb12b580	-0.0022386014
60	0xbd5f4ed0	-0.05451852
61	0x3ce6bff0	0.028167695
62	0x3e04958e	0.12947676
63	0x3de0b23c	0.109714955
64	0xbe3871da	-0.18012181
65	0x3deebbe0	0.11656928
66	0x3de2bfd4	0.110717446
67	0xbd7eff34	-0.0622551
68	0xbdfefb2b	-0.1245025
69	0xbe1c7f50	-0.15282941
70	0x3d3ac2d8	0.045595974
71	0x3da84944	0.08217099
72	0x3e26860c	0.16262072
73	0x3d590bb8	0.05298969
74	0xbad5e980	-0.0016320199
75	0xbe3ba6c8	-0.18325341
76	0x3b603d40	0.0034216195
77	0xbe181bf2	-0.1485441
78	0x3e28dfae	0.16491577
79	0xbe148f46	-0.1450778
80	0xbe4f08e7	-0.2021824
81	0xbe4ee1e4	-0.20203358
82	0xbe000a31	-0.12503888
83	0x3c164cf0	0.009173617
84	0xbe24f2f1	-0.161083
85	0xbe619b4d	-0.22031899
86	0x3cb4d698	0.022074983
87	0xbdfd269e	-0.12360881
88	0x3e648b0e	0.2231867
89	0xbc0cc7b0	-0.008592531
90	0x3cb2e2a8	0.021836594
91	0xbe28ece2	-0.16496614
92	0xbe20008d	-0.1562521
93	0x3e07d388	0.13264287
94	0x3e486bfc	0.19572443
95	0x3df2a200	0.11847305
96	0x3de16dcc	0.1100727
97	0xbd0eb0dc	-0.034836635
98	0xbd49bc00	-0.049251556
99	0x3e14fcbe	0.14549538
100	0xbe59f05e	-0.21283099
101	0xbe011ff0	-0.1260984
102	0xbe1ea1a6	-0.15491351
103	0xbe04de77	-0.12975489
104	0x3d81d8c8	0.06340176
105	0x3e1375ea	0.1440045
106	0xbc55de00	-0.013053417
107	0x3c99dc70	0.01878187
108	0xbd9f97fe	-0.07792662
109	0x3e0f5a3a	0.13999262
110	0xbd925952	-0.07145943
111	0x3d84dfa0	0.064879656
112	0xbe411139	-0.18854226
113	0x3e03ed6a	0.12883535
114	0x3d0263c8	0.03183344
115	0x3d75bca0	0.05999434
116	0x3c2f9cb0	0.01071851
117	0x3ca2cf30	0.019874185
118	0x3d003510	0.031300604
119	0x3de78060	0.113037825
120	0x3e205f32	0.15661314
121	0x3e110fb8	0.14166152
122	0x3e525c94	0.20543128
123	0xbb41a440	-0.0029547364
124	0x3bc36c80	0.005963862
125	0xbe309466	-0.1724411
126	0x3d1d6890	0.038429797
127	0x3c2986c0	0.010347068
128	0x3d9d1bec	0.07671341
129	0xbdbfa922	-0.093584314
130	0x3daecef0	0.08535564
131	0xbe2e2677	-0.1700686
132	0xbe264402	-0.1623688
133	0xbdb250ec	-0.08706841
134	0x3d3fc608	0.046819717
135	0xbd143400	-0.036182404
136	0xbd9a97aa	-0.07548459
137	0x3da56d20	0.080774546
138	0x3e2c1a2e	0.16806862
139	0xbd85a7ae	-0.06526123
140	0xbd8c622a	-0.06854661
141	0x3cc93888	0.024563089
142	0x3e0c69f8	0.13712299
143	0xbd194ba4	-0.037425652
144	0xbe227e88	-0.1586858
145	0xbe168e40	-0.14702702
146	0x3e16f256	0.14740881
147	0x3d7a97a0	0.061179757
148	0xbda1d6dc	-0.07902309
149	0x3e2b5980	0.1673336
150	0xbc24b1f0	-0.010052189
151	0xbd687848	-0.056755334
152	0xbe031342	-0.12800315
153	0xbdaf1412	-0.0854875
154	0xbe637caa	-0.22215524
155	0x3caaf978	0.02087091
156	0x3e3e85aa	0.18605676
157	0x3e2b54c0	0.16731548
158	0xbdac5538	-0.08414692
159	0x3d0f5d98	0.035001367
160	0xbda48682	-0.08033468
161	0x3daec954	0.08534494
162	0xbe420d87	-0.18950473
163	0xbe1ff05e	-0.15619037
164	0x3b5e1340	0.0033885986
165	0x3c439a50	0.011938646
166	0x3e257fd4	0.16162044
167	0xbe4d4aa2	-0.20048001
168	0xbe3b7df4	-0.18309766
169	0xbdf1b7db	-0.11802646
170	0xbdf021c9	-0.11725194
171	0x3d1c85b8	0.03821346
172	0x3e272cde	0.16325709
173	0xbdd98798	-0.106215656
174	0x3dfe44a4	0.12415436
175	0x3d03f4e8	0.032215983
176	0xbda11f04	-0.07867244
177	0xbe64f2ef	-0.22358297
178	0x3cffc1b0	0.031220287
179	0xbdd46250	-0.10370314
180	0xbd443494	-0.047901705
181	0xbc3db6d0	-0.01157923
182	0x3e5e33d0	0.21699452
183	0x3da078f4	0.0783557
184	0xbd50a6e8	-0.050940424
185	0x3dbcae5c	0.09212944
186	0xbe3aef24	-0.18255287
187	0x3e5454dc	0.20735496
188	0xbc55f3f0	-0.0130586475
189	0x3e41777e	0.18893239
190	0xbe5d2c44	-0.21598917
191	0x3dac0378	0.08399099
192	0xbe120f86	-0.14263734
193	0x3d4b7240	0.049669504
194	0x3e24692a	0.16055742
195	0x3d9e50e0	0.077302694
196	0x3db22ed0	0.08700335
197	0xbe580c9e	-0.21098563
198	0xbdc02a24	-0.09383038
199	0xbc810888	-0.015751138
200	0xbcfaa890	-0.030597955
201	0xbd1a0a8c	-0.037607715
202	0x3de2e4e0	0.11078811
203	0xbd90b3ca	-0.07065542
204	0x3d9b610c	0.075868696
205	0x3e33d5e8	0.17562068
206	0x3e4f067c	0.20217317
207	0x3de1d564	0.11027029
208	0xbc5d5cd0	-0.013510898
209	0x3db6c8c4	0.08925012
210	0xbcb0bed8	-0.021575376
211	0x3e50d9dc	0.20395607
212	0x3e3cc712	0.18435314
213	0xbd28a938	-0.041177005
214	0xbe03f983	-0.1288815
215	0x3e30ca66	0.17264709
216	0xbc10beb0	-0.008834526
217	0xbd244f3c	-0.040114626
218	0x3ca45c08	0.020063415
219	0xbe0cbac2	-0.13743117
220	0xbdc8f6b6	-0.098126814
221	0xbdf5b0d9	-0.11996622
222	0x3e62b91a	0.22140923
223	0x3e1d28b2	0.15347555
224	0xbe39a27b	-0.18128388
225	0x3e52e5bc	0.20595449
226	0x3dcfb7bc	0.101424664
227	0x3e03c1ba	0.1286687
228	0xbd88d85a	-0.06681891
229	0x3e475120	0.1946454
230	0x3e400e36	0.18755421
231	0x3e60a26e	0.21936962
232	0x3ced3840	0.028957486
233	0x3e08f570	0.13374877
234	0xbe0170c8	-0.12640679
235	0x3d27b268	0.040941626
236	0xbd1e4c08	-0.038646728
237	0x3d18e6f8	0.037329644
238	0x3e00fec2	0.12597182
239	0xbce8a8e8	-0.028400853
240	0x3dcb2774	0.099196345
241	0xbe0c4a64	-0.13700253
242	0x3d8ccf80	0.06875515
243	0xbe1c36f4	-0.15255338
244	0x3e07e6fa	0.13271704
245	0x3df7fef4	0.12109175
246	0x3e274a6a	0.1633698
247	0xbde00997	-0.10939329
248	0x3d89af78	0.06722921
249	0x3c8b6c20	0.017019331
250	0xbe5fc454	-0.21852237
251	0xbdc79e78	-0.097470224
252	0x3da01f80	0.07818508
253	0xbe4fc5d8	-0.20290315
254	0xba836100	-0.0010023415
255	0x3e4c445e	0.19947955

bias f4 [1, 20]
0	0x00000000	0.0
1	0x00000000	0.0
2	0x00000000	0.0
3	0x00000000	0.0
4	0x00000000	0.0
5	0x00000000	0.0
6	0x00000000	0.0
7	0x00000000	0.0
8	0x00000000	0.0
9	0x00000000	0.0
10	0x00000000	0.0
11	0x00000000	0.0
12	0x00000000	0.0
13	0x00000000	0.0
14	0x00000000	0.0
15	0x00000000	0.0
16	0x00000000	0.0
17	0x00000000	0.0
18	0x00000000	0.0
19	0x00000000	0.0

weight f4 [20, 20]
0	0x3e0133d8	0.12617433
1	0xbba38eff	-0.0049914117
2	0x3d906360	0.07050204
3	0xbe4fbc89	-0.20286764
4	0xbd4b9b38	-0.049708575
5	0x3e129dd6	0.14318022
6	0x3d83c718	0.064344585
7	0xbda9a13a	-0.08282705
8	0xbe75fc04	-0.24021918
9	0x3d8ee864	0.06977919
10	0xbd282e1a	-0.04105959
11	0x3e820545	0.25394645
12	0x3e89a9dd	0.26887408
13	0xbe54cc77	-0.20781122
14	0xbdef1ba4	-0.11675194
15	0xbdad669b	-0.08466836
16	0x3e81afd3	0.25329456
17	0xba81193b	-0.0009849438
18	0xbe80b19b	-0.25135502
19	0x3e33baf9	0.17551793
20	0x3dd50981	0.10402203
21	0xbda0f26d	-0.07858739
22	0xbe67ed10	-0.22649026
23	0x3d59ae72	0.05314488
24	0xbe42ab38	-0.19010627
25	0xbdc71449	-0.09720666
26	0xbd8b4aa3	-0.06801345
27	0x3d6f34a4	0.05839981
28	0xbbaabc4c	-0.005210435
29	0xbdcafdce	-0.09911691
30	0x3b053a87	0.0020329074
31	0xbdb58b94	-0.08864513
32	0x3e3b085a	0.18264905
33	0x3e2762c8	0.16346276
34	0xbc9fdb72	-0.01951382
35	0x3e0328de	0.12808558
36	0x3e584c60	0.21122885
37	0xbe797684	-0.24361616
38	0xbb8ee57e	-0.0043608537
39	0x3e412c39	0.18864526
40	0x3e0952c8	0.13410485
41	0x3bd990bb	0.0066395677
42	0xbe3343f2	-0.17506388
43	0xbe9122fd	-0.28347006
44	0xbcbd7005	-0.023124704
45	0x3e6e6e4a	0.2328426
46	0xbde2dcb2	-0.110772505
47	0xbd33e537	-0.04391977
48	0xbe3bc27c	-0.18335909
49	0xbd6fc042	-0.05853296
50	0x3d554dad	0.05207603
51	0x3e511955	0.2041982
52	0x3e7810ec	0.24225205
53	0xbe0667f3	-0.13125591
54	0x3db9b11d	0.09066985
55	0xbdad333c	-0.08457038
56	0xbc8e2380	-0.017350912
57	0xbdac414c	-0.08410892
58	0xbddebe51	-0.10876144
59	0x3e12dd4b	0.14342229
60	0xbd308250	-0.043093026
61	0x3e2de021	0.1698003
62	0x3e8e1cf5	0.27756467
63	0x3dca2e89	0.09872157
64	0xbcf75ba3	-0.030195063
65	0xbdceebcf	-0.10103571
66	0xbe129c65	-0.14317472
67	0x3d289042	0.0411532
68	0x3e1b876a	0.15188375
69	0x3d43e481	0.04782534
70	0xbd85a838	-0.06526226
71	0xbe294baa	-0.1653277
72	0xbe21d685	-0.15804489
73	0x3e65d4bc	0.22444433
74	0x3e1510e6	0.14557227
75	0xbe53271a	-0.20620385
76	0xbe93ca13	-0.28865108
77	0xbd739395	-0.059466917
78	0x3d906ec0	0.07052374
79	0xbdb9fa7a	-0.09080978
80	0xbe126eda	-0.14300099
81	0xbde00950	-0.10939276
82	0x3de70f16	0.11282174
83	0x3dac391b	0.084093295
84	0xbe131308	-0.14362729
85	0xbe2b7680	-0.16744423
86	0xbe1b0c3d	-0.15141387
87	0xbdaa57b4	-0.08317509
88	0xbdd1f4d3	-0.10251775
89	0xbdb354ab	-0.087563835
90	0x3dc7d9a1	0.09758306
91	0xbdb7836f	-0.08960616
92	0xbe11083b	-0.14163296
93	0x3e8e5125	0.27796283
94	0xbd1028d3	-0.035195183
95	0xbcce3e94	-0.025176324
96	0xbd8a8346	-0.0676332
97	0x3dffed44	0.12496427
98	0x3e8028d2	0.25031143
99	0x3e51bf86	0.20483217
100	0xbe42b092	-0.19012669
101	0xbdbeeca3	-0.093224786
102	0xbd54420c	-0.0518208
103	0x3e557d63	0.20848612
104	0x3da5d0e7	0.080964856
105	0x3e382bad	0.17985411
106	0xbdd1c793	-0.10243144
107	0xbd0fb621	-0.0350858
108	0xbd4ddd5b	-0.05025993
109	0x3daae9d5	0.08345381
110	0xbd6eab60	-0.058268905
111	0x3cacaec4	0.021079428
112	0x3e4fa5bf	0.20278071
113	0x3e8b5708	0.27214837
114	0xbe18772c	-0.1488921
115	0xbe238583	-0.159689
116	0x3c2b5a8a	0.010458598
117	0x3df5478c	0.11976537
118	0x3e8ed9c9	0.27900532
119	0xbe0acfcf	-0.13555835
120	0x3cbf489f	0.023350058
121	0x3ca137e0	0.019679964
122	0x3d0bacab	0.034100216
123	0x3e4f6d67	0.20256577
124	0x3dccc4de	0.09998487
125	0x3cee7336	0.029107671
126	0xbd7ee499	-0.062229726
127	0xbdac486b	-0.0841225
128	0xbc34efc6	-0.011043495
129	0xbc06b5be	-0.008222042
130	0x3e11ed30	0.14250636
131	0xbe4b27af	-0.19839357
132	0x3cfbd9fc	0.030743591
133	0xbd8842d0	-0.066533685
134	0xbe3482e4	-0.17628056
135	0xbd3229a2	-0.043496735
136	0xbd8df885	-0.06932167
137	0xbd079555	-0.0331014
138	0x3d6864e2	0.056736834
139	0x3d665a41	0.056238417
140	0x3e45bd1b	0.1931042
141	0x3cc3ebed	0.02391621
142	0xbe854196	-0.260266
143	0xbe39ddc5	-0.18151005
144	0x3d4d33d7	0.050098266
145	0xbd8ee170	-0.069765925
146	0x3e6a3c6a	0.22874609
147	0xbb69ebb5	-0.003569347
148	0xbc209497	-0.009801052
149	0xbe873cb4	-0.264135
150	0x3e3a6ffd	0.18206783
151	0x3cdeb1c3	0.027184373
152	0x3d819142	0.06326534
153	0xbe7b5717	-0.24544941
154	0xbe6d4500	-0.23170853
155	0x3dcb6616	0.09931581
156	0xbd221110	-0.039567053
157	0xbe065e70	-0.13121963
158	0xbd386ec9	-0.045027528
159	0xbdd483e6	-0.1037672
160	0xbe06f11a	-0.1317791
161	0xbe939c35	-0.28830114
162	0xbe373f72	-0.17895296
163	0xbd84bee6	-0.064817235
164	0xbb1f6856	-0.0024323664
165	0x3e191144	0.14947993
166	0x3cd1226c	0.025529109
167	0xbe11e80d	-0.14248677
168	0x3df85078	0.12124723
169	0x3e033b8b	0.12815683
170	0x3e3dcbe4	0.1853481
171	0xbc6534c3	-0.01398963
172	0x3e118c17	0.14213596
173	0xbd736d8f	-0.059430655
174	0x3d7388ef	0.059456762
175	0x3e1d1daa	0.15343347
176	0x3e287aab	0.16453044
177	0xbe3e0b93	-0.18559103
178	0x3c81de48	0.015853062
179	0x3e415d75	0.18883307
180	0x3e522bb7	0.20524488
181	0x3dcbd29f	0.09952282
182	0xbe0128a7	-0.12613164
183	0x3e219b75	0.15781958
184	0xbe1a7294	-0.1508277
185	0x3c314819	0.010820412
186	0xbd8e4058	-0.06945866
187	0x3e483cbe	0.19554421
188	0xbe362f8b	-0.17791574
189	0xbe2cd466	-0.16877899
190	0x3cf163e0	0.02946657
191	0xbcabfc31	-0.020994278
192	0x3d91c129	0.071169205
193	0xbda19e92	-0.07891573
194	0x3deb4d2e	0.1148933
195	0x3e29dbd6	0.16587767
196	0xbc804f42	-0.015662793
197	0xbd5442c1	-0.051821474
198	0xbe7164b8	-0.23573577
199	0x3e28fe1a	0.16503182
200	0xbcbb093c	-0.022831552
201	0x3e9dc25a	0.3081234
202	0xbca6d7a7	-0.020366503
203	0xbdb2af68	-0.08724862
204	0x3e25c1b4	0.16187173
205	0xbe50ab1d	-0.20377775
206	0xbd4e773b	-0.050406676
207	0xbe47dc11	-0.19517542
208	0xbe2091ae	-0.15680572
209	0x3e566752	0.20937851
210	0xbe62362e	-0.2209098
211	0x3d294eb1	0.04133481
212	0xbdeda81f	-0.11604332
213	0xbdfd2786	-0.12361054
214	0xbd9ce715	-0.07661263
215	0xbe252ae7	-0.16129647
216	0xbd88c038	-0.06677288
217	0x3cac1f85	0.021011123
218	0x3e5dedd1	0.21672751
219	0x3b8eff10	0.004363902
220	0xbe544763	-0.20730357
221	0x3e46b772	0.19405916
222	0x3e4ec5e1	0.20192672
223	0x3da34d27	0.079737
224	0xbc8f77e9	-0.017513232
225	0xbe4f0ca6	-0.20219669
226	0xbe1790ed	-0.14801379
227	0xbe5465d3	-0.20741968
228	0x3dc5838f	0.096442334
229	0xbc78f720	-0.015195638
230	0x3ddf4201	0.10901261
231	0x3dba8e95	0.091092266
232	0xbe5753cd	-0.21028061
233	0x3e87dc16	0.265351
234	0x3d96aba8	0.073569596
235	0x3e234c64	0.1594711
236	0xbe8237a4	-0.25433075
237	0x3e96caf3	0.29451713
238	0x3e4994b2	0.19685629
239	0xbe4a61d9	-0.19763888
240	0xbe24286a	-0.16031042
241	0xbe83e184	-0.25757992
242	0xbd9c451a	-0.076303676
243	0xbd985712	-0.07438482
244	0x3d39b43e	0.045337908
245	0xbe37824a	-0.17920795
246	0x3e0bb3b3	0.13642769
247	0xbd5af953	-0.05346043
248	0x3d5e588d	0.054283667
249	0xbddb5138	-0.107088506
250	0x3ba30644	0.004975112
251	0x3e17dcd7	0.14830337
252	0xbe41cb3c	-0.18925184
253	0x3d9ea4e0	0.07746291
254	0xbe4f0349	-0.20216097
255	0xbe127230	-0.14301372

weight f4 [20, 32]
0	0xbdaa32f0	-0.08310497
1	0xbdc315a0	-0.09525609
2	0x3e1ed081	0.15509225
3	0xbaceb100	-0.0015769303
4	0x3e2eb1df	0.1706004
5	0x3d9f3b16	0.077749416
6	0x3e2f27d5	0.17105038
7	0xbdccc036	-0.09997599
8	0x3c057f80	0.008148074
9	0x3d11b360	0.035571456
10	0xbe1118fb	-0.14169686
11	0xbdb099db	-0.086230956
12	0x3b6ecf00	0.00364393
13	0xbd383314	-0.044970587
14	0xbd4b2480	-0.049595356
15	0xbd23fbac	-0.040034935
16	0x3e18e61d	0.14931531
17	0xbd8f752e	-0.07004772
18	0x3d0d6ffc	0.034530625
19	0x3d121878	0.035667866
20	0x3c402ac0	0.011728942
21	0xbd9f7ddf	-0.0778768
22	0xbc3dc8b0	-0.011583492
23	0x3dc6201e	0.096740946
24	0xbe2f5c8f	-0.17125152
25	0x3e06a3c9	0.13148417
26	0xbe2b205c	-0.16711563
27	0xbd6fa046	-0.058502458
28	0x3dae7c32	0.08519782
29	0x3ca3a010	0.019973785
30	0x3dd5809e	0.104249224
31	0x3e2b51c5	0.16730411
32	0x3d4abe4c	0.049497887
33	0x3dea24de	0.11432813
34	0x3dacdcd6	0.084405586
35	0xbd2834a8	-0.041065842
36	0x3b88a000	0.004169464
37	0xbaa22c80	-0.0012372881
38	0x3d1f8bb0	0.038951576
39	0xbe25ea64	-0.16202694
40	0xbd667624	-0.05626501
41	0xbdce0460	-0.10059428
42	0x3e0d93a5	0.13825853
43	0xbe24dd2d	-0.16099997
44	0xbd8e4e81	-0.06948567
45	0x3d966f62	0.07345463
46	0x3d166c10	0.03672415
47	0xbd971c14	-0.07378402
48	0xbe2f8e78	-0.17144191
49	0x3d553564	0.05205287
50	0x3d817bb8	0.063224256
51	0xbe1a3ac2	-0.15061477
52	0xbd2210f0	-0.039566934
53	0xbe31081d	-0.17288251
54	0x3dc5fc0e	0.09667216
55	0xbbc87a60	-0.006118104
56	0xbc87f480	-0.016596079
57	0x3db127b2	0.086501494
58	0xbdc0f9ea	-0.09422667
59	0xbc8bf198	-0.017082974
60	0x3d936386	0.07196717
61	0xbd0d090c	-0.034432456
62	0x3e302d27	0.17204724
63	0x3deead96	0.11654203
64	0x3d8249da	0.06361742
65	0x3d94a852	0.07258667
66	0xbd28df78	-0.04122874
67	0x3e01e7c1	0.12686063
68	0xbd24bda8	-0.040219933
69	0xbdaf0c19	-0.08547229
70	0x3db0567e	0.08610247
71	0xbd491ee0	-0.04910171
72	0x3bf34040	0.0074234307
73	0x3e194c1b	0.14970438
74	0xbdd1b1a5	-0.10238961
75	0x3d8d0270	0.068852305
76	0x3d1b7594	0.037953928
77	0x3d60ddd4	0.05489905
78	0xbe2a06c8	-0.1660415
79	0xbe2fb1e0	-0.17157698
80	0xbcf48450	-0.029848248
81	0xbbd19fc0	-0.0063972175
82	0x3d878efc	0.06619069
83	0x3d9be3f6	0.076118395
84	0x3dbbbb7a	0.09166618
85	0x3c09cb70	0.00841032
86	0xbdbacfe5	-0.09121684
87	0xbda7fb43	-0.08202221
88	0xbd4e8a10	-0.050424635
89	0xbd7968b6	-0.060890876
90	0x3e2f2dbf	0.17107294
91	0xbdfa2ef8	-0.1221599
92	0x3e0ec55b	0.13942473
93	0x3d13efd8	0.036117405
94	0x3e2cabbb	0.16862385
95	0x3c7b21b0	0.015327856
96	0x3da2d3ea	0.07950576
97	0xbc6c5fd0	-0.01442714
98	0xbe2cdb6d	-0.1688058
99	0xbdec95b4	-0.11551991
100	0xbd330abc	-0.04371141
101	0x3e335cc7	0.1751586
102	0x3d8ba976	0.068194315
103	0xbde2d90e	-0.11076556
104	0x3df6896e	0.120379314
105	0xbd1832cc	-0.03715782
106	0xbd945159	-0.07242078
107	0xbcfac998	-0.030613706
108	0x3ccc0e00	0.02490902
109	0x3d28af3c	0.04118274
110	0xbd3e5a64	-0.046472922
111	0x3df01412	0.11722578
112	0x3e2f657b	0.17128555
113	0xbdfbaf89	-0.1228934
114	0x3e157ba5	0.14597948
115	0x3d44c430	0.04803866
116	0xbe1391d0	-0.14411092
117	0x3d8e3562	0.06943776
118	0xbd7c1198	-0.061540216
119	0xbdfa62ad	-0.12225852
120	0x3e26137f	0.16218375
121	0xbdc8e9dd	-0.09810231
122	0x3e0c8c0d	0.137253
123	0xbdfb048f	-0.12256729
124	0x3e19e531	0.15028836
125	0x3cdb16c8	0.026744261
126	0xbe1d76a2	-0.15377286
127	0x3d9362d2	0.07196583
128	0x3db2e972	0.087359324
129	0xbc9b26f8	-0.01893948
130	0xbdb1db1a	-0.086843684
131	0x3b9788c0	0.004624456
132	0xbda8aab4	-0.08235684
133	0xbda571aa	-0.0807832
134	0xbc601ba0	-0.013678461
135	0x3caf4d78	0.021399245
136	0xbcb75278	-0.022378191
137	0x3d9d0f42	0.07668926
138	0x3c745d60	0.01491484
139	0x3e33fc8b	0.17576806
140	0x3d8445e2	0.064586416
141	0xbd4f6058	-0.05062899
142	0x3e02dab9	0.12778749
143	0xbe34773c	-0.1762361
144	0x3e0216c1	0.12703992
145	0x3e2136b3	0.15743522
146	0xbda4693a	-0.08027883
147	0xbd6aa590	-0.0572868
148	0x3e302c39	0.1720437
149	0xbd69c7c0	-0.057075262
150	0x3d696ad4	0.056986645
151	0x3e20a701	0.15688707
152	0xbdfd1ea2	-0.12359358
153	0xbda15f44	-0.078794986
154	0xbe0b2892	-0.13589695
155	0x3d53502c	0.05159013
156	0x3dba4bfe	0.090965256
157	0x3dc592fa	0.09647174
158	0x3daa51c2	0.08316375
159	0xbde47a50	-0.11156142
160	0x3d5fa1c0	0.054597616
161	0x3de515ce	0.111857995
162	0xbdb65947	-0.08903747
163	0x3e274179	0.1633357
164	0x3ad97f80	0.0016593784
165	0x3d60c384	0.05487396
166	0xbd9b748e	-0.075905904
167	0xbdb9b445	-0.09067587
168	0xbe20c425	-0.15699823
169	0xbcd01850	-0.025402218
170	0x3e127115	0.1430095
171	0x3a17bf00	0.0005788654
172	0x3e2316cf	0.1592667
173	0xbe03e570	-0.12880492
174	0xbc0bd310	-0.008534208
175	0xbe171fd1	-0.14758231
176	0x3dec0776	0.115248606
177	0xbe042e3c	-0.12908262
178	0xbdeb07e4	-0.114761144
179	0xbe27b828	-0.16378844
180	0x3da1ffce	0.07910119
181	0x3dda763e	0.10667084
182	0xbccb2ac0	-0.024800658
183	0x3e0ba3bb	0.13636677
184	0x3ca082d8	0.019593641
185	0xbd7ddcf8	-0.06197831
186	0xbe19089c	-0.1494469
187	0xbe189dce	-0.14903948
188	0x3d1c74c4	0.038197294
189	0x3ddf0486	0.10889535
190	0xbe07a9e0	-0.13248396
191	0xbd960a24	-0.07326153
192	0xbe27ddc9	-0.16393198
193	0xbd2edbc0	-0.04269004
194	0x3e18c9f9	0.14920796
195	0x3e05fd25	0.13084848
196	0xbd3ca040	-0.046051264
197	0x3cee53e0	0.02909273
198	0xbe09ee51	-0.13469817
199	0xbd14c414	-0.036319807
200	0xbe04b456	-0.12959418
201	0x3d838038	0.0642094
202	0xbcc6fa08	-0.024289146
203	0x3e29a487	0.16566668
204	0xbe0e6280	-0.13904762
205	0x3dbee02a	0.093201
206	0xbdaf774d	-0.08567677
207	0x3d273c44	0.04082896
208	0x3e051661	0.12996818
209	0xbe069094	-0.1314109
210	0xbde072ab	-0.10959371
211	0x3d767fc0	0.060180426
212	0xbc35ca70	-0.011095628
213	0xbe1a4d6e	-0.150686
214	0x3e2472a7	0.16059361
215	0xbdb6677a	-0.08906455
216	0xbdf396b0	-0.11893976
217	0xbe34a78b	-0.17642038
218	0x3d87f28c	0.06638059
219	0x3c624400	0.013810158
220	0x3de19a9e	0.11015819
221	0x3c88dd68	0.016707137
222	0xbdfd9b6a	-0.123831585
223	0xbe0fea4a	-0.14054218
224	0x3ded8656	0.11597888
225	0x3b0c5100	0.0021410584
226	0x3c513bf0	0.012770638
227	0xbdd89be0	-0.10576606
228	0x3dec15c2	0.115275875
229	0x3dcfe072	0.101502314
230	0xbe20a1e0	-0.1568675
231	0x3d2a40e8	0.041565806
232	0x3d8d0576	0.06885807
233	0xbd092a74	-0.033487752
234	0xbd91a270	-0.071110606
235	0xbdab1952	-0.08354439
236	0xbe2acc25	-0.16679437
237	0xbd6fa4c8	-0.058506757
238	0xbe053165	-0.13007124
239	0xba940880	-0.0011294037
240	0x3dcf0b12	0.10109533
241	0xbb4c7e40	-0.003120318
242	0xbdfbd9ac	-0.12297377
243	0xbdc51179	-0.09622473
244	0xbdddfaf5	-0.10838882
245	0x3dad366e	0.08457647
246	0x3e009bed	0.12559481
247	0x3ddcb46e	0.10776602
248	0xbe29633c	-0.16541761
249	0x3e1e237f	0.15443228
250	0xbdc61e3a	-0.09673734
251	0xbe1022d2	-0.14075783
252	0xbdf20d78	-0.11818975
253	0xbca9bed8	-0.020720884
254	0x3d8acae0	0.067769766
255	0x3ca8f450	0.02062431

bias f4 [1, 32]
0	0x00000000	0.0
1	0x00000000	0.0
2	0x00000000	0.0
3	0x00000000	0.0
4	0x00000000	0.0
5	0x00000000	0.0
6	0x00000000	0.0
7	0x00000000	0.0
8	0x00000000	0.0
9	0x00000000	0.0
10	0x00000000	0.0
11	0x00000000	0.0
12	0x00000000	0.0
13	0x00000000	0.0
14	0x00000000	0.0
15	0x00000000	0.0
16	0x00000000	0.0
17	0x00000000	0.0
18	0x00000000	0.0
19	0x00000000	0.0
20	0x00000000	0.0
21	0x00000000	0.0
22	0x00000000	0.0
23	0x00000000	0.0
24	0x00000000	0.0
25	0x00000000	0.0
26	0x00000000	0.0
27	0x00000000	0.0
28	0x00000000	0.0
29	0x00000000	0.0
30	0x00000000	0.0
31	0x00000000	0.0

weight f4 [32, 20]
0	0x3e570353	0.20997362
1	0x3e96a9c6	0.29426402
2	0x3e5eda36	0.21762928
3	0xbca8588b	-0.020550033
4	0x3e07218b	0.1319639
5	0x3e1f823d	0.15577026
6	0x3c72bb9c	0.014815237
7	0x3dcbff1a	0.09960766
8	0xbe30f0d9	-0.17279376
9	0x3e5c24c0	0.21498394
10	0x3e1ee507	0.15517054
11	0xbd97eed3	-0.07418599
12	0x3c791348	0.015202351
13	0x3dae1192	0.08499445
14	0xbda0dd2d	-0.07854686
15	0xbe8acc1c	-0.27108848
16	0x3e2be284	0.16785628
17	0xbe15ad52	-0.14616898
18	0x3e739e85	0.23790939
19	0xbdbc5417	-0.09195726
20	0x3deb1477	0.11478513
21	0x3e254cf6	0.1614264
22	0x3e79a80e	0.24380514
23	0x3e033daa	0.12816492
24	0x3dea881f	0.11451744
25	0x3de148c6	0.110002086
26	0xbd2e149f	-0.042500135
27	0x3e783630	0.24239421
28	0xbd40ee29	-0.047102127
29	0x3e1b402c	0.15161198
30	0xbdb2ed6c	-0.08736691
31	0xbe192b36	-0.1495789
32	0x3e924421	0.28567603
33	0xbde1b147	-0.11020141
34	0xbe217b03	-0.15769581
35	0xbca38472	-0.019960616
36	0x3e03e2f2	0.12879542
37	0xbe1e88ee	-0.15481922
38	0x3d52f055	0.05149873
39	0xbdffeeec	-0.124967426
40	0xbda02126	-0.078188226
41	0x3e49a053	0.19690065
42	0x3e17b721	0.14815952
43	0xbdf002bb	-0.11719271
44	0xbe5eb3bc	-0.2174825
45	0xbc9a0450	-0.018800884
46	0xbd3fb92c	-0.046807453
47	0xbd8a164b	-0.06742533
48	0x3dc39a33	0.095508955
49	0x3e09f060	0.13470602
50	0x3d706f25	0.058699746
51	0x3b22f916	0.0024867705
52	0x3e9848b0	0.29742956
53	0x3e1ca271	0.15296341
54	0xbdf34aa2	-0.118794695
55	0xbe272685	-0.16323288
56	0x3dd5d90f	0.10441791
57	0x3db7e1ce	0.08978616
58	0x3dfd50bd	0.12368915
59	0x3b019757	0.0019774043
60	0xbd93a5b2	-0.07209338
61	0xbcb86ee4	-0.022513814
62	0x3e529a81	0.20566751
63	0x3e217a69	0.15769352
64	0xbe1acc54	-0.15117007
65	0xbdb2fe8f	-0.087399594
66	0xbe27ed0f	-0.16399024
67	0x3e656059	0.22400035
68	0x3e4f4125	0.20239694
69	0xbe009958	-0.12558496
70	0xbd839c1b	-0.06426259
71	0xbdf16ccc	-0.117883295
72	0x3d8c492c	0.06849894
73	0xbde1601d	-0.1100466
74	0xbd3ce2d9	-0.046114776
75	0xbbdbe66a	-0.006710817
76	0x3e00f240	0.12592411
77	0xbdacfcb2	-0.08446635
78	0xbc33d5e8	-0.010976292
79	0x3e2c301d	0.16815229
80	0x3e8ef1e4	0.27918923
81	0x3e327a03	0.17429356
82	0x3e8bfd9c	0.27341926
83	0x3dc9927e	0.09842394
84	0x3db45701	0.08805657
85	0xbe5e34f0	-0.21699882
86	0xbe2443aa	-0.16041437
87	0x3e4e4b32	0.20145872
88	0x3dd79ec1	0.10528327
89	0x3e718430	0.23585582
90	0x3deb702d	0.11496005
91	0xbcb017a3	-0.021495646
92	0x3e43f931	0.19138028
93	0x3d42ba74	0.047541097
94	0x3da0ecb0	0.078576446
95	0x3dddf40b	0.10837563
96	0xbcd1a1cb	-0.025589844
97	0xbdc076b8	-0.09397644
98	0xbe0aa1c8	-0.13538277
99	0x3d86f865	0.06590346
100	0x3e14ec82	0.14543346
101	0x3e1f14f5	0.15535338
102	0x3e82f749	0.2557929
103	0xbd9ccb59	-0.07655973
104	0x3e02b971	0.12766053
105	0xbe57b4ab	-0.21065013
106	0x3e349b59	0.17637385
107	0x3d1bbb1a	0.03802023
108	0x3e26a62e	0.1627433
109	0xbd238a05	-0.039926548
110	0xbd7e369e	-0.062063806
111	0x3c86062d	0.016360367
112	0x3e8acb5d	0.2710828
113	0x3e039d6a	0.12853017
114	0xbdf0746d	-0.117409565
115	0x3e10c49a	0.14137498
116	0x3e1d08e9	0.1533543
117	0x3df004a8	0.11719638
118	0x3e802621	0.2502909
119	0xbd2db248	-0.04240635
120	0xbded9f65	-0.11602668
121	0xbe01156e	-0.12605831
122	0x3e556034	0.2083748
123	0xbe5feeb0	-0.21868396
124	0x3d3a1175	0.045426805
125	0xbd1a534e	-0.0376771
126	0xbe6f157e	-0.23348042
127	0x3e07077a	0.13186446
128	0x3def9422	0.11698176
129	0xbe0dc718	-0.1384548
130	0xbd096e75	-0.033552606
131	0xbe1709ef	-0.14749883
132	0xbd69f7c9	-0.057121072
133	0x3da0cdb2	0.07851733
134	0x3d02c33c	0.03192447
135	0xbdff5737	-0.12467807
136	0x3e011765	0.1260658
137	0x3e0902bd	0.13379951
138	0x3e057d6d	0.13036127
139	0xbd4ac65e	-0.049505584
140	0xbd444a15	-0.047922213
141	0x3d88f6bb	0.06687685
142	0xbd832a33	-0.06404533
143	0xbe63edcb	-0.2225868
144	0xbc626452	-0.013817864
145	0xbda8f750	-0.08250296
146	0x3dddf839	0.1083836
147	0x3e093edf	0.1340289
148	0x3e55f98f	0.2089598
149	0x3e4350ab	0.19073741
150	0xbdaf8d31	-0.08571852
151	0xbde98cac	-0.11403784
152	0x3e1fc1aa	0.1560122
153	0x3c7f3fe5	0.0155791985
154	0x3db94c64	0.090477735
155	0xbe3b3d13	-0.18285017
156	0xbe177252	-0.14789703
157	0xbdf14ff9	-0.11782832
158	0xbd372bd5	-0.044719536
159	0x3da4899b	0.08034059
160	0xbdab336e	-0.08359419
161	0x3e43847a	0.19093505
162	0x3e5a548f	0.21321319
163	0xbe8c7459	-0.27432516
164	0xbdc3ab0e	-0.095541105
165	0x388e69af	6.790773e-05
166	0x3e34c255	0.17652257
167	0x3de28a7e	0.110615715
168	0xbdf357ff	-0.11882018
169	0x3e44bd08	0.19212735
170	0x3bd6ae9e	0.0065515777
171	0xbe5a542f	-0.21321176
172	0x3cbbcc9e	0.022924718
173	0xbda71e4a	-0.08160074
174	0xbc1ae406	-0.009453779
175	0x3d9abcc7	0.07555538
176	0xbe30eb8b	-0.17277353
177	0x3e0b028c	0.1357519
178	0x3d9e855f	0.07740282
179	0x3d8cf1f3	0.06882086
180	0x3cbc8f22	0.02301747
181	0xbd9d3ee9	-0.07678015
182	0x3e2c5c5e	0.1683211
183	0xbd754849	-0.05988339
184	0x3e02ea57	0.12784706
185	0x3d85d7dc	0.065353125
186	0xbe06b02b	-0.1315314
187	0x3e91f4b5	0.2850701
188	0x3da91e56	0.08257739
189	0xbcca24d5	-0.024675766
190	0x3e113d2a	0.14183488
191	0xbc274bff	-0.01021099
192	0x3e50cdf0	0.20391059
193	0xbc26f191	-0.01018943
194	0xbe5dc756	-0.21658072
195	0xbe9801d2	-0.2968889
196	0xbd74ce7f	-0.059767243
197	0xbe256798	-0.16152799
198	0xbe01da2c	-0.12680882
199	0x3e542729	0.20718063
200	0xbd88ecdb	-0.066858016
201	0xbd10755e	-0.03526818
202	0xbe0aed14	-0.13567
203	0xbe9266a0	-0.28593922
204	0x3c6e33d5	0.014538725
205	0xbdf57e64	-0.11986998
206	0x3e0ca77f	0.1373577
207	0x3e381e71	0.17980362
208	0xbe0a4911	-0.13504435
209	0x3e670324	0.22559792
210	0xbd9ecd0b	-0.077539526
211	0xbe474d32	-0.19463041
212	0x3e840eab	0.2579244
213	0x3d019790	0.031638682
214	0xbdba05e9	-0.090831585
215	0xbe124031	-0.142823
216	0x3dbd99cc	0.0925785
217	0xbdd73a9f	-0.10509228
218	0xbd599c9c	-0.05312787
219	0xbddc60ea	-0.107606724
220	0x3e7197c6	0.23593053
221	0x3e80a77b	0.25127777
222	0x3dad0395	0.08447949
223	0x3dc1d712	0.094648495
224	0xbdc8dde9	-0.09807951
225	0xbe716d68	-0.23576891
226	0xbe20db7e	-0.1570873
227	0xbde89dc5	-0.11358217
228	0xbe2711f7	-0.16315447
229	0x3e08722a	0.133248
230	0x3df3092a	0.11866982
231	0xbe75709c	-0.23968738
232	0x3c36035d	0.0111092
233	0x3d7632cb	0.060107034
234	0xbe165464	-0.1468063
235	0xbd62a733	-0.055335235
236	0x3bec5b01	0.007212997
237	0xbd9a6d0a	-0.07540329
238	0xbe0dfb7f	-0.1386547
239	0x3e951180	0.29114914
240	0x3e7691d9	0.24079074
241	0x3e52a8ad	0.20572157
242	0xbdd66d0e	-0.10470019
243	0xbb029336	-0.001992417
244	0x3c84b500	0.016199589
245	0xbe15834d	-0.14600869
246	0xbe2ceae5	-0.1688648
247	0xbe06732a	-0.13129869
248	0x3dc71a8e	0.09721862
249	0x3d024e56	0.03181299
250	0x3e132336	0.143689
251	0xbdcaac5f	-0.098961584
252	0x3d7bd053	0.06147797
253	0xbe2eea94	-0.17081672
254	0xbe7ae12f	-0.24499963
255	0xbe429d52	-0.19005325
