neuromancer/train_scripts/papers/flexy/device_test_models/model3/best_policy_flexy1.pth (torch, 24631 bytes, 9 tensors)

weight f4 [64, 20]
00000000: 3bca 5dbe fcdf b43d 903e 87bc 84b5 eebd
00000010: f081 07bd 9444 2cbd 4ecb 1fbe 1cd9 373e
00000020: ee60 34be 3069 4d3e 70ee 0b3e e822 15be
00000030: 009f afbb 08da 9cbc b469 01be 1817 3bbd
00000040: 4035 ddbc 0091 e5bb b871 d6bd ce56 283e
00000050: 18ef 1c3e ab7e 57be 34a1 0fbd 3caa 98bd
00000060: f828 fa3d b000 c33d 1e25 383e a3a3 33be
00000070: 70b2 cf3d 4078 0cbc 88bb 3dbe ec21 7dbd
00000080: 8c23 2d3e 80ac af3d 1310 eebd 76c9 3dbe
00000090: 90f6 d83d 764a e5bd 8012 09bc 4cf5 f23d
000000a0: 58e4 7ebd 470e 5ebe 9657 81bd 84a7 79bd
000000b0: 6235 3a3e ca2f 373e fe7e 2e3e b8c0 643e
000000c0: fe43 2ebe 10cd 193d f06a 68bd 4e71 0cbe
000000d0: 76de 0c3e 7aca 06be f894 3dbe b0c6 ec3d
000000e0: 62ac 00be 5467 dabd 80d8 87bb c871 e93d
000000f0: f575 23be d2f7 033e c245 4c3e f02c 213c
00000100: 485c dc3d 8a93 103e 6ceb d53d 6c0a adbd
00000110: e08f bb3d 5657 083e e1d8 03be 986f edbd
00000120: f81a 24bd 8095 b53c 3dcb dabd e85f ffbd
00000130: 5021 96bd 9cf3 a8bd b2d6 393e ae85 c3bd
00000140: 40e3 9a3c 4c1d ec3d 52b7 9abd 60cd 11bd
00000150: fcc2 393e bf39 3bbe 30ee 62bc c699 363e
00000160: 9e08 0dbe 999a 35be d055 5e3d 14bc ae3d
00000170: 323a 003e 8ca9 123e 3016 4b3d bc7e 5b3e
00000180: b2c0 eebd 0e3a 603e 8e31 52be 4248 253e
00000190: c4c1 cdbd 5c4b 873d 77ea fcbd b80f 893d
000001a0: ba51 3bbe 229d 373e 3012 2f3c 5004 02be
000001b0: 642c 2fbe 4499 4a3e 4026 d1bb b4da 103e
000001c0: 7812 06bd ac59 303e d0d9 b9bd 505d 2ebc
000001d0: d484 76bd c272 3dbe 043d 1e3e 7c3c f63d
000001e0: 1028 b23c bb64 ccbd 4619 23be 309f 2d3e
000001f0: b09a 553d fac7 3c3e 3666 473e d820 1b3d
00000200: cc37 47be 1e4c 3abe d07d fdbc bffb 1dbe
00000210: e0dc 913d ace6 543e a8bb 203e e46a bf3d
00000220: 309a 1b3e de1e 4bbe dc6d 443e 504d ea3d
00000230: 0852 9b3c 7003 53bd 44e1 9c3d 56c1 1b3e
00000240: e85e ccbc 40b2 cc3b e80f 21be c54f e5bd
00000250: fcf6 86bd 8082 57bd 9844 a2bd d872 9c3d
00000260: 3c3d e83d 904b 003e 30d5 043d 1077 0b3d
00000270: c05d c13d ed19 38be 4a05 f8bd 46ea 3f3e
00000280: 90a8 6ebc 2002 163e d22d 02be 44f6 073e
00000290: fa37 1b3e f487 68bd 1949 e8bd 388e 643e
000002a0: 90a3 3b3d 74dc 46be 2f67 22be 6ca7 b33d
000002b0: 0a07 513e 5424 483e e896 253d 4e4a 22be
000002c0: 80d1 623d 00ed 423d c0d5 523b bc11 453e
000002d0: 1234 5e3e 2bce 63be 00ec 673a 0470 dc3d
000002e0: bcf1 bb3d b2d1 4d3e d887 66bd 4892 233e
000002f0: 54f6 043e c0c7 383e c0af 6a3d 801f 453e
00000300: 689a c43d 0c08 acbd dc43 9b3d f0b7 64bd
00000310: 3947 e0bd d0fe 3e3d ecea a4bd a89c 213e
00000320: a059 79bd 1018 57be 2c41 e73d d010 363d
00000330: 0467 16be f0e6 e13d 1789 e0bd dae3 3c3e
00000340: e26a 643e a856 443d a0f0 2a3d 3839 f03d
00000350: f8d8 323d 1240 363e f421 8fbd 0924 2fbe
00000360: c034 0cbe 0e8d 2cbe 7634 b7bd 3e38 3c3e
00000370: 7085 483e d80c 31be 131f 4bbe 39a4 51be
00000380: a669 033e c042 acbd 83c8 3bbe 7e56 52be
00000390: e878 a03d b8a3 a53c 1c27 2bbd 2c44 62bd
000003a0: 13e2 f8bd 040c 203e 8061 073d 0b68 58be
000003b0: 903a e93c f42d 973d dc60 503e 332b 43be
000003c0: b49f c73d 6e64 5bbe ce01 5b3e c86e 23bd
000003d0: 986e 623d 502b fc3c 1496 b13d acbf 903d
000003e0: 5893 bd3d 105d 263e 607d c13c e078 993b
000003f0: a2fe c6bd 38aa 82bd cc89 4abd 78f0 d3bc
-0.21659176 0.08831784 -0.016509324 -0.11655715 -0.033082902 -0.04205759 -0.15604898 0.17953914
-0.176151 0.20059657 0.13665175 -0.14564097 -0.0053595304 -0.019146934 -0.12637979 -0.04567632
-0.02700293 -0.0070058107 -0.10470909 0.16439363 0.15325582 -0.21044414 -0.035065845 -0.07454345
0.122148454 0.095216155 0.17982909 -0.17542891 0.10141456 -0.008573592 -0.18528569 -0.06179993
0.16908091 0.08577824 -0.1162416 -0.18533882 0.10593903 -0.11195843 -0.008366227 0.11863193
-0.062229484 -0.21685134 -0.06315534 -0.06095077 0.18184426 0.17889324 0.17040631 0.22339141
-0.17018124 0.03754908 -0.05674261 -0.13715097 0.13756737 -0.13163176 -0.18513858 0.11561334
-0.12565759 -0.106642395 -0.004145682 0.11398655 -0.15962966 0.12887505 0.19948485 0.009837374
0.10759789 0.14118782 0.10445294 -0.084492534 0.09158301 0.13314566 -0.12875701 -0.115935504
-0.040064782 0.022166014 -0.10683296 -0.124694645 -0.073305726 -0.0824959 0.18148306 -0.09546982
0.01890719 0.115290254 -0.07554497 -0.03559625 0.18140787 -0.18283747 -0.013850734 0.17832097
-0.13772818 -0.17734756 0.054281056 0.08531967 0.125222 0.1432249 0.049581707 0.21435064
-0.116578475 0.21897146 -0.20526716 0.16140845 -0.100467235 0.066061705 -0.12349408 0.06692451
-0.18292895 0.17931035 0.010685489 -0.12696958 -0.17106777 0.19785029 -0.0063827336 0.14145929
-0.032732457 0.17221707 -0.090747476 -0.010642365 -0.06018527 -0.18500808 0.15452963 0.12023255
0.021747619 -0.0998015 -0.1592761 0.16955256 0.052149475 0.1843566 0.19472584 0.03787312
-0.19454879 -0.18193099 -0.030943781 -0.15428065 0.07122207 0.2079112 0.15696585 0.0934656
0.15195537 -0.19835994 0.19182533 0.114405274 0.018960014 -0.05151695 0.076601535 0.1521047
-0.024947599 0.006246835 -0.15728724 -0.111968555 -0.06590077 -0.05261469 -0.079232395 0.07639092
0.113398045 0.12528825 0.032429874 0.034049094 0.094417095 -0.1797864 -0.12110384 0.18741712
-0.014566556 0.14649248 -0.12712792 0.13277537 0.15158072 -0.05677028 -0.11342067 0.22319877
0.045810282 -0.19420034 -0.15859674 0.087721676 0.20412841 0.19545108 0.04042712 -0.15848657
0.055375576 0.047589302 0.0032170862 0.19245046 0.21699551 -0.22246616 0.00088471174 0.10763553
0.091769665 0.20099524 -0.056281894 0.1597377 0.12984592 0.18044949 0.057296515 0.19250298
0.09599763 -0.08399972 0.075813025 -0.05583948 -0.10951085 0.046629727 -0.0805262 0.15782416
-0.06087649 -0.21005273 0.112917274 0.044449627 -0.14687735 0.11030376 -0.10963648 0.18446293
0.22306398 0.047934204 0.041733384 0.117296636 0.04366395 0.17797878 -0.06988898 -0.1710359
-0.13691998 -0.16850683 -0.08945553 0.1838083 0.19582152 -0.17290056 -0.19836073 -0.20472802
0.1283327 -0.08411169 -0.18338208 -0.20540807 0.07835561 0.020219669 -0.041785344 -0.055240795
-0.12152495 0.15629584 0.033051968 -0.21133439 0.028470308 0.07381812 0.20349449 -0.19059448
0.09747258 -0.2142503 0.21387407 -0.03990057 0.05528125 0.030782372 0.08671203 0.070678085
0.09256619 0.16246438 0.023619354 0.004683599 -0.09716536 -0.06380123 -0.04944782 -0.0258715

bias f4 [1, 20]
00000000: 0000 0000 0000 0000 0000 0000 0000 0000
00000010: 0000 0000 0000 0000 0000 0000 0000 0000
00000020: 0000 0000 0000 0000 0000 0000 0000 0000
00000030: 0000 0000 0000 0000 0000 0000 0000 0000
00000040: 0000 0000 0000 0000 0000 0000 0000 0000
0.0 0.0 0.0 0.0 0.0 0.0 0.0 0.0
0.0 0.0 0.0 0.0 0.0 0.0 0.0 0.0
0.0 0.0 0.0 0.0

weight f4 [20, 64]
00000000: c3d6 88bd ccd5 1b3d 5c77 2ebb 8c9c 87bd
00000010: 464f 333e 489c 2b3e dae6 3e3d cec6 93bc
00000020: 3ddf 0f3e c11b 293d d3d6 4c3d e20a 08bd
00000030: c9d0 373e b19c 923d 87b9 153e e126 ce3c
00000040: d9bc 52bd 38d3 bd3b a1f3 2e3e e719 96bc
00000050: d852 3d3e 196f 063e 627d 8d3d 3b1f 363e
00000060: b29c f93c 0a52 2c3e 1f35 2cbd ca0a 35bc
00000070: a613 15bd 372f 0e3d de34 b33d 2163 413e
00000080: 4ead 363c e231 4a3c 386e 173d 9f68 073e
00000090: da0d cebd 833b 3f3d d2cd 1dbc b8bd b93c
000000a0: 131e 043e a4f8 82bd 59a4 993d 9224 b5ba
000000b0: f7c4 46bd 475f 8e3d d6ed cc3d 847c b03d
000000c0: 672b 9b3d 9bca aebd f2f4 05bd cb7f 753d
000000d0: 6cc1 6cbc d3a9 97bd e90b a4bd 26a4 843d
000000e0: d62b 173e eefa b63d a4ba 923d 471e c3bb
000000f0: f0df e13d 9f41 1ebd f46f 0f3e f348 92bc
00000100: 4d92 b13c 7381 97bb 91c1 a73d 5fd0 8f3d
00000110: c59a ebbd 477f 9bbd df6a 03be 23da 953d
00000120: e5ee 71bd 003b 2cbd 2e1a 1cbe e4fa fcba
00000130: 66c4 903c b7de 94bc cc99 f5bd 19d8 8a3d
00000140: b6ff bcbd 3c43 26be eba5 a6bd f52d 4cbc
00000150: cd5d 9b3d 38a6 843d aa40 583d 16b7 5ebd
00000160: f2b7 64bd 196e 0dbe bd95 e1bd caa7 78bc
00000170: 0190 9abc 163a 47bb 4bef d4bd 423e a6bd
00000180: b784 14be dc16 4cbd b70b c4bd 65bc 49be
00000190: 863d 2ebe 26cd 33be ae09 88bd 8696 273d
000001a0: 3c9b bfbd 9126 1bbe f0f6 6a3c 842c 28be
000001b0: 218f 70bd 5818 40be 798b 67bd 2448 b7bd
000001c0: 9c6e 5b3c cc49 df3c 8381 42be e7d3 96bd
000001d0: 7720 29be 0b6e 29be 27f1 933c d0d9 51bd
000001e0: 16a9 f5bd 0931 85bb 8e70 2bbe 948d 30be
000001f0: a4ca 0f3d 8a13 c2bc d895 c63b 53d6 00be
00000200: 3030 9e3d 583d f2bd 5afe 143d 381b 14bc
00000210: b001 f03b a870 1e3d 7c22 0b3d 6776 8bbd
00000220: 810a 573d c9ff aabc be60 553d 2309 2dbd
00000230: 6253 0dbe e52d 27be 310b 643d 63a4 15be
00000240: 7f45 e3bd 26d8 6a3d e49a fe3c 69bb 8c3d
00000250: c9d9 c6bd af29 8dbc 1b54 26be 27a1 d0bd
00000260: e595 6fbd b9b2 a2bd a24e fabc ba12 c3bc
00000270: 70bf 863d c2ac b13b 6515 37bd 1edd 8c3d
00000280: cadb e9bc fa18 2bbe e217 d7bd eab3 85bd
00000290: 9134 34be f0e7 233d 7918 a9bd d769 26bd
000002a0: 8bd4 27be dd48 03be 2065 09be 1854 37bc
000002b0: 4ae7 40be d75a d2bd 3ff2 643c 34cf 3fbe
000002c0: 3990 3bbe e2d7 34be 40e2 a3bd 1482 cebd
000002d0: 87b2 eabd 2810 93bb b07d 40be a094 08be
000002e0: b130 e6bd 1214 12be f3a9 f2bd 73ff b43c
000002f0: 7eee 30be a00c ddbc b239 17bd dcd3 00be
00000300: 4b79 1b3d 128f acbd b5c6 1e3e 5a13 0b3d
00000310: dad6 e23d e453 283d 0557 48bd db9c 243b
00000320: b7c6 be3d a8da 923d c112 183d cc95 b93d
00000330: e869 92bd 3ffc 8f3d 79c0 48bc 5a99 e1bb
00000340: 4bd9 c63c d7eb 0e3d 2669 d93d 299e 513b
00000350: 5bb7 e03c 2f44 e43d 3057 95bd 1a5a e43d
00000360: 01a7 dcbd babd a43d 312b 1c3d 7b3b a13c
00000370: aefd 4e3c c106 8d3d 53a7 a43d 3f45 f13d
00000380: 0b3c 723d f65b 103e c3cc f0bb de85 123e
00000390: d796 ad3c 2e5c df3d f3b1 abbc 49a1 c33c
000003a0: 70c4 a73d aed2 e13d 270e a33d 0283 253e
000003b0: 01a2 b43d 7688 48bc 0e82 353e a9e5 243e
000003c0: 5e1c 4c3c 7c58 cf3d 8109 4e3e ad65 033d
000003d0: a244 26bc 8d24 4d3e 7854 7b3d 2a83 c33c
000003e0: 9e2b 543c b9fc 013d edf4 d73d 0e4f 113e
000003f0: d3aa 0bbd 24c4 043e 5184 053e e862 f8bb
-0.066815875 0.03804569 -0.0026621437 -0.06621656 0.17510709 0.16758835 0.046606876 -0.018039133
0.14050002 0.041286234 0.05000956 -0.033213504 0.17950739 0.07158793 0.14621554 0.025165023
-0.05144963 0.0057930015 0.17085125 -0.018322898 0.18488634 0.13128318 0.069086805 0.17785351
0.030470226 0.1682817 -0.042042848 -0.011049936 -0.03639569 0.034712996 0.08750318 0.18885471
0.0111497175 0.012340995 0.036970347 0.13223504 -0.10061236 0.046687614 -0.009631591 0.022673473
0.12902097 -0.06395081 0.0750205 -0.0013820103 -0.048527684 0.069517665 0.10006301 0.086174995
0.07576638 -0.08534738 -0.0327043 0.059936326 -0.014450412 -0.07405438 -0.08010084 0.06476621
0.14762816 0.0893458 0.07164505 -0.005954537 0.11029041 -0.0386368 0.1400755 -0.01785705
0.021676207 -0.004623586 0.08191217 0.070221655 -0.11504129 -0.075926356 -0.12833737 0.07316997
-0.05906572 -0.042048454 -0.15244362 -0.0019300845 0.017671775 -0.018172605 -0.11992225 0.067794986
-0.092284605 -0.16236585 -0.08137115 -0.012462129 0.075862505 0.06477016 0.052796043 -0.054373823
-0.055839486 -0.1381153 -0.110148884 -0.015176723 -0.018867495 -0.0030399612 -0.10397204 -0.081173435
-0.14503752 -0.049826488 -0.09572547 -0.19700773 -0.17015657 -0.17558727 -0.06642471 0.040915035
-0.093557805 -0.1515143 0.014341101 -0.16423231 -0.05873025 -0.18759286 -0.056529496 -0.089493066
0.013393071 0.027256869 -0.18994717 -0.07364636 -0.1651629 -0.16545884 0.018059326 -0.051233113
-0.11995141 -0.0040646833 -0.16742155 -0.17241508 0.035105363 -0.023690958 0.0060603432 -0.12581758
0.07724035 -0.11828107 0.03637538 -0.009039693 0.00732442 0.038681656 0.033968434 -0.06809693
0.05250025 -0.020873921 0.052094214 -0.04224504 -0.1380134 -0.16326101 0.055674735 -0.1461349
-0.1109724 0.05733504 0.031079717 0.06871683 -0.09709508 -0.01723179 -0.16243021 -0.10186987
-0.05849256 -0.07944245 -0.030555073 -0.02381264 0.065794826 0.0054222057 -0.044698138 0.06878112
-0.028547186 -0.16708747 -0.10502602 -0.065284565 -0.17598177 0.040016115 -0.08256621 -0.04062828
-0.16389672 -0.12820764 -0.13417482 -0.011189483 -0.1883823 -0.102712326 0.013973772 -0.18731385
-0.18316735 -0.17660478 -0.08002138 -0.10083404 -0.11459833 -0.00448801 -0.18797946 -0.13337946
-0.11239756 -0.14265469 -0.118488215 0.022094464 -0.17278478 -0.02698356 -0.036920257 -0.12580818
0.03795747 -0.08425726 0.15505488 0.033954002 0.11076136 0.04109563 -0.048911113 0.0025117907
0.093152456 0.071706116 0.03712726 0.090617746 -0.07149106 0.07030534 -0.01225292 -0.006884736
0.024273535 0.034892883 0.106157586 0.003198514 0.02743118 0.111458175 -0.0729202 0.11149998
-0.10774041 0.08044 0.038127128 0.019681683 0.012633724 0.06886054 0.08039727 0.11780786
0.059139293 0.1409758 -0.0073486282 0.14308879 0.02119009 0.10906254 -0.020958876 0.023880618
0.08191764 0.11026512 0.07961684 0.16163257 0.08819962 -0.012239566 0.17725393 0.16103233
0.012457935 0.10124299 0.20120813 0.032079387 -0.010148199 0.20033474 0.061359853 0.023866255
0.012949852 0.031735156 0.10544763 0.14190313 -0.034098458 0.12965447 0.13038756 -0.00758015

weight f4 [20, 20]
00000000: 069a 0b3e dc6f 3cbe 6d08 60be 7e0c f3bd
00000010: a45c cdbd 0a8d 393e 8288 3e3e 6016 023e
00000020: 50b9 91bd 6a0c 3e3e e42f 963d be45 293e
00000030: 9820 9bbd 2c5b 1c3e 2050 02bc 8e54 c0bd
00000040: 18bc ec3d f235 a2bd e420 c1bd 4e00 14be
00000050: 8284 abbd 8444 c2bd e0de bf3c 4434 523e
00000060: ca9c 30be 06e4 55be a89e 94bd d2f8 a1bd
00000070: f03f b0bd 583f 2fbd 942f 4c3e e05f 153d
00000080: 3891 4fbd 10b1 3fbd 00a6 7c3d e0c0 113e
00000090: e046 d23c f9f5 f7bd b6ea 8fbd 77de 3abe
000000a0: f4e0 803d 46d9 b4bd c29f 5f3e 7858 39bd
000000b0: 50aa 10bc a006 343d de91 11be 72eb 30be
000000c0: 26dd dfbd 905d 073d 1894 583d c8ab 793d
000000d0: 0bd1 45be 0a7e dbbd b88d dabd 9eae 21be
000000e0: c4dc 863d 1058 8dbc 1416 dc3d 83be edbd
000000f0: 12df 643e ac51 b53d 2cab f4bd dcb7 9c3d
00000100: 50cf 1b3d 08bd 7d3d 0086 143d 08b3 7bbd
00000110: f0a1 013d 000b 6dbd e0d8 133e 9201 43be
00000120: 609d 8c3d 701d 353e 04f1 463e c8b4 b63d
00000130: b080 a23d 787d 5b3e 32bb 31be 0519 0bbe
00000140: e85a fc3d 0474 a03d 6946 03be 1423 4fbe
00000150: aca7 07bd 9e7d 4d3e b08a 81bd 0391 2abe
00000160: 102d 6a3d 4c6e 0cbd bc9f 0b3e d6bb 073e
00000170: 04d9 0bbe 20a3 1abc 84b3 5b3e 349c 90bd
00000180: 702d 8b3c c8b2 2cbe 407e 4a3e 10bf 1b3d
00000190: f05c f13d 80c3 42be 88bc 053d 2b80 59be
000001a0: 50ab fb3c 10d7 6ebc 3020 bb3d b027 163d
000001b0: 9e18 46be f482 5e3e 088a 7bbd 68dd b4bc
000001c0: 6208 e4bd 186e 6a3d 78d3 a03d cc8b 04bd
000001d0: 14af 1f3e d0f9 103e e533 36be 7008 5bbc
000001e0: 3cfc 103e 6483 d13d c07f e23d 4658 04be
000001f0: beab d5bd b877 39bd e4bb 483e 5899 0e3e
00000200: 8ced 293e c43f 77bd 7ffe 58be 4609 2d3e
00000210: 523c 4bbe d051 ce3c 60f4 c23d c821 a2bc
00000220: ac8e 063e b06c 9bbd d8c5 b43c 88b7 57bd
00000230: c88d 423d f831 783d 683b d23c c064 a03d
00000240: 1c83 5fbd 0b34 46be 74c2 27bd 4287 3f3e
00000250: 41e9 1fbe 48c5 423d 29c4 44be e28c 543e
00000260: a8d9 7f3d 3217 1ebe e0af e4bb 28d5 fb3d
00000270: 545d 1f3e fcd9 c83d d86f f03d 9eb0 103e
00000280: 0cd8 c5bd 48c5 043d 206d 823c a015 f23c
00000290: dd53 39be 2e82 55be 3432 93bd 412f 4fbe
000002a0: 4bbf 2bbe 0b0f febd 0ceb a3bd 3d23 d2bd
000002b0: 8868 a13c 30a7 543d e44b 3e3e 7073 fd3d
000002c0: bccb 3c3e f881 4b3e b8e5 323d 9c99 61bd
000002d0: 290b cabd 1e02 2a3e c03c 573e 8401 3b3e
000002e0: 7cb3 68bd c058 d9bc fcee f8bd a4fc 4b3e
000002f0: 8ef8 e6bd 7637 573e dab2 1d3e f85f 623e
00000300: 9c13 4dbd 1427 893d 6034 70bd 8cd3 14bd
00000310: 389b bf3d 32d9 3c3e 247a 0abd 22a3 5b3e
00000320: b080 323e b4d2 01be 609c d93d 29af cbbd
00000330: b881 3a3e 941b bb3d 50a2 38be 1220 2c3e
00000340: b6fd 62be fe65 1f3e 7c5e 0dbd 0254 47be
00000350: 30bc 5d3d 8c0a 5abe 9659 4a3e 0aa4 373e
00000360: 145a 10be 6890 01bd 00cc cf3a f887 013e
00000370: e6b3 3d3e e0c7 f73b a06a 7f3c 10e5 5c3e
00000380: 3a4b 8ebd 50d8 99bd e08f 61be 1849 d9bc
00000390: 0025 033e 0298 04be 1078 7dbd 240f 9abd
000003a0: 1084 20be 484e cf3c 38cf 0c3d a072 3c3d
000003b0: ee70 17be e8c7 27bd 4650 3f3e 668f 2fbe
000003c0: ae6d 4d3e d00d 543e b839 d83d 00f1 aebd
000003d0: e0b2 b9bd 2803 9fbc 243b 16bd 82e7 33be
000003e0: 88d4 d03d 6819 4a3e 5a8e 573e 94d6 aebd
000003f0: 7eb8 503e 50f7 3c3e acfc 953d 70d5 8f3d
0.13632974 -0.18402046 -0.21878214 -0.11867617 -0.100274354 0.18120208 0.18606761 0.12703848
-0.07115424 0.18559423 0.07333353 0.16530511 -0.07574576 0.15269154 -0.007953674 -0.093911275
0.115593135 -0.079204455 -0.094301015 -0.14453241 -0.08374883 -0.094857246 0.023421705 0.2052775
-0.1724731 -0.20887765 -0.07256824 -0.07908787 -0.08605945 -0.04278502 0.19940025 0.036468387
-0.0506756 -0.04679972 0.061681747 0.14233732 0.025668561 -0.121074624 -0.070271894 -0.18248926
0.062929064 -0.08830504 0.21838287 -0.045250386 -0.008829668 0.04395163 -0.142158 -0.17277315
-0.109308526 0.033048213 0.05287561 0.06095484 -0.19318025 -0.107173994 -0.10671562 -0.15789267
0.065850765 -0.017253906 0.107463986 -0.11608603 0.2235072 0.08853468 -0.11946711 0.07652256
0.038039505 0.061947852 0.036260605 -0.061450034 0.031648576 -0.05787182 0.144382 -0.19043568
0.068659544 0.17687011 0.19427878 0.089212 0.079347014 0.21434581 -0.17356566 -0.13583763
0.123220265 0.07834628 -0.12819828 -0.20228225 -0.03311889 0.2006745 -0.06325281 -0.1665688
0.05717188 -0.034284875 0.13635153 0.13255247 -0.13657004 -0.009438306 0.21455199 -0.070610434
0.01698944 -0.16865075 0.19774723 0.03802401 0.117853045 -0.1901989 0.0326505 -0.21240298
0.030721337 -0.014577642 0.09136999 0.036658943 -0.19345328 0.21729642 -0.061410934 -0.022078231
-0.111344114 0.0572339 0.078528345 -0.032359883 0.15594131 0.14157796 -0.17793234 -0.013368711
0.1415872 0.10230139 0.11059523 -0.12924299 -0.10433148 -0.04528019 0.19602925 0.13925683
0.16594523 -0.060363546 -0.21190833 0.16898069 -0.19847229 0.025185496 0.09519267 -0.019791499
0.13140363 -0.0758909 0.022066996 -0.052665263 0.047498494 0.06059453 0.025663093 0.078317165
-0.054568395 -0.1935579 -0.04095693 0.1870394 -0.15616323 0.047551423 -0.19215454 0.20756868
0.062463433 -0.15438536 -0.0069789737 0.12296516 0.15562946 0.09807202 0.117400825 0.14129874
-0.09660348 0.032414705 0.015921175 0.029551327 -0.18098398 -0.20850441 -0.0718731 -0.2023287
-0.16772191 -0.12405213 -0.08003816 -0.102606274 0.019703165 0.051917255 0.18583637 0.123755336
0.18437093 0.19873798 0.043676108 -0.055078134 -0.0986541 0.1660237 0.21019268 0.18262297
-0.056811795 -0.026531577 -0.12154958 0.19920594 -0.11277877 0.2101725 0.15400258 0.22106922
-0.05006753 0.06696907 -0.0586437 -0.03633456 0.093557775 0.18442228 -0.03380789 0.21448949
0.17431903 -0.12678033 0.10625529 -0.099455185 0.18213546 0.091361195 -0.18030667 0.16809109
-0.22167096 0.1556625 -0.034513935 -0.1946564 0.054134548 -0.21293086 0.19760737 0.1793367
-0.14096862 -0.031631857 0.0015853643 0.12649524 0.18525657 0.0075616688 0.015589386 0.21571755
-0.06947942 -0.075119615 -0.2202754 -0.026524112 0.12807083 -0.12948611 -0.06188208 -0.07522419
-0.15675378 0.025305882 0.034377307 0.046007752 -0.14789173 -0.04096213 0.18682966 -0.17144546
0.2006137 0.20708394 0.10557884 -0.08542061 -0.09067321 -0.019410685 -0.036677495 -0.17568782
0.10196787 0.19736254 0.21050397 -0.08537021 0.20382878 0.18453717 0.07323584 0.07023132

bias f4 [1, 20]
00000000: 0000 0000 0000 0000 0000 0000 0000 0000
00000010: 0000 0000 0000 0000 0000 0000 0000 0000
00000020: 0000 0000 0000 0000 0000 0000 0000 0000
00000030: 0000 0000 0000 0000 0000 0000 0000 0000
00000040: 0000 0000 0000 0000 0000 0000 0000 0000
0.0 0.0 0.0 0.0 0.0 0.0 0.0 0.0
0.0 0.0 0.0 0.0 0.0 0.0 0.0 0.0
0.0 0.0 0.0 0.0

weight f4 [20, 20]
00000000: 321c 653c 207d 8ebe 8b66 45be cf46 7a3e
00000010: b510 ed3c 111f 1fbe f2c1 50be 2284 1dbe
00000020: ec2a 773b b40f a63c 0171 44be 0bea 2c3e
00000030: b13c 263d 0627 803e 3208 06be 3aca c43d
00000040: 8889 113e 83c6 56be 0881 9cbe e3a0 c9bd
00000050: 6521 0a3e b092 96bc a48f 5abc 349a 06be
00000060: bc57 7dbe 97f4 96be f09d 253d 08c6 4fbe
00000070: 33ea f13c f82d 723c cb6d 4abd 769e 013e
00000080: 28dc 4dbe 5abf cb3b 4ea5 ef3d cb5d 973e
00000090: 20ad 793c 6897 3abe e76d 543d 46f3 7bbe
000000a0: 5e88 fbbc bd13 31be 5af5 283d 57b6 193e
000000b0: 8e13 033e 146b 88bc 9177 2dbe 1f4e cd3d
000000c0: ebea 853d 2035 b0bd 748a 90be 74bb 3abd
000000d0: 216e 6a3e 9f84 233e 9529 66be 7db7 ef3c
000000e0: 91c4 e5bd 7744 00be a410 2fbe 06d2 b6bd
000000f0: 4ed8 5bbb be51 0cbe 379b a53d 6045 37be
00000100: 8ccf de3d 9efa 253e 459b 26be cc19 50bd
00000110: 4f9f 8f3c 886f 4dbe 1136 be3d d0b7 35be
00000120: 73a7 09be 54de 89bc d77f 3cbe aa0f 993d
00000130: ded9 6e3e c1e2 353e 1c5a 80bd 0579 d63d
00000140: b439 993d 1db6 6ebe c24c 7fbe c44e df3d
00000150: 70ac 8c3b 321c 013d 7baa fbbd a70a 5e3e
00000160: 1a65 85be ebb4 8fbd f93f df3b e7cf 123e
00000170: a5cf 913e 27c9 3f3e c23d 6e3d e909 4cbe
00000180: b290 333d c9b0 863d db19 18be de5e 5fbd
00000190: 51e5 e9bd 5d90 9b3e e9db 5e3e 0bea 36be
000001a0: 08a1 053e 2fb4 42be 67b1 9e3e d541 213e
000001b0: 6d84 8f3e e9ff 3e3d 3cdf 923d cb59 6f3b
000001c0: 1fb5 40bd c8f5 7fbe ff63 c9bc 0205 b63e
000001d0: b231 a3bd f1f5 0cbe 46ae c1bd 14b2 a4bd
000001e0: 2305 69be be31 12bc eab4 41be 6834 e5bd
000001f0: 9165 d1bd c394 f33d 3629 ab3d ff01 da3d
00000200: 5965 9e3c 8220 28bd fe9a 153e a7f1 1e3e
00000210: 073b 54be 4441 c13d a0fa 633e d90d 643e
00000220: 89bb babd 1acd 4e3e e75b debd 3cd0 2dbe
00000230: 5c59 1c3e 0e12 fb3d 961a 563e 5c5d c5bd
00000240: f6d4 e33d 4e7c c4bd 34c7 8e3d f26c 9fbd
00000250: 47e5 a63e ba06 c73d 23f8 613e 0079 fabd
00000260: 4671 91bc eb00 b0bd 63aa c83c b1bb 663e
00000270: ed56 503d 406e 713d 8e79 4c3e 7a7c b6bd
00000280: 1d47 d03c f44b 29bd 1741 653c 7638 b5bc
00000290: c64e bd3c 9765 373e 0dc0 833d 8f74 263e
000002a0: b919 9bbe 35b2 533e 9e2b 56be 76e9 343e
000002b0: 1f8d 15bc 505a 1c3e e721 22be 56b1 17bb
000002c0: b243 bbbd 2b7e 3dbd 097f b03d 0bbd 573e
000002d0: bde4 f83d 2115 d73b cdbe 3c3e 6535 ccbc
000002e0: a47a cf3c 691d 72be e3f9 7f3e 2c0c 8fba
000002f0: f771 8d3e 76d5 07be 83cd 5cbc 9cbe 7dbd
00000300: 7975 373e 84cf 97bc 4cb8 9c3d e1a0 f2ba
00000310: 2e0a 093e 518b d13d 1154 e33c 72b6 36be
00000320: 9371 fb3d 9232 3abe 1f4d 8ebe 8728 3b3e
00000330: f799 af3d 1750 5b3e d4af 39be 6a44 be3d
00000340: 6043 93be 5816 8bbd 44f5 95be ddfe 1b3e
00000350: c714 99bc bfb3 843e 8232 2f3e 310a 94bc
00000360: 1dbd f3bd 2497 833c d470 60be 804a e23d
00000370: ac35 de3d 3e64 883e 5878 853d 0e76 29be
00000380: 615f 2f3e 5a99 8e3d 5ccc 2cbe 44f9 ffbc
00000390: 81fb b1bd db10 4dbe 197c 643c 7012 58bd
000003a0: afbf 5a3d 3082 2dbe f73a 2abe 3866 da3d
000003b0: 805a 4d3e cc1b 573e 351b 0dbe 9857 8dbe
000003c0: 1a90 4ebd 79a5 a23e d793 7a3d 2d88 33be
000003d0: 747c 7bbc 0f0d 20be eff5 653e d428 9fbd
000003e0: eacc 9e3d 0d35 b63d d75e 343e f76d 0cbd
000003f0: 02a2 67be 0d5b 973d 06dc a3bd 2abd 5f3e
0.013983773 -0.27829838 -0.19277398 0.24441074 0.02893863 -0.15539195 -0.20386484 -0.15382436
0.0037714792 0.02027116 -0.19183733 0.16886155 0.040585224 0.25029773 -0.13089064 0.09608884
0.1421262 -0.20974164 -0.30567193 -0.0984514 0.13489302 -0.018380493 -0.013339911 -0.13144761
-0.247405 -0.29483482 0.040433824 -0.20290387 0.02953062 0.014781468 -0.049421113 0.12658104
-0.20103514 0.0062178792 0.11701451 0.29563746 0.01523903 -0.1822182 0.051862624 -0.2460452
-0.030704673 -0.17292686 0.04124961 0.15010963 0.12800428 -0.016652621 -0.16940142 0.10024666
0.06538948 -0.08603883 -0.2823063 -0.045588925 0.22893573 0.1596856 -0.224768 0.029262299
-0.11219133 -0.12526117 -0.17096192 -0.089267775 -0.0033545676 -0.13703057 0.080862455 -0.17897558
0.1087943 0.16208884 -0.16270168 -0.05080585 0.017532019 -0.20062077 0.09287656 -0.177459
-0.13442783 -0.016829647 -0.18408142 0.07473691 0.23325297 0.17762281 -0.06267187 0.104723014
0.07481709 -0.23311658 -0.24931625 0.10903695 0.004293017 0.03152103 -0.12288376 0.21683751
-0.26053697 -0.07016929 0.006813046 0.14337121 0.28478733 0.18729077 0.058164366 -0.19925655
0.043839164 0.06576688 -0.14853613 -0.05453383 -0.11420692 0.30383578 0.21763577 -0.17862718
0.1304971 -0.19014047 0.30994722 0.15747769 0.2803072 0.046630774 0.07171485 0.0036522027
-0.04704773 -0.24996102 -0.024583815 0.35550696 -0.07968463 -0.13765694 -0.09457068 -0.08041778
-0.22755866 -0.008922992 -0.1891667 -0.11191636 -0.102244504 0.118936084 0.0835747 0.10644912
0.019335436 -0.041046627 0.14609906 0.1552187 -0.20725642 0.094362766 0.22263575 0.22270907
-0.09117801 0.20195428 -0.10857373 -0.16973966 0.15268463 0.12259303 0.20908579 -0.096369475
0.111246035 -0.09594022 0.06971589 -0.077844515 0.325968 0.0971808 0.22067313 -0.1223011
-0.017754208 -0.08593925 0.02449531 0.22532536 0.05086415 0.058943033 0.19968244 -0.08910461
0.025424534 -0.0413322 0.013992569 -0.02212165 0.023108851 0.17909847 0.06433115 0.16255401
-0.30293062 0.2067345 -0.20915076 0.17667183 -0.009127884 0.15268826 -0.15833245 -0.0023146472
-0.09143771 -0.0462629 0.0861798 0.21068208 0.12153003 0.006563798 0.1843216 -0.024927804
0.025327034 -0.23644032 0.24997668 -0.0010913662 0.2762601 -0.13265023 -0.013476732 -0.061949357
0.17915906 -0.018531568 0.07652339 -0.001851108 0.1338279 0.102316506 0.027750047 -0.17843035
0.12277522 -0.18183354 -0.27793214 0.18277179 0.08574288 0.2141727 -0.1813348 0.09290393
-0.2876234 -0.06791371 -0.29288685 0.15233941 -0.018686665 0.25918385 0.17109111 -0.018071266
-0.11901305 0.01606328 -0.2191804 0.11049366 0.10850081 0.2663898 0.065170944 -0.1654894
0.17126228 0.06962843 -0.16874832 -0.031246789 -0.08690549 -0.20025961 0.013945603 -0.05275196
0.05340546 -0.16944194 -0.16624056 0.10664028 0.20054054 0.21006697 -0.1377991 -0.2760589
-0.050430395 0.3176687 0.061176147 -0.17532416 -0.015349496 -0.15629981 0.22457097 -0.07771459
0.07753928 0.088968374 0.17614304 -0.03428456 -0.22620395 0.073904134 -0.080009505 0.21849504

weight f4 [20, 32]
00000000: 5d09 debd 8af9 27be 0a3a d4bd 1077 81bc
00000010: d6c7 14be f8d4 d23c 9689 d93d cd75 1d3e
00000020: 8079 05bd dcc9 2d3d 86e6 0abe 805a 2dbd
00000030: 584a fbbd a037 5a3c f16f 253e b489 79bd
00000040: 1a1e 77bd 407f 3fbc 862a ac3d b0d8 023c
00000050: 17d2 2abe 187b 4dbd d633 f23d c0b9 debb
00000060: 465a 2abe 90b6 f3bd 0c07 0bbd 43ee 0a3e
00000070: 38c0 d3bc 29b3 283e e15f 11be 82c2 e93d
00000080: b630 12be 007d 51bb 42f5 bc3d 7c2b f2bd
00000090: 8a96 fb3d c6d5 ca3d 4c1e 413d 6c44 0cbd
000000a0: 0fe7 2b3e 7d9b 243e f015 a33c eecb 6cbd
000000b0: c9af 0f3e 80b7 3b3d a397 033e 426d eb3d
000000c0: 43a5 273e b842 8a3c 28a1 243d f4a0 2ebd
000000d0: e011 1bbc f924 32be 9e0c 93bd e507 103e
000000e0: d56a aebd 183b f23c 40f4 f0bb 47c0 063e
000000f0: 8f1e 183e 0ca7 3bbd f99b 1c3e ace9 8abd
00000100: 96fe af3d bbf7 083e 1284 fdbd e267 ba3d
00000110: 612e 333e affa 2fbe 885b fdbc 2fcc 22be
00000120: 52e9 01be 80bc 733d ac22 2c3d 1928 17be
00000130: f104 333e a00a a0bb b691 b53d 3af2 c4bd
00000140: e057 46bd c62d f83d 80a9 6abc a218 ad3d
00000150: 60c1 e93b acb9 1e3d 9987 323e 5e55 bf3d
00000160: 9af9 debd 3862 243d 5b1c 0b3e 7641 6abd
00000170: 2dbe 2e3e aadd a9bd 589d 29be 1ab9 1bbe
00000180: fa09 a2bd 1c7c 323d 05d6 173e eeb9 b73d
00000190: 1a79 c73d 5baa a2bd 9841 0dbe a224 853d
000001a0: 298d 003e 5a47 f93d f8a9 c8bd 618f aebd
000001b0: 787e 453d e553 b2bd 6591 323e 3861 053d
000001c0: 6f44 213e 663b a2bd cd30 183e c0b5 d53c
000001d0: 017d 25be 3203 b73d 93a5 323e 83f0 143e
000001e0: 3cc7 a9bd bf77 15be be2a a43d 5299 fcbd
000001f0: f3df 0f3e ee94 b53d b6a0 8d3d ee70 c63d
00000200: d2df 1cbe 6eb6 ea3d e862 803d aa8d 803d
00000210: b7e7 90bd f6a0 a23d 2e95 d03d 4608 08be
00000220: 7843 59bd 9c0d 89bd c674 c03d 14c4 163d
00000230: 097a 2e3e 5e25 8fbd 9825 e03c 0e4f e23d
00000240: daa7 c23d a8e9 12be 5052 213c 4095 00be
00000250: 46ee 22be b400 2abd 55a3 313e 6278 ea3d
00000260: 1e1d ca3d 063e 2abe 8d60 dbbd 3e6e e73d
00000270: 20ce dd3c e274 a73d c016 29bc 7045 2f3d
00000280: a0fb 18bc e249 2abe 00bc 50bc 6896 d0bc
00000290: 58d4 f33c 4f52 343e a204 79bd c094 e0bb
000002a0: a80e a53c 92c7 dfbd 438c 183e cb6e 8dbd
000002b0: 39d7 223e 3649 0abe 8683 b03d 682b d33c
000002c0: dfc7 14be 7617 f23d acc3 11be 2496 2ebd
000002d0: dbd9 163e 6d6f 313e 6603 12be 60c7 e53b
000002e0: 7023 b7bc f0d0 a5bc 1a3d b33d b694 993d
000002f0: 4c16 8fbd adaf 22be 8891 773d c0bc 70bc
00000300: e290 fd3d 80b6 0ebc 2212 01be 0dd0 94bd
00000310: 220e d33d 76a7 a13d e67e bf3d 302d 8f3d
00000320: e016 53bc 1715 05be 388e ec3c 0d72 15be
00000330: 76f2 bc3d c864 1cbe 0699 a83d 3a32 1cbe
00000340: e0de 8e3c 9057 7abc 7cad 5bbd f1d8 243e
00000350: 4259 afbd 33f6 333e b31a 1fbe 9e6d fc3d
00000360: fe09 df3d fce7 10be 9e7a 973d 28b6 b1bc
00000370: 82f6 06be d3bf 24be d991 293e 6120 0e3e
00000380: 5038 d7bd e678 b93d 9222 c43d d660 a53d
00000390: d085 53bc ba0f e73d f459 253d 4e6d 963d
000003a0: d519 323e b705 1f3e 80cd 5d3c a8a2 a0bd
000003b0: 02fe 8e3d 7566 133e 9a4f b03d a054 863d
000003c0: 002b 323d e454 efbd ed6b 2abe a912 1d3e
000003d0: f2ef e03d acba 17bd 8e8f eb3d 58e9 903d
000003e0: ac2b 6a3d 2ace a0bd fe40 2ebe ef1f 213e
000003f0: 8820 c53c 2350 093e 6d43 2ebe 56bf c03d
-0.1084163 -0.16403785 -0.103626326 -0.015803844 -0.14529356 0.025736317 0.106219456 0.15376969
-0.032586575 0.042428836 -0.135645 -0.042322636 -0.12270039 0.013318926 0.16155984 -0.06092234
-0.06033144 -0.011688054 0.08406548 0.007986233 -0.16681705 -0.05016622 0.11826293 -0.0067970455
-0.16635999 -0.119000554 -0.033942267 0.13567452 -0.025848493 0.16474594 -0.14196731 0.114140525
-0.14276394 -0.0031965375 0.09226467 -0.118247 0.122845724 0.09904055 0.047148034 -0.03424494
0.1678736 0.16074939 0.019907922 -0.05781167 0.140319 0.045829296 0.12850814 0.11495449
0.16371636 0.016877517 0.040192753 -0.042633966 -0.009464711 -0.17396916 -0.07180141 0.14065512
-0.0851647 0.029569194 -0.0073533356 0.13159285 0.14855407 -0.045813605 0.15293874 -0.067828506
0.0859348 0.13375752 -0.12378706 0.09101845 0.17498161 -0.17185472 -0.030927435 -0.15898202
-0.12686661 0.05950594 0.042025253 -0.1476139 0.17482354 -0.004884079 0.08865683 -0.096165136
-0.048423648 0.121181056 -0.0143226385 0.08451964 0.007133648 0.03875129 0.17434539 0.093424544
-0.108874515 0.04013273 0.13585036 -0.057191335 0.17064734 -0.08294232 -0.16563928 -0.1520733
-0.07912059 0.04357539 0.14827736 0.0897101 0.09739895 -0.07942649 -0.13794553 0.06501128
0.12553848 0.12171812 -0.09798044 -0.08523441 0.048216313 -0.08707408 0.17438276 0.03256342
0.15748762 -0.079214856 0.14862366 0.026087642 -0.16160966 0.08936156 0.17445974 0.14544873
-0.08289954 -0.14596461 0.08015965 -0.12333931 0.14050274 0.08866297 0.06915419 0.096895084
-0.15319756 0.11460577 0.06268865 0.0627702 -0.07075446 0.07940857 0.10184704 -0.13284406
-0.05304286 -0.06692049 0.09397273 0.03680809 0.1703874 -0.06989549 0.027361676 0.11050235
0.095046714 -0.14346945 0.009846285 -0.12556934 -0.15911207 -0.041504577 0.17347462 0.114487424
0.09868835 -0.16625223 -0.10711775 0.11300324 0.027075827 0.081765905 -0.010320365 0.04279083
-0.009337336 -0.16629747 -0.012740135 -0.025462344 0.02976434 0.17609523 -0.060795434 -0.00685367
0.02014859 -0.10926737 0.14897256 -0.06905898 0.15902413 -0.1350449 0.08618836 0.025777534
-0.1452937 0.11820881 -0.14234799 -0.042623654 0.14731543 0.17327662 -0.14259109 0.0070122927
-0.022355765 -0.02024123 0.087518886 0.074990675 -0.06986675 -0.15887327 0.060441524 -0.014693439
0.1238115 -0.008710504 -0.12604573 -0.07266245 0.1030543 0.07893269 0.09350376 0.06991041
-0.012883872 -0.12996326 0.028876409 -0.14594288 0.09225933 -0.1527282 0.08232312 -0.15253535
0.01744026 -0.015279666 -0.053632244 0.16098382 -0.085619465 0.17574386 -0.15537529 0.12325595
0.10890578 -0.14150995 0.07396434 -0.021693304 -0.13179973 -0.160888 0.16559543 0.13879539
-0.10508788 0.09056263 0.09576906 0.080751106 -0.012910321 0.112822965 0.04036899 0.07345067
0.17392667 0.15529524 0.013537765 -0.07843524 0.06982042 0.14394553 0.08608933 0.0655911
0.04349804 -0.116861135 -0.16642733 0.1533915 0.10983266 -0.03704326 0.1150199 0.07075757
0.057170555 -0.07851823 -0.1701698 0.15734838 0.024063364 0.13409476 -0.17017908 0.094114944

bias f4 [1, 32]
00000000: 0000 0000 0000 0000 0000 0000 0000 0000
00000010: 0000 0000 0000 0000 0000 0000 0000 0000
00000020: 0000 0000 0000 0000 0000 0000 0000 0000
00000030: 0000 0000 0000 0000 0000 0000 0000 0000
00000040: 0000 0000 0000 0000 0000 0000 0000 0000
00000050: 0000 0000 0000 0000 0000 0000 0000 0000
00000060: 0000 0000 0000 0000 0000 0000 0000 0000
00000070: 0000 0000 0000 0000 0000 0000 0000 0000
0.0 0.0 0.0 0.0 0.0 0.0 0.0 0.0
0.0 0.0 0.0 0.0 0.0 0.0 0.0 0.0
0.0 0.0 0.0 0.0 0.0 0.0 0.0 0.0
0.0 0.0 0.0 0.0 0.0 0.0 0.0 0.0

weight f4 [32, 20]
00000000: 7d78 09be 0ebd abbe a314 213d e979 8b3e
00000010: 8faa 853e df74 8ebe bcde c53d c565 b4bd
00000020: 539a e9bd 6b20 173e c422 8e3e d10c e2bd
00000030: c782 41bd 6e0c ae3d 83f6 0abd ae4f 763d
00000040: 8a18 edbe acb8 0f3e 46c7 cdbe c150 63be
00000050: d47d 41be f0f6 99be ed74 0d3e dece 063d
00000060: 556b 803e 59b4 803c e4d4 dc3d a979 84be
00000070: 5311 f43d 9023 81bc 2eb0 5a3d db2a 18bd
00000080: a208 73be 495d 6bbe aa6d fabd 547f 1bbe
00000090: 9679 e63b 858f 41be 8e68 a2bd ee2f 18be
000000a0: f6a3 8b3e 21c9 a4be ed79 113d 8bb6 d13d
000000b0: 9679 b5bb 7976 55be f882 003d 83d7 95be
000000c0: 5b93 9f3d 2e1a 1fbd 40e7 863d 95e1 c83c
000000d0: 1114 693d dc7a afbd b3c2 113c 57e9 113e
000000e0: 7b51 53bd f43e 43be a700 5dbe 22eb c3bc
000000f0: e1fb 353e e893 36be 4c94 353c f1f1 a4bd
00000100: 2d40 5d3e 1679 febc b731 ec3d 6f9f 38be
00000110: 54d4 d73b c595 283d af3f 463d 8bb6 7e3d
00000120: 3413 4fbe 05fd 20bd c05b c7bc 59e0 aebd
00000130: 47d0 9c3c 2a3a 3fbc 4234 a4be 453d 57be
00000140: db39 de3d 2176 74bd 7e55 6f3e 8f41 dabd
00000150: 8b56 973a 4331 ee3b dbba 333d c833 0fbe
00000160: 56bd 6d3e b76f 0ebe 18e0 b63d a769 2a3d
00000170: aee0 e1bc be11 5ebd 46fa 3dbe 91d4 c8bc
00000180: 58a0 153e c50b 4abe 9885 683d 5c91 123d
00000190: de64 1dbe ba8c 83be dd80 ac3d 2376 863c
000001a0: e4fa 0a3e 1633 78bd b5c2 49be e37f 2bbc
000001b0: 26f1 563e 45ff 96be 0a99 633e 5e29 12be
000001c0: eb56 3b3d e290 b7bd 5c13 973d b9c3 4f3d
000001d0: 5e06 b53c d405 cfbc 05dc 42bd dd4e aebd
000001e0: 8ae9 8b3e fdef a0bd caa4 7b3e 87a7 0abe
000001f0: 9bf8 8dbc 8da7 ca3b a373 f13c 5ed3 92be
00000200: 5d01 9cbd 5fe9 12bc 6351 09bc dce5 da3d
00000210: c214 babd ece6 bb3d c87f 42be 94ae 4c3e
00000220: 22ee 09be 5e70 a639 e819 f5bd 1942 44bd
00000230: 9c86 2a3e 8559 63be 77fa 16bd 4261 0abe
00000240: 36ad 2a3d c5d3 85be 3c02 3dbd 3903 4abe
00000250: 849b 633d ec06 003e 2ad3 cebd a8f7 17be
00000260: 91fc 77be cef0 9fbd c017 3dbe 59c2 11be
00000270: 4a0c 35be 83a8 41bd 5037 2fba 8287 353d
00000280: 022e 08bd 18ea ecbd bb1b 183e d04b 69bd
00000290: 3e99 093e 21dd 96bd e074 9dbe 9ab1 a53b
000002a0: 6cd4 74bd b7ad 1abe f8c8 fb3d ba28 9abe
000002b0: c722 17bd 3fbe 1bbd f6fd e3bd 038e 853d
000002c0: 0c94 1ebe c3cf c9bc 5ddb 50be 1d9c b33d
000002d0: 7cd5 b2bc 1745 37be a7ed 453e d011 56bd
000002e0: 1810 adbc b30b eabd 45fa b83d 416d 5abe
000002f0: d507 0bbe 5f7e 12be 6938 793e 349c 22bd
00000300: 2f7f 27be a4d6 3b3e 5f05 a03d 5d11 3c3e
00000310: eadf f7bd d7f6 203e 56da 19be fa69 36be
00000320: e697 5f3e 0a07 ffbd 8acd a63d a68d 62be
00000330: 42b5 c7bc 11e4 ecbd 4888 36bd 2f69 bebd
00000340: ec74 28be 2ece 853d 59fa 5dbc 87f0 bc3d
00000350: fde6 57be 8eea 60be 61c7 66be f4b0 6e3e
00000360: f151 a13d 7fa4 503e a4fa 69be ef7e d03c
00000370: 1a18 003e 8bd9 dcbd 1dbb dabd da6b 1abe
00000380: 35e1 02bd 36a9 f1bb d01c 82bd 1966 90be
00000390: 9a16 63bc 4629 2dbe 02d7 1f3e df32 68be
000003a0: 9c89 97bd 33f6 c0bd 8173 e6bd 4365 8cbd
000003b0: 43be 94bc 7524 da3d 4f70 103e ed2b babd
000003c0: a9b1 d63d 1515 2e3e 4d9d c93d 0e03 afbd
000003d0: bc78 fc3d 9d51 4f3d eec4 893d 84ad 80be
000003e0: 8b86 0fbe eb13 a03d 9629 943e 281e 793a
000003f0: cd2b 91be 2e24 363e cc78 223d 1304 04be
-0.13424869 -0.33542675 0.03932632 0.27241448 0.26106688 -0.2782354 0.09661624 -0.088084735
-0.11406388 0.1475846 0.277609 -0.11037601 -0.04724386 0.084984645 -0.0339265 0.060134582
-0.46307784 0.1403529 -0.40191096 -0.22198774 -0.18895656 -0.3007121 0.13814135 0.032912128
0.25081888 0.015710996 0.10782793 -0.2587407 0.11917367 -0.015764028 0.053390674 -0.037150245
-0.23733762 -0.22984804 -0.12227948 -0.1518529 0.007033537 -0.18902405 -0.079300985 -0.14862034
0.2727353 -0.321847 0.035516668 0.102398954 -0.005538176 -0.20845975 0.0313749 -0.29265985
0.07791778 -0.038843326 0.06587076 0.024521628 0.056903902 -0.085683554 0.008896518 0.14249168
-0.051591378 -0.19066983 -0.2158228 -0.023915831 0.17771865 -0.1782986 0.01108272 -0.08053959
0.21606512 -0.031063598 0.1153292 -0.18029569 0.006586591 0.041158456 0.048400577 0.062185805
-0.20222169 -0.0393038 -0.024335742 -0.08538885 0.019142283 -0.011671582 -0.3207112 -0.21019466
0.10850879 -0.05968297 0.23372456 -0.106570356 0.0011546178 0.007269056 0.04387937 -0.13984597
0.23216757 -0.13909803 0.08929461 0.041604664 -0.027572956 -0.05421614 -0.18552503 -0.024515422
0.14611948 -0.19731052 0.05676803 0.035783157 -0.15370509 -0.25693303 0.08423016 0.016413754
0.1357227 -0.060595594 -0.19703181 -0.010467502 0.20990428 -0.2949163 0.22226349 -0.14273593
0.04573719 -0.08963181 0.073767394 0.050723765 0.022097763 -0.025271334 -0.04757311 -0.08511136
0.27326614 -0.07858274 0.24574581 -0.13540469 -0.017330458 0.0061845244 0.029474085 -0.28676885
-0.076174475 -0.008966773 -0.0083812205 0.106883734 -0.090859905 0.09174904 -0.18994057 0.19988471
-0.13469747 0.00031745707 -0.11967832 -0.047914598 0.16652912 -0.22202118 -0.036859956 -0.13513663
0.041669093 -0.2613813 -0.04614471 -0.19727792 0.055568233 0.1250264 -0.1009887 -0.14840567
-0.2421744 -0.07809602 -0.18466091 -0.14234294 -0.17680469 -0.047279846 -0.00066839624 0.044318683
-0.033247 -0.11568087 0.14854328 -0.056957066 0.13437364 -0.07366396 -0.3075323 0.005056572
-0.059772894 -0.1510533 0.12294191 -0.30109197 -0.0368984 -0.03802323 -0.111324236 0.06521227
-0.15486163 -0.024635201 -0.2039618 0.087700106 -0.021830313 -0.1789745 0.19328938 -0.05226308
-0.021125838 -0.11428013 0.0903211 -0.2133074 -0.13577206 -0.14306019 0.24337925 -0.03969975
-0.1635711 0.18343598 0.078135245 0.18365999 -0.12103255 0.15719162 -0.15024695 -0.17813864
0.21835288 -0.124525145 0.08144672 -0.22124347 -0.024378423 -0.11566938 -0.04456356 -0.09297406
-0.16450852 0.06533466 -0.013548457 0.092255645 -0.21084209 -0.21964476 -0.22536995 0.2330969
0.07876957 0.2037525 -0.22849518 0.025451152 0.12509194 -0.107836805 -0.1068022 -0.15080205
-0.031953055 -0.007374908 -0.06353152 -0.28202894 -0.013860369 -0.16910276 0.15609363 -0.22675656
-0.07399294 -0.09421959 -0.11252499 -0.06855252 -0.01815713 0.10651485 0.14105342 -0.090904094
0.10483105 0.1700023 0.09844456 -0.085455045 0.12327716 0.050614942 0.067270145 -0.25132382
-0.14016168 0.07816299 0.28937978 0.000950309 -0.2835373 0.17787239 0.039665982 -0.12892179
