neuromancer/train_scripts/papers/flexy/device_test_models/model4/best_estimator_flexy.pth (torch, 29391 bytes, 12 tensors)

weight f4 [1, 30]
00000000: 7841 0ebe 8473 35be 5e08 023e 887a 393d
00000010: 8f04 a4bd 7aca 0dbe a813 c83d dd53 1bbe
00000020: 0805 f43d f85c 88bc 48cb 7f3d 2479 0cbe
00000030: 78ed c33c 00da 403d a093 45bc 54a5 1bbd
00000040: 335f 82bd 60e3 473c d1de 28be 48ec 293e
00000050: dc6c d83d 55dc b3bd fabd 2f3e 7657 23be
00000060: a026 bfbb aa23 873d 3602 013e 36b9 f3bd
00000070: f8bb ebbd 4c0b 793d
-0.13892162 -0.17719847 0.12698504 0.04528287 -0.08008682 -0.1384677 0.09769374 -0.1516871
0.11915022 -0.016645893 0.062449723 -0.13718086 0.023916945 0.0470829 -0.012059122 -0.037999466
-0.06365814 0.0122002065 -0.16491248 0.1659404 0.10567638 -0.087822594 0.17162314 -0.15951332
-0.005833462 0.06598599 0.125985 -0.119005606 -0.115104616 0.06080179

bias f4 [1, 30]
00000000: 0000 0000 0000 0000 0000 0000 0000 0000
00000010: 0000 0000 0000 0000 0000 0000 0000 0000
00000020: 0000 0000 0000 0000 0000 0000 0000 0000
00000030: 0000 0000 0000 0000 0000 0000 0000 0000
00000040: 0000 0000 0000 0000 0000 0000 0000 0000
00000050: 0000 0000 0000 0000 0000 0000 0000 0000
00000060: 0000 0000 0000 0000 0000 0000 0000 0000
00000070: 0000 0000 0000 0000
0.0 0.0 0.0 0.0 0.0 0.0 0.0 0.0
0.0 0.0 0.0 0.0 0.0 0.0 0.0 0.0
0.0 0.0 0.0 0.0 0.0 0.0 0.0 0.0
0.0 0.0 0.0 0.0 0.0 0.0

weight f4 [30, 1]
00000000: 648e 67be cb1b 373f 7ccd 833e 0e60 91be
00000010: a556 e8be beec 59bf 4d98 c03e 71c3 0fbf
00000020: c7e6 f73e 8a52 65be d850 89be 7244 04bf
00000030: cc47 143f 763b 543e 1413 20be ac4a 27bf
00000040: eddb d3be ce96 29bf 9d20 a13e 58f3 ae3e
00000050: 0132 e9be 8876 ed3e 02a5 f2be c1a5 58be
00000060: 1d79 793f 4720 74bf ac3c 093f ecbc 2fbf
00000070: 82de 3fbf 6218 ad3e
-0.22612911 0.71526784 0.2574271 -0.28393596 -0.45378605 -0.85126865 0.37616196 -0.56157595
0.48418257 -0.22394767 -0.2681949 -0.5166694 0.57922053 0.20725808 -0.15632278 -0.65348315
-0.41378728 -0.66245735 0.31470194 0.34170032 -0.45545962 0.46379495 -0.47391516 -0.2115698
0.9745043 -0.9536175 0.536082 -0.68647647 -0.74948895 0.33807665

weight f4 [30, 30]
00000000: c2bb 01be 60a1 763c 28a9 b33d 94ef eb3d
00000010: 4e16 113e 74e7 46bd f087 de3d 7ccc e83d
00000020: c035 a0bc e3a0 39be 86be fdbd 521d 233e
00000030: 3e6a 06be d8be fcbd 6088 e9bc a24e 27be
00000040: c983 bbbd 32d5 0fbe bcd3 9d3d 3279 2bbe
00000050: e848 5d3d dd43 b5bd 605e 48bd 9258 1a3e
00000060: af6c b2bd b05d 13bc 158b 9abd 7ff6 a9bd
00000070: 4433 b53d 7437 0ebd 90c2 a0bc a4e0 03bd
00000080: 606d 213e b8ab ac3d 3c73 293e b912 c8bd
00000090: a0ae 9b3b 9c13 14be 89f0 dcbd 22dd a6bd
000000a0: f466 1c3e 6876 0dbe dd92 30be 002f de3a
000000b0: 5c31 143e 7866 76bd 847c 733d b2ee 2c3e
000000c0: da84 8fbd 1c72 c23d e68e 0f3e 3045 203e
000000d0: de37 acbd 888a ee3c 3804 913d ec20 d8bd
000000e0: 8cb7 2ebe 5c71 a13d 7008 48bc 90d5 04bc
000000f0: 12f9 003e a1fe 06be 7844 153e d190 30be
00000100: 94a6 923d e06c 37bc 5896 1fbd 344d b7bd
00000110: 6cf5 203e d04e 4e3d e07a 993d cee1 133e
00000120: 4e10 113e c8bf f2bc fa58 153e 294e 9dbd
00000130: 9aa0 a7bd ea49 36be b491 a43d 38a5 8c3d
00000140: ba89 76bd fdee 90bd c1dd e7bd 2bc8 12be
00000150: dc68 3e3d 6862 cd3c 1058 d2bc 301d 923d
00000160: 26ee d4bd fe7e 2bbe 04a9 633d f85d d73c
00000170: a8f9 5e3d 141e 933d bccf c9bd 0843 d8bd
00000180: 524f 2a3e 5e6f 0a3e b8e0 09be 9eec 2e3e
00000190: 945a 3a3e 9269 21be 86b4 0a3e 38a1 f9bc
000001a0: e007 d03c f4af 783d 2adf 323e 4fd5 c7bd
000001b0: 383a 2b3d 28c8 a03d 81de cabd e086 793c
000001c0: 6c07 5ebd d8f8 f6bd eaf7 073e 6c1d 873d
000001d0: 58b3 283e 009d 523c e3dd 11be 8072 27bc
000001e0: 386f 7b3d d4cf d4bd a809 ac3d ae86 1b3e
000001f0: 603a 3bbc e07c 48bc 7859 d43d e67b 0fbe
00000200: aed0 ccbd 7a1c 11be 626f 21be d224 0ebe
00000210: 44ce a23d aec2 083e 2079 95bc f471 53bd
00000220: 672b e4bd 68d0 c83c c601 a0bd bc9d aabd
00000230: aa5a 15be 4c16 393e d0e6 cc3d 0089 f1bc
00000240: ecb5 db3d 5adf cfbd d056 f9bd 3044 273c
00000250: b2ae 38be 38ef ed3d 4c4e 293d b0cd f03d
00000260: 6486 133e 2029 f23b ec46 3dbd 4087 22bb
00000270: 4c18 22bd dc6e 7d3d 8683 173e 8483 1f3e
00000280: 280f 0b3e 5a77 1fbe 725f 313e 1826 98bc
00000290: 4074 173e 581e b73c e5c7 debd 3023 e33d
000002a0: 60fd fcbc acdf 0fbe 0fbf dcbd 60fa a83d
000002b0: ea07 29be c4b3 39be a668 d3bd e0a8 523c
000002c0: 5cbc 0c3e 4846 abbc 3222 1b3e 78a4 053d
000002d0: bc4b cdbd 24b8 2f3d 7052 b1bc dccf debd
000002e0: 4014 4dbb a029 c53c 78f1 af3c c5bd 81bd
000002f0: 3c56 a7bd 3c30 c73d 384a 343e f12e 10be
00000300: 7908 abbd 44f4 d73d 9650 26be 94ca 04bd
00000310: f78f b9bd bc24 95bd 32f3 02be 18a6 1cbe
00000320: 504c ba3d 0a10 813d 3cf8 283d 38e3 a03d
00000330: 710b e1bd 1104 a3bd f86a 9abc 880f 60bd
00000340: 366b 74bd d82a ad3d 1858 c1bc d2a8 323e
00000350: 78bd e73d 2bea 8fbd a623 05be 7ec7 07be
00000360: 1d92 b3bd 0497 173d 097f 9abd 7915 b0bd
00000370: 8016 c63d b803 c8bd c08e d83d 7875 0c3e
00000380: 92d9 113e 888d 9e3c be1a 26be f48c 30be
00000390: ec4f 51bd 52d9 34be 6f28 3abe de43 e7bd
000003a0: 40ac 9d3d 84f0 173e 30f0 233e f8bd 40bd
000003b0: 776c 1ebe a8ee 0ebd 04a9 733d 8975 d5bd
000003c0: 5f9a 2cbe 9e87 813d e0b7 b13d d0ee 093d
000003d0: a8ee 75bd 9e07 a7bd a08a 55bc d643 24be
000003e0: fddc 14be cbb6 8ebd 4eb3 013e 48c1 cc3d
000003f0: 60dc bcbc 3a74 273e 8ce7 73bd 3425 9e3d
-0.1266928 0.015053123 0.08772498 0.11520305 0.14168665 -0.048560575 0.10865772 0.11367127
-0.01955688 -0.1812778 -0.12389855 0.15929154 -0.13126466 -0.12341088 -0.028507411 -0.1633859
-0.091559954 -0.14046171 0.07706401 -0.16745451 0.054024607 -0.088508345 -0.048918128 0.1507285
-0.08712136 -0.008994505 -0.07546059 -0.082989685 0.08847669 -0.034720853 -0.019624025 -0.032196656
0.1576438 0.0843119 0.16547865 -0.09769196 0.0047510415 -0.14460605 -0.10788066 -0.081476465
0.15273649 -0.138147 -0.17243524 0.0016951263 0.14471954 -0.060156316 0.05944492 0.1688793
-0.07007761 0.09494421 0.14019355 0.15651393 -0.08409093 0.029118791 0.07080883 -0.10553154
-0.17062205 0.0788295 -0.012209043 -0.008107558 0.12595013 -0.1318307 0.145769 -0.17242743
0.071606785 -0.011195391 -0.03896174 -0.08950272 0.15718621 0.05036813 0.0749414 0.14441606
0.14166376 -0.029632464 0.14584723 -0.076809235 -0.08184929 -0.17801633 0.08035603 0.068674505
-0.06018994 -0.070768334 -0.11321593 -0.1433417 0.04648672 0.025071338 -0.025676757 0.07134473
-0.10396986 -0.16747662 0.055581108 0.026289925 0.05443731 0.07183471 -0.09854075 -0.1055966
0.16631821 0.13519046 -0.1346463 0.1708245 0.18198615 -0.15762928 0.13545427 -0.030472383
0.02539438 0.060714677 0.17467943 -0.09757482 0.04180357 0.07850677 -0.099057205 0.015229911
-0.054206297 -0.12059182 0.13278165 0.06597409 0.16474664 0.0128548145 -0.142448 -0.01022017
0.061385363 -0.103912026 0.08400279 0.15188095 -0.011427492 -0.012236804 0.10368627 -0.14012107
-0.1000074 -0.14171019 -0.15765145 -0.13881233 0.07949498 0.13355514 -0.018246233 -0.051622346
-0.11141091 0.024513438 -0.07812838 -0.08330867 -0.14585367 0.18074912 0.100049615 -0.029484272
0.10728058 -0.10150023 -0.12174761 0.010209128 -0.18035391 0.11617893 0.041334435 0.11757982
0.14406735 0.0073901564 -0.046210214 -0.0024799854 -0.039573953 0.061873302 0.14796266 0.15577513
0.1358 -0.15572873 0.17321566 -0.018572852 0.1479044 0.022353336 -0.108779706 0.11090696
-0.030882537 -0.14050168 -0.10778629 0.0825088 -0.16506925 -0.18134981 -0.103226945 0.012857646
0.13743728 -0.020907536 0.15149763 0.032627553 -0.10024211 0.04290022 -0.021645755 -0.1087949
-0.0031292588 0.0240677 0.021477446 -0.06335024 -0.08170745 0.09725997 0.17606437 -0.14080407
-0.083512254 0.10544637 -0.16241679 -0.032419756 -0.09060662 -0.07282397 -0.12788084 -0.15297735
0.09096587 0.06301887 0.04125236 0.078558385 -0.109885104 -0.0795976 -0.018849835 -0.05470231
-0.059672557 0.084554374 -0.023601577 0.17447212 0.11315435 -0.07027086 -0.1300188 -0.13259694
-0.08768103 0.037009254 -0.07543761 -0.085978456 0.0967226 -0.09766334 0.105741024 0.13716686
0.14243153 0.019354597 -0.16221139 -0.1724127 -0.05110161 -0.17661026 -0.18179487 -0.112922415
0.0769887 0.14837843 0.16009593 -0.04705617 -0.15471064 -0.03489557 0.059487358 -0.10422809
-0.16855763 0.06324695 0.086776495 0.033675015 -0.060042053 -0.0815575 -0.013033539 -0.16041502
-0.14537425 -0.06968459 0.12666056 0.09997803 -0.023054302 0.1635293 -0.059546992 0.0772194

bias f4 [1, 30]
00000000: 0000 0000 0000 0000 0000 0000 0000 0000
00000010: 0000 0000 0000 0000 0000 0000 0000 0000
00000020: 0000 0000 0000 0000 0000 0000 0000 0000
00000030: 0000 0000 0000 0000 0000 0000 0000 0000
00000040: 0000 0000 0000 0000 0000 0000 0000 0000
00000050: 0000 0000 0000 0000 0000 0000 0000 0000
00000060: 0000 0000 0000 0000 0000 0000 0000 0000
00000070: 0000 0000 0000 0000
0.0 0.0 0.0 0.0 0.0 0.0 0.0 0.0
0.0 0.0 0.0 0.0 0.0 0.0 0.0 0.0
0.0 0.0 0.0 0.0 0.0 0.0 0.0 0.0
0.0 0.0 0.0 0.0 0.0 0.0

weight f4 [30, 30]
00000000: 6cb2 4b3b 5a25 333e c22d b9bb ff2e f7bd
00000010: 02f2 153d f779 6d3d 6639 21bd 649f 3f3d
00000020: d438 153e 4900 093e 45d6 afbd 48fd 0abe
00000030: f882 4dbb 488a 13bd 9c71 643c 9ac6 c9bc
00000040: fd10 6c3d 38bb 4b3c 454b 243e 11c4 003e
00000050: 6a1f d03d 60d1 363e 398b bd3c 334d 963d
00000060: c4d2 073e 2f5a 9d3d 1b8f e93c 1251 53be
00000070: b53d 4bbe ac02 a7bd 6c55 0f3e 9657 c73c
00000080: 48ff 893c b0f4 49be a18f 8dbd e877 e93d
00000090: 7c35 fcbd f4ae f2ba 7d13 58bd 2a31 43be
000000a0: 953f 86bc 5a52 833c 4237 fcbd 285e a6bd
000000b0: 482c 25be 22d3 bb3c 8a53 043d dfe0 b0bc
000000c0: 88b0 87bd a1e6 943b b365 e73d 6b40 bfbd
000000d0: 0165 e7bd 3fd2 dd3d ad9c 243d 8e58 05be
000000e0: 6446 033e e1a5 263c 5341 d8bd a440 283e
000000f0: 57af 3bbd 983d 5a3d b4fd 303c aba8 e63d
00000100: e20f 9b3d d89a 61be 3d56 c6bc 5f4b 06be
00000110: 434d 433d d322 b3bd 57c2 ad3c 6f22 80bd
00000120: d254 c23b 328b cd3d 1afe 23be 4e21 9439
00000130: aed2 023d 7672 cdbd ac5e df3d 676e 043e
00000140: 27d6 37bd f531 753d 9eff 47be ddc6 12be
00000150: 1724 92bd 301b 8abd 211e b03d e045 06bd
00000160: 269a 8abd 6437 ec3d 39d6 02be 5697 06be
00000170: 3717 223e 0156 b3bd 82c5 acbd f265 aebc
00000180: bced 013e 3436 1fbe fad0 2f3e 22a5 9abc
00000190: 5d95 c93c 2e39 a03b feeb 22be de50 b3bd
000001a0: 25f1 97bd 9bb3 e9bd cce4 34be a272 2fbe
000001b0: a101 2f3e e3b7 f23d d0a3 dd3c 65fe 223e
000001c0: 607e adbc 2554 10be 47e0 c33c 37a3 0cbe
000001d0: 383c 89bd bf1f 053e 73cf 11be 8812 e4bd
000001e0: ee36 7c3d e028 58be d7a2 ae3d 12f4 91bc
000001f0: 927c 6bbb 5321 2f3e 0e06 8f3d 4293 debd
00000200: de85 93bd cffb 053e 6642 c73d 43d9 fabb
00000210: ae0e 1bbe 4517 d43c 1ccc 35bc ff85 503e
00000220: 5350 ebbd 35dc f2bc 7caf 023e 27e3 7fbd
00000230: f308 503e 1631 08be a5a1 2e3e 9831 c23d
00000240: b25e a7bd 17ee c1bd 31c8 21be daba 4cba
00000250: c52a 483e 69d1 0fbe 22a6 503d 67ac 8bbd
00000260: a745 0a3e f20f 463d dd4e 443d a034 313e
00000270: 17ff a23c d7e3 df3d 2375 5ebe 8d5d 603e
00000280: 0cb4 e43d 0edc 223d 9107 b13b 24fa e2bd
00000290: f94b 95bd 6ee2 5f3e 0260 d8bd 26c1 233e
000002a0: a032 a93d cedf 1bbe b7cb 9c3c d1c3 65bd
000002b0: 67e2 cd3c 87ee d63d ea18 c2bd f21d 2a3d
000002c0: f785 01bc 5dfa a9bd 3bda 243e 4d13 c8bd
000002d0: 013f 8f3b 0036 23be 1aeb 903d f859 e73d
000002e0: 39a1 373e 6838 633d e37a 0a3d 4323 053d
000002f0: aae1 26bd 5eb2 533e d923 563e e0b8 27bc
00000300: 45dc 083e 75a4 43be 1209 0abe f422 c8bd
00000310: fc35 4d3d 5f39 193e 0449 fbbd 95da 3e3d
00000320: 580a 5a3d ef28 3bbe 44f9 87bd f43c e13d
00000330: 3bf6 ca3d 25aa bf3d 0608 86bd 5a76 103e
00000340: c70b 443e 7382 ee3d 2715 c7bd 88d9 103d
00000350: 823f 14bd 6274 52bd 338d 823d eb49 52be
00000360: 955c ea3d 2262 4cbd b0b3 103e 10fd 33be
00000370: 8ff6 f7bd 38c4 80bd 1030 5a3e a1b7 4b3e
00000380: 2122 85bc d98c dfbd 77c7 b53d 8a89 003e
00000390: 8a5a 37bd 4768 153e 6f51 06be df21 25bd
000003a0: abfd edbc fc71 12bd 1a45 5b3c 4197 a63d
000003b0: 90a0 0f3d 25a8 09bd fcdc 09be 4f15 86bd
000003c0: 53f1 bfbd 2c99 b2bd bf14 a43b 8d29 b33d
000003d0: e974 0bbe c303 ecbd da1d e13d 7a13 00be
000003e0: 4e85 a73c c441 be3d af8f 2bbe 51d5 93bd
000003f0: 05b6 193e ee73 983d 5141 f6bd fbee bfbb
0.003108169 0.17494717 -0.0056512067 -0.12069511 0.03660775 0.057977643 -0.03936138 0.046782866
0.1457246 0.13379015 -0.085857905 -0.13573182 -0.003135858 -0.036020547 0.013943102 -0.024630833
0.05763339 0.012434773 0.16044338 0.12574793 0.10162242 0.17853308 0.023137676 0.07338943
0.13263994 0.07683217 0.02851062 -0.20636395 -0.19847758 -0.081548065 0.1399743 0.024333756
0.01684536 -0.19722247 -0.06912161 0.113998234 -0.12314889 -0.0018515275 -0.05275296 -0.19061723
-0.01638774 0.01603048 -0.12315227 -0.08123428 -0.16130173 0.022927824 0.03230623 -0.021591602
-0.066254675 0.0045440947 0.112986945 -0.093384586 -0.11298562 0.10831117 0.04018848 -0.13022062
0.1281982 0.010171385 -0.105593346 0.16430908 -0.045821514 0.053281397 0.010802675 0.112626396
0.07571389 -0.22031724 -0.024211043 -0.1311469 0.047681104 -0.087468766 0.021210833 -0.06256568
0.0059305215 0.10036315 -0.16014901 0.00028253574 0.0319392 -0.10031597 0.10906729 0.1293274
-0.044881966 0.059862096 -0.19531104 -0.14333673 -0.0713579 -0.06743467 0.08599497 -0.03278148
-0.06767683 0.115340024 -0.12777032 -0.13143668 0.15829168 -0.08756638 -0.08436109 -0.021288846
0.12688345 -0.1554802 0.17169562 -0.01887757 0.024607355 0.004889629 -0.15910336 -0.087556586
-0.074190415 -0.1141121 -0.17665404 -0.17133573 0.17090465 0.1185148 0.027055651 0.15917356
-0.021178424 -0.14094599 0.023910655 -0.13734137 -0.06700939 0.13000391 -0.14239292 -0.11136347
0.061575823 -0.21109343 0.08527153 -0.017816577 -0.0035932404 0.17102556 0.06983577 -0.10867931
-0.072032675 0.13084339 0.09729461 -0.007655294 -0.15142319 0.025890002 -0.011096027 0.20363615
-0.1148993 -0.029646019 0.12762254 -0.06247249 0.20315914 -0.13299975 0.1705385 0.094821155
-0.081723586 -0.0946924 -0.15799023 -0.00078098255 0.19547565 -0.14044727 0.050939687 -0.068199925
0.13503133 0.04835505 0.047926772 0.17305231 0.019897027 0.10932129 -0.21724372 0.21910687
0.11167154 0.03976064 0.0054025133 -0.11082867 -0.07289881 0.2186372 -0.10565187 0.15991649
0.08261609 -0.15222093 0.019140108 -0.05609495 0.025132371 0.10494714 -0.09477408 0.041532464
-0.007905475 -0.08299706 0.16098873 -0.09769306 0.0043715243 -0.15938568 0.07076092 0.11296457
0.17932595 0.055473715 0.0338086 0.03250433 -0.040742554 0.2067351 0.20912112 -0.010236949
0.13365276 -0.19105704 -0.13480023 -0.09772292 0.05010031 0.14963292 -0.12269786 0.046595175
0.05323252 -0.18277334 -0.066393405 0.10997954 0.09910246 0.09358624 -0.06544499 0.14107648
0.19145118 0.11645975 -0.09720831 0.035363704 -0.03619338 -0.051380523 0.06374588 -0.2053601
0.1144344 -0.049898274 0.14131045 -0.17577004 -0.12107574 -0.06287426 0.21307397 0.19894268
-0.016251625 -0.109155364 0.088759355 0.12552467 -0.04476408 0.1459056 -0.13117002 -0.040315505
-0.029051622 -0.035753235 0.013383174 0.08134318 0.035065234 -0.03360762 -0.13463205 -0.06547033
-0.09372201 -0.087206215 0.005007356 0.087481596 -0.13618816 -0.11524155 0.10992022 -0.1250743
0.020449307 0.092898875 -0.1675403 -0.07218421 0.15010841 0.07443987 -0.12024177 -0.005857346

weight f4 [30, 30]
00000000: a645 2fbe c45a 483d 7a28 d4bd 29e4 c9bd
00000010: 0480 9d3d 3490 063d 6c28 973d f0d4 f0bc
00000020: 60a6 7c3c 748f ce3d 8569 d5bd b031 a53d
00000030: 7414 65bd e3df 80bd acc4 6c3d 0df0 37be
00000040: 6019 b6bb 8017 4dbd eeb6 373e 009c cd3b
00000050: 7cd6 5b3d c2a8 35be 1a62 87bd 78e3 b13c
00000060: 8207 b4bd 6cb0 f03d dc6a a4bd f784 c7bd
00000070: 9cb4 1cbd 08e0 183d 4014 303e c07d af3d
00000080: f090 11be 007a 39bb 7c5b 093d c0e3 b73c
00000090: 7114 e0bd c579 f4bd a118 04be 1cc2 e43d
000000a0: 100c 01bd e25a 1e3e 8b0c 26be b09b 243e
000000b0: 34ac 9d3d 4ced f9bd 80ea f2bc 29f0 cebd
000000c0: 0896 e63d 867a cebd 1458 fb3d 00e9 6abc
000000d0: dc34 0d3e e1db 33be b4f6 73bd 4a52 2cbe
000000e0: cf84 d3bd 3cda 1bbe fef5 193e 6efa e7bd
000000f0: 500f 413d 8261 193e 6c39 df3d 6c67 153d
00000100: 4476 84bd 1ce0 793d 2c0f 303e a4f7 f33d
00000110: 66ac 25be a83a 293e 28f0 2dbd 622e 303e
00000120: 08e5 853c 08de a03d b02e 043e 5012 29bc
00000130: 7629 263e e4ac 18bd d3c9 91bd 0622 363e
00000140: c450 17be 30ac d83d d22a 053e 9cf8 d33d
00000150: cfc7 17be 31c1 19be 6c38 953d d8f8 ec3d
00000160: 400f a63d ea62 053e f4f3 3cbd 986f e23d
00000170: 1e04 8a3d b888 913c 2025 03bc 5061 2ebd
00000180: 599a 2abe 6c58 033e 1836 f33d ee4c 063e
00000190: b045 d3bc f8b0 f9bc dc7e 2a3e 98ff 94bc
000001a0: c860 263d e879 19be f1f9 bdbd 3060 cf3c
000001b0: fc38 54bd 0ca8 153d 70cb f23d de18 91bd
000001c0: 50f2 11be 961a 8dbd ac9c 1bbe 3a44 04be
000001d0: 98dc 00be c479 4abd b0fe d7bc f290 09be
000001e0: f578 b8bd b044 273c d43d 10be 58e6 183e
000001f0: 3478 c63d fecd 75bd 327e 26be a451 573d
00000200: da6c 283e 77ec 00be c4d9 b03d 4ff4 d7bd
00000210: 3479 fe3d ec9e 373e 0012 653c 785c 933c
00000220: e077 853b 94fb 9a3d 9cbc 663d b26a 18be
00000230: 6ac7 183e a40e a53d 0989 1dbe d2b0 9abd
00000240: 9e9a 053e 90a5 7fbd 58f6 0abe 3ca5 46bd
00000250: 4849 143e 7e86 04be faf7 813d 6863 e3bc
00000260: 928a 153e 08d7 b23d 4c3f ba3d 1085 2cbd
00000270: 6c4b f5bd a34d cfbd f89e c0bc 00ac e3bd
00000280: e28b 373e 5800 38bd aef6 313e 2db5 22be
00000290: 30e7 9e3d 4a48 31be 709f 1b3c c854 243d
000002a0: 0032 9bbc d895 d1bc 61b6 cfbd c4d7 2d3d
000002b0: 60b8 dd3d 6615 f8bd c44b 293e acae 253e
000002c0: 7c41 0d3d d03c 913c 6379 ecbd 18cd c7bd
000002d0: d89a 173e a84f ff3d 0056 7e3d a44a d73d
000002e0: 9ab9 13be a039 73bc 08ff 033e 8063 153d
000002f0: 00fe 0abd a084 903b 846d 153d 0867 ad3c
00000300: 663c 34be e26b 313e ef02 edbd acd6 cf3d
00000310: 8066 1abc ecbd 1a3e b05f b83d 70ef c6bc
00000320: 102e 69bc 0077 9fba c05a b53c c4a7 13bd
00000330: b7fe a2bd 7baf 0ebe 943d 9e3d 7e8b 22be
00000340: 7497 263e 5828 0c3e 389b 293e 0419 013e
00000350: 746a 26bd eb8a 86bd d0ad ffbc bcd8 acbd
00000360: 7c1d c1bd 50d4 bf3c 805a 33bb dc10 18bd
00000370: c06e 4f3d 6c6d bcbd 5c66 5dbd 80b9 21bc
00000380: 5a4f 8abd a9e9 97bd d40a 06be f8a7 40bd
00000390: ec69 c23d 50ef dd3c ecca 153e 5cdb c23d
000003a0: 6071 b7bb 2c97 1b3e ed20 29be 7c6a cc3d
000003b0: d89f 2fbd 149c 0b3d 04ae e53d 519c 32be
000003c0: 7cfc f43d 0e5d 0bbe 4ddf a6bd 30e2 7bbc
000003d0: 26b1 88bd d8e1 40bd c0d7 c63c 842d bc3d
000003e0: f497 b03d 7014 cb3d 002c 523c 40dc 90bb
000003f0: aecb e7bd 4376 30be fcea 163e e8fb 243d
-0.17116413 0.048914686 -0.10359283 -0.09857971 0.07690433 0.032852367 0.07380757 -0.029398412
0.015420526 0.10085955 -0.10420517 0.08066118 -0.05592771 -0.06292703 0.05780475 -0.17962666
-0.005557224 -0.05007124 0.17940876 0.0062747 0.053671345 -0.17740157 -0.06610508 0.02171491
-0.087904945 0.117524 -0.08028194 -0.09742158 -0.03825818 0.037323028 0.17195225 0.08568907
-0.14215446 -0.0028301477 0.033534512 0.022447467 -0.10941399 -0.11937288 -0.1290002 0.11169836
-0.031505644 0.15464357 -0.16215722 0.16075015 0.07698861 -0.12203464 -0.029652834 -0.10104401
0.11259085 -0.10081963 0.12272659 -0.014337778 0.13789696 -0.17564346 -0.059561446 -0.16828266
-0.103280656 -0.15219969 0.15035245 -0.113270625 0.047133744 0.14978603 0.10899624 0.036475584
-0.0646787 0.061004743 0.17193288 0.11912468 -0.16179046 0.16526282 -0.04246536 0.17205194
0.016344562 0.07854849 0.12908435 -0.010319307 0.16226754 -0.037274256 -0.07118573 0.17786416
-0.14776903 0.10579717 0.13004616 0.10350153 -0.14822315 -0.15015103 0.07286152 0.11570901
0.081083775 0.13026014 -0.04613109 0.11056441 0.067390665 0.017765388 -0.008004457 -0.042573273
-0.16660441 0.12826699 0.11875552 0.13115284 -0.025790066 -0.030479893 0.16649956 -0.018188283
0.04061964 -0.1498791 -0.09276188 0.02531442 -0.051812157 0.036537215 0.11855209 -0.07084821
-0.14252591 -0.068898365 -0.15196484 -0.12916651 -0.1258415 -0.04943253 -0.026366562 -0.13434198
-0.09007446 0.0102092475 -0.14086086 0.14931619 0.09690896 -0.060010903 -0.16259077 0.052568093
0.16447774 -0.12590204 0.086352855 -0.10544645 0.124254614 0.17931718 0.013981342 0.017988428
0.004073128 0.07567516 0.056332216 -0.14884451 0.1491982 0.08059433 -0.15384306 -0.07553257
0.13047263 -0.062413752 -0.13570535 -0.048497424 0.1448108 -0.1294193 0.06346126 -0.027757362
0.14603642 0.0873242 0.09094104 -0.042119086 -0.11977276 -0.1012223 -0.023513302 -0.11116791
0.17924455 -0.044922203 0.17379257 -0.15889426 0.07758939 -0.17312732 0.009498462 0.040119916
-0.01894474 -0.025584146 -0.10142208 0.0424421 0.10826182 -0.121134564 0.16532809 0.16179913
0.03448628 0.017729193 -0.1154659 -0.097559154 0.14805162 0.12466365 0.062093735 0.105122834
-0.1442627 -0.014845282 0.12890255 0.036471844 -0.03393364 0.0044103414 0.036481395 0.021167293
-0.17601165 0.1732631 -0.11572825 0.10148367 -0.009423852 0.15111512 0.09002626 -0.024284095
-0.014232174 -0.0012166202 0.022138 -0.036048666 -0.07958739 -0.13934128 0.07726589 -0.15873525
0.16268712 0.13687265 0.16563118 0.12607199 -0.040628865 -0.06569465 -0.03121081 -0.08439776
-0.09429452 0.023416668 -0.0027367175 -0.037125453 0.05064273 -0.09200558 -0.054052696 -0.009870887
-0.06753416 -0.07417614 -0.13090068 -0.047035187 0.09492859 0.027091652 0.1462819 0.09514496
-0.005598232 0.15194386 -0.16516466 0.09981248 -0.04287705 0.034084395 0.112148315 -0.17442442
0.1196222 -0.13609716 -0.0814806 -0.0153737515 -0.066744134 -0.04709038 0.0242728 0.09188369
0.08622733 0.099160075 0.012827873 -0.004420787 -0.11318146 -0.17232613 0.14738077 0.0402793

bias f4 [1, 30]
00000000: 0000 0000 0000 0000 0000 0000 0000 0000
00000010: 0000 0000 0000 0000 0000 0000 0000 0000
00000020: 0000 0000 0000 0000 0000 0000 0000 0000
00000030: 0000 0000 0000 0000 0000 0000 0000 0000
00000040: 0000 0000 0000 0000 0000 0000 0000 0000
00000050: 0000 0000 0000 0000 0000 0000 0000 0000
00000060: 0000 0000 0000 0000 0000 0000 0000 0000
00000070: 0000 0000 0000 0000
0.0 0.0 0.0 0.0 0.0 0.0 0.0 0.0
0.0 0.0 0.0 0.0 0.0 0.0 0.0 0.0
0.0 0.0 0.0 0.0 0.0 0.0 0.0 0.0
0.0 0.0 0.0 0.0 0.0 0.0

weight f4 [30, 30]
00000000: 194a 84bc de91 1ebe daaf fabc c6a7 c43c
00000010: 2f11 0abe 4143 b7bd 5e58 393e 027f 44be
00000020: 0c8f 313e 1457 063e 95a4 073e 6e9c ca3c
00000030: dd40 873d d1d9 833d 8902 bbbd 02cc a4bc
00000040: b0fb b0bd 027f b53d 833c 04be 332d fbbb
00000050: da91 b73d 5769 01bd 0b07 823d a514 1a3e
00000060: 48a4 08be a32e eabd c5c9 d4bc 8d58 30bd
00000070: 5ee0 ab3d c726 1fbe 8ae7 f13c ae75 c53c
00000080: 3300 59be 71e0 03bc 4b5a 1e3e ccc3 9fbd
00000090: e404 413e 9751 65be a435 c3bd 6111 62be
000000a0: 74d7 743d fdd1 cfbd cb1b 273d 2bbe 653e
000000b0: 5294 b03d 9632 ee3d 60a8 b6bd 0fe8 ddbd
000000c0: 3327 973d 0a56 3bbe f0f3 4fbe 078e 9fbd
000000d0: cba2 0e3e 52c8 303b e779 7ebd 1a27 b3bc
000000e0: c4cb bb3b b0cd ae3d 6b10 33be 08c1 33bd
000000f0: 239e 2cbc 7cdd 1e3e 18ad 263e 1d21 d5bd
00000100: e92b 09ba 5f4a aabd a471 3bbe 2af7 0e3e
00000110: a987 bcbd 9678 c9bd 17e1 2f3c b655 3fbe
00000120: ef1d f93d 9642 11bd d392 b53d 050e 2c3d
00000130: 0a7b 27be 3159 cdbc 47f4 5cbe e4a9 01be
00000140: 837f 753e 4a49 503e e51a 72bd b355 b6bd
00000150: 6808 5ebe b760 703c ff2b 923c d328 2bbe
00000160: 6c17 4d3e 2a2e 28be 4991 4ebe b823 32be
00000170: 0051 12be 88dd 04be 04d7 f1bc ffe1 113e
00000180: 62d4 5e3e 2c47 e2b9 06eb 93bc 23c7 4cbe
00000190: c319 223d 6616 2c3e a5bb d63c 5af8 4c3c
000001a0: 0331 103e f03d 8f3d 7a7d 50bd 800a 0c3e
000001b0: 028e d2bd 438c 2ebe fe83 00be 7605 91bc
000001c0: 9e43 91bc 9868 d8bd 1adf 3d3e 9520 cbbd
000001d0: 76ef fbbd 651d 8abd 6ca4 d33d f4e9 293e
000001e0: 1ea0 99bc 8f65 eabd ae49 fe3c 9090 043d
000001f0: c34d e33d de9a 5a3e e4dd b7bd b4cc 3dbe
00000200: f70e 5cbe 5c93 5fbe a46c 1ebe 10b0 e0bd
00000210: 28e4 a13c 109e 46bd 639e df3d 2fcc 32be
00000220: 5fe6 ee3d 9c7e 88bd 4279 06bc 5080 ca3d
00000230: c04e 72be 0725 35bd 9559 89bb 50ee 04be
00000240: 9bd6 ec3d 0804 a63d cb04 6dbd cc08 5a3e
00000250: 9d60 e63d f398 153e 6728 51bd d546 223e
00000260: c629 cb3d 990d 37bd b400 393d 5091 43be
00000270: a597 87bd 194c f23d 07a7 8a3d 471d 8b3d
00000280: 3046 6b3e 5e71 013e 23c1 d73d f130 56be
00000290: 6e6f c9bd dd23 423d c387 f33d 2bf3 c03c
000002a0: 27d0 f53d 6101 2d3e fe66 5dbd 178a 493e
000002b0: db69 b3bd 0fc9 96bd 5869 01be a938 a9bc
000002c0: 007e 70bd fcff 013e e71f d83d cefd ebbc
000002d0: 848b 0bbe b1af 91bd b65a a5bd 02d0 94bd
000002e0: 97f9 4f3e e530 3f3d a6c5 403e ea28 0cbe
000002f0: 950f 9e3c f8ea 6dbd 3804 b9bd 56ea 2f3e
00000300: 2c48 97bd a38d 15bd b89e 5f3e 4065 173e
00000310: f911 01be 217e 223d d0fb 273e 4b42 41be
00000320: 59ad 843c 0ea9 bebd c32a 75bd d510 19bc
00000330: 69c1 4b3e 7412 f4bd 0709 cd3d dca3 6438
00000340: a31e fa3c 82d2 853d 60bc 743d 1ab6 fe3d
00000350: f316 a73d e4cd 0f3e 3d10 c23d 7593 ecbc
00000360: 1e14 9bbc f1b3 a03d 59b2 3cbe 6a96 c0bd
00000370: 8280 debd 330e 8d3c 0c49 b4bd a1fc fd3d
00000380: 0987 b9bd 1dd7 2ebd 1947 013e f1df 9abd
00000390: 24f6 c23d cae0 1abd d375 d8bd ca40 2ebd
000003a0: 9093 723d 9ede bd3d b343 3ebd db64 8c3d
000003b0: e7a5 083e b20e 52bd fddd 45bd eccb 97bd
000003c0: 466e c83c 3698 9e3d 12a3 213e b8ef 22be
000003d0: 24d9 ad3d 7c6b 303d 796f 4d3c d087 1c3d
000003e0: 0b15 b83d a5aa b4bd cafd ce3d 0636 08be
000003f0: 7d64 243e dbfa e8bd 0689 35be 7e22 373c
-0.016148614 -0.15485331 -0.03060143 0.024005782 -0.13483118 -0.089483745 0.18100116 -0.19189075
0.17339724 0.13119155 0.13246377 0.024732795 0.066041686 0.064380296 -0.09131343 -0.02011681
-0.086417556 0.088621154 -0.12913708 -0.0076653003 0.08963366 -0.0315946 0.063489996 0.15046938
-0.13343918 -0.114346765 -0.025975117 -0.0430532 0.08392404 -0.15542136 0.029529352 0.024103966
-0.21191482 -0.0080491165 0.15464132 -0.07801017 0.18849522 -0.22394405 -0.095317155 -0.22076942
0.059775785 -0.10147474 0.04079799 0.22435825 0.0862204 0.11630742 -0.08918834 -0.10835277
0.073805235 -0.1829454 -0.20307899 -0.077907614 0.13929288 0.002697487 -0.062127974 -0.021869231
0.005731078 0.085353255 -0.17486732 -0.04388526 -0.01053575 0.15514177 0.16276968 -0.104067065
-0.00052326784 -0.083149664 -0.18305069 0.13961473 -0.092055626 -0.09837453 0.010734818 -0.1868504
0.121639125 -0.035463892 0.08865895 0.042005558 -0.1635553 -0.025066944 -0.2157756 -0.12662464
0.23974423 0.20340458 -0.05910768 -0.089030646 -0.21682894 0.014671496 0.017843245 -0.16714792
0.20028466 -0.1642386 -0.2017261 -0.17396438 -0.14288712 -0.12975132 -0.029521473 0.14246367
0.21760705 -0.00043159106 -0.018056404 -0.1999784 0.03957535 0.1680542 0.026212523 0.0125103835
0.14081196 0.069942355 -0.050900914 0.1367588 -0.10280992 -0.17045693 -0.12550351 -0.0177028
-0.017732438 -0.10566825 0.18542138 -0.09918324 -0.12301533 -0.06743888 0.10334095 0.16593152
-0.018753108 -0.11445152 0.031040993 0.032364428 0.11098816 0.2134814 -0.08977869 -0.1853512
-0.21490084 -0.21833557 -0.1547113 -0.10971081 0.019762114 -0.048490584 0.10918882 -0.17460702
0.116650335 -0.06664774 -0.008207621 0.09887755 -0.23662853 -0.044224765 -0.004191587 -0.12981534
0.1156437 0.08106238 -0.0578659 0.21292418 0.11248896 0.14609127 -0.05106392 0.15847333
0.09920077 -0.044690702 0.045166686 -0.19098401 -0.06620721 0.11830921 0.06770139 0.067926936
0.22975993 0.12640902 0.10534885 -0.20917107 -0.09835707 0.047397483 0.11891129 0.023553452
0.120025925 0.16895057 -0.0540533 0.19681583 -0.08760425 -0.07362568 -0.12637842 -0.0206569
-0.058713913 0.12695307 0.1055296 -0.028807547 -0.1362744 -0.071135886 -0.08073942 -0.07266237
0.20310055 0.04667749 0.18825397 -0.13687482 0.01929454 -0.05808541 -0.09034008 0.17179236
-0.073868126 -0.03651203 0.2183789 0.14784718 -0.12604512 0.039671067 0.16404653 -0.18872945
0.01619594 -0.093095884 -0.059855234 -0.009342392 0.19897999 -0.11917582 0.100114875 5.4512042e-05
0.030532187 0.06534292 0.05974996 0.12437077 0.08158674 0.14043385 0.094757535 -0.028878907
-0.018930491 0.07846821 -0.18427409 -0.09403689 -0.10864355 0.017218685 -0.08802995 0.12401701
-0.09058959 -0.042685617 0.12624778 -0.07562245 0.09519604 -0.03781203 -0.10569348 -0.042542256
0.059222758 0.092709765 -0.04645128 0.06855174 0.13344537 -0.051283546 -0.048307408 -0.07411942
0.024466645 0.07743876 0.15784863 -0.15911758 0.08488682 0.043071255 0.012538784 0.03821546
0.08988389 -0.0882161 0.10107 -0.13301858 0.16053958 -0.11375972 -0.17728052 0.011177657

weight f4 [30, 30]
00000000: b021 bd3d 20d3 49bd 0249 34be 60e5 d73d
00000010: 20ac 383e c0de 23bd 2857 bfbc 1227 063e
00000020: 455a 23be 00e2 6c3c 7457 0abe b4e8 203e
00000030: c456 c53d 5aa5 a4bd 9894 ff3c 1e2b d2bd
00000040: 541f fd3d c815 a03c c841 4a3d d83c 8b3d
00000050: d13a abbd bc66 7fbd 48d3 a73d cc3c 0e3e
00000060: 4ca4 f7bd 860d 873d 601b 6c3d 9025 113c
00000070: 124b d7bd 0d66 2ebe 2cea 9e3d 8846 b93c
00000080: 86ec 063e e82e 153e 0060 4138 2339 8ebd
00000090: 7410 fdbd 586a 923c d863 38bd 0c81 773d
000000a0: 487a ba3d 2ebf 32be c398 dfbd 03ac 84bd
000000b0: 0155 e3bd 60cb 1f3c d62a bebd 5994 a1bd
000000c0: ee98 0e3e f0ab 353e 7ce6 a23d 971c a4bd
000000d0: e2f2 17be c8a3 833c 1ab0 003e 8485 433d
000000e0: 166c cdbd caa0 123e 084e 7a3d 8a05 84bd
000000f0: 3c6a b93d 4412 0b3e c6d9 85bd 5cef 273d
00000100: 2c5e 1abe 5c44 64bd f46a be3d fc71 dbbd
00000110: 9033 70bc 48b1 413d 0ce4 17be e8e3 b73d
00000120: bac1 2ebe 1705 01be 60b1 1f3e 1cdd 28bd
00000130: d843 d53d 205d 343d fc1a 153d 4ed5 31be
00000140: 7977 14be be40 0fbe 4c49 f03d 3e02 833d
00000150: 2f9e abbd 14fc 1a3e 12a4 dfbd cf78 31be
00000160: 3cd8 62bd 4ef7 163e 2a1b 72bd 3a7c 033e
00000170: 9a1e 6ebd ec14 f03d db86 0abe 8832 223d
00000180: 83a2 a2bd 001f 1a3e c87a 90bc cc58 b7bd
00000190: d475 97bd edb7 b2bd a22b b7bd 4aa6 febd
000001a0: 000f f63d bf23 8fbd 1874 d93d 341a 813d
000001b0: 8c4a 98bd 1f5a 0bbe 381d fa3c c313 29be
000001c0: f02d 823c a059 8a3c 1879 cd3c d67f 6fbd
000001d0: 3e19 043e 18ab fc3d 7444 bf3d 5864 9e3d
000001e0: 201c bcbb e069 973d 0b38 14be 38ba 423d
000001f0: 804a bd3b e0e8 17bd e020 903d 305e 283d
00000200: 0de1 0fbe 8858 d43d 5806 3a3e 2005 86bb
00000210: a1e3 87bd 9a3f 73bd aaa7 083e b0a9 fb3c
00000220: a46e 06be e825 24bd 482e 803c af65 9cbd
00000230: 1746 32be 5835 d93c 5e97 183e 08e5 8d3d
00000240: e1de 1dbe 5028 d23d 761f 86bd 9dee b0bd
00000250: 04cc 9fbd cc81 46bd 9c73 b5bd d42b 163e
00000260: 5474 123e 121f 2ebe 30f6 69bc beb3 1c3e
00000270: 46fc 2f3e 00ef f5ba 4ea7 2f3e ce54 9ebd
00000280: a4b7 ca3d fb75 35be c418 eabd 41b3 a2bd
00000290: 7cc9 f03d 8491 39be 6a24 09be 08e6 10be
000002a0: 00b5 95bb a401 523d 8c78 1a3e 3c26 1b3e
000002b0: b04d d63d 0c1f cf3d 62d3 2e3e 3614 31be
000002c0: ba44 25be d8e8 f73c 18e2 ca3d 32b5 33be
000002d0: 44cd ac3d 928e 8ebd 944a 34be 3539 abbd
000002e0: 3943 0fbe e81c fb3d 5028 053c 4678 163e
000002f0: 3c40 0a3d a06d 6cbc 0765 38be 2816 69bd
00000300: a8da 24bd 7caf 35bd f4de ba3d bc55 0b3e
00000310: 4ad7 323e 00d2 30be 8094 6cbc 9064 a13d
00000320: c4e7 363e b48b 61bd f0e1 563c b4a4 0c3e
00000330: 39c0 03be 00a7 473d 280a f53d b62a d0bd
00000340: e074 2b3e d0c3 9c3d a0b5 08bd e0b8 60bc
00000350: 4433 bb3d d8ce 9fbc 4016 48bb 15cd e0bd
00000360: 808f ed3c dc01 c9bd dc3d 103d f577 29be
00000370: 5c64 04be b05f 773d 6d36 85bd 7ecd 853d
00000380: acd0 22be e015 34bd 740c 71bd 2751 9abd
00000390: c868 bf3d 268e 07be 75d5 1dbe 3c11 6f3d
000003a0: c812 333e 6034 083d 40a4 ec3c 18c2 d63d
000003b0: e016 fa3c 0448 c33d 0096 25be 6eb2 b7bd
000003c0: 709d 063c f488 1a3e 2f64 3abe a4f3 1abd
000003d0: b2d8 25be dcc3 43bd aa27 203e 402d 473d
000003e0: d464 eb3d d0ce 203e 8057 3dbb 308a cf3d
000003f0: 6479 223d 74b6 02bd 4dfe ccbd 5233 18be
0.09234941 -0.04927361 -0.17605975 0.10541797 0.1803441 -0.040007353 -0.023356989 0.13100842
-0.15952404 0.0144581795 -0.13509923 0.15713769 0.0963569 -0.08039351 0.031198785 -0.1026213
0.12359491 0.019541636 0.04937914 0.067987144 -0.08360828 -0.062353835 0.081945956 0.1389038
-0.12091884 0.06594376 0.057643294 0.008859053 -0.105123654 -0.17031117 0.077595085 0.02261664
0.13176164 0.14568675 4.6104193e-05 -0.06944492 -0.12356654 0.017872974 -0.045017093 0.060425803
0.091053545 -0.17455742 -0.10917809 -0.06478121 -0.111001976 0.009753078 -0.09285514 -0.07889623
0.13925526 0.1774137 0.07954118 -0.080132656 -0.14838746 0.016069308 0.12567177 0.047734752
-0.100303814 0.14319149 0.061109573 -0.06446369 0.09053466 0.13581187 -0.065356776 0.040999755
-0.15074986 -0.055729255 0.092977434 -0.107151 -0.014660731 0.04728821 -0.14833087 0.089790165
-0.17066088 -0.12599598 0.15595007 -0.04122649 0.10413331 0.044034123 0.036402687 -0.17366526
-0.144987 -0.13989541 0.1173273 0.06396912 -0.083797805 0.15135223 -0.10919966 -0.17331241
-0.055382 0.14742777 -0.059107937 0.12840357 -0.058134653 0.117227405 -0.13528006 0.03959897
-0.07941153 0.15050888 -0.017636672 -0.089524835 -0.07395521 -0.08726487 -0.08943869 -0.12434061
0.1201458 -0.0698924 0.10617846 0.06303826 -0.07436094 -0.13608597 0.03053151 -0.16511445
0.015891045 0.01688844 0.025082156 -0.058471523 0.12900254 0.12337321 0.09339228 0.07733983
-0.0057406574 0.07393241 -0.14474504 0.047540873 0.0057767034 -0.03708732 0.070375204 0.04110545
-0.14050694 0.103684485 0.18166482 -0.0040899664 -0.06635214 -0.059386827 0.13345209 0.030720562
-0.13128144 -0.040075213 0.015647069 -0.07636582 -0.1740955 0.026514694 0.14901492 0.0692845
-0.15417053 0.10261595 -0.065489694 -0.08639262 -0.07802585 -0.048463628 -0.08859941 0.14665157
0.14302188 -0.1700404 -0.014279887 0.15302941 0.17186078 -0.0018763244 0.17153665 -0.07731019
0.09898308 -0.17720787 -0.11430505 -0.07944346 0.1175718 -0.18121916 -0.13392797 -0.1415025
-0.004568696 0.051271096 0.15085047 0.15151304 0.104640365 0.101133436 0.17072824 -0.17292866
-0.16139498 0.030262396 0.09906405 -0.1754959 0.08437589 -0.06960787 -0.17606574 -0.08360521
-0.13990487 0.12261373 0.008127287 0.14694318 0.033752665 -0.0144304335 -0.18007289 -0.056905895
-0.04024759 -0.044356808 0.09124556 0.13606924 0.17464939 -0.17267609 -0.014439702 0.07880509
0.17861849 -0.055064872 0.013115391 0.13734704 -0.12866296 0.048743248 0.11964828 -0.101643965
0.16743803 0.07654536 -0.033376336 -0.013715953 0.091406375 -0.01950781 -0.003053084 -0.10976616
0.02899909 -0.09814808 0.035215244 -0.16549666 -0.12928909 0.06039399 -0.065045215 0.06533335
-0.15899915 -0.043966174 -0.058849767 -0.0753501 0.09346157 -0.13237819 -0.15413459 0.058366045
0.17487633 0.033253074 0.028886914 0.10486239 0.030528486 0.0953522 -0.16170502 -0.0896958
0.008216247 0.15091306 -0.1820228 -0.03783001 -0.16195944 -0.047794208 0.1564013 0.04862714
0.11493841 0.15703893 -0.0028891265 0.10133779 0.03966655 -0.031912282 -0.100094415 -0.14863327

bias f4 [1, 30]
00000000: 0000 0000 0000 0000 0000 0000 0000 0000
00000010: 0000 0000 0000 0000 0000 0000 0000 0000
00000020: 0000 0000 0000 0000 0000 0000 0000 0000
00000030: 0000 0000 0000 0000 0000 0000 0000 0000
00000040: 0000 0000 0000 0000 0000 0000 0000 0000
00000050: 0000 0000 0000 0000 0000 0000 0000 0000
00000060: 0000 0000 0000 0000 0000 0000 0000 0000
00000070: 0000 0000 0000 0000
0.0 0.0 0.0 0.0 0.0 0.0 0.0 0.0
0.0 0.0 0.0 0.0 0.0 0.0 0.0 0.0
0.0 0.0 0.0 0.0 0.0 0.0 0.0 0.0
0.0 0.0 0.0 0.0 0.0 0.0

weight f4 [30, 30]
00000000: 3e43 343e dfcf a73d 1ea2 d2bd 5185 3fbc
00000010: b859 823a 5e36 3b3d 2a01 25be cab0 c4bc
00000020: 3ef8 a7bd f3ff 203e 7f62 fbbd 7499 24be
00000030: 29ca 65bd b107 9e3d 9559 d6bd c2a1 5dba
00000040: 1189 69bd a40f 613e 3844 aa3d dd1b 9abd
00000050: 9a45 01be e877 b8bd 0862 4cbc aa47 45be
00000060: d033 e9bd 66e9 1f3d 9eca 72bd ab80 c73d
00000070: f244 923d dd5d 9dbd 8bc2 a03c 2893 f7bc
00000080: 3907 45be 4614 133d 494c 633e 2049 aabd
00000090: 87e9 e6bd 315d 043e b457 0fbe a3c0 f5bd
000000a0: b58f 66bd 0eab 1d3e 6414 c13d 93a5 2fbe
000000b0: e8c1 a43d e2e8 463d a42b 08be b987 ecbd
000000c0: 173f 5e3c c38e 553d c7ea 4b3e 2d90 5dbe
000000d0: 9c3a de3d 4dff 32bc 6189 8d3d 2d69 803d
000000e0: 0f7a 233e 363c 48be 4f11 10be 1195 013e
000000f0: 59ab c6bd 8770 33be 90d7 0ebe 634c ee3b
00000100: 5ed9 24be 1eae 14be 8e8e fdbd 20ea 0a3d
00000110: 0f9f 33bd 1e3f 123e 6bd7 023e f3b8 2e3e
00000120: 21c6 a33b 33c1 b63b 9153 643d ea24 5bbd
00000130: 8bce 9dbc 0b67 9c3d 8471 b93d fe59 31be
00000140: 17e7 c8bd 96a1 25be ba10 0a3e 5cc8 a53d
00000150: 3c9b bebd 609c 963d 8971 13be f51a c5b8
00000160: 0c29 f03d 5c2c 07bd 5931 f03d fc43 a8bc
00000170: 1d1c a7bd f72b 52be 9dca 89bb 7494 893e
00000180: 9c3a 04be 6e10 823d ff84 1f3e 41e2 fd3d
00000190: 53f8 ccbc 011a 21be d8fc 62bb 1058 8c3d
000001a0: c94c f1bd 006a 343e 10fb 613d 69a7 783e
000001b0: 78d7 59b9 75c3 2bbb b84f 79be 699a 403d
000001c0: 8454 393b 010e c7bd 19ae 8bbb 094f dcbc
000001d0: cf4c 5a3c 0f1a 7c3e e0d4 ec3d 8d4f 7abd
000001e0: 667e a5bd 59c2 8cbd 5d2e 24be ad57 0e3d
000001f0: 3979 743d 1b22 05be ee13 27bd 9ea5 01be
00000200: 909c 4bbe 54e1 aabd 2ac9 1d3d cd41 243e
00000210: 1363 10bd 761a 5bbe 2f5e 9e3d a590 7bbe
00000220: c961 c8bc b1dc b2bd 438b ac3d ec54 c73d
00000230: a025 193e ab26 fe3b 0c86 3f3e e238 22be
00000240: e180 683d 4a3c da3d ee6a 01be 8f5b 4e3d
00000250: 9f67 653d 1961 1fbe 53f3 31be 4dfc 91bd
00000260: 9083 b03d 7822 c4bd 64e0 1d3d 8809 10bd
00000270: 89a2 203d 1cf6 c7bd 58b6 703d 3075 c63c
00000280: 4096 c13d e859 2abe f5f7 a7bd af96 45bd
00000290: b5a2 71bd f21b ecbd 65c8 363c 60af 41be
000002a0: c897 cdbd 105c a2bd 3d89 bbbb 0b53 013e
000002b0: 4928 0c3c ab13 03be 1d54 003d 0692 033e
000002c0: 91bd 453e fa72 42be 5591 283e 9443 aebd
000002d0: d136 55bd ca72 19be fd94 3ebc 8d3e a6bc
000002e0: cdf7 863d 34fd 81bc 3565 1a3d a340 b53d
000002f0: b4b9 293e 9d73 d73d 08d5 62bc 6c2a 2e3e
00000300: 68c3 cd3d 4ad3 2ebc ee55 ed3c 59c3 0abd
00000310: 0649 2cbe e3af 8fbd e195 c23d d9c7 aabc
00000320: fa9f 15be 9ab8 b73b f097 3fbe f1e1 04be
00000330: 4ef9 433e 1a52 28be 8d07 193e 76f8 d5bc
00000340: d03e 28be 85dd b3bd d74f 35be 4dd9 8d3d
00000350: cca4 36be aa21 d83c 85eb 243c 7732 11be
00000360: 2eff 383e 098a 133e 6c5e abbc debb b03d
00000370: 17f1 c43b 92fd 183e 92eb 51bd 5880 02be
00000380: 2f09 2dbe 7935 e23d b1c1 413a 0827 6a3d
00000390: 5cdd 1cbe 88b9 5f3e ca5f 2d3e bbb1 0ebe
000003a0: bcd2 ec3d 815d 1dbd 5308 3fbe 995a 4e3e
000003b0: 9fc9 9e3d 44f2 44be 3aeb 6e3d 7d5d 35be
000003c0: 65a7 1abd 3ce1 14bc 8ced 1ebe f081 a5bd
000003d0: e136 a43d 9b6b 4abe 9f7f 9d3d c8c4 433e
000003e0: d5ea 683d 307e f93d 1f6c 8ebd b201 e0bd
000003f0: 9a83 2ebe 291d e93d 253f 043e 31bd 5cbd
0.17603776 0.08193945 -0.10284828 -0.0116895 0.0009944951 0.045706145 -0.16113725 -0.02401008
-0.08201645 0.15722637 -0.12274646 -0.16074163 -0.056100998 0.07716311 -0.10466305 -0.0008454585
-0.057015482 0.21978623 0.08313793 -0.07524846 -0.12624207 -0.09007245 -0.012474544 -0.19265619
-0.113868356 0.039040945 -0.059275262 0.09741338 0.071420565 -0.076839186 0.019624015 -0.030221537
-0.19241036 0.035908006 0.22197069 -0.08314729 -0.112750106 0.12926175 -0.139983 -0.11999633
-0.056289393 0.15397283 0.09427717 -0.17153005 0.08044797 0.048561938 -0.13297898 -0.115493245
0.0135648465 0.0521381 0.19913779 -0.2163703 0.108510226 -0.010925126 0.069109686 0.06270061
0.1596453 -0.19554219 -0.14069103 0.1265452 -0.09700651 -0.17523395 -0.13949418 0.0072722896
-0.16098544 -0.14519545 -0.12380706 0.033914685 -0.043852862 0.1428189 0.12777488 0.1706274
0.004997984 0.0055772304 0.055743758 -0.053502 -0.019263526 0.076368414 0.090548545 -0.17319486
-0.09809702 -0.16174921 0.13482943 0.08094856 -0.09306952 0.07354045 -0.14398779 -9.398713e-05
0.11726579 -0.03300129 0.11728162 -0.02054023 -0.08159659 -0.20524584 -0.0042050616 0.26871073
-0.12912983 0.0635079 0.15578078 0.1239667 -0.025020754 -0.15732576 -0.003463557 0.06852734
-0.11782224 0.17618561 0.055171072 0.24282612 -0.00020775001 -0.002620903 -0.24346817 0.047022257
0.0028279135 -0.09719468 -0.0042626974 -0.026893156 0.013323977 0.24619316 0.1156404 -0.06111102
-0.08080749 -0.068730064 -0.16033311 0.034751583 0.05968592 -0.13001291 -0.04079049 -0.12660834
-0.19883943 -0.08343759 0.038521923 0.16040726 -0.035250735 -0.21396813 0.07732808 -0.24566896
-0.02446069 -0.087335 0.084249996 0.097329944 0.14955759 0.0077560744 0.18703479 -0.15842012
0.056763534 0.106560305 -0.12638447 0.050380286 0.056007024 -0.15564384 -0.17377977 -0.07128201
0.086188436 -0.09576887 0.038544074 -0.03516534 0.039217506 -0.097637385 0.058767647 0.024225801
0.09452486 -0.16635859 -0.08201591 -0.048239406 -0.05899306 -0.11528768 0.011156176 -0.18914557
-0.100387156 -0.07927716 -0.005723147 0.12629335 0.008554527 -0.12800471 0.031330217 0.12848672
0.19310595 -0.18989173 0.1646169 -0.08508983 -0.05205423 -0.14985195 -0.011632201 -0.020293498
0.06590233 -0.015867807 0.037694175 0.08850219 0.16574746 0.10520098 -0.013844736 0.1700837
0.100470364 -0.010670492 0.028971639 -0.033877704 -0.16824731 -0.070159696 0.095012434 -0.020847248
-0.14611807 0.005606723 -0.18710303 -0.12976815 0.19138071 -0.1643757 0.14944287 -0.026119452
-0.16430211 -0.08782486 -0.17706238 0.069262125 -0.17836303 0.02638324 0.010065918 -0.14179407
0.18066093 0.14408125 -0.020919047 0.08629583 0.0060101855 0.1494048 -0.051250048 -0.12744272
-0.16898035 0.11045355 0.0007391228 0.05716613 -0.15318817 0.21848118 0.16931072 -0.13934986
0.11563632 -0.03841925 -0.18655519 0.20151748 0.077533 -0.19233042 0.0583298 -0.17711444
-0.037757296 -0.009086903 -0.15520304 -0.08081424 0.0801828 -0.1976761 0.076903574 0.19118035
0.05686458 0.121822715 -0.06954216 -0.10937823 -0.1704239 0.11382515 0.12914713 -0.053891364
