neuromancer/train_scripts/papers/flexy/device_test_models/model4/best_policy_flexy.pth (torch, 34935 bytes, 9 tensors)

weight f4 [128, 20]
000000 38 8d c9 bc f6 a0 22 3e 18 19 ba 3d 18 50 9a bd
       -0.024603471 0.15881714 0.090868175 -0.07534808
000010 a8 c6 ca 3d 9c 7f 33 bd 42 69 3c 3e 58 ef 48 be
       0.09901172 -0.04382287 0.18399528 -0.19622552
000020 f0 95 5f 3d 30 12 9d 3d da 58 19 be 62 9d 40 3e
       0.05458635 0.076694846 -0.149753 0.18810037
000030 0d b4 ef bd d2 08 0f 3e cc b6 28 be 38 d9 88 3d
       -0.11704264 0.13968208 -0.16475981 0.06682056
000040 90 12 70 bc 20 07 21 3c 2f 76 06 be 94 ac 4e 3e
       -0.014652863 0.009828359 -0.13131021 0.20183021
000050 10 d9 c7 3d 5b e9 0a be e0 cf 01 3e e0 ab 6a bd
       0.09758198 -0.1356558 0.12676954 -0.05729282
000060 08 33 d9 3d f4 c1 19 bd b6 39 b5 bd 06 1e 3e 3e
       0.106054366 -0.037538484 -0.08848898 0.1856614
000070 60 fa 3d be 91 7a f5 bd e0 9c bd 3d a0 52 34 bc
       -0.18552542 -0.11986268 0.09258437 -0.011006027
000080 32 c5 36 3e 30 25 ad bd 98 3a 39 bd c8 2b 96 3c
       0.17848662 -0.084543586 -0.045221895 0.018331423
000090 06 5f ef bd 04 9e 0f 3e 6c 8c 49 3e 28 26 4c bd
       -0.11688046 0.14025122 0.19682473 -0.049841076
0000a0 40 1c b1 bd 10 5b 26 be 48 ed 9b 3d 2e 8a 22 3e
       -0.086479664 -0.16245675 0.07613617 0.15873024
0000b0 16 e7 28 be 88 17 ab 3c 2d 66 d0 bd 0a 08 1c 3e
       -0.16494402 0.020885244 -0.101757385 0.15237442
0000c0 50 20 32 3d 18 dd 94 bd b0 9b 0c 3e d0 79 23 3d
       0.043487847 -0.07268733 0.13731265 0.03991109
0000d0 a8 1b 09 3d b0 d1 07 3e 5f 7c 17 be a8 60 b7 bd
       0.03347364 0.13263583 -0.14793538 -0.089539826
0000e0 fc 70 eb 3d 14 7b 82 bd e8 cb 0d bd 58 6f 3d be
       0.114961594 -0.063711315 -0.03461829 -0.18499506
0000f0 cc 08 a5 bd 4c a9 3b 3e e0 19 67 3c ec f9 81 bd
       -0.080583185 0.183263 0.01410529 -0.06346497
000100 90 4e f5 bc d4 9b 74 bd 50 93 5b 3d da 1a 08 be
       -0.029944688 -0.05971892 0.053607285 -0.13291493
000110 28 4d 17 be b4 a9 2d bd 00 7e 42 bb b0 cb 69 bc
       -0.14775527 -0.04239817 -0.0029677153 -0.014269754
000120 20 fb b3 3c 70 b3 0e 3e 0e 29 50 3e de 55 4b be
       0.021970332 0.13935637 0.20328161 -0.19856974
000130 90 1c b7 bd d8 b7 64 3e c8 8d e6 3d 76 7e 12 be
       -0.08940995 0.22335756 0.112575114 -0.14306054
000140 04 ef 4c be e4 8e eb 3d 0e 2d 8f bd 60 7d 40 3c
       -0.20013052 0.115018636 -0.069910154 0.011748642
000150 30 41 dd 3d be 84 32 be 44 d6 a1 3d 00 0b d4 3a
       0.10803449 -0.1743345 0.07902196 0.0016177595
000160 c6 11 ec bd 3c b0 c8 3d c6 a3 45 3e 38 f8 0a be
       -0.115268275 0.09799239 0.19300756 -0.1357125
000170 83 26 03 be 17 59 0f be 26 cf 27 3e 34 c8 31 bd
       -0.1280766 -0.13998829 0.16387615 -0.04340382
000180 1e 87 32 be 06 39 1c be a4 fc d4 3d 9e 6b 1d 3e
       -0.17434356 -0.15256128 0.1039975 0.15373084
000190 00 e4 11 be 80 4f c6 3b fc 5b 09 be d4 43 33 be
       -0.14247131 0.0060519576 -0.13413996 -0.17506343
0001a0 54 cd 84 3d c8 0c 8a 3c 4c c5 ab bd 48 79 21 3d
       0.06484476 0.016851798 -0.08387241 0.039422303
0001b0 d0 ab 23 be c4 94 7e bd 48 4a 0b 3d dd ea da bd
       -0.1598351 -0.062153593 0.034006387 -0.10689328
0001c0 e0 cd 62 3d 70 29 2e 3e 58 ed 6d bd 48 51 ab bc
       0.05537212 0.17007995 -0.058087677 -0.020912781
0001d0 a0 4f 40 bc d4 fe 03 be 50 8d ec bc 2a 38 2f 3e
       -0.011737734 -0.12890178 -0.028875977 0.17111269
0001e0 74 d2 ac 3d 50 f3 56 bc d1 b4 48 be 84 48 9c 3d
       0.08438578 -0.013119534 -0.19600226 0.07631019
0001f0 5c b2 4a 3e fe 2d 5e be 36 75 b5 bd 6a 44 48 be
       0.19794601 -0.21697232 -0.08860247 -0.19557348
000200 1c de 10 bd 47 db 53 be 58 dc 12 3e e3 ad 2b be
       -0.03536807 -0.20689116 0.14341867 -0.16765551
000210 90 6a 78 bd 3a 86 8c bd dc fb 13 be 2c e1 63 bd
       -0.0606485 -0.06861539 -0.14451545 -0.055634663
000220 cf 21 d7 bd 20 4f 1a bd 85 6d 34 be d0 c1 73 bc
       -0.10504495 -0.037673116 -0.17619903 -0.0148777515
000230 12 48 40 3e a4 98 46 be 3c e7 1b bd c8 c8 cc 3c
       0.18777493 -0.19394165 -0.03806232 0.024998084
000240 0a 5f 5f 3e d8 c5 b1 3c 21 89 26 be 6c 77 99 bd
       0.21813598 0.021700785 -0.16263248 -0.07493481
000250 b2 d3 eb bd b0 51 7b 3c 68 56 04 3e 3a 6e 49 3e
       -0.11514987 0.0153393 0.12923586 0.19670954
000260 1e cf 54 3e 0f a0 61 be 48 4b fd 3d 28 80 83 3c
       0.20782134 -0.22033714 0.123678744 0.01605232
000270 20 c6 9a bc b6 b5 4d 3e f4 98 46 bd 45 e4 63 be
       -0.018893301 0.20088848 -0.04848571 -0.22255047
000280 b8 88 04 3d 98 31 fd 3d 4c 03 2e 3e d8 1f 4b 3e
       0.032356948 0.12362975 0.16993445 0.19836366
000290 56 9d 0d 3e 0f 40 da bd d3 b5 26 be 7e 98 87 bd
       0.1382955 -0.106567495 -0.16280298 -0.066208825
0002a0 a0 1f 3d bd 0e f9 16 3e ec 9e bd 3d 18 9b b4 bd
       -0.046172738 0.14743444 0.092588276 -0.08818644
0002b0 62 96 3a 3e 4c bf b4 3d a8 7d d1 bd 6a 27 4c be
       0.18221429 0.088255495 -0.10229045 -0.1993691
0002c0 c8 ea c7 3d 18 47 1f 3e 8e 41 f9 bd 5d ed 3a be
       0.09761578 0.15554464 -0.12170707 -0.1825461
0002d0 c2 d2 36 3e e1 97 29 be 20 85 0d 3c 28 f4 aa 3c
       0.17853835 -0.16561843 0.0086376965 0.020868376
0002e0 f0 90 97 3d 00 26 22 3b 0a 5b 24 3e 90 36 45 3d
       0.074006915 0.0024741888 0.16050354 0.048147738
0002f0 c2 72 17 be c5 17 2b be 28 a4 32 3d 6a 66 d6 bd
       -0.1478987 -0.16708286 0.043613583 -0.10468753
000300 40 63 67 bd 48 69 5b 3d 7f 9e 57 be 60 34 03 3e
       -0.056491137 0.0535672 -0.21056555 0.12812948
000310 56 eb 50 3e 84 c1 1c be 58 15 15 3e b0 b0 54 3d
       0.20402274 -0.15308195 0.14558923 0.051926315
000320 28 99 5d 3d ea 61 2c 3e 17 6e 52 be 80 34 be 3d
       0.05410114 0.16834226 -0.20549808 0.09287357
000330 8d ab 4c be 0a 35 42 3e 54 af 95 bd 6e 5c 3b 3e
       -0.19987316 0.18965545 -0.07308832 0.18296978
000340 ec 7c 38 3e fc e7 39 3e 94 d6 3d 3e 7d 6e d6 bd
       0.18016404 0.18154901 0.18538886 -0.10470293
000350 25 ab e7 bd 68 06 c6 3c d5 1b 5e be e8 bb 00 3e
       -0.1131194 0.024172977 -0.21690305 0.1257168
000360 98 39 17 3d 40 07 c7 3d d2 50 af bd 61 bb 4d be
       0.03692016 0.0971818 -0.08560337 -0.2009101
000370 2d 00 5a be aa e3 4f 3e fc 1f 69 bd e8 6e 73 3d
       -0.2128913 0.2030169 -0.05691527 0.05943194
000380 c8 b4 b8 3d 40 62 12 be c4 32 0e bd 5b b2 2c be
       0.09018856 -0.14295292 -0.034716383 -0.16864912
000390 14 1d 39 bd 26 b9 50 3e a7 9d 3c be e8 e0 1c 3e
       -0.045193747 0.20383129 -0.18419515 0.1532017
0003a0 a7 c8 f0 bd 1c ef ac 3d 2e 46 a7 bd 04 43 3d bd
       -0.117570214 0.08444044 -0.081676826 -0.04620649
0003b0 b2 85 5f 3e 24 a1 ad 3d 88 75 3a bd c8 19 9a 3d
       0.21828344 0.08478001 -0.045522243 0.07524449
0003c0 50 f2 ed 3d 08 e2 0d 3d 08 b5 2d 3d 54 c4 02 be
       0.11618483 0.03463939 0.042408973 -0.12770206
0003d0 40 1e 24 bc 76 34 e4 bd 90 50 05 be 78 f3 0e 3d
       -0.010016978 -0.11142819 -0.13019013 0.03490016
0003e0 b2 05 9b bd c8 1b 79 3d 16 68 0d 3e b0 3f df 3c
       -0.07569446 0.06081751 0.13809237 0.027252048
0003f0 3d 34 45 be a2 a4 5b be fa 92 12 3e 5c 9e b3 bd
       -0.19258209 -0.21449521 0.1431388 -0.08770439

bias f4 [1, 20]
000000 00 00 00 00 00 00 00 00 00 00 00 00 00 00 00 00
       0.0 0.0 0.0 0.0
000010 00 00 00 00 00 00 00 00 00 00 00 00 00 00 00 00
       0.0 0.0 0.0 0.0
000020 00 00 00 00 00 00 00 00 00 00 00 00 00 00 00 00
       0.0 0.0 0.0 0.0
000030 00 00 00 00 00 00 00 00 00 00 00 00 00 00 00 00
       0.0 0.0 0.0 0.0
000040 00 00 00 00 00 00 00 00 00 00 00 00 00 00 00 00
       0.0 0.0 0.0 0.0

weight f4 [20, 128]
000000 bd e8 fb 3c fe ed ea bd 8f 69 d2 bc 36 38 99 bd
       0.030750627 -0.11471175 -0.0256851 -0.074814245
000010 35 1d ba bd 94 c7 cb bc 10 26 88 3d bd 35 5a bd
       -0.09087602 -0.02487544 0.06647885 -0.053273905
000020 9d 0d 7c 3d 81 db 11 bc 93 56 20 bd 12 1d a7 bd
       0.06153642 -0.0089024315 -0.039145064 -0.081598416
000030 09 da 5c 3d 22 4d b8 bd 23 b6 2d 3d 63 e6 93 3d
       0.053918872 -0.08999087 0.042410027 0.07221677
000040 95 02 a9 3c 89 a3 2a bd 5d f9 e3 3c bc 28 c9 3c
       0.020631114 -0.041659866 0.027828867 0.024555556
000050 35 a6 7a 3d bf 0e 76 3d c1 80 92 bd 97 a5 b2 bd
       0.061193664 0.060072657 -0.07153464 -0.0872299
000060 1f d8 3e 3c 81 63 19 bd c3 e5 48 3d 49 e6 56 bd
       0.011648207 -0.03744841 0.049047243 -0.05246571
000070 e7 6a 37 3c be 3d 05 3e fd 07 f1 3d e6 1f 76 3d
       0.011194921 0.13011834 0.11769102 0.060089014
000080 d1 41 1b 3d 1e c5 85 3c 60 6c 3f 3c 2c 55 41 3d
       0.037904564 0.016329344 0.011683553 0.047200367
000090 59 8f 4b 3d b3 26 94 3d 2c d9 fd 3b bd 4d 8b bd
       0.049697254 0.07233944 0.007746836 -0.06801937
0000a0 1e 48 a1 3d 74 f7 4c bb 99 4a cf 3d 8d 08 93 3d
       0.078750834 -0.0031275423 0.1012165 0.07179365
0000b0 81 73 80 3d 45 f9 44 3d 34 a8 b9 3d 59 c6 74 3c
       0.062720306 0.048089284 0.09065285 0.014939868
0000c0 91 88 22 bc 41 69 58 3d cb 44 41 3d 55 5f 30 3c
       -0.009920255 0.052834753 0.047184747 0.010764916
0000d0 39 31 50 3d ec 1e 96 3d f5 6d e8 bb 82 18 94 3d
       0.050828192 0.07330117 -0.007093186 0.07231237
0000e0 6c fd 97 3d bd f1 89 3d 4e e3 37 bd e6 1b 3b bc
       0.07421383 0.06735561 -0.04489451 -0.011420226
0000f0 b8 32 79 bd 5c ac 68 bc e7 33 38 3d da a7 45 bd
       -0.060839385 -0.01420125 0.044971373 -0.04825578
000100 11 9c a9 bc 30 78 8a 3d 00 b5 ac 3c f6 f1 78 3d
       -0.020704301 0.06761205 0.021082401 0.060777627
000110 74 5f 86 bc c3 b7 47 bd 51 ac 1a bd e8 52 8b 3c
       -0.016402937 -0.048759233 -0.03776199 0.017007306
000120 14 f7 b1 3d f6 b7 ac bc 51 67 0b 3c 71 a3 0b 3c
       0.086897045 -0.021083813 0.008508519 0.008522854
000130 88 de cf 3b 01 79 8d 3d 91 ee 29 3d d1 5f 84 3c
       0.0063436665 0.06907845 0.04148728 0.01615897
000140 ff 07 8b 3d 7e 5f 51 bd 85 1a ce bc 07 e0 65 3d
       0.067886345 -0.05111646 -0.02515913 0.056121852
000150 d1 af 7a bd d4 82 12 bd 2b 34 cb bb db 5e 3b 3c
       -0.061202828 -0.0357693 -0.0062012873 0.0114361895
000160 1a 41 ab 3b 62 43 9a bd 9a 1f 47 3d b9 fc d7 3c
       0.0052262666 -0.075323835 0.048614122 0.026365625
000170 61 44 10 bd dd 01 9b 3d 81 10 ef 3c dd c4 f2 3c
       -0.03522146 0.07568715 0.029182674 0.029634887
000180 13 8c c3 3c 91 3b 46 bd 67 9b 73 bb 92 b4 6f bd
       0.023870504 -0.04839665 -0.0037171484 -0.058521815
000190 b6 c1 ee 3c fb 7f 34 3d 44 57 98 3d 72 13 9c 3c
       0.029145103 0.044067364 0.074385196 0.019052241
0001a0 77 5c 90 bc c0 d8 cd 3b de 6d 82 bc c3 e5 9d bd
       -0.017622216 0.006281942 -0.01592153 -0.07709839
0001b0 e1 81 39 3d b5 8e dd bc 61 5a 47 3b cc 55 d0 bc
       0.045289878 -0.027045587 0.003041886 -0.025431536
0001c0 92 ee 4a 3d 36 09 5b 3a e9 e6 97 bd 55 2c 18 3d
       0.049543925 0.00083555595 -0.074170895 0.037151653
0001d0 e4 42 3e 3d f8 09 8e 3d 8b df a9 bd 63 8f ed bb
       0.04645051 0.06935495 -0.082945906 -0.007249759
0001e0 ed f6 13 3d a1 f4 d8 3c 8f 7a 79 3d c7 e8 c8 3c
       0.03612416 0.026483836 0.060907897 0.02452506
0001f0 f7 14 80 bd ed c8 8f bd aa 05 a9 3c 4b 0a 8c 3d
       -0.06253999 -0.070207454 0.020632584 0.06837901
000200 4a f5 66 bc 2a ca 40 3d 37 5e 3a bc a4 24 96 3d
       -0.014096567 0.0470678 -0.011375002 0.073312074
000210 18 ec 63 3d 31 b3 19 bd f5 ee 5f bd 99 de 81 bd
       0.05564508 -0.037524406 -0.054671247 -0.06341285
000220 d7 a3 62 bd d5 fc 6b bc 30 3f b0 bd dc b1 1d 3c
       -0.05533203 -0.014403542 -0.08605802 0.0096249245
000230 6d 54 89 bd 09 d6 7d bc bc af 44 bd 5a e7 71 bd
       -0.06705556 -0.0154929245 -0.048019156 -0.059058525
000240 6b f0 3a 3d 30 89 4e 3d e9 3e 1c 3d f0 94 4d 3d
       0.045639437 0.0504238 0.038145933 0.050190866
000250 28 86 74 bc 7f 2a 17 bc 48 ca a6 bd 64 25 4d bc
       -0.0149245635 -0.00922644 -0.08144051 -0.012521122
000260 6e d6 62 3c e6 91 18 3d c9 04 07 bd a4 8c a1 bd
       0.013845069 0.037248515 -0.032963548 -0.07888153
000270 bd ff 37 bd d6 e8 45 bc 6c 8f c9 3d 6b 69 bf 3d
       -0.044921625 -0.012079438 0.09841809 0.09346279
000280 7f 3f 84 3d 12 bc cf 3d 8f f4 26 3d aa ba 03 3e
       0.064574234 0.101432934 0.040760573 0.12864175
000290 18 bc a7 3d 56 0e 0d bd db e1 e8 bc 46 3e c6 3d
       0.08190173 -0.0344375 -0.028428009 0.096798465
0002a0 77 6c 01 bd b5 f5 0d bc 9e 4c b7 bc 50 b1 08 3b
       -0.03159758 -0.008664538 -0.022375401 0.002085764
0002b0 c9 f9 5d bb dc 25 8c 3d 03 ca 28 bd 56 f3 f3 3d
       -0.0033870807 0.068431586 -0.04120828 0.11911647
0002c0 cb 82 96 3d b4 ec e2 bc c2 61 6b bc 01 11 d1 bb
       0.073491655 -0.02770076 -0.014366569 -0.006380201
0002d0 01 db cf 3d 17 c2 b8 3c d4 5e b7 bb 9a a5 df 3c
       0.101491936 0.022553487 -0.005596021 0.027300645
0002e0 a8 e6 d8 3d 1e af 6a bc 76 25 1a bd 64 68 73 3d
       0.10590869 -0.014323978 -0.03763338 0.059425727
0002f0 d2 e6 39 bd 18 48 92 3c 8c 07 46 3d a3 1e 62 bc
       -0.045386143 0.017856643 0.04834704 -0.01380125
000300 71 2e 07 3d ed 11 fd 3c 9f 5e a5 bc 67 fb 9c 3b
       0.033003274 0.030892337 -0.02018672 0.0047907117
000310 38 ac f7 bb 5b d8 a9 bc 21 57 51 bd f2 aa f7 3d
       -0.007558372 -0.02073305 -0.051108483 0.12093152
000320 09 ce 80 3d 1a d2 8b 3c b9 af 31 3c 98 f2 de bc
       0.06289298 0.017067958 0.010845118 -0.027215287
000330 e2 40 24 bd a8 7a ba 3d 63 1d a2 bc b6 78 d0 3d
       -0.04010094 0.09105426 -0.019789403 0.10179274
000340 36 35 20 3a 40 1c ed 3d ad 73 de bc 90 6b bd 3d
       0.00061114447 0.11577654 -0.027154768 0.092490315
000350 ec aa d5 3c b1 91 88 3d ba 0d 9b 3d 57 29 9b 3d
       0.026082478 0.066684134 0.075709775 0.07576244
000360 3c ba c9 3c b4 97 26 bd 9e 56 f7 3c 71 72 af 3d
       0.024624936 -0.04067202 0.03019267 0.0856675
000370 fd f2 2d bd 80 04 5b 3d 9d 2f c4 3d d0 f2 9c 3d
       -0.04246806 0.05347109 0.09579394 0.076635
000380 ea c9 c4 3b d8 65 19 bd 9b 89 7a 3c 59 9b 01 3c
       0.0060055153 -0.03745064 0.015291597 0.007910573
000390 dc 5e 8c 3d 90 92 6e bd 42 ad 3b bc 0d 54 89 bd
       0.068540305 -0.05824524 -0.011454882 -0.067054845
0003a0 5b 90 05 3d 87 52 bd 3d b6 f9 09 3d 99 ab 16 3c
       0.03260837 0.092442565 0.03368541 0.0091961855
0003b0 10 05 0c 3c d4 3d 12 3d 81 10 cd bc f5 dd 22 bd
       0.008546129 0.035703495 -0.025032284 -0.039762456
0003c0 28 52 50 bc 28 ad 88 bd 7d b1 32 3d 24 9e 9a 3d
       -0.0127149 -0.06673652 0.043626297 0.07549694
0003d0 da 9a 86 bd 65 e8 0e 3d 9f 9f 9f bd 74 29 9c bd
       -0.06572504 0.034889597 -0.07794117 -0.07625094
0003e0 79 d6 3a bd 88 58 3f bd 20 96 99 3c 39 5a 99 bc
       -0.045614693 -0.04671529 0.018748343 -0.01871978
0003f0 d0 58 84 bc b4 e8 45 3d 15 4d 9e 3d 8a 6d d1 3c
       -0.01615563 0.048317626 0.07729546 0.025564928

weight f4 [20, 20]
000000 e8 c3 96 3d 90 a8 3a 3e 64 08 a5 3d 08 94 2f 3e
       0.07361585 0.18228364 0.08058241 0.17146313
000010 a0 43 b4 bc e2 5f 33 3e 5c ef 22 be 7e 13 34 3e
       -0.022004902 0.17517045 -0.15911621 0.1758556
000020 04 f7 f7 3d d0 f8 a3 bd d4 1a 95 3d a8 cf 9b bc
       0.12107661 -0.080064416 0.07280508 -0.019019917
000030 9c cf 0f be 4c cc b5 3d f6 99 24 be 9f 2a 26 be
       -0.1404404 0.08876857 -0.16074356 -0.16227196
000040 50 0c ec 3c c6 af 41 3e 18 00 97 3d 1c c1 e4 3d
       0.028814465 0.18914708 0.07373065 0.11169645
000050 a8 d4 98 3c 34 75 1b bd 50 51 f7 bc 0c da 49 be
       0.01865609 -0.03795357 -0.03019014 -0.19712085
000060 c9 03 2f be ba b6 a5 bd 14 2a 15 be 0c cc 42 3e
       -0.17091288 -0.08091493 -0.14566833 0.1902315
000070 4a 43 47 3e 93 a4 47 be d8 cc da 3d 42 d1 55 be
       0.19459262 -0.19496374 0.10683602 -0.20880607
000080 c8 44 c8 3c 86 2a 2f 3e 10 4c 29 bd 1c 7d 8c 3d
       0.02444686 0.17106065 -0.041332304 0.068598
000090 94 a0 43 bd c8 37 3e 3e 1c 4d 31 be 56 9d 38 3e
       -0.04776056 0.18575966 -0.17314571 0.18028769
0000a0 e5 5a 45 be 18 a5 02 3d 04 65 1b be e8 ea 1d bd
       -0.19272955 0.031895727 -0.15175253 -0.038554102
0000b0 0e 1c 33 be f4 ca d3 3d 72 e3 3f be 84 f2 93 3d
       -0.17491171 0.103414446 -0.18739107 0.072239906
0000c0 fa cc 89 bd 8a 12 26 3e d0 b7 c7 bc 6a ef 0c 3e
       -0.06728549 0.1621801 -0.02437964 0.13763204
0000d0 ba eb 0f 3e 58 95 95 bc 4c b3 99 3d 84 96 55 be
       0.14054766 -0.01825969 0.07504901 -0.20858198
0000e0 82 15 17 be f8 65 e1 3d d2 a9 d8 bd b4 38 f4 3d
       -0.14754298 0.11005777 -0.10579266 0.11924878
0000f0 c0 3c 67 bc e0 4b 22 bd 10 a0 3b 3e 80 b2 55 3c
       -0.014113605 -0.03962314 0.18322778 0.013043046
000100 5c 50 a1 3d ba bb ab bd 5e 1e 3c 3e 80 1c 98 bc
       0.078766555 -0.083854154 0.18370959 -0.018568277
000110 64 e2 43 bd 95 d8 2b be c0 f8 b0 bd 00 73 c9 3d
       -0.047823325 -0.16781838 -0.08641195 0.09836388
000120 dc d6 5f be cc d8 55 3e 94 cb 61 be 4c a9 49 3e
       -0.21859306 0.20883483 -0.22050315 0.19693488
000130 f0 c0 39 3e f1 2e dd bd 70 72 0c 3d 04 e4 14 be
       0.18140006 -0.10799969 0.034288824 -0.14540106
000140 18 bd 59 bd e4 a9 80 3d 6a 81 c1 bd 50 38 5d 3d
       -0.05315885 0.06282404 -0.09448512 0.054008782
000150 ac fd f4 3d 95 34 02 be 00 2d ea 3c b8 73 1e 3e
       0.119624466 -0.12715371 0.02858591 0.1547383
000160 ff 4c 2f be 98 d6 dd bc 04 11 bb 3d c2 6d bc bd
       -0.17119215 -0.027079865 0.09134105 -0.09200622
000170 bd 11 1e be 50 f9 f1 3c b8 a6 a2 bc 10 4d 40 be
       -0.15436454 0.029537827 -0.019854888 -0.18779397
000180 31 57 56 be 08 0b 2e 3d 3e f0 2a 3e d0 b5 0d 3d
       -0.20931698 0.04249099 0.16693208 0.034597218
000190 e8 e5 61 3e 71 85 e7 bd cc a3 7a bd dc 60 0d 3e
       0.22060359 -0.11304749 -0.061191365 0.1380648
0001a0 e0 ec 9b bc a2 b9 4c 3e e4 a0 9a bd 58 8f 0f bd
       -0.01903385 0.19992688 -0.07550219 -0.035048813
0001b0 58 79 21 bd 52 23 2d be c0 b9 26 be d2 34 39 3e
       -0.039422363 -0.16908005 -0.16281796 0.18086556
0001c0 30 6a 65 bc 3c 4d f1 3d e0 45 0e 3c c9 69 55 be
       -0.014002368 0.117823094 0.008683652 -0.20841135
0001d0 fa eb 82 bd 58 97 2c 3e 8c c6 01 bd 98 ca b6 3c
       -0.06392665 0.16854608 -0.03168349 0.022313401
0001e0 bc 11 83 3d 9a bf 26 3e 00 56 f2 3c 4a 15 d1 bd
       0.06399867 0.16284028 0.029582024 -0.10209139
0001f0 1a 71 44 3e cd 31 05 be eb 9a 4e be 3c 94 41 be
       0.1918377 -0.13007279 -0.20176284 -0.18904203
000200 e7 60 fa bd 40 b8 35 bd ea ad 95 bd cc cd f9 3d
       -0.12225514 -0.044365168 -0.07308562 0.12197456
000210 f8 e4 38 3e 94 fd 4a bd 60 3e ef 3b f8 b0 d1 3d
       0.18056095 -0.049558237 0.007301137 0.10238832
000220 78 15 9b bd ff ba 18 be 90 06 7b bc de d7 ef bd
       -0.07572454 -0.14915083 -0.015321389 -0.11711095
000230 09 4b 1d be 24 6c 90 3d 60 e8 23 3d b2 83 29 3e
       -0.15360655 0.07051876 0.040016532 0.16554144
000240 68 32 57 3e 19 5d 37 be fc 29 f5 bd 98 33 0a bd
       0.21015322 -0.17906608 -0.119708985 -0.03374061
000250 88 24 e1 3d 66 ab 0a 3e b4 8b 48 3e ae 71 13 be
       0.10993296 0.13541946 0.19584543 -0.14398834
000260 68 69 41 3e 23 6b 2d be 46 42 20 be dc d7 c8 3d
       0.18887866 -0.169354 -0.15650281 0.09806797
000270 bc a2 84 3d ec 2b f6 3d d3 69 e6 bd 0a c6 0c be
       0.064763516 0.12020096 -0.11250653 -0.13747421
000280 b4 41 05 bd 88 d6 55 3d cb a3 16 be e2 b5 13 3e
       -0.032533363 0.052206546 -0.1471092 0.14424852
000290 80 56 24 be 0c a7 b7 3d 20 78 9a 3d e0 96 43 bd
       -0.16048622 0.089674085 0.07542443 -0.047751307
0002a0 7c a7 fa 3d 0c 31 9b 3d 84 73 29 bd e6 63 1d 3e
       0.12238976 0.07577714 -0.04136993 0.1537014
0002b0 6c a6 63 3e 2c 14 32 3e 5d 4c e5 bd 50 dd af bd
       0.22231454 0.17390507 -0.11196206 -0.08587134
0002c0 ee 10 36 be 46 1f 59 3e e8 14 60 be 5a c6 29 3e
       -0.17779896 0.21203336 -0.21882975 0.16579571
0002d0 94 4a 28 bd 48 9d 9b bc 20 a6 b0 3c 60 84 01 3e
       -0.04108675 -0.018995896 0.02156359 0.12648153
0002e0 45 06 2d be 60 80 0e 3e 86 e8 d6 bd 5c f2 f4 3d
       -0.16896923 0.13916159 -0.10493569 0.11960289
0002f0 f4 7b 9e 3d c3 9a f4 bd a8 b7 59 3d 6c 7e b8 3d
       0.07738486 -0.11943581 0.053153664 0.09008488
000300 e2 24 ba bd fe 98 9a bd e0 45 b8 3b 80 1c b6 bc
       -0.09089066 -0.07548712 0.005623564 -0.022230387
000310 fe a5 0a be 50 f2 57 3d 89 46 2d be d0 59 f1 bc
       -0.13539883 0.05272132 -0.16921438 -0.029461771
000320 58 70 0a be 0c a5 18 be 2b 00 28 be fc 81 41 be
       -0.13519418 -0.1490671 -0.16406314 -0.18897241
000330 f0 56 26 3d cc c1 5b bd d6 30 5b 3e 5c d0 d0 3d
       0.040610254 -0.053651616 0.21405348 0.101959914
000340 60 45 be bb 60 f5 87 3d 36 6e 30 be a4 a6 07 bd
       -0.00580661 0.066385984 -0.17229542 -0.033117905
000350 18 01 08 be 08 3b af bc be 39 36 3e a8 44 1c 3e
       -0.13281667 -0.021390453 0.17795464 0.15260565
000360 0d 6f 29 be 40 b5 d1 3d 30 f5 a5 3c 3c 30 12 3e
       -0.16546269 0.10239649 0.020258516 0.14276212
000370 b6 e9 2a 3e f3 85 cc bd 50 10 07 3d 30 e5 b6 3d
       0.16690716 -0.09986486 0.03297454 0.08930433
000380 2c e0 f1 3d 0e 74 c8 bd 52 42 5a 3e 48 5f 43 3d
       0.118103355 -0.09787761 0.21314362 0.04769829
000390 88 30 de 3d c0 e4 e8 3c 60 27 64 3d c8 21 fe bc
       0.108491 0.028429389 0.055701613 -0.031021968
0003a0 e4 fd 24 bd 0d 87 5d be fb 26 4d be 58 88 bb 3d
       -0.04028119 -0.21633549 -0.20034401 0.09156865
0003b0 20 2b 27 3d 28 8a af 3c 78 0a 29 3e 12 2e 2d be
       0.04081261 0.021428183 0.165079 -0.16912106
0003c0 b0 6a 83 3d 98 3d 00 3d 2f c8 11 be e0 2d 53 3d
       0.064168334 0.03130874 -0.1423652 0.05155742
0003d0 90 13 64 be 3c a0 e0 3d 50 ba 1c 3d ac 46 9e 3d
       -0.22273088 0.10968062 0.03826362 0.07728323
0003e0 10 21 60 3d 70 13 af bd 00 dd 5e be d4 33 31 3e
       0.05471903 -0.08548629 -0.21763992 0.17304927
0003f0 8e cc 14 3e fc c5 a5 bd c0 cd f3 3b 1a 19 1e be
       0.14531156 -0.08094403 0.007440299 -0.15439263

bias f4 [1, 20]
000000 00 00 00 00 00 00 00 00 00 00 00 00 00 00 00 00
       0.0 0.0 0.0 0.0
000010 00 00 00 00 00 00 00 00 00 00 00 00 00 00 00 00
       0.0 0.0 0.0 0.0
000020 00 00 00 00 00 00 00 00 00 00 00 00 00 00 00 00
       0.0 0.0 0.0 0.0
000030 00 00 00 00 00 00 00 00 00 00 00 00 00 00 00 00
       0.0 0.0 0.0 0.0
000040 00 00 00 00 00 00 00 00 00 00 00 00 00 00 00 00
       0.0 0.0 0.0 0.0

weight f4 [20, 20]
000000 46 b1 fc bc 4f 47 ce bd b4 f0 35 be 2f ce 9f 3d
       -0.03084625 -0.10072195 -0.17767602 0.07802998
000010 81 0c 14 3e e6 3e da bc 52 5f 58 be 9a b0 0a be
       0.14457895 -0.02664132 -0.21130112 -0.1354393
000020 95 34 c5 3e 18 53 c0 3d cb 18 a2 bd 7b ae d2 bd
       0.3851668 0.09390849 -0.07914885 -0.10287186
000030 e7 04 c9 3d 86 49 40 3d 3b 9e f8 bd 30 11 31 be
       0.09815388 0.046945117 -0.12139555 -0.17291713
000040 91 8c 6d be c1 84 4b bd ea 50 8c 3e a3 40 16 3d
       -0.23198153 -0.04968715 0.27405483 0.036682736
000050 36 b9 36 3e e9 c4 cc 3d ae 86 fd 3d c0 5b 10 3e
       0.1784409 0.09998495 0.12379204 0.140975
000060 5f 47 8f be f7 37 05 3e 73 64 4e bc ba 70 b2 3d
       -0.2798414 0.1300963 -0.012597191 0.08712907
000070 79 66 09 bf 62 d1 e8 bd ad d0 7a be b9 3b cd bd
       -0.53671986 -0.113680616 -0.24493666 -0.10021157
000080 51 1e ef 3d 33 33 52 be 98 c2 a5 bd 9e 5c 30 3e
       0.11675704 -0.20527343 -0.080937564 0.1722283
000090 54 6e 16 bc 45 7d bf bd dc 73 9f bc b7 3e 84 3d
       -0.009181578 -0.09350065 -0.019464426 0.064572744
0000a0 bb 74 25 3e 19 c1 47 3e 92 e2 2b 3e 87 7d 9f bc
       0.1615781 0.19507255 0.16785648 -0.019469036
0000b0 21 ac f2 bd 96 be 1a 3e d0 c0 a7 3d b8 b8 4a 3e
       -0.11849237 0.15111765 0.08191073 0.19797027
0000c0 cb 45 05 bf 9a f8 3b bd 1c 73 ca bd 88 44 2e 3e
       -0.5205962 -0.04589138 -0.098852366 0.1701833
0000d0 79 72 a4 bd f5 c7 8d be 71 d3 27 be c3 06 d8 bd
       -0.080296464 -0.27691618 -0.16389252 -0.10548165
0000e0 d7 52 dd 3d 9b 06 dc bd 95 31 1e be 25 b4 d3 bd
       0.10806816 -0.107434474 -0.15448602 -0.10337094
0000f0 c4 ec c1 3c 65 28 57 3e f9 98 c2 bd 21 59 82 3d
       0.023672469 0.21011503 -0.095018335 0.06364656
000100 bf 3e 54 be c6 ce fa bc 3a a8 13 3e 5d 6d 4c bc
       -0.2072706 -0.030616175 0.14419642 -0.012477246
000110 24 a7 b1 be 79 63 fe bc f1 b7 1b be b5 9d 26 bc
       -0.3469783 -0.031053292 -0.15206887 -0.010169436
000120 48 4b 2d be 42 59 50 be 12 76 2d 3d b3 4c ff 3d
       -0.16923249 -0.20346549 0.04234893 0.12465801
000130 e4 ce 2e 3e 61 2f 3c 3e bf 94 ab bd 41 9f fb bd
       0.1707111 0.18377449 -0.083779804 -0.12286235
000140 21 eb 30 bc bc f4 3c 3d 43 76 8b be 2b 6a f4 3c
       -0.010798247 0.046131834 -0.27238664 0.029835781
000150 0e 15 f4 3e 90 49 ea bd c9 83 47 bd db f9 4b 3d
       0.47672313 -0.11439812 -0.048709664 0.049798828
000160 dd 06 e0 3e f5 54 9e 3e 93 29 74 3e 2f 45 39 3e
       0.43755236 0.30924192 0.23843984 0.18092798
000170 c4 84 14 3d f3 0a 5c 3d 7a 4a 23 3d b3 c8 0c 3e
       0.036259428 0.05372138 0.03986595 0.13748436
000180 9f 35 4c be 08 b4 d5 3d aa c9 81 3e da b1 76 be
       -0.1994233 0.10434729 0.2534917 -0.24091282
000190 41 1e 78 3d 49 37 79 3c 9e c0 0f 3e a0 98 73 3d
       0.060575727 0.015210935 0.14038321 0.059471726
0001a0 bf 94 60 3e 58 b4 21 3d 6c 60 1d 3e e3 81 5a be
       0.21931742 0.03947863 0.15368813 -0.2133861
0001b0 2f 19 b4 3e d8 0f d0 3e 3b ca b8 bc 8a 4a 52 be
       0.35175464 0.40637088 -0.022557369 -0.20536247
0001c0 58 3c 86 3e d4 7d 56 3e b4 b5 48 be 1b 4b b9 bd
       0.26217914 0.20946437 -0.19600564 -0.09047528
0001d0 d7 5b 01 be 97 d1 2a be bf e4 2b 3e 22 4a 6d be
       -0.1263269 -0.16681515 0.16786478 -0.2317281
0001e0 ef a1 68 be ca bc 50 be 6a 07 91 bc ee 8d 9a 3c
       -0.22718023 -0.20384517 -0.01770373 0.018866505
0001f0 f6 32 ac 3e 5d 3f 97 3d 3e 46 12 3e b0 c7 d6 bd
       0.3363263 0.073851325 0.14284608 -0.10487306
000200 c4 ab fe 3e 24 2d 24 3e 97 7f 80 bd 98 df 69 3e
       0.49740422 0.16032845 -0.06274336 0.228392
000210 f6 2d 0f bd b5 aa 0e bd 1b f2 61 be c1 38 1d 3e
       -0.03495594 -0.034830768 -0.22065012 0.15353681
000220 7f d7 32 be e2 cd fb 3d cd 16 74 3e c6 7a 29 be
       -0.17465018 0.122951284 0.23836823 -0.1655074
000230 4e 68 f0 bd b7 2b 02 3e 0d 12 e6 3d b9 1e dc bd
       -0.117386445 0.12711988 0.11233912 -0.107480474
000240 7b 9b a3 be e7 c7 15 be 2a 02 8b bd 2e 5e 1e 3e
       -0.3195456 -0.14627038 -0.06787522 0.15465614
000250 c8 bb d2 be 1c 6b 94 be dd dd 21 3e 3e 50 b6 bd
       -0.4115889 -0.28987968 0.1580729 -0.08902024
000260 9b 54 cc bd e7 5a 12 be 7f 36 51 3e 88 31 42 3e
       -0.09977075 -0.14292489 0.20430945 0.18964207
000270 0e e9 fe bc 53 ec f2 bd 80 4b 87 36 17 37 72 3c
       -0.031116989 -0.118614815 4.032103e-06 0.014783642
000280 ac 77 34 bd 52 84 16 3d 01 24 a0 ba cf 41 6c 3e
       -0.04405944 0.036747284 -0.0012217761 0.23071979
000290 1f 3e 29 be 14 bd 7c 3a 26 29 b1 3d de 0a 0f be
       -0.16527604 0.0009641212 0.086504266 -0.13968989
0002a0 5d cc 03 be aa 2b bd bc c1 45 2d be f0 08 4b 3e
       -0.12870927 -0.02309211 -0.1692114 0.19827628
0002b0 38 ae 09 3e 7a 73 4a be 54 f0 e2 3c 9d 06 11 3e
       0.13445365 -0.19770613 0.027702488 0.14162679
0002c0 76 ad 9f 3c 40 a9 f1 bd 32 69 06 be c3 c5 c7 3d
       0.019491892 -0.1179986 -0.13126066 0.09754517
0002d0 7c b1 46 be 04 63 8c bd d9 48 20 be c8 1e cf 3c
       -0.19403642 -0.06854823 -0.15652789 0.025283232
0002e0 dc b3 5a 3e 3b bc 8d 3c 7b dd 89 bd 76 44 55 bc
       0.21357673 0.01730167 -0.06731697 -0.013016811
0002f0 40 0a 85 3e f6 a8 db 3d c5 ad 27 bc 6f 63 73 3d
       0.25984383 0.10725586 -0.010234301 0.059421
000300 fe ec 0b 3e 6d 86 c0 3d cf fe d9 bc a0 be 9d bd
       0.13664624 0.0940064 -0.02661076 -0.077023745
000310 f2 27 65 be c7 f2 2f 3e 22 16 94 3d 87 2a 23 bd
       -0.22378519 0.17182456 0.07230784 -0.03983548
000320 e5 f5 c7 3d 96 5a 0d be e5 fd 24 be 2e 8c 4d be
       0.097636975 -0.13804087 -0.16112478 -0.20073006
000330 52 56 92 bd 53 ae 4c be f5 50 fd 3d 19 93 bd bc
       -0.071453705 -0.19988374 0.12368957 -0.02314143
000340 3e fe 81 3e ec 3a 10 3e ed c1 ea bd c8 06 c1 bc
       0.25389284 0.14084977 -0.1146277 -0.023562804
000350 90 93 23 be 12 46 21 be 63 20 45 be 34 bd 20 3e
       -0.1597426 -0.15749386 -0.19250636 0.15697175
000360 13 58 9d 3d cd 8f 24 be 33 e7 40 be 0d c0 26 bd
       0.076828144 -0.1607048 -0.18838196 -0.040710498
000370 3c 13 bf bd 9d 82 cb bd 57 e1 82 3d b2 ae cd bc
       -0.093298405 -0.09937022 0.063906364 -0.025107715
000380 e0 1b 68 3e 51 7a f8 bd 6c 43 13 3d 5c c0 d5 3d
       0.22666883 -0.12132705 0.03595297 0.1043708
000390 c7 1a b5 3d 18 4a 66 3e e8 5a 01 be 2f 14 bc 3d
       0.08842998 0.22489202 -0.12632334 0.09183537
0003a0 0c b7 19 3e d9 cb 52 3d 48 f6 57 be db dd e7 3c
       0.15011233 0.051463936 -0.21090043 0.028304031
0003b0 0d bb 96 bc 99 ba 26 3e 43 ae 6e 3e 03 46 1c 3d
       -0.01839974 0.16282119 0.23308663 0.038152706
0003c0 ac 32 25 be 87 ab 02 be e3 e3 58 be 90 94 ce bc
       -0.16132611 -0.12760745 -0.21180682 -0.025217324
0003d0 4e 07 cb 3c a6 fd 22 be 6a 7d 1a 3e 51 b4 a7 3d
       0.024783757 -0.15917072 0.15086904 0.081886895
0003e0 96 c0 7e 3e 5f a8 41 3e 65 47 df bd 11 ee 4a be
       0.24878153 0.18911885 -0.10902289 -0.19817378
0003f0 8b cc 0e 3e 90 e3 2d be 7e 7c 20 bd ce 5b 69 3e
       0.13945214 -0.1698134 -0.039181225 0.22788927

weight f4 [20, 32]
000000 2a 23 98 bd 78 8a 28 3d aa 00 8b 3d 10 96 ed bc
       -0.07428582 0.04114768 0.06787236 -0.02900222
000010 5c 6d 17 3d 80 3e 1d 3b 15 38 05 3e ea c2 d2 3d
       0.036969528 0.0023993552 0.13009675 0.10291083
000020 a8 c2 b2 3c 26 0b 97 bd 70 65 59 3d 90 fa aa 3c
       0.021821335 -0.07375173 0.053075254 0.02087143
000030 40 3b 31 bb 4e a1 a1 bd f6 0b 1f be f2 38 0d be
       -0.0027043372 -0.078920946 -0.15531906 -0.13791254
000040 48 b5 39 3d 15 83 2f be ed 00 2e 3e d0 55 08 bc
       0.0453389 -0.17139848 0.1699254 -0.008321241
000050 a0 50 47 3d 54 70 c2 bd 05 0c 01 3e a0 8f ab bb
       0.048660874 -0.09494081 0.12602241 -0.0052356273
000060 00 65 0e be fb 1e ce bd 6b 6f 2e 3e 34 08 05 be
       -0.13905716 -0.10064503 0.1703469 -0.1299141
000070 40 6c 9e bc 80 f9 66 bc 40 a7 2d bd 54 e7 b0 bd
       -0.019338727 -0.014097571 -0.04239583 -0.08637872
000080 6e 54 ad 3d a0 f4 d6 bc 78 30 04 3d a3 32 16 be
       0.08463369 -0.026239693 0.032272786 -0.14667754
000090 22 1e e9 3d 9c 21 0e 3d f8 9d 0a be 63 b5 1b be
       0.113827005 0.03470002 -0.13536823 -0.15205912
0000a0 e8 c6 9a 3c 5f 73 20 3e 73 8f e6 bd 27 99 1a be
       0.018893674 0.1566901 -0.112578295 -0.15097485
0000b0 4b a9 10 3e 77 63 08 3e 80 31 97 bd 36 3b 54 bd
       0.1412708 0.13319193 -0.07382488 -0.05181428
0000c0 ea e1 88 3d b9 8d 11 3e 86 15 c3 3d 1e 83 f9 3d
       0.06683715 0.14214219 0.0952559 0.12183212
0000d0 40 e5 13 bc 35 69 07 3e c0 ad 0a bd 04 0c 5d 3d
       -0.009026825 0.13223727 -0.033857107 0.053966537
0000e0 25 57 08 3e 25 e5 1f be b5 02 29 be ba 63 a1 3d
       0.13314493 -0.15614755 -0.16504939 0.078803495
0000f0 62 6e 9f 3d e2 62 f4 3d d8 4e 4d bd 2c 29 28 be
       0.07784726 0.11932923 -0.05012402 -0.16421956
000100 7e 77 db 3d 20 55 0f bc 10 5e 51 3c 80 f5 74 3b
       0.10716151 -0.008748323 0.012778774 0.0037377775
000110 2f 24 89 bd c0 8c 91 bd 56 db d6 3d 14 46 18 be
       -0.066963546 -0.07106924 0.10491054 -0.14870483
000120 72 80 b0 3d a0 57 19 be dc 62 15 3d 6e 0b d7 3d
       0.08618249 -0.14974833 0.036471233 0.10500227
000130 84 f2 31 bd 98 f1 6b 3d 40 2b ba bd 00 b5 91 3b
       -0.04344417 0.05760345 -0.090902805 0.0044466257
000140 26 63 07 be 24 18 77 3d 06 76 8a bd f8 e4 68 3d
       -0.13221416 0.060325757 -0.067607924 0.056858987
000150 17 f4 a3 bd 4a 47 ec 3d 40 4b 85 3c 51 b6 31 be
       -0.08005541 0.11537035 0.016271234 -0.17354704
000160 42 fa f8 3d e0 fd 27 3d b9 c1 1d 3e a3 bc 9b bd
       0.12157108 0.0410136 0.1540593 -0.07604339
000170 90 af 97 3c 8a 37 1e be 20 0e ce bb 38 37 68 3d
       0.018516332 -0.15450874 -0.006288305 0.056693286
000180 1f 01 26 be ca 01 ad bd 02 46 fd 3d 00 fd 61 3a
       -0.16211365 -0.08447607 0.123668686 0.0008620769
000190 6e dd f0 3d f2 eb cf 3d 30 97 89 3d c9 a7 0e 3e
       0.11760984 0.10152425 0.0671829 0.13931192
0001a0 c7 f3 1b 3e 33 5d 20 be 66 e4 01 be d9 38 2b 3e
       0.15229712 -0.15660553 -0.12684783 0.16720904
0001b0 0f 37 0b be 30 ac 4a bd ed e6 34 3e ac 21 26 be
       -0.13595222 -0.049480617 0.17666216 -0.16223782
0001c0 a4 2f 25 be 82 2d 81 3d 32 dd 98 3d f0 2c 62 3c
       -0.16131455 0.06307508 0.07464065 0.013804659
0001d0 44 60 19 bd 32 7f ae bd 4a bc e1 3d b8 03 27 bd
       -0.03744532 -0.08520354 0.110222414 -0.04077503
0001e0 6a 7a 94 bd 40 45 06 3c 01 f0 17 3e fa 2d 04 be
       -0.07249911 0.008195221 0.14837648 -0.12908164
0001f0 fc 5c ce bd 23 d9 0f be b1 ba 0c be f6 20 76 bd
       -0.10076329 -0.14047675 -0.13743092 -0.060090028
000200 a8 bb 09 be 2c d6 27 bd 88 06 b0 bc 3e 27 c1 3d
       -0.13450491 -0.040975735 -0.02148749 0.09431313
000210 54 c5 a4 bd 24 c8 2a 3d f6 c1 ff 3d 5c 8d fe bd
       -0.0804545 0.041694775 0.12488167 -0.12429306
000220 7b d0 c5 bd c6 ae 85 bd cc 85 31 3d 1c 13 14 3d
       -0.09658905 -0.06527476 0.04334049 0.036151037
000230 6c 19 91 3d 00 1d 86 3c 11 29 07 3e f6 48 a8 3d
       0.07084927 0.01637125 0.1319926 0.08217041
000240 13 f8 a2 bd 58 4a 17 3d 58 c9 ea bd d0 76 0b bd
       -0.07957473 0.036936134 -0.114641845 -0.034048855
000250 30 c7 cc bc a8 86 9c bd 22 14 e1 3d 8d 43 17 3e
       -0.024997324 -0.07642871 0.10990168 0.14771862
000260 b8 e9 14 3d 8a f6 ec 3d a2 57 e7 3d 46 81 ed 3d
       0.036355704 0.11570461 0.112960115 0.115969226
000270 33 05 14 be e8 e4 10 bd a8 30 20 3d 72 94 74 bd
       -0.14455108 -0.035374552 0.039108902 -0.05971188
000280 f0 7b e6 bd 10 6b 1e 3c 7f e0 dd bd c7 8f 1b be
       -0.11254108 0.00966908 -0.10833835 -0.15191565
000290 c9 c2 2d 3e 0e be db 3d 18 35 e6 3c 76 b8 d2 3d
       0.16968836 0.107296094 0.028101489 0.102890894
0002a0 c8 0e f9 bd 10 06 30 bc 81 49 2a be c6 52 0a be
       -0.121610224 -0.010743633 -0.16629602 -0.13508138
0002b0 22 4c 6a bd 62 79 0b be b5 fc 32 be 6e b1 e2 3d
       -0.057201512 -0.13620523 -0.17479213 0.11068998
0002c0 04 e5 1a 3d 13 9d 23 3e 59 12 11 be 59 37 9f bd
       0.037816063 0.15977888 -0.14167155 -0.077742286
0002d0 d3 6f 2e 3e 64 48 3c bd c0 28 0d bc bf c0 20 3e
       0.17034845 -0.045967475 -0.008615673 0.15698527
0002e0 04 23 da bd e2 9b 22 be 0e e1 14 be 2b 38 31 be
       -0.1065121 -0.15879777 -0.14538977 -0.17306583
0002f0 a8 d9 fe 3c 03 18 34 3e 30 13 2e 3c c7 04 c3 bd
       0.031109646 0.17587285 0.010624692 -0.095223956
000300 f8 a6 81 3c 69 98 06 3e 92 58 27 be 3d 9a 2e 3e
       0.015826687 0.13144077 -0.1634238 0.17051025
000310 de 44 95 bd fe d2 05 be 40 40 4a bb b8 61 d8 3c
       -0.07288526 -0.13068768 -0.003086105 0.026413783
000320 f6 a2 99 3d a8 3d 13 bd b9 6d a6 bd 4c 4c d3 bd
       0.075017855 -0.03594747 -0.08126397 -0.10317287
000330 d4 ab e1 bd a0 8d da bb a8 65 34 be 5a 53 cb 3d
       -0.11019102 -0.006669715 -0.17616904 0.099280074
000340 b9 30 87 bd 05 7e 23 3e 9c 48 63 3d ca 61 9a 3d
       -0.0660109 0.15966041 0.055489168 0.07538183
000350 ee 1e d0 3d a1 1c 04 3e 78 ab 0d 3d 98 29 b8 3c
       0.10162149 0.12901546 0.034587353 0.022480771
000360 e0 d1 65 3c a1 2c b2 bd 0c 9b 25 3d 10 eb 6d 3c
       0.014027089 -0.086999185 0.040431067 0.014521375
000370 9f e3 04 3e c0 fc 74 bc c9 41 99 bd 52 83 d7 3d
       0.12977456 -0.014952838 -0.07483251 0.10523094
000380 88 92 dc bd 58 1f 9e 3c 48 71 10 3d d0 21 c3 bc
       -0.10770136 0.019302055 0.035264283 -0.023819834
000390 44 ae 91 3d 8a cb 02 be 95 2e a2 bd bc 81 66 3d
       0.07113317 -0.12772956 -0.07919041 0.056276068
0003a0 78 65 d2 bc f5 ff 29 be 9c c6 0a 3d 46 98 ec 3d
       -0.02568315 -0.16601546 0.033880815 0.11552481
0003b0 89 42 22 be 8d 85 34 3e d6 b9 30 be 6a a6 ca 3d
       -0.15845694 0.1762907 -0.17258391 0.09895022
0003c0 4e ae 9f 3d 1b 2d 31 3e 6f a1 97 bd c8 72 99 3c
       0.07796918 0.17302363 -0.07403838 0.01873149
0003d0 fc 6c bf bd 80 fb f9 bc ce 02 2e be a7 85 0b be
       -0.09346959 -0.030515432 -0.16993257 -0.13625203
0003e0 b2 3d b3 bd ba ca 11 be c2 c1 bf 3d 6f ea 2d 3e
       -0.08752002 -0.1423749 0.09363128 0.1698396
0003f0 be 0b 16 be 70 d4 53 bc 5f 9d 01 3e 74 77 ec bd
       -0.14652917 -0.012929067 0.12657689 -0.115462214

bias f4 [1, 32]
000000 00 00 00 00 00 00 00 00 00 00 00 00 00 00 00 00
       0.0 0.0 0.0 0.0
000010 00 00 00 00 00 00 00 00 00 00 00 00 00 00 00 00
       0.0 0.0 0.0 0.0
000020 00 00 00 00 00 00 00 00 00 00 00 00 00 00 00 00
       0.0 0.0 0.0 0.0
000030 00 00 00 00 00 00 00 00 00 00 00 00 00 00 00 00
       0.0 0.0 0.0 0.0
000040 00 00 00 00 00 00 00 00 00 00 00 00 00 00 00 00
       0.0 0.0 0.0 0.0
000050 00 00 00 00 00 00 00 00 00 00 00 00 00 00 00 00
       0.0 0.0 0.0 0.0
000060 00 00 00 00 00 00 00 00 00 00 00 00 00 00 00 00
       0.0 0.0 0.0 0.0
000070 00 00 00 00 00 00 00 00 00 00 00 00 00 00 00 00
       0.0 0.0 0.0 0.0

weight f4 [32, 20]
000000 e0 92 83 3b e2 7d 63 3e b9 5f 01 3e 1c 38 d4 bd
       0.0040153116 0.22215989 0.12634172 -0.103622645
000010 20 81 8a be a5 92 8e 3b d7 00 0d bd 45 f2 24 3e
       -0.2705164 0.0043509775 -0.03442463 0.16108043
000020 19 72 28 3d 20 8b 4a be 76 0b 4c be 7c ad 07 3e
       0.041124437 -0.19779634 -0.19926247 0.13249773
000030 c7 af 21 3e 44 5d 7c bc e6 7a 2a 3e fd 38 ef bd
       0.1578971 -0.015403096 0.16648445 -0.116807915
000040 23 80 94 3d 59 1c a5 3d cb e9 57 3d da 9c 16 be
       0.07251003 0.080620475 0.052713197 -0.14708272
000050 00 97 bd 3d e5 4c 29 3e 39 6f 19 be 7f 3a 0a 3e
       0.092573166 0.16533239 -0.14983834 0.13498877
000060 f9 22 12 bd e5 c8 5d be 78 d3 eb 3d fd fb 16 3e
       -0.035677884 -0.21658666 0.11514944 0.14744563
000070 d0 14 99 3d fb 1e e1 bd a5 f8 a4 bd 1a 1d 5d be
       0.07474673 -0.10992237 -0.08055238 -0.21593133
000080 cd 03 c1 3d 2c e1 bf 3d 67 d0 1b 3e 8d 0b d8 3c
       0.09424553 0.0936912 0.15216218 0.026372695
000090 46 05 9a 3b 0b c4 6c be 2f 53 86 3e cc 45 96 3e
       0.0047003357 -0.2312166 0.2623534 0.29350126
0000a0 3a d4 ac bc 36 bb f1 3d d8 21 43 3e 59 6c 63 3c
       -0.021097291 0.11803286 0.19055879 0.013880813
0000b0 d8 b9 ac 3d ad f6 25 be c3 d2 53 be bc 2a 36 3e
       0.084338844 -0.1620738 -0.20685868 0.1778974
0000c0 bd b4 ff bb e0 3b 0a 3d da 87 14 3e 6b 93 b1 bb
       -0.007803528 0.033748507 0.14504948 -0.005419185
0000d0 a5 5c 85 bd 4f 18 a6 bb 3d 46 1b 3e fc 4c 87 bd
       -0.06511811 -0.005068816 0.15163513 -0.066064805
0000e0 a7 c8 26 be b2 42 ac 3d 56 1a 8a 3e 13 77 e7 bd
       -0.1628748 0.084111586 0.26973218 -0.113020085
0000f0 80 5a 06 be 69 53 88 bd 27 d7 04 3c 03 4c 10 bd
       -0.1312046 -0.06656534 0.008107937 -0.03522874
000100 0b 19 9f 3d d1 4c bc 3d 0d e8 7b 3d 7c cc 88 3d
       0.077684484 0.09194339 0.061500598 0.06679627
000110 6c f4 08 3e b5 4c 20 be e6 cb c6 bd 07 aa 84 be
       0.1337449 -0.15654261 -0.09706859 -0.2591097
000120 59 f1 0a 3c 04 10 25 3e f7 f2 b5 bd 42 4f 8a 3d
       0.008480393 0.1611939 -0.088842325 0.067533985
000130 f2 79 8f be cc 38 ff bc 61 2b 65 3d e7 4c 56 3e
       -0.28022724 -0.031155013 0.055949572 0.20927773
000140 df 4f 7f be 76 33 3d 3e b2 56 b4 bc e0 7c 70 3e
       -0.24932812 0.18476662 -0.022013996 0.23485136
000150 49 ce 52 be bf ce 0c 3e 96 52 38 bc 21 d7 83 bc
       -0.20586504 0.13750742 -0.011250159 -0.016093792
000160 83 4f 13 be 11 85 00 3e a9 7a 15 3e fc ff a2 3d
       -0.143858 0.12550761 0.14597572 0.079589814
000170 01 5c e8 bd 55 d2 d6 3d 78 45 89 3e 43 eb 27 be
       -0.11345673 0.104893364 0.26810813 -0.16398339
000180 cb 1e ec bd 06 88 05 3e 9f ac 18 3d d7 80 43 3e
       -0.11529311 0.1304017 0.037274 0.19092117
000190 fb 12 ea bb 3e 97 8c bd 5d 0c de bc 0d 6f fe bb
       -0.007143376 -0.06864785 -0.027105505 -0.007764703
0001a0 a3 d1 35 be 16 5f b4 bd cf 4f a8 bd 65 9d 8b 3d
       -0.17755751 -0.08807199 -0.08218347 0.0681713
0001b0 8d 9b 1d bc 91 91 1e be 90 72 40 3d 71 dd 74 bd
       -0.009619606 -0.15485217 0.046984255 -0.059781495
0001c0 9e 6d 0d be 18 33 0a be d4 9f 8b 3d a2 5e 5c be
       -0.13811347 -0.13496053 0.06817594 -0.21520475
0001d0 d9 e2 cc bb 60 58 00 3e b9 c6 da 3d 96 68 99 3d
       -0.0062526283 0.12533712 0.106824346 0.07490651
0001e0 2f b9 34 be c9 c9 56 3d 4f 66 df bd 60 fe d3 bd
       -0.17648767 0.05243853 -0.10908186 -0.103512526
0001f0 00 9f 68 be df 9e df 3d ac db 00 bd 90 54 31 3c
       -0.22716904 0.10918974 -0.031459495 0.010823384
000200 f6 e0 29 be c3 29 32 be 28 a4 6f 3e d2 1c 47 be
       -0.16589722 -0.17398743 0.23402464 -0.19444588
000210 91 5b 3c be 93 ba 6f 3c 1e 04 1a 3e 79 89 96 3d
       -0.18394305 0.014631885 0.15040633 0.073504396
000220 34 33 41 be 8d b3 fd 3d 81 03 d8 bd 8b d3 00 3e
       -0.18867189 0.12387762 -0.10547543 0.12580697
000230 f1 ff 1b be 4f 84 d5 3d ca 97 3e 3e 9f 57 15 3d
       -0.15234353 0.104256265 0.1861259 0.036460515
000240 32 cd 2c be a5 53 72 be cb 6d 8a bd 2d 25 86 ba
       -0.16875151 -0.2366472 -0.067592226 -0.0010234468
000250 24 3e 0b 3e a7 53 35 3e 9f 16 b1 3d ec 3f b8 3d
       0.13597924 0.17707692 0.08646893 0.08996567
000260 7d f6 53 bd 3c 50 3b 3e 22 9b 12 3d 10 88 59 be
       -0.05174874 0.18292326 0.035792477 -0.2124331
000270 f6 61 1e 3d a6 0f 60 3d 31 3a 50 3e 89 ea 2e bd
       0.03866764 0.054702424 0.20334698 -0.04270414
000280 d5 aa 14 be 5a c6 76 3e ca 7a 3f 3d 11 ec 59 3e
       -0.14518292 0.24099103 0.04674796 0.21281458
000290 e3 ab 8d 3d 2e fe b4 bc 4d ec 9a bd bf 98 69 bd
       0.069175504 -0.022093859 -0.07564602 -0.057030436
0002a0 6b 7b 07 bd 49 3e 57 be 76 8f 97 3d 0b 3f 8f bc
       -0.033076685 -0.21019854 0.0740041 -0.017486116
0002b0 11 b3 91 bc be 81 00 be 41 0e 4d 3e fc 3b 5e be
       -0.01778558 -0.12549493 0.20024969 -0.2170257
0002c0 bd 08 3f be 29 60 88 3c 29 c7 0c bd 74 90 50 be
       -0.18655677 0.016647415 -0.03436962 -0.20367604
0002d0 09 73 45 be 32 18 60 3e d1 6c 02 3e c3 4e d6 bd
       -0.19282164 0.2188423 0.12736823 -0.10464241
0002e0 09 55 82 be 3d 2e 62 be 27 9f ac 3d 11 47 0e be
       -0.25455502 -0.22087951 0.084287934 -0.13894297
0002f0 74 50 20 be 0f 66 92 bd 2f 75 d1 3d c5 dc 03 be
       -0.1565569 -0.071483724 0.10227429 -0.12877186
000300 a7 36 51 3d 65 78 4e 3e 80 aa 82 bc 1a e5 ec 3d
       0.05107751 0.20163114 -0.015950441 0.11567135
000310 f0 23 1c be 0a a8 d4 3d 9b d9 92 3d 78 13 22 bc
       -0.15248084 0.103836134 0.07170411 -0.009892337
000320 5f 14 23 be db fa 38 3e 0c fc 18 3d 23 e1 59 3e
       -0.1592574 0.18064444 0.037349746 0.21277289
000330 2d ac 6a be f2 13 1e be 8c c6 33 3b d5 e9 28 3e
       -0.22917242 -0.15437296 0.0027431576 0.1649545
000340 6c 8d 17 3c b4 d9 2f be e0 49 05 3e f4 0c 09 3c
       0.009250026 -0.17172891 0.13016462 0.008364905
000350 96 99 13 3e 6e 35 34 bd 3a d7 1c be 06 49 0d be
       0.14414057 -0.043996267 -0.15316477 -0.13797387
000360 e8 74 5f 3d 7a 1b 68 bd 0a 75 34 bd 90 25 33 be
       0.05455485 -0.05666683 -0.04405693 -0.17494798
000370 3a 20 67 3d 0c 70 bd bd 33 ef 11 bd 56 11 10 be
       0.056427218 -0.09249887 -0.03562851 -0.14069113
000380 02 8f b7 bd 11 2b d4 bd 5c ee 7a be 3f 06 f9 bd
       -0.089628235 -0.10359777 -0.2450499 -0.121593945
000390 7d ac 43 3e b2 15 ff bd 72 2b b9 3d 2b f7 66 be
       0.19108768 -0.1245531 0.0904149 -0.22555225
0003a0 34 8f b0 bd 09 af 0f be 3f 5e 82 3e bc 3b 0e bd
       -0.08621064 -0.14031614 0.2546253 -0.034724936
0003b0 b6 c2 f6 bd d2 ec 95 bd c9 1b a6 bd 2c 1b bb bd
       -0.12048857 -0.073205605 -0.08110768 -0.09136042
0003c0 13 78 bf bc 2b fc d0 bc ea 71 09 3e e2 8c 14 bd
       -0.023372686 -0.025510868 0.13422361 -0.03626717
0003d0 fb 32 86 bc e0 5b 82 bd 0e 6c 64 be 02 ee 07 3e
       -0.016381731 -0.0636518 -0.22306845 0.13274387
0003e0 c2 48 0c be 7a 9b 85 be 77 ed 46 3e ad ce 94 3d
       -0.1369963 -0.26095182 0.19426523 0.07265983
0003f0 49 27 15 3e d1 ef a4 3d 9e 28 e0 3d 38 bd 0a 3e
       0.14565767 0.08053554 0.10945247 0.13548744
