neuromancer/datasets/Flexy_air/best_policy.pth (torch, 93887 bytes, 42 tensors)

weight f4 [3, 30]
-0.0998347 -0.08699328 -0.09723236 0.0016169746 -0.09008882 -0.056328844 -0.17319156 -0.04090967
0.04944442 0.0002646568 0.021290116 -0.16209452 -0.16793026 -0.057067316 0.063814454 0.18053687
-0.16818689 0.0630175 0.031516597 0.030180689 -0.08408997 -0.17585471 -0.058842868 -0.16696677
-0.008801949 0.07566063 0.17337498 -0.04296925 0.14773828 -0.13243237 -0.1689645 -0.04055617
0.09844071 -0.14003396 0.016380819 0.00014556124 -0.100288555 -0.14887998 0.07074246 0.15900517
0.17714612 -0.17903812 0.105394 -0.097932 0.0788048 0.16256276 0.07807565 -0.10206611
-0.114021 -0.02529294 0.030551601 -0.06431169 0.1418925 0.13292168 0.1390549 -0.14035311
-0.0058429297 0.05442308 -0.10250549 -0.08595719 0.04984136 -0.08614722 -0.038316797 0.17292261
0.09316855 -0.023694465 -0.11169041 0.10580258 -0.14169233 -0.08971036 0.10774191 0.08047277
-0.01648357 0.08321021 -0.16040722 -0.17447715 -0.1310306 0.1255537 0.04447601 0.021920895
0.12700473 -0.044740643 0.18193021 0.068474896 -0.0054642702 0.07407006 -0.13742232 0.18239182
-0.06057652 -0.040361814
00000000: 2376 ccbd 8829 b2bd c221 c7bd aaf0 d33a
00000010: 7d80 b8bd 13b9 66bd 2159 31be e690 27bd
00000020: 3b86 4a3d a2c1 8a39 9c68 ae3c 1bfc 25be
00000030: e9f5 2bbe 6bbf 69bd 27b1 823d a8de 383e
00000040: 2f39 2cbe 520f 813d 8c17 013d 7e3d f73c
00000050: 5d37 acbd 4213 34be 3805 71bd 56f9 2abe
00000060: 0d36 10bc f6f3 9a3d 3689 313e 8600 30bd
00000070: b448 173e 5a9c 07be 0805 2dbe 3a1e 26bd
00000080: 489b c93d 1065 0fbe 1131 863c cca1 1839
00000090: 1664 cdbd fe73 18be 6ce1 903d 40d2 223e
000000a0: cb65 353e c555 37be cfd8 d73d 9390 c8bd
000000b0: 6964 a13d da76 263e 20e6 9f3d 0908 d1bd
000000c0: d883 e9bd 2433 cfbc 5a47 fa3c d9b5 83bd
000000d0: 444c 113e 9f1c 083e 6864 0e3e bab8 0fbe
000000e0: 0c76 bfbb bcea 5e3d 66ee d1bd 530a b0bd
000000f0: 7426 4c3d f46d b0bd 13f2 1cbd a012 313e
00000100: 27cf be3d e51a c2bc f1bd e4bd 06af d83d
00000110: cb17 11be 11ba b7bd caa7 dc3d e8ce a43d
00000120: 8d08 87bc 1d6a aa3d ca41 24be 23aa 32be
00000130: e32c 06be 2691 003e 7a2c 363d 7393 b33c
00000140: 870d 023e f741 37bd ea4b 3a3e 913c 8c3d
00000150: 9f0d b3bb 0bb2 973d 70b8 0cbe ecc4 3a3e
00000160: 161f 78bd 6e52 25bd

bias f4 [1, 30]
0.0 0.0 0.0 0.0 0.0 0.0 0.0 0.0
0.0 0.0 0.0 0.0 0.0 0.0 0.0 0.0
0.0 0.0 0.0 0.0 0.0 0.0 0.0 0.0
0.0 0.0 0.0 0.0 0.0 0.0
00000000: 0000 0000 0000 0000 0000 0000 0000 0000
00000010: 0000 0000 0000 0000 0000 0000 0000 0000
00000020: 0000 0000 0000 0000 0000 0000 0000 0000
00000030: 0000 0000 0000 0000 0000 0000 0000 0000
00000040: 0000 0000 0000 0000 0000 0000 0000 0000
00000050: 0000 0000 0000 0000 0000 0000 0000 0000
00000060: 0000 0000 0000 0000 0000 0000 0000 0000
00000070: 0000 0000 0000 0000

weight f4 [30, 3]
0.4952218 0.040069968 0.15312497 -0.32695448 -0.3827999 0.35641888 -0.31533167 -0.0550828
-0.7431774 -0.32289553 0.5120107 0.35901368 -0.4244296 0.51227313 0.3105278 -0.09466387
0.24371967 0.38193664 0.6051755 0.05687884 -0.24292515 -0.5825788 -0.8469845 -0.3943835
-0.60746473 0.5779424 -0.049831156 -0.32221928 -0.3581505 -0.24208896 0.18397345 -0.6914777
-0.5928512 -0.24454494 0.24928506 -0.33939046 0.21181919 0.48490384 0.36183855 -0.25059694
-0.307268 -0.7590784 0.012346551 -0.16939697 -0.874102 -0.0012248356 -0.91445017 -0.23295365
-0.25801793 0.2659646 0.40083194 0.48272768 -0.29713598 -0.2538479 0.19892061 0.3246705
-0.28532958 -0.33193687 0.14777973 -0.3586873 0.6445872 -0.12245519 -0.08581081 0.24993603
0.30574846 -0.19453451 -0.25840193 -0.17795987 -0.6239741 0.03608374 0.20980622 0.40430745
0.4707369 0.36348864 0.3905506 -0.6500488 0.4676509 -0.21352118 -0.33979058 0.36098757
0.5005505 -0.00294512 -0.48111597 -0.9791506 0.5024448 0.034949344 0.25985187 -0.3702693
-0.87919533 0.17091599
00000000: b68d fd3e 6820 243d cbcc 1c3e 9466 a7be
00000010: 59fe c3be 897c b63e 2773 a1be 819e 61bd
00000020: e040 3ebf 9052 a5be 2213 033f a4d0 b73e
00000030: d64e d9be 5524 033f 80fd 9e3e 22df c1bd
00000040: a691 793e 338d c33e c8ec 1a3f c9f9 683d
00000050: 5fc1 78be e223 15bf fad3 58bf a2ec c9be
00000060: cf82 1bbf 08f4 133f c11b 4cbd edf9 a4be
00000070: 815f b7be 2be6 77be 8963 3c3e af04 31bf
00000080: 19c5 17bf fd69 7abe 9544 7f3e 96c4 adbe
00000090: 21e7 583e 5145 f83e e742 b93e 3e4e 80be
000000a0: 3b52 9dbe f652 42bf 3049 4a3c 6676 2dbe
000000b0: 26c5 5fbf aa8a a0ba 6819 6abf 678b 6ebe
000000c0: ed1a 84be 832c 883e d839 cd3e 1528 f73e
000000d0: 3522 98be 5af8 81be d8b1 4b3e 363b a63e
000000e0: b816 92be a1f3 a9be 9253 173e dda5 b7be
000000f0: ab03 253f c9c9 fabd 94bd afbd 3bef 7f3e
00000100: 108b 9c3e 0e34 47be 424d 84be 1d3b 36be
00000110: c4bc 1fbf 8bcc 133d 71d7 563e 6301 cf3e
00000120: 6d04 f13e 2f1b ba3e 40f6 c73e 9969 26bf
00000130: f06f ef3e 4ca5 5abe 08f9 adbe 5dd3 b83e
00000140: 1424 003f ea02 41bb d554 f6be 9da9 7abf
00000150: 39a0 003f 0b27 0f3d 4e0b 853e f093 bdbe
00000160: f212 61bf 9a04 2f3e

weight f4 [30, 30]
0.05698361 0.029488055 -0.09712813 0.17799307 0.033700496 -0.05448221 -0.096965805 -0.14913768
-0.1300093 0.065863214 -0.073150285 -0.12727435 0.05422319 -0.08922827 0.029486772 -0.057586424
-0.068122245 0.111639746 -0.0903039 -0.13517226 -0.10891112 -0.124535166 0.14310344 -0.14206105
0.13109043 -0.07830296 -0.05607394 -0.09318568 -0.0051240036 0.039240222 0.15870647 -0.031644356
0.0073260744 -0.13802563 -0.06104942 0.14268845 0.12138044 -0.12690328 -0.076790236 0.15437463
0.018296903 0.04578865 -0.054344922 0.11983599 -0.12019614 -0.09942687 0.016674249 -0.09262498
-0.00978464 0.033752274 0.062394492 0.0028269307 -0.109594025 0.019510755 0.054299388 0.10201753
0.015482335 0.094002694 -0.059545252 -0.11495416 0.04901694 -0.14598449 0.041172393 -0.06664939
0.015238485 -0.005301994 -0.14983746 -0.1696283 -0.09288078 -0.0695261 0.082062036 0.18063572
0.18035778 0.036833912 -0.14804505 -0.17504665 -0.1474134 -0.11620855 -0.02890322 0.14115256
-0.051189084 0.11452979 0.071662374 0.012336315 -0.053253908 -0.02624921 0.05434403 0.08065433
-0.010313083 0.053672638 0.028295249 0.017655307 0.05512309 0.079909116 -0.17235722 0.13877426
0.109728664 -0.08267386 -0.16831948 -0.096787944 -0.087809965 0.004861088 -0.111907035 -0.0025733085
0.14019553 -0.020652631 0.1448986 0.055020493 -0.115184665 0.0732789 0.06547687 -0.02123109
-0.0973762 -0.13624851 -0.029488033 -0.14487252 -0.12435622 -0.17801645 -0.045699503 -0.017071603
-0.1226659 -0.14251906 -0.09863497 0.031260494 -0.14851178 0.11889012 -0.15522978 -0.04975661
-0.091917045 0.09015009 -0.12637153 -0.090976834 -0.17975438 -0.16734077 0.1653519 0.017674437
-0.13063833 -0.16246977 0.17380068 -0.16534056 -0.15363936 0.13993177 0.026374768 0.09512479
0.114377305 -0.011331337 0.052258834 -0.118356824 0.048199005 0.06316191 0.15964982 -0.0140442
-0.022730688 0.07334251 0.0906875 -0.054837342 0.023761151 0.052432712 -0.11389085 0.021408819
0.0138088595 -0.026397316 -0.08256095 0.0037381249 -0.07521983 -0.018447101 -0.07009437 0.06944043
-0.14684454 0.10880328 -0.01260021 0.0052569197 -0.14182498 -0.16691591 -0.089469336 -0.12953039
0.13153456 0.1357773 -0.13200957 -0.04637344 -0.17666572 -0.1705617 0.032209013 -0.03945134
0.15994592 0.03416597 -0.048948772 -0.11523163 -0.02981017 0.14198685 0.15041305 -0.13683648
-0.05127867 -0.04110024 -0.08557982 0.13395843 -0.017739775 -0.119540535 0.01392604 0.009521876
-0.064964816 -0.077738315 -0.11732991 0.015041495 -0.17360513 -0.13348316 -0.10877701 -0.12840593
-0.023733184 -0.0036294544 -0.02721908 -0.15557197 0.106038116 -0.074452266 0.07371904 0.07778431
-0.11039607 -0.15736362 0.076591566 -0.046663105 -0.1420142 -0.020429742 -0.14130858 -0.15973349
-0.048215244 -0.023061967 -0.027945036 0.03136366 -0.12568958 0.124932714 -0.11216807 -0.016174382
0.055783622 -0.13639699 0.013686521 -0.0054205456 -0.12692592 -0.15367414 0.1677845 -0.09354155
-0.03572723 -0.020641096 0.17515165 -0.17137922 -0.09992128 0.08100548 -0.106646456 -0.17970407
0.15256564 -0.06493672 -0.03368822 -0.034598935 -0.13181712 -0.09199365 -0.027708085 0.116550714
00000000: a567 693d ef90 f13c 1deb c6bd d143 363e
00000010: 8809 0a3d bd28 5fbd 0296 c6bd 8cb7 18be
00000020: 2821 05be 4be3 863d d1cf 95bd 3554 02be
00000030: 2319 5e3d 50bd b6bd 3e8e f13c bedf 6bbd
00000040: ad83 8bbd 61a3 e43d 40f1 b8bd 996a 0abe
00000050: cb0c dfbd 4b0c ffbd b589 123e 7478 11be
00000060: 923c 063e 4d5d a0bd caad 65bd 22d8 bebd
00000070: 42e7 a7bb 5bba 203d f383 223e 839d 01bd
00000080: 910f f03b 9756 0dbe f50e 7abd ec1c 123e
00000090: 4f96 f83d eff2 01be 3344 9dbd 6214 1e3e
000000a0: 63e3 953c e18c 3b3d c898 5ebd 926c f53d
000000b0: 6529 f6bd 51a0 cbbd 6f98 883c 2ab2 bdbd
000000c0: c14f 20bc d33f 0a3d 5e91 7f3d 0744 393b
000000d0: d572 e0bd 05d5 9f3c 0969 5e3d 91ee d03d
000000e0: 9fa9 7d3c 7c84 c03d b9e5 73bd 166d ebbd
000000f0: fdc5 483d f57c 15be 62a4 283d 7a7f 88bd
00000100: d7aa 793c 59bc adbb fe6e 19be 0bb3 2dbe
00000110: 4738 bebd b363 8ebd 2410 a83d 92f8 383e
00000120: b6af 383e 28df 163d 1f99 17be 6e3f 33be
00000130: 8af3 16be c0fe edbd 72c6 ecbc 4c8a 103e
00000140: a5ab 51bd 988e ea3d b9c3 923d 411e 4a3c
00000150: c520 5abd 9508 d7bc d897 5e3d 192e a53d
00000160: 35f8 28bc d7d7 5b3d 70cb e73c dda1 903c
00000170: c0c8 613d 64a7 a33d 697e 30be d71a 0e3e
00000180: 6cb9 e03d ea50 a9bd f15b 2cbe c238 c6bd
00000190: b6d5 b3bd c349 9f3b 842f e5bd f4a4 28bb
000001a0: 6b8f 0f3e b52f a9bc 4c60 143e 2b5d 613d
000001b0: f0e5 ebbd 3f13 963d bd18 863d d3ec adbc
000001c0: 2c6d c7bd bb84 0bbe e390 f1bc 7659 14be
000001d0: 79ae febd f249 36be 672f 3bbd bfd9 8bbc
000001e0: 4238 fbbd 84f0 11be 2201 cabd 010b 003d
000001f0: 7913 18be aa7c f33d 8ef4 1ebe 96cd 4bbd
00000200: 013f bcbd 9ca0 b83d 8a67 01be 1052 babd
00000210: 8811 38be 615b 2bbe 0252 293e fbc9 903c
00000220: 0ec6 05be 7a5e 26be cef8 313e 094f 29be
00000230: a353 1dbe 464a 0f3e e60f d83c c9d0 c23d
00000240: a63e ea3d 12a7 39bc 5c0d 563d 1065 f2bd
00000250: 526c 453d 085b 813d 3e7b 233e a519 66bc
00000260: b535 babc 9934 963d 5eba b93d 1f9d 60bd
00000270: bfa6 c23c afc3 563d 9b3f e9bd 8c61 af3c
00000280: 8e3e 623c 2f3f d8bc b715 a9bd 54fb 743b
00000290: db0c 9abd 601e 97bc a38d 8fbd c936 8e3d
000002a0: 6a5e 16be 41d4 de3d 1c71 4ebc 3d42 ac3b
000002b0: 913a 11be 01ec 2abe b33b b7bd 9da3 04be
000002c0: ffb0 063e 3409 0b3e 842d 07be 14f2 3dbd
000002d0: dce7 34be baa7 2ebe 99ed 033d ba97 21bd
000002e0: ddc8 233e 9ef1 0b3d 827e 48bd 90fe ebbd
000002f0: 7534 f4bc 0065 113e e105 1a3e dd1e 0cbe
00000300: 9509 52bd ba58 28bd 7944 afbd 662c 093e
00000310: 0153 91bc abd1 f4bd 0c2a 643c a501 1c3c
00000320: 460c 85bd 4435 9fbd aa4a f0bd 9a70 763c
00000330: 8bc5 31be cfaf 08be 7bc6 debd d87c 03be
00000340: 186c c2bc 24dc 6dbb 8cfa debc 424e 1fbe
00000350: 832a d93d 6e7a 98bd 02fa 963d 614d 9f3d
00000360: 5617 e2bd ee23 21be 0adc 9c3d d021 3fbd
00000370: 2c6c 11be 465c a7bc 32b3 10be 2d91 23be
00000380: 597d 45bd 73ec bcbc fdec e4bc 2e77 003d
00000390: c5b4 00be b9dc ff3d 60b8 e5bd 2380 84bc
000003a0: 5e7d 643d a7ab 0bbe 6e3d 603c d59e b1bb
000003b0: def8 01be c15c 1dbe b3cf 2b3e b692 bfbd
000003c0: b756 12bd 8417 a9bc f45a 333e 097e 2fbe
000003d0: 87a3 ccbd 33e6 a53d 7569 dabd 5804 38be
000003e0: 2b3a 1c3e 8bfd 84bd a9fc 09bd 9db7 0dbd
000003f0: 11fb 06be 2b67 bcbd 11fc e2bc 24b2 ee3d

bias f4 [1, 30]
0.0 0.0 0.0 0.0 0.0 0.0 0.0 0.0
0.0 0.0 0.0 0.0 0.0 0.0 0.0 0.0
0.0 0.0 0.0 0.0 0.0 0.0 0.0 0.0
0.0 0.0 0.0 0.0 0.0 0.0
00000000: 0000 0000 0000 0000 0000 0000 0000 0000
00000010: 0000 0000 0000 0000 0000 0000 0000 0000
00000020: 0000 0000 0000 0000 0000 0000 0000 0000
00000030: 0000 0000 0000 0000 0000 0000 0000 0000
00000040: 0000 0000 0000 0000 0000 0000 0000 0000
00000050: 0000 0000 0000 0000 0000 0000 0000 0000
00000060: 0000 0000 0000 0000 0000 0000 0000 0000
00000070: 0000 0000 0000 0000

weight f4 [30, 30]
-0.05576567 -0.08908854 0.054152988 -0.19628552 -0.14346702 0.044747368 0.07473022 0.29804
-0.07309861 0.07907477 0.07135959 0.079207055 -0.20227847 0.2345334 0.06444791 0.059594203
-0.17833725 0.09348976 0.0076090377 -0.03897553 -0.095111854 -0.1104786 0.18112864 0.02566339
0.0057443962 -0.20483261 -0.21327648 0.07152354 -0.01648637 0.2291318 0.00994978 -0.11392409
0.075068876 0.018611006 0.22774887 0.09621622 -0.15889664 -0.0013654977 0.16639526 0.002350725
-0.18396857 -0.011973399 0.15855339 0.012852704 0.061001856 0.059750754 -0.115218975 -0.1773312
0.06955913 -0.12545459 -0.0141276205 0.09508264 0.052366212 0.06035372 -0.12204524 0.06762232
-0.1263864 0.04960066 0.1244268 0.10427427 0.1670342 -0.114469565 0.03910412 -0.14185742
-0.25872084 -0.17314743 0.12031486 0.23142166 0.048734516 0.123656645 0.15218504 0.19230314
-0.012338246 0.20508881 0.21082468 -0.03146872 -0.30085322 0.27031034 0.17739128 0.052991193
0.25658625 -0.093269676 0.063281156 -0.06317826 0.059664134 0.19694023 -0.08711079 0.044748046
0.009904785 0.0015871391 -0.07317382 0.08086695 -0.16826089 0.07715718 0.11819735 -0.044753086
0.16810535 -0.17017959 -0.015501046 -0.042301364 -0.06365135 0.1153235 -0.019769955 0.0656885
-0.12767297 -0.18225263 -0.1370529 -0.07236132 -0.096150875 -0.1166582 0.1685755 0.16872872
-0.13797335 -0.07608875 -0.11731689 -0.06544819 -0.054577142 -0.25085658 -0.12258659 -0.2436162
-0.08341561 -0.095648564 0.09802499 -0.19678241 0.019043412 -0.063128404 -0.1213016 0.11372378
-0.25596902 0.103430375 -0.07052933 0.069692254 -0.14906637 0.1203152 0.11416735 0.2105099
0.03768741 0.11939088 0.06357646 0.008613485 -0.15498269 0.034434207 0.060615234 -0.014590645
-0.04316143 -0.22879796 0.00044010265 0.12869392 -0.074674204 0.018402508 -0.05625154 0.035077818
-0.18725687 0.03381777 0.03788801 0.06881739 0.17747457 -0.020891242 0.1074604 -0.2129133
-0.26331493 0.14276637 0.17786962 0.066356204 -0.24086455 -0.06620979 0.15331137 0.031073406
-0.028608395 -0.15129122 0.129621 0.22979039 -0.13941275 0.0022173466 0.15262184 0.02931176
0.041561194 -0.20204332 -0.1379588 -0.011827584 -0.19370149 0.19800125 -0.10453308 0.059860125
0.08526718 0.037566986 -0.13967375 -0.023223912 -0.21547253 0.039337765 0.21450798 0.016843472
-0.11960318 0.080438204 0.18244797 -0.07892583 -0.04357434 0.16890556 -0.17235194 0.03644436
-0.096620135 -0.07941873 -0.01825219 -0.16169621 -0.20192902 -0.1599071 -0.1245851 -0.04941058
0.114906505 0.14448518 0.16027558 -0.17067511 -0.05179214 -0.14210469 0.23014803 0.16652991
0.0947815 -0.15824953 0.09310637 0.050598245 -0.15425228 0.0791055 0.054660365 0.108293615
0.03016892 -0.25468814 -0.03173789 -0.103821196 -0.09065654 0.1206567 0.10017417 0.21865296
0.058526613 0.08541095 -0.09470755 0.09731644 0.17074233 -0.009864117 0.012340446 -0.1472192
0.020374073 -0.14844903 0.043131243 -0.054642804 0.07973999 -0.10110787 0.10636813 -0.077276245
-0.12241208 -0.2238481 0.020811636 0.039204314 0.08534565 0.09078159 -0.07217482 -0.2347854
00000000: 8b6a 64bd 0d74 b6bd 86cf 5d3d 12ff 48be
00000010: 05e9 12be 0449 373d 280c 993d b398 983e
00000020: b9b4 95bd f4f1 a13d fa24 923d 4f37 a23d
00000030: 1622 4fbe 8629 703e 44fd 833d 0d19 743d
00000040: 0a9e 36be 8f77 bf3d 3c55 f93b cea4 1fbd
00000050: 01ca c2bd 9b42 e2bd c979 393e 083c d23c
00000060: 7d3b bc3b a4bf 51be 2665 5abe ef7a 923d
00000070: 6c0e 87bc 87a1 6a3e 6704 233c 0951 e9bd
00000080: b6bd 993d 1c76 983c 0037 693e 020d c53d
00000090: cdb5 22be 80fa b2ba 8563 2a3e 9f0e 1a3b
000000a0: 4262 3cbe 132c 44bc d25b 223e 2694 523c
000000b0: 15dd 793d 35bd 743d edf7 ebbd 4f96 35be
000000c0: 0475 8e3d 2b77 00be 8977 67bc b0ba c23d
000000d0: f47d 563d 7635 773d dbf2 f9bd 927d 8a3d
000000e0: 706b 01be 102a 4b3d 7ad3 fe3d c08d d53d
000000f0: 030b 2b3e 056f eabd a42b 203d 1243 11be
00000100: 0f77 84be 8f4d 31be a367 f63d cdf9 6c3e
00000110: d89d 473d b23f fd3d 65d6 1b3e 1deb 443e
00000120: 5b26 4abc cd02 523e 6de2 573e 58e5 00bd
00000130: 6f09 9abe 1e66 8a3e 0fa6 353e 4b0d 593d
00000140: 465f 833e 2c04 bfbd 8d99 813d 9b63 81bd
00000150: 6162 743d b3aa 493e 2467 b2bd ba49 373d
00000160: ae47 223c 8d07 d03a 28dc 95bd 929d a53d
00000170: 954c 2cbe 9504 9e3d 7411 f23d 034f 37bd
00000180: cf23 2c3e 8f43 2ebe 19f8 7dbc 3244 2dbd
00000190: a45b 82bd ba2e ec3d 9af4 a1bc b187 863d
000001a0: b4bc 02be 6fa0 3abe 9857 0cbe 2c32 94bd
000001b0: c0ea c4bd 7fea eebd 0e9f 2c3e 39c7 2c3e
000001c0: e348 0dbe 6bd4 9bbd d643 f0bd b309 86bd
000001d0: 488c 5fbd 4670 80be ae0e fbbd 8676 79be
000001e0: ced5 aabd 65e3 c3bd 53c1 c83d 5481 49be
000001f0: ee00 9c3c 7749 81bd f96c f8bd 03e8 e83d
00000200: 5f0e 83be 4ed3 d33d ae71 90bd d0ba 8e3d
00000210: dba4 18be d167 f63d 92d0 e93d e88f 573e
00000220: 1d5e 1a3d 3583 f43d 6034 823d 931f 0d3c
00000230: c8b3 1ebe e20a 0d3d ae47 783d 9a0d 6fbc
00000240: 0aca 30bd 034a 6abe 94bd e639 57c8 033e
00000250: caee 98bd dbc0 963c 0468 66bd c2ad 0f3d
00000260: 44c0 3fbe 8184 0a3d 7530 1b3d 22f0 8c3d
00000270: e5bb 353e 1c24 abbc 3314 dc3d f205 5abe
00000280: 37d1 86be 5931 123e 7423 363e c3e5 873d
00000290: 32a5 76be 0099 87bd a8fd 1c3e a88d fe3c
000002a0: 275c eabc 16ec 1abe 5ebb 043e 2c4e 6b3e
000002b0: 37c2 0ebe e750 113b e648 1c3e 371f f03c
000002c0: 123c 2a3d 72e4 4ebe 1245 0dbe 7cc8 41bc
000002d0: af59 46be d7c0 4a3e 7015 d6bd e42f 753d
000002e0: 8fa0 ae3d d7df 193d a306 0fbe 1340 bebc
000002f0: d5a4 5cbe a320 213d fba7 5b3e 52fb 893c
00000300: 83f2 f4bd c9bc a43d a4d3 3a3e dea3 a1bd
00000310: 027b 32bd 94f5 2c3e 077d 30be ae46 153d
00000320: c7e0 c5bd 4aa6 a2bd 9e85 95bc b193 25be
00000330: 7bc6 4ebe b0be 23be 7926 ffbd c062 4abd
00000340: 1a54 eb3d ecf3 133e 481f 243e 75c5 2ebe
00000350: ff23 54bd e483 11be edab 6b3e d186 2a3e
00000360: ce1c c23d 2a0c 22be 8dae be3d 1b40 4f3d
00000370: 4ff4 1dbe 1002 a23d 8ce3 5f3d 0bc9 dd3d
00000380: d024 f73c 7c66 82be 97ff 01bd 35a0 d4bd
00000390: 23aa b9bd dc1a f73d 1e28 cd3d 90e6 5f3e
000003a0: 9ab9 6f3d f0eb ae3d 08f6 c1bd d74d c73d
000003b0: 14d7 2e3e 1b9d 21bc 952f 4a3c a1c0 16be
000003c0: 87e7 a63c 0603 18be 63aa 303d 22d1 5fbd
000003d0: b84e a33d a511 cfbd 89d7 d93d 0243 9ebd
000003e0: 2fb3 fabd 7038 65be 2a7d aa3c b494 203d
000003f0: b3c9 ae3d b3eb b93d 64d0 93bd 956b 70be

weight f4 [30, 30]
0.067978464 0.039438475 -0.1266501 0.063252345 0.0042533567 -0.061915345 -0.002820706 0.17107956
0.048295643 0.15150781 -0.16847244 -0.15352222 0.13482918 -0.048337102 -0.026270343 -0.060521696
-0.17344886 -0.17291245 -0.1728068 -0.044049077 0.09840919 0.15731934 -0.15569304 -0.14178847
0.13136858 -0.16851865 -0.08723699 -0.04612317 -0.026709486 -0.008622631 0.04141132 -0.18023017
0.016262768 -0.12521558 0.1661922 -0.003684867 0.08133804 -0.100107 0.1669913 -0.01787047
0.15857103 -0.09284141 -0.075850226 0.068578236 -0.010116811 -0.094165996 -0.023283878 -0.16099891
0.15250131 0.020319853 -0.010444693 0.103098705 0.06366121 0.13987991 0.1166445 -0.0112144835
-0.07070241 -0.073663734 0.16768245 0.013866971 -0.10114843 -0.06539495 0.14939946 -0.08165726
0.04443063 0.009045364 0.051463164 0.17072122 -0.15125854 -0.16156977 -0.06426433 -0.026264552
0.07043135 -0.0071232943 -0.000911673 -0.17709582 -0.14834268 0.13579123 0.002209427 0.07754278
-0.105405614 -0.10112623 0.037570577 -0.0642838 -0.12870386 0.15564002 0.123732574 0.12987807
-0.077494204 -0.13589185 -0.14104655 0.062387224 0.16002676 0.14946406 -0.02985309 -0.04429667
0.14903194 0.12030699 -0.10591349 0.099395275 -0.08253753 -0.09735946 0.023360597 0.07542982
0.13884658 0.062155955 0.072085 -0.007724365 0.109369546 0.074467786 -0.0966973 0.039697494
-0.069707684 -0.0067067426 0.0225621 0.10206565 -0.046265945 -0.07089768 -0.16304399 -0.052694734
0.15337956 0.018138567 0.023139186 0.044328097 -0.0108027635 0.12149427 0.17282793 0.109936364
0.1768633 -0.16926843 0.059977736 -0.04275104 -0.09467291 -0.16419277 0.08678699 -0.13634567
-0.04939179 0.027082529 0.14977746 0.06609152 -0.10871144 0.13401726 -0.028086832 0.03525853
-0.10904602 -0.16438434 0.1411982 0.033800546 0.05729863 0.019571412 0.0114079695 0.015168185
-0.102864 -0.07569306 0.09470384 0.16274914 -0.020108953 -0.04066532 0.08636961 -0.062317077
0.18160333 -0.027250117 -0.12415862 -0.12378398 -0.119373076 -0.029239526 0.0208074 0.0022687572
0.057418704 -0.01932791 -0.047825832 -0.018468603 -0.11656715 -0.14424892 -0.023863925 0.15247922
0.11652342 0.076467834 0.091284215 0.14294519 0.056700714 0.1011806 0.019954447 0.104855776
0.16797225 -0.0852594 0.09976745 -0.07930839 -0.09461487 -0.117768504 0.0674174 -0.13194181
-0.08028277 0.15140373 0.08568988 0.11573727 -0.0014410083 -0.030397072 0.014944925 0.05955435
0.17710248 0.115880474 0.052627698 0.12617403 -0.090838544 -0.07368254 0.06678492 0.1285933
-0.05444961 0.012510213 0.0390379 -0.009533913 0.15526699 -0.099656075 -0.047544982 -0.0017172438
0.021804586 0.08220155 -0.12913086 -0.0687071 0.03696648 -0.16422418 -0.092538506 -0.044842392
-0.13381957 -0.12249524 0.15298447 0.010294496 -0.047293082 0.055153146 0.11916764 -0.10580267
0.10606123 0.034592774 0.03558058 0.16962713 0.024740035 -0.055091858 -0.12749098 0.08421051
0.08685825 0.07110207 -0.12749708 0.09352571 0.17157179 0.027549574 0.16578439 0.1281047
0.09494045 0.13446891 0.11421869 -0.064670585 -0.07223505 0.13392417 0.11100628 -0.16298261
00000000: 4b38 8b3d 3d8a 213d 90b0 01be 728a 813d
00000010: be5f 8b3b f29a 7dbd 98db 38bb 7b2f 2f3e
00000020: a7d1 453d dd24 1b3e 0a84 2cbe ee34 1dbe
00000030: a910 0a3e 20fd 45bd e734 d7bc 99e5 77bd
00000040: 949c 31be f60f 31be 44f4 30be ce6c 34bd
00000050: c28a c93d 5218 213e ff6d 1fbe ff30 11be
00000060: 7c85 063e 2790 2cbe 4fa9 b2bd a6eb 3cbd
00000070: dacd dabc f045 0dbc eb9e 293d 428e 38be
00000080: 7f39 853c 8338 00be 4a2e 2a3e cf7d 71bb
00000090: 8f94 a63d e604 cdbd c4ff 2a3e 1865 92bc
000000a0: 7260 223e a323 bebd 5d57 9bbd bf72 8c3d
000000b0: fbc0 25bc 1ada c0bd d5bd bebc e6dc 24be
000000c0: 4e29 1c3e d275 a63c 3820 2bbc 6a25 d33d
000000d0: cf60 823d ae3c 0f3e 50e3 ee3d f4bc 37bc
000000e0: 6dcc 90bd 03dd 96bd f3b4 2b3e 4b32 633c
000000f0: e826 cfbd caed 85bd 2cfc 183e ec3b a7bd
00000100: e4fc 353d 0233 143c 0acb 523d 8bd1 2e3e
00000110: 85e3 1abe 8c72 25be 049d 83bd c228 d7bc
00000120: 503e 903d 866a e9bb 57fd 6eba 9b58 35be
00000130: 25e7 17be db0c 0b3e 09cc 103b c0ce 9e3d
00000140: e6de d7bd 451b cfbd 9be3 193d 3aa7 83bd
00000150: f2ca 03be 1960 1f3e 8167 fd3d c2fe 043e
00000160: 48b5 9ebd 3c27 0bbe 826e 10be bf89 7f3d
00000170: 0ede 233e 1b0d 193e 788e f4bc 6d70 35bd
00000180: d49b 183e 8363 f63d 2ce9 d8bd c08f cb3d
00000190: 7009 a9bd 6664 c7bd b95e bf3c f37a 9a3d
000001a0: cc2d 0e3e 3e97 7e3d 4da1 933d ac1c fdbb
000001b0: 24fd df3d 9182 983d 3c09 c6bd d799 223d
000001c0: e7c2 8ebd 3cc4 dbbb 27d4 b83c cc07 d13d
000001d0: 5c81 3dbd ce32 91bd 01f5 26be 6fd6 57bd
000001e0: 880f 1d3e 5597 943c 648e bd3c 6191 353d
000001f0: 13fe 30bc fdd1 f83d cef9 303e 5126 e13d
00000200: a71b 353e b454 2dbe 37ab 753d b71b 2fbd
00000210: dfe3 c1bd 2622 28be 61bd b13d 339e 0bbe
00000220: 0c4f 4abd 2edc dd3c 435f 193e fe5a 873d
00000230: 1aa4 debd d23b 093e 5b16 e6bc 406b 103d
00000240: 8553 dfbd 5e54 28be 4396 103e 7172 0a3d
00000250: f8b1 6a3d 3a54 a03c 7ee8 3a3c fb83 783c
00000260: 5caa d2bd f704 9bbd 16f4 c13d b6a7 263e
00000270: 88bb a4bc ae90 26bd 8de2 b03d 3140 7fbd
00000280: 39f6 393e a33b dfbc e046 febd 7582 fdbd
00000290: df79 f4bd bb87 efbc 4874 aa3c 6eaf 143b
000002a0: e02f 6b3d 9155 9ebc 05e5 43bd 784b 97bc
000002b0: c2ba eebd fdb5 13be 477e c3bc 8323 1c3e
000002c0: d5a3 ee3d 2b9b 9c3d 38f3 ba3d 3960 123e
000002d0: 023f 683d c637 cf3d 8277 a33c a0be d63d
000002e0: eb00 2c3e 7b9c aebd e052 cc3d 706c a2bd
000002f0: 71c5 c1bd 9d30 f1bd 2212 8a3d c11b 07be
00000300: 4b6b a4bd 9409 1b3e 2d7e af3d a907 ed3d
00000310: 37e0 bcba 4803 f9bc 8fdb 743c 43ef 733d
00000320: 5a5a 353e be52 ed3d 2490 573d c433 013e
00000330: 8f09 babd dfe6 96bd 88c6 883d f6ad 033e
00000340: 8e06 5fbd a3f7 4c3c 34e6 1f3d 2134 1cbc
00000350: 4ffe 1e3e 7c18 ccbd 87be 42bd 2415 e1ba
00000360: 889f b23c 4959 a83d e13a 04be 4fb6 8cbd
00000370: 2a6a 173d 622a 28be d484 bdbd a8ac 37bd
00000380: ff07 09be c9de fabd f6a7 1c3e 3faa 283c
00000390: 64b6 41bd 44e8 613d 2a0e f43d 12af d8bd
000003a0: a136 d93d 27b1 0d3d f1bc 113d bcb2 2d3e
000003b0: 9dab ca3c 00a8 61bd ff8c 02be 8f76 ac3d
000003c0: bde2 b13d f69d 913d 988e 02be 688a bf3d
000003d0: 84b0 2f3e a5af e13c 62c3 293e e12d 033e
000003e0: 2370 c23d 38b2 093e 7deb e93d 0372 84bd
000003f0: f8ef 93bd 6b23 093e 4357 e33d eae4 26be

bias f4 [1, 30]
0.0 0.0 0.0 0.0 0.0 0.0 0.0 0.0
0.0 0.0 0.0 0.0 0.0 0.0 0.0 0.0
0.0 0.0 0.0 0.0 0.0 0.0 0.0 0.0
0.0 0.0 0.0 0.0 0.0 0.0
00000000: 0000 0000 0000 0000 0000 0000 0000 0000
00000010: 0000 0000 0000 0000 0000 0000 0000 0000
00000020: 0000 0000 0000 0000 0000 0000 0000 0000
00000030: 0000 0000 0000 0000 0000 0000 0000 0000
00000040: 0000 0000 0000 0000 0000 0000 0000 0000
00000050: 0000 0000 0000 0000 0000 0000 0000 0000
00000060: 0000 0000 0000 0000 0000 0000 0000 0000
00000070: 0000 0000 0000 0000

weight f4 [30, 30]
-0.100386426 -0.018615361 -0.27773663 -0.06642592 0.12091709 0.11261114 0.10410777 0.019953933
-0.01541001 0.28122133 -0.07260029 0.11257451 -0.05306476 0.020458665 -0.03699422 0.046099454
0.01641329 0.0929627 0.077026434 0.06858052 -0.02243147 -0.06645434 -0.11358971 -0.046879422
-0.20688477 0.16247821 0.047597297 -0.011271 -0.02474775 -0.17239109 -0.1847961 0.108300745
-0.05088231 0.18389326 -0.23191574 0.023306202 0.07710943 0.010144942 0.14650482 -0.020724706
0.066327184 -0.25762343 -0.045341138 0.08296282 0.12790236 -0.07287728 0.08220788 0.08963913
-0.0102787735 -0.1039618 -0.042236328 0.016531292 0.28503346 0.26970434 0.06098177 -0.18003073
0.06171455 0.05031991 -0.012194856 -0.23091717 0.06527586 -0.011269506 0.15142839 -0.15291993
-0.16019554 0.11251355 0.058312126 0.09462253 -0.138545 -0.035113063 0.03347595 -0.075297356
-0.0057325056 0.07965693 -0.09026406 -0.1249456 0.10679882 0.08441393 0.005428106 -0.10915975
-0.09756597 -0.14104342 -0.2089292 -0.12215798 0.09498884 0.0643545 -0.13688958 -0.15387948
0.16700728 -0.23667155 -0.37683782 -0.0593352 -0.1470334 0.10948241 -0.060452037 0.31282797
-0.0074366448 0.013720034 -0.04348953 0.06893238 -0.2803853 -0.15995282 -0.28478098 0.35116956
0.19651791 -0.071987785 0.0025458448 0.37351462 0.1749024 -0.046560977 -0.23982786 0.17160363
0.31411538 0.114061385 0.22709304 -0.12346123 -0.30523574 0.23782487 0.2034114 -0.3756552
-0.06395942 -0.25173235 0.21198614 0.0050888644 -0.067659274 -0.17463544 -0.092497975 0.09816323
0.18411234 0.015901007 0.053306345 -0.09203668 -0.03863504 -0.06952501 -0.15422927 -0.06511552
0.1291472 0.11652269 -0.14802451 -0.053855624 -0.043036398 -0.06730593 -0.1104676 -0.13887128
-0.21898052 0.14051355 0.14822486 -0.27790442 0.004018385 -0.06892636 -0.19374885 0.13958585
-0.034414373 0.0322975 -0.13596532 -0.048617963 -0.052802045 -0.011423372 0.047922518 0.09739873
0.05258124 -0.053922616 0.12365836 0.17659335 0.024394939 0.08983816 -0.35334024 0.23663297
0.1599177 -0.0033472674 -0.071709774 -0.23027876 0.1970318 0.019343112 -0.025569258 -0.33068174
0.09041603 0.45452428 -0.08352041 -0.14458586 0.06527543 0.09882141 -0.05468688 0.09235883
0.10578685 -0.18489823 0.14991748 -0.10325859 -0.120170735 0.20160972 -0.06582556 -0.11134908
-0.019743932 -0.033847615 -0.08822282 0.037400033 -0.11161981 -0.01730034 -0.20239042 -0.0009793208
0.07394579 0.14840107 -0.13295244 -0.042581398 0.044631485 0.11354402 0.17255175 0.21766439
0.02166792 0.04646331 0.13166122 -0.12714648 -0.025820404 -0.10713614 -0.17323512 0.055950306
-0.14191078 0.003326455 -0.056504417 0.09095539 -0.045627464 -0.07896575 -0.18187281 -0.022896646
-0.06675199 -0.056241423 -0.08151268 0.16483867 -0.07198806 -0.07386016 -0.026799362 -0.081677526
-0.007619666 -0.07602975 0.15320273 0.1502614 0.033999056 -0.005204327 0.054613438 0.23947819
0.19342713 -0.042204577 0.029206986 -0.061278097 0.17883356 -0.01131023 0.05791989 -0.17061739
-0.10794858 0.20351186 0.05278175 -0.10538008 -0.0076499796 -0.06104763 0.044532023 0.09635131
00000000: 6697 cdbd 3e7f 98bc 7f33 8ebe 500a 88bd
00000010: 61a3 f73d aba0 e63d 7436 d53d 6e76 a33c
00000020: 447a 7cbc 3efc 8f3e 76af 94bd 778d e63d
00000030: 6f5a 59bd ee98 a73c 4087 17bd c8d2 3c3d
00000040: 2a75 863c 3a63 be3d 09c0 9d3d f273 8c3d
00000050: 34c2 b7bc 3719 88bd b9a1 e8bd a304 40bd
00000060: 9ad9 53be b060 263e 62f5 423d 00aa 38bc
00000070: cbbb cabc 4a87 30be 303b 3dbe c8cc dd3d
00000080: f869 50bd 844e 3c3e 527b 6dbe a6ec be3c
00000090: 8deb 9d3d f936 263c 5c05 163e dcc6 a9bc
000000a0: 8cd6 873d 38e7 83be a1b7 39bd 69e8 a93d
000000b0: d6f8 023e af40 95bd 9b5c a83d b894 b73d
000000c0: 4d68 28bc ede9 d4bd 0000 2dbd a26c 873c
000000d0: e8ef 913e b016 8a3e 05c8 793d fa59 38be
000000e0: 65c8 7c3d 401c 4e3d efcc 47bc 8d75 6cbe
000000f0: 5aaf 853d bca3 38bc 0b10 1b3e 0b97 1cbe
00000100: 4d0a 24be 816d e63d b2d8 6e3d 75c9 c13d
00000110: bede 0dbe b7d2 0fbd 141e 093d 8035 9abd
00000120: bed7 bbbb 2c23 a33d 5ddc b8bd 7be3 ffbd
00000130: 57b9 da3d 36e1 ac3d 41de b13b 268f dfbd
00000140: abd0 c7bd b06d 10be 89f1 55be f72d fabd
00000150: 8289 c23d 4bcc 833d c82c 0cbe 9592 1dbe
00000160: f503 2b3e 075a 72be e3f0 c0be 7709 73bd
00000170: ec8f 16be 5038 e03d 8e9c 77bd fd2a a03e
00000180: 19af f3bb fec9 603c 1422 32bd 6b2c 8d3d
00000190: a98e 8fbe acca 23be d0ce 91be 7fcc b33e
000001a0: fe3b 493e 556e 93bd 30d8 263b 4f3d bf3e
000001b0: 9d19 333e b9b6 3ebd 6f95 75be ddb8 2f3e
000001c0: bbd3 a03e 0499 e93d 148b 683e 3ed9 fcbd
000001d0: dc47 9cbe 5d88 733e 144b 503e e155 c0be
000001e0: 28fd 82bd 10e3 80be e512 593e 7dc0 a63b
000001f0: f290 8abd a2d3 32be 946f bdbd ce09 c93d
00000200: f287 3c3e d442 823c c157 5a3d ba7d bcbd
00000210: c73f 1ebd 2163 8ebd 47ee 1dbe 495b 85bd
00000220: 2a3f 043e 73a3 ee3d bd93 17be b797 5cbd
00000230: ef46 30bd b1d7 89bd d63c e2bd 4634 0ebe
00000240: 6e3c 60be c9e2 0f3e 42c8 173e 7d49 8ebe
00000250: a8ac 833b 4329 8dbd 1966 46be 98ef 0e3e
00000260: 16f6 0cbd 624a 043d 7e3a 0bbe a123 47bd
00000270: f546 58bd 1829 3bbc 674a 443d fc78 c73d
00000280: 6d5f 573d f6dd 5cbd 9840 fd3d e3d4 343e
00000290: e5d7 c73c 12fd b73d 03e9 b4be ea4f 723e
000002a0: 77c1 233e d45d 5bbb 93dc 92bd 32ce 6bbe
000002b0: b4c2 493e 7275 9e3c 9f76 d1bc 1e4f a9be
000002c0: 0a2c b93d 68b7 e83e c00c abbd 510e 14be
000002d0: 20af 853d e162 ca3d 5aff 5fbd a026 bd3d
000002e0: c7a6 d83d f655 3dbe f883 193e 3d79 d3bd
000002f0: 131c f6bd c772 4e3e 8dcf 86bd fd0a e4bd
00000300: 07be a1bc cca3 0abd 2aae b4bd c730 193d
00000310: ed98 e4bd 71b9 8dbc 6f3f 4fbe 8e5c 80ba
00000320: e470 973d 73f6 173e af24 08be d569 2ebd
00000330: 81cf 363d c489 e83d 68b1 303e 6ae3 5e3e
00000340: ec80 b13c 5050 3e3d 33d2 063e b032 02be
00000350: 5085 d3bc 316a dbbd 8c64 31be 262c 653d
00000360: 0f51 11be a700 5a3b 2d71 67bd d246 ba3d
00000370: dde3 3abd ccb8 a1bd de3c 3abe bf91 bbbc
00000380: 44b5 88bd 685d 66bd 1ff0 a6bd 78cb 283e
00000390: 7a6e 93bd ff43 97bd 568a dbbc 8c46 a7bd
000003a0: 64ae f9bb 7cb5 9bbd 2de1 1c3e 20de 193e
000003b0: 9842 0b3d 0f89 aabb 57b2 5f3d c539 753e
000003c0: c311 463e b5de 2cbd 7d43 ef3c befe 7abd
000003d0: 2520 373e 8b4e 39bc 683d 6d3d 53b6 2ebe
000003e0: 2514 ddbd 6a65 503e ad31 583d 83d1 d7bd
000003f0: aeac fabb 140d 7abd 3667 363d d653 c53d

weight f4 [94, 10]
-0.08127938 0.037433863 -0.26725876 -0.061914653 0.2635382 0.26939848 0.22667554 -0.074333206
0.23051402 -0.17404646 -0.22187766 -0.30765012 -0.14615043 0.05565536 0.16121429 0.06384534
0.11140713 0.13068041 -0.09455037 0.27974483 0.11157039 0.002700448 -0.24533674 -0.15008079
-0.05274102 -0.25192076 0.30157772 0.15421635 0.020580202 -0.0020231307 -0.2882101 -0.21936458
0.09115508 -0.15517281 -0.20672765 0.048800826 -0.270517 -0.19277355 0.22352841 0.0992375
0.3083885 0.30166444 -0.009269148 0.06917772 -0.28172544 0.12893397 -0.24642509 0.13351852
0.04606387 -0.15508506 0.07014167 -0.04451093 -0.07767251 -0.091263205 -0.12025194 -0.044502854
-0.0860807 0.3161504 0.19399688 0.0520975 -0.10950643 0.25180092 0.2111012 -0.05142075
-0.26392192 0.041071445 -0.20898849 -0.23550321 -0.10855314 -0.23780836 0.14446649 -0.28720212
-0.105906755 0.007399291 -0.14961632 -0.310739 0.31107625 0.15836075 -0.2669383 -0.09747282
-0.11399332 -0.15135054 0.07682553 -0.22081196 0.008651525 -0.23338339 -0.2352737 -0.06437299
-0.19405094 -0.008039594 0.28357968 0.31490567 0.14206931 -0.098039865 -0.30790123 0.2815512
0.094940156 -0.0763824 -0.16633935 0.07626116 0.17513093 -0.017746061 -0.21526974 -0.27938282
0.2960727 0.113420606 0.0809356 -0.17393653 0.28609458 0.05480516 0.07169485 -0.07741639
0.1904212 0.14374214 0.29523668 -0.020852476 -0.22233829 0.19254473 0.23036978 0.001980424
0.0930925 -0.08532672 -0.14279513 -0.07901664 0.011831939 0.14689267 0.14109856 -0.10208486
0.052031577 0.15676537 -0.22838159 0.30503997 -0.14678007 -0.14925475 -0.0045401454 0.06520039
-0.18955119 0.19705144 -0.0853574 0.27017733 0.26150712 -0.16921227 0.2429392 0.15131065
0.0065481663 -0.19617265 0.08330268 0.1810706 -0.21365383 -0.27711922 -0.26011097 -0.15011775
0.14063913 -0.2283051 -0.18229657 0.017629594 -0.2625103 0.23714754 0.21176586 0.023399055
0.24716154 -0.1703704 0.2979578 -0.032921106 -0.073117435 -0.12461099 0.15031797 -0.21258771
0.21014497 -0.08961497 0.30381247 -0.042196304 -0.21835566 -0.25532767 0.02442211 0.053367376
-0.14328645 -0.2969381 -0.19597021 0.27011076 -0.07709718 0.17539817 -0.06442577 -0.062469244
0.24713102 0.026545376 -0.2712564 -0.22131214 0.16953868 0.25700602 0.20594165 -0.08967683
0.28605685 0.1196132 0.04428938 -0.084139735 0.15396097 0.043495536 0.20979336 -0.19162835
0.023593187 0.19851133 0.10825184 -0.05833903 0.07227871 -0.25768253 -0.18782002 -0.29889312
-0.28626117 0.13432068 0.2802547 0.209088 0.17002314 -0.21577883 -0.11347045 0.26871404
0.11373481 -0.28317875 -0.3148534 0.24893239 0.058341563 0.09538761 -0.22667977 0.0074005127
-0.2527884 -0.27405894 -0.024194837 0.2701272 0.11681762 -0.27683493 -0.12363067 0.10933247
-0.12958111 -0.09621346 0.0832926 -0.096801504 0.20311972 -0.21949585 0.13920742 0.31403527
-0.2942418 -0.30659848 -0.12135421 -0.21623608 -0.02426511 0.2829599 0.13197473 -0.23886147
-0.14609112 -0.20474629 0.25271675 -0.16606861 0.21351257 0.25349888 0.0020348728 -0.13402008
00000000: ce75 a6bd 4054 193d 24d6 88be 389a 7dbd
00000010: 7bee 863e 99ee 893e a21d 683e 023c 98bd
00000020: de0b 6c3e 3c39 32be e633 63be 5184 9dbe
00000030: 75a8 15be e0f6 633d 5c15 253e 58c1 823d
00000040: 6c29 e43d 16d1 053e a0a3 c1bd b73a 8f3e
00000050: 047f e43d 00fa 303b 8e39 7bbe c7ae 19be
00000060: f806 58bd c2fb 80be 6568 9a3e e4ea 1d3e
00000070: d097 a83c 8096 04bb 4690 93be 1ca1 60be
00000080: 84af ba3d 9fe5 1ebe 6ab0 53be 60e3 473d
00000090: 3481 8abe 6e66 45be a2e4 643e 083d cb3d
000000a0: 19e5 9d3e c373 9a3e a0dd 17bc 0cad 8d3d
000000b0: 513e 90be 4407 043e dc56 7cbe 14b9 083e
000000c0: 78ad 3c3d 9ece 1ebe 70a6 8f3d 1851 36bd
000000d0: c412 9fbd 34e8 babd a646 f6bd a048 36bd
000000e0: 144b b0bd 77de a13e 1ea7 463e 3064 553d
000000f0: e844 e0bd 0dec 803e ea2a 583e 909e 52bd
00000100: c620 87be 883a 283d 1401 56be c127 71be
00000110: 1c51 debd 0984 73be 06ef 133e 280c 93be
00000120: a4e5 d8bd c075 f23b 0535 19be 2f19 9fbe
00000130: 6345 9f3e 5229 223e 23ac 88be d49f c7bd
00000140: 5475 e9bd a3fb 1abe b456 9d3d 881c 62be
00000150: 20bf 0d3c 0efc 6ebe 97eb 70be fcd5 83bd
00000160: 4ab5 46be 80b8 03bc 5b31 913e 513b a13e
00000170: 9e7a 113e 20c9 c8bd 3ba5 9dbe 7b27 903e
00000180: fc6f c23d 606e 9cbd dd54 2abe d02e 9c3d
00000190: 8655 333e 3060 91bc ac6f 5cbe 440b 8fbe
000001a0: d796 973e 1049 e83d 90c1 a53d 6b1c 32be
000001b0: fd7a 923e 607b 603d c0d4 923d 7c8c 9ebd
000001c0: c6fd 423e 2431 133e 4329 973e d0d2 aabc
000001d0: a6ac 63be 722a 453e 0ee6 6b3e 00ca 013b
000001e0: 48a7 be3d c6bf aebd e338 12be 7ad3 a1bd
000001f0: c0da 413c 086b 163e 247c 103e de11 d1bd
00000200: 101f 553d 1a87 203e dddc 69be 332e 9c3e
00000210: 844d 16be 3dd6 18be 80c5 94bb c887 853d
00000220: b519 42be dac7 493e dccf aebd af54 8a3e
00000230: 43e4 853e fb45 2dbe 0ec5 783e 2ef1 1a3e
00000240: 0092 d63b 7ce1 48be 989a aa3d 926a 393e
00000250: 12c8 5abe 92e2 8dbe 442d 85be 78b8 19be
00000260: b403 103e d0c8 69be f4ab 3abe f06b 903c
00000270: c067 86be ced6 723e 26d9 583e 60af bf3c
00000280: ea17 7d3e 9475 2ebe ed8d 983e 48d8 06bd
00000290: 98be 95bd 0c34 ffbd f4ec 193e 98b0 59be
000002a0: 3e30 573e 0e88 b7bd 4f8d 9b3e 08d6 2cbd
000002b0: a098 5fbe 4fba 82be e010 c83c c097 5a3d
000002c0: afb9 12be 4508 98be 6aac 48be f54b 8a3e
000002d0: 20e5 9dbd 949b 333e a8f1 83bd c0df 7fbd
000002e0: ea0f 7d3e b075 d93c 1ee2 8abe a69f 62be
000002f0: 8c9b 2d3e 4b96 833e 5ee2 523e 7ca8 b7bd
00000300: 0b76 923e c4f7 f43d c868 353d 7451 acbd
00000310: f2a7 1d3e 6028 323d 12d4 563e 393a 44be
00000320: 8046 c13c 8e46 4b3e 24b3 dd3d e8f4 6ebd
00000330: dc06 943d f7ee 83be e453 40be 8508 99be
00000340: d390 92be 5c8b 093e 8b7d 8f3e 2a1b 563e
00000350: 8c1a 2e3e 20f5 5cbe 3263 e8bd e394 893e
00000360: cced e83d cefc 90be 7734 a1be 22e8 7e3e
00000370: 90f7 6e3d 945a c33d be1e 68be 0080 f23b
00000380: 7b6d 81be 7451 8cbe 4034 c6bc 1d4e 8a3e
00000390: 143e ef3d 4fbd 8dbe 1432 fdbd b4e9 df3d
000003a0: e9b0 04be 900b c5bd 5095 aa3d de3f c6bd
000003b0: 9efe 4f3e 85c3 60be 648c 0e3e 3bc9 a03e
000003c0: dca6 96be 7afa 9cbe 8e88 f8bd fe6c 5dbe
000003d0: a0c7 c6bc 1fe0 903e 6224 073e 1a98 74be
000003e0: e998 15be 03a9 51be 1764 813e e40d 2abe
000003f0: 0aa3 5a3e 9bca 813e 805b 053b 8f3c 09be

bias f4 [1, 10]
0.0 0.0 0.0 0.0 0.0 0.0 0.0 0.0
0.0 0.0
00000000: 0000 0000 0000 0000 0000 0000 0000 0000
00000010: 0000 0000 0000 0000 0000 0000 0000 0000
00000020: 0000 0000 0000 0000

weight f4 [10, 94]
-0.06526598 0.028939813 0.13894166 -0.004815571 -0.075349964 -0.070937045 -0.022961698 -0.05099486
0.052414406 0.054714818 0.0206406 -0.055990417 0.037089206 0.0055376873 -0.36487353 -0.06661122
-0.081259415 -0.09065996 0.03504664 -0.101977274 -0.098452315 -0.012474268 -0.080901794 0.0077980976
-0.08290958 0.051935796 -0.19760919 0.025424039 -0.102348134 -0.005176162 0.13033122 0.14909565
0.05243548 0.09711394 0.14834693 0.013855364 0.040630735 0.008689358 0.16117117 0.06332235
0.14511746 0.06236991 0.013538017 0.021614797 0.139715 0.027197963 0.116317235 0.044663016
0.115486056 0.1281617 0.072850734 0.11836971 0.18568023 0.16537803 0.057011396 0.021132419
0.039500054 0.1124471 0.10285952 0.07038241 0.032203265 0.10666061 0.028742105 0.13367335
0.109738484 0.008518402 0.10948217 0.13485435 0.023681996 0.15592661 0.09110458 0.08677341
0.16951302 -0.029687548 0.12672311 0.16122983 0.11198197 0.026620355 0.032258086 0.16365536
0.1143709 0.15253061 0.120708846 0.15044808 -0.0010891537 0.020522019 0.13498454 0.1571615
0.17394723 0.025066815 0.14505777 0.18395127 0.15643124 0.09140223 0.04366488 -0.003695551
0.064075485 -0.13993202 -0.01652998 -0.13746831 0.05220986 -0.16942112 0.004165382 -0.14463736
0.028267883 0.01340751 -0.1575915 -0.06058833 -0.34166884 0.063548736 -0.18648797 0.09741035
-0.06621721 -0.06959897 -0.010954295 -0.0108024655 -0.12892999 -0.06751312 -0.022268206 -0.10548242
-0.11661793 0.016058842 0.030033017 0.010664386 0.0491043 -0.020032857 0.14196958 0.01690473
0.041373983 0.08488646 0.07752927 0.13319515 0.020375779 0.11650137 0.048210237 0.0036245955
0.15837875 0.0030013775 0.13810721 0.061209377 0.041045386 0.16477673 0.08224939 0.008659984
0.009085094 0.12595281 0.092866175 0.08934604 0.013361231 0.022636129 0.12165337 -0.01555001
0.13133344 0.13653235 0.1199259 0.001091196 0.13177153 0.09567291 0.13708884 0.1291306
-0.023921652 0.1211113 0.08383984 0.049122654 0.056211263 -0.055749018 -0.06731747 0.108569585
0.12049867 -0.007328859 -0.005228866 -0.021250593 0.13911244 0.12980436 0.17446783 0.116662405
0.10641714 0.05532315 0.018303286 0.14889358 0.13458496 0.051485263 0.10207454 0.12446801
-0.016966168 0.06769256 0.03237058 0.08953956 -0.14771514 0.060351565 0.06310585 0.059930217
0.024437862 0.00726184 -0.06766068 -0.058626615 -0.016953886 0.0142295305 -0.018094392 -0.062401924
0.022021648 -0.013755982 -0.38512844 -0.14648238 -0.031539604 0.051695604 -0.068891294 -0.05381872
-0.08384069 0.106022015 0.092490636 -0.08673191 -0.14598882 -0.008919504 -0.2011093 -0.049124066
-0.07590261 -0.04400127 -0.0051722075 0.11640132 0.12949722 0.08835589 0.031245397 0.03862272
0.100983396 0.025022494 0.09339937 0.1252499 0.17001015 0.0990434 0.18089083 -0.0052260845
0.093110934 0.04256631 0.024047146 0.15179257 0.14247704 0.19095051 0.069987044 0.13310327
0.0473692 0.08843361 0.09725903 0.051224697 0.028930193 0.183881 0.0074310843 0.18923804
0.17908573 0.19580182 0.18552469 0.046970826 0.05156633 0.047111113 0.11807256 0.11793176
00000000: 2caa 85bd 3013 ed3c b946 0e3e f0cb 9dbb
00000010: 1551 9abd 7147 91bd 2c1a bcbc fcdf 50bd
00000020: 7db0 563d a51c 603d 7a16 a93c 3556 65bd
00000030: daea 173d 7d75 b53b b4d0 babe 776b 88bd
00000040: 566b a6bd eeab b9bd 118d 0f3d 76d9 d0bd
00000050: 5ea1 c9bd df60 4cbc d7af a5bd 2f87 ff3b
00000060: 7fcc a9bd a1ba 543d 105a 4abe 1346 d03c
00000070: e69b d1bd cb9c a9bb 8c75 053e 88ac 183e
00000080: 96c6 563d ace3 c63d 42e8 173e 9c01 633c
00000090: 6a6c 263d cf5d 0e3c 0e0a 253e 26af 813d
000000a0: ac99 143e 9777 7f3d 8fce 5d3c 8411 b13c
000000b0: 7311 0f3e 43ce de3c bb37 ee3d 91f0 363d
000000c0: f483 ec3d d23c 033e c432 953d d26b f23d
000000d0: f522 3e3e dc58 293e c884 693d e51d ad3c
000000e0: cfca 213d aa4a e63d 03a8 d23d a724 903d
000000f0: 92e7 033d e170 da3d 9074 eb3c abe1 083e
00000100: 92be e03d c590 0b3c 3038 e03d 4217 0a3e
00000110: bf00 c23c 3aab 1f3e 0a95 ba3d 42b6 b13d
00000120: d294 2d3e 4d33 f3bc b4c3 013e 6f19 253e
00000130: ce56 e53d ee12 da3c 0e21 043d 4595 273e
00000140: 4a3b ea3d fc30 1c3e 3336 f73d 100f 1a3e
00000150: efc1 8eba cb1d a83c 6339 0a3e f2ee 203e
00000160: 391f 323e ec58 cd3c 068a 143e b95d 3c3e
00000170: 832f 203e 1831 bb3d f2d9 323d 0f31 72bb
00000180: 023a 833d 574a 0fbe e169 87bc 7ec4 0cbe
00000190: 02da 553d bb7c 2dbe c27d 883b d11b 14be
000001a0: 0c92 e73c 2cab 5b3c ab5f 21be 782b 78bd
000001b0: 38ef aebe d725 823d b4f6 3ebe 147f c73d
000001c0: e39c 87bd e889 8ebd a579 33bc d3fc 30bc
000001d0: 3906 04be 5244 8abd d06b b6bc 2b07 d8bd
000001e0: 62d5 eebd d58d 833c cd07 f63c adb9 2e3c
000001f0: 9721 493d f21b a4bc 7960 113e ca7b 8a3c
00000200: c477 293d f4d8 ad3d aac7 9e3d 4f64 083e
00000210: 1beb a63c 4598 ee3d 1978 453d 9f8a 6d3b
00000220: 0a2e 223e c2b2 443b fa6b 0d3e afb6 7a3d
00000230: 351f 283d 3bbb 283e 5e72 a83d 9be2 0d3c
00000240: a5d9 143c c6f9 003e 9f30 be3d 0efb b63d
00000250: 11e9 5a3c 676f b93c 6725 f93d 78c5 7ebc
00000260: 467c 063e 23cf 0b3e b69b f53d 7606 8f3a
00000270: 1eef 063e 29f0 c33d 0461 0c3e d03a 043e
00000280: 57f7 c3bc 3409 f83d 39b4 ab3d d634 493d
00000290: c83d 663d 1559 64bd bedd 89bd bb59 de3d
000002a0: 02c8 f63d ed26 f0bb e856 abbb b915 aebc
000002b0: 7e73 0e3e 6feb 043e b2a7 323e b3ec ee3d
000002c0: 3bf1 d93d 879a 623d c6f0 953c 8f77 183e
000002d0: a4d0 093e 36e2 523d 750c d13d 16e9 fe3d
000002e0: a2fc 8abc 66a2 8a3d 0397 043d 8460 b73d
000002f0: a342 17be 3433 773d a43d 813d 6379 753d
00000300: e931 c83c bbf4 ed3b af91 8abd 7622 70bd
00000310: e0e2 8abc fa22 693c b13a 94bc 2999 7fbd
00000320: be66 b43c c560 61bc 8e2f c5be 7aff 15be
00000330: ac2f 01bd c5be 533d e116 8dbd 0571 5cbd
00000340: abb4 abbd 1222 d93d bb6b bd3d 80a0 b1bd
00000350: 187e 15be 1c23 12bc 99ef 4dbe 5136 49bd
00000360: d472 9bbd ad3a 34bd 9f7b a9bb d163 ee3d
00000370: eb9a 043e eff3 b43d 59f6 ff3c db32 1e3d
00000380: 62d0 ce3d f9fb cc3c 2b48 bf3d 8341 003e
00000390: 2417 2e3e 44d7 ca3d 723b 393e 933f abbb
000003a0: f2b0 be3d 035a 2e3d 85fe c43c 836f 1b3e
000003b0: 80e5 113e 8888 433e 5e55 8f3d 394c 083e
000003c0: 3506 423d ae1c b53d be2f c73d fdd0 513d
000003d0: 03ff ec3c 4d4b 3c3e 7480 f33b 9ec7 413e
000003e0: 4062 373e 4680 483e 2ffa 3d3e 7b64 403d
000003f0: 3737 533d 95f7 403d 07d0 f13d 3586 f13d

weight f4 [10, 10]
-0.13273275 -0.26993173 -0.29609138 -0.2786752 -0.22620879 0.2161403 0.003555417 0.20525965
-0.0018187463 0.071220756 -0.30707332 -0.17804338 0.23076853 -0.05791226 -0.08423026 -0.25555912
-0.09115936 -0.25721297 0.27359352 -0.29450566 0.17004105 0.20035926 -0.17475478 0.082499504
-0.122890174 -0.22224228 0.21719494 0.26280954 0.17752784 0.11693436 -0.2600523 -0.25043082
0.19921854 0.020623028 0.07139477 -0.16280192 -0.21579266 0.044079244 0.18367407 0.24068543
0.19060662 0.20808873 -0.31612042 -0.099044755 -0.3014174 0.26281402 -0.18013999 -0.10458991
-0.09367971 0.07959631 0.3058279 -0.06031418 -0.30230862 -0.2710392 0.24873427 0.2979388
0.15258786 0.23625526 -0.020058662 -0.22483447 -0.054005712 -0.175527 0.14213046 0.122163594
0.22245494 0.23077312 -0.002460301 0.17501247 -0.31196725 0.26239166 -0.113570586 -0.2926774
0.11550942 -0.06669517 0.1365369 -0.16412671 0.17866221 -0.029307127 0.20761469 0.14173958
0.24244508 0.19646052 0.11858687 -0.052230388 0.14707035 0.041523367 -0.12436411 -0.29296017
-0.032751024 -0.21281072 0.110625505 0.1516223 -0.13647145 0.0564062 0.07007873 -0.25085407
-0.2028664 -0.16644457 0.05016935 -0.16360521
00000000: 18eb 07be 7e34 8abe 4a99 97be 84ae 8ebe
00000010: 47a3 67be e253 5d3e 0002 693b 962f 523e
00000020: 0063 eeba 30dc 913d b738 9dbe 0151 36be
00000030: 964e 6c3e 6835 6dbd ea80 acbd a5d8 82be
00000040: c2b1 babd 6bb1 83be 7314 8c3e 72c9 96be
00000050: 3e1f 2e3e fa2a 4d3e ebf2 32be 80f5 a83d
00000060: d8ad fbbd 7b93 63be 5a68 5e3e f98e 863e
00000070: dcc9 353e 487b ef3d 9325 85be 7838 80be
00000080: f2ff 4b3e a0f1 a83c 6c37 923d 8cb5 26be
00000090: c0f8 5cbe 708c 343d 0e15 3c3e 3e76 763e
000000a0: 622e 433e 3615 553e 89da a1be fad7 cabd
000000b0: 6253 9abe 8f8f 863e 9e76 38be 3c33 d6bd
000000c0: 26db bfbd 6403 a33d 7995 9c3e 000c 77bd
000000d0: 32c8 9abe a6c5 8abe 32b4 7e3e 6f8b 983e
000000e0: fe3f 1c3e e6ec 713e 1052 a4bc 023b 66be
000000f0: 1835 5dbd 5abd 33be a68a 113e e830 fa3d
00000100: 3acb 633e ca4f 6c3e 003d 21bb 7836 333e
00000110: 2cba 9fbe 3358 863e b297 e8bd d0d9 95be
00000120: 3490 ec3d 7a97 88bd 54d0 0b3e d510 28be
00000130: 3af3 363e 8015 f0bc f298 543e 2e24 113e
00000140: 8643 783e f22c 493e acdd f23d 88ef 55bd
00000150: 9c99 163e 6814 2a3d 9cb2 febd e0fe 95be
00000160: f025 06bd 0eeb 59be a08f e23d e042 1b3e
00000170: 2cbf 0bbe 300a 673d 7085 8f3d f26f 80be
00000180: 36bc 4fbe 7270 2abe 607e 4d3d 2088 27be

bias f4 [1, 10]
0.0 0.0 0.0 0.0 0.0 0.0 0.0 0.0
0.0 0.0
00000000: 0000 0000 0000 0000 0000 0000 0000 0000
00000010: 0000 0000 0000 0000 0000 0000 0000 0000
00000020: 0000 0000 0000 0000

weight f4 [10, 10]
-0.3467659 -0.09281752 -0.16872029 0.36506736 -0.030406479 -0.036528386 0.23194306 -0.20967379
0.22216168 0.36471054 0.19834088 -0.06736445 -0.08726027 -0.07009677 0.29253787 -0.25329235
-0.22448063 -0.10656798 -0.44129282 -0.1794179 -0.031321608 0.048295837 -0.29507592 0.30057347
-0.2484113 -0.21769825 -0.08188421 0.08507583 0.05552387 0.2972933 -0.049840756 0.20812485
0.3499314 0.32184023 0.21613704 -0.21470796 -0.3858167 0.12613548 -0.05507757 -0.2523846
0.054645818 -0.12894386 -0.0064458903 0.030205864 -0.054466065 -0.028145807 0.006974318 -0.0062741786
0.034006305 -0.01781345 0.16790293 0.09953937 0.33730257 0.091285944 0.032725643 -0.4185637
0.12737764 -0.23684545 -0.15291692 -0.28383142 -0.04832016 -0.31415394 -0.33549577 0.12577175
0.020027349 0.09812181 -0.08418554 0.3439905 0.08567498 0.11680507 0.082287125 0.21622968
-0.1582696 0.28031957 0.32278508 -0.3496433 -0.3774919 -0.09025868 -0.23834844 0.15136229
-0.2051345 -0.024209725 -0.29246622 -0.013565352 0.105521865 -0.19158067 0.21375632 0.28418234
0.14944611 0.23807245 0.038606476 -0.36613834 -0.15862341 0.2920902 -0.22899689 -0.19301073
0.06395799 -0.040945467 -0.2510838 0.30420414
00000000: 4d8b b1be 1d17 bebd 03c5 2cbe 1cea ba3e
00000010: 0217 f9bc ca9e 15bd 7b82 6d3e bab4 56be
00000020: 5a7e 633e 57bb ba3e df19 4b3e 5ff6 89bd
00000030: 83b5 b2bd e58e 8fbd 86c7 953e 89af 81be
00000040: 40de 65be 5040 dabd 22f1 e1be 53b9 37be
00000050: 164b 00bd dbd1 453d 3114 97be c4e4 993e
00000060: 885f 7ebe 4aec 5ebe e9b2 a7bd 3d3c ae3d
00000070: ff6c 633d d436 983e d225 4cbd ae1e 553e
00000080: 352a b33e 3ec8 a43e 0753 5d3e 67dc 5bbe
00000090: c489 c5be a929 013e 0599 61bd 8e38 81be
000000a0: 4bd4 5f3d dc09 04be 0c38 d3bb 4a72 f73c
000000b0: cf17 5fbd 0992 e6bc d288 e43b a097 cdbb
000000c0: 324a 0b3d 83ed 91bc bfee 2b3e 4cdb cb3d
000000d0: ecb2 ac3e 20f4 ba3d 530b 063d fb4d d6be
000000e0: 496f 023e 9d87 72be 4196 1cbe 5a52 91be
000000f0: 5ceb 45bd c9d8 a0be 1ac6 abbe 4fca 003e
00000100: 6510 a43c 16f4 c83d 7869 acbd 861f b03e
00000110: 5d76 af3d 7f37 ef3d 2786 a83d 506b 5d3e
00000120: 6d11 22be 0c86 8f3e 1644 a53e 7204 b3be
00000130: 9e46 c1be 8bd9 b8bd 9d11 74be b7fe 1a3e
00000140: c70e 52be 7953 c6bc 22be 95be 3641 5ebc
00000150: d91b d83d b92d 44be f0e2 5a3e 5980 913e
00000160: 6708 193e 44c9 733e d321 1e3d 7c76 bbbe
00000170: 2d6e 22be d98c 953e 297e 6abe 9ba4 45be
00000180: 68fc 823d 6fb6 27bd 0e8e 80be a5c0 9b3e
