neuromancer/datasets/Flexy_air/best_model_flexy.pth (torch, 77239 bytes, 56 tensors)

weight f4 [1, 20]
000000 4c a2 b9 bd be f8 32 3e dc a4 ca 3d a3 d3 4f be
       -0.09064159 0.174777 0.09894726 -0.20295577
000010 90 f4 29 3e a3 78 d7 bd 80 de 69 3c 1c 56 25 bd
       0.165972 -0.105210565 0.01427424 -0.040365323
000020 20 67 04 bc 40 46 4d bb 10 f3 47 3d cc aa 54 be
       -0.008081228 -0.003132239 0.048815787 -0.20768279
000030 b8 6b 4c be 84 3b ca 3d 22 7a 5d 3e 85 97 d5 bd
       -0.19962966 0.09874633 0.21628621 -0.10429291
000040 98 14 34 bd 18 64 8c bc 80 06 de 3c c8 90 a4 bd
       -0.043964952 -0.017137572 0.027102709 -0.08035427

bias f4 [1, 20]
000000 00 00 00 00 00 00 00 00 00 00 00 00 00 00 00 00
       0.0 0.0 0.0 0.0
000010 00 00 00 00 00 00 00 00 00 00 00 00 00 00 00 00
       0.0 0.0 0.0 0.0
000020 00 00 00 00 00 00 00 00 00 00 00 00 00 00 00 00
       0.0 0.0 0.0 0.0
000030 00 00 00 00 00 00 00 00 00 00 00 00 00 00 00 00
       0.0 0.0 0.0 0.0
000040 00 00 00 00 00 00 00 00 00 00 00 00 00 00 00 00
       0.0 0.0 0.0 0.0

weight f4 [20, 1]
000000 f7 ca 15 3f 79 6c 00 bf bc 6b 5d 3f 1c 01 16 3f
       0.58512825 -0.50165516 0.86492515 0.5859544
000010 e8 20 a9 be 1c bf 3c 3f 61 79 2a 3f b8 99 08 3d
       -0.33032918 0.7372911 0.6659146 0.033349723
000020 7c 37 5a 3f 08 a7 a2 bf da 74 5f bf d6 26 69 bf
       0.8524091 -1.2707224 -0.87287676 -0.91074884
000030 2a 81 70 3f f3 c0 30 3f a8 8f d6 3e 95 af df be
       0.9394709 0.6904442 0.41906476 -0.43688646
000040 be 05 6d 3f cc b1 21 bf 19 96 86 bf b4 24 5e 3f
       0.92586887 -0.6316192 -1.0514556 0.86774755

weight f4 [20, 20]
000000 f0 e8 19 3e 9c cf a5 3d b2 2a 3d 3e be d6 40 be
       0.15030265 0.08096239 0.18473318 -0.18831918
000010 5a 28 38 3e ee c5 06 3e 7c 47 4c 3e d7 54 cb bd
       0.17984143 0.13161442 0.19949144 -0.09928291
000020 7c cd 50 3e f2 23 22 be 0a cc 04 3e 84 b5 39 be
       0.20390886 -0.15834025 0.1296846 -0.18135649
000030 60 3c c6 3d d4 0a ff 3d 40 f5 45 bc 28 7a e8 3d
       0.09679484 0.12453237 -0.012082398 0.113514245
000040 c0 68 c0 bd 40 7c 0f 3d f0 18 60 3d a6 83 59 3e
       -0.093949795 0.035030603 0.054711282 0.21241626
000050 fa ee 2c 3e 58 33 f4 3d 94 ef 1b be e8 a2 30 bd
       0.16888037 0.119238555 -0.1522811 -0.04312411
000060 5c f8 16 bd dc c6 4f be 3c c4 d4 3d 20 11 4a be
       -0.036857948 -0.20290703 0.10388991 -0.19733095
000070 da c8 0b be ac ce f7 bd cb 02 2f be e4 0c 10 3e
       -0.13650838 -0.120999664 -0.17090909 0.14067417
000080 8a 63 f0 bd ce b8 41 3e e1 4a 4e be b0 b3 41 3c
       -0.117377356 0.18918154 -0.20145752 0.011822626
000090 60 35 80 3d de fa 34 be 00 54 c0 39 87 14 d5 bd
       0.062601805 -0.17673823 0.0003668368 -0.10404306
0000a0 40 e9 e3 3d 18 d8 9c 3d 32 e7 07 be bd 81 51 be
       0.11128473 0.07658404 -0.13271788 -0.20459647
0000b0 6b c0 46 be 7c 35 69 bd e8 61 06 be 22 1d 37 be
       -0.19409339 -0.056935772 -0.13123286 -0.17882207
0000c0 24 9b cd 3d 80 49 86 3a 60 f5 b5 bb 7c d1 33 be
       0.10039356 0.0010245293 -0.0055529326 -0.1756038
0000d0 bc a1 5d 3e 87 01 04 be 19 a1 1e be 3e 98 05 3e
       0.21643728 -0.12891208 -0.15491141 0.13046357
0000e0 c8 a4 d4 3d 08 56 f8 bc 68 65 9b bd e0 fc df bb
       0.10382992 -0.03031446 -0.07587701 -0.006835565
0000f0 42 4a 0c be b7 45 d9 bd 2c b0 89 bd b0 dc 26 3e
       -0.13700202 -0.10609 -0.06723055 0.16295123
000100 13 34 1a be a8 47 44 bd 8a 03 5f be ee 7f 4c 3e
       -0.15058927 -0.0479199 -0.21778694 0.19970676
000110 12 6c 51 be 7e 79 9d bd 10 a8 95 3c 14 aa 05 be
       -0.20451382 -0.076891884 0.018268615 -0.13053161
000120 8a 15 60 3e c0 70 e4 3d 34 dc 8f 3d ee 53 29 3e
       0.21883217 0.11154318 0.07024422 0.16535923
000130 50 9d 16 3d f0 a0 50 3d c3 bd f7 bd 76 a2 2e be
       0.03677112 0.050934732 -0.12096741 -0.17054161
000140 40 54 0a 3e 08 43 a2 3c e2 0c be bd c8 93 46 3d
       0.13508701 0.019807354 -0.09279801 0.04848078
000150 e2 69 1b be 0e 10 9d bd a0 37 85 3b 88 30 63 3d
       -0.1517711 -0.07669078 0.004065469 0.055466205
000160 ce bf 9c bd 70 23 45 be e8 fd cc 3d c1 8c 30 be
       -0.07653771 -0.192518 0.10009366 -0.17241193
000170 d7 31 1e be 70 cf aa 3c 94 d1 0b 3e f0 ea 17 3d
       -0.154487 0.020850867 0.13654166 0.03708929
000180 6c 68 4d 3e a0 a5 b0 3d 20 95 4a bd 0e 95 11 3e
       0.20059365 0.086253405 -0.049458623 0.14217016
000190 ec 54 a9 3d 30 f6 2d bc c1 05 cc bd 9e bc 45 be
       0.08268151 -0.010617778 -0.09962035 -0.19310233
0001a0 64 1c 4a 3e 6d 7b eb bd b4 b9 4a be eb dc 35 be
       0.19737393 -0.11498151 -0.19797403 -0.17760055
0001b0 92 f4 42 3e dc 91 52 3e 64 68 ac bd 58 c6 4a 3d
       0.19038609 0.20563453 -0.084183484 0.04950556
0001c0 86 26 38 3e 46 b8 4e be b2 5b 32 be 64 d1 bc bd
       0.17983446 -0.20187482 -0.17417791 -0.092196256
0001d0 e8 20 60 3d 12 5d 1d 3e d8 16 ea bd bc b5 3b be
       0.05471888 0.15367535 -0.11430138 -0.18331045
0001e0 50 b2 8d 3d 7e f1 fa bd 88 5b e8 bc 08 62 d7 3d
       0.06918776 -0.12253092 -0.028363958 0.10516745
0001f0 e6 cb 2a 3e a8 6d 33 3d 10 da 80 3d 60 bc 24 bc
       0.16679344 0.04380575 0.06291592 -0.010054678
000200 5a e0 2b 3e b8 8d 69 3d 78 54 57 3d 00 b4 6c bb
       0.16784802 0.05701992 0.05257079 -0.003611803
000210 98 dd be 3d 18 c2 80 3d 80 34 db 3d 94 fa 63 bd
       0.093196094 0.062870204 0.10703373 -0.05565889
000220 f0 8f 69 3d 80 de f1 bc a2 90 1d 3e 4c 4a 3d 3e
       0.057022035 -0.029525042 0.15387204 0.18485373
000230 8c 16 ad 3d ce 88 1d be 20 24 33 be ee f8 43 be
       0.08451566 -0.15384218 -0.1749425 -0.19137928
000240 b0 74 ac bc 9a be 09 3e 14 0b cb 3d f8 0e 49 3d
       -0.021051735 0.13451615 0.09914222 0.04908654
000250 bc ff 15 3e c2 27 59 be 7a 64 8e bd b4 4d 13 3e
       0.14648336 -0.21206573 -0.06952758 0.1438511
000260 82 6c 30 be 20 8a 32 3e 20 d2 60 bd da 82 2a 3e
       -0.17228892 0.17435503 -0.05488789 0.16651478
000270 87 ad f9 bd 00 b5 00 3c 80 3a 45 3e 96 76 94 bd
       -0.12191301 0.007855654 0.19260597 -0.07249181
000280 cb ca 5c be a8 9b d4 3d 5a 26 30 be ae 2b b9 bd
       -0.21561734 0.103812516 -0.1720213 -0.09041534
000290 20 99 a4 3b 5e 17 10 be 00 c1 e6 bc 4a 75 0e be
       0.0050231367 -0.14071414 -0.028168201 -0.1391193
0002a0 98 1e 0b 3d 71 64 20 be d8 70 10 be 3c 7a 3e 3e
       0.033964723 -0.15663315 -0.14105546 0.18601316
0002b0 5b 3e eb bd f0 dc 4d bd f4 42 0e bd a8 c9 89 3d
       -0.11486503 -0.05025953 -0.03473182 0.06727916
0002c0 ca cd b0 bd d0 67 03 be c8 5a ba bc 78 4b 19 bd
       -0.08633001 -0.1283257 -0.022748366 -0.03742549
0002d0 58 11 63 3d 2a d6 e7 bd 8c fa 3d 3e a0 4d 1d 3e
       0.055436462 -0.113201454 0.18552607 0.15361643
0002e0 d2 bc 28 be a4 a7 38 3e c0 17 fa 3d 00 43 e5 3c
       -0.16478279 0.180327 0.12211561 0.02798605
0002f0 22 d3 55 be c8 37 42 be c8 c3 d6 3c 7a 28 93 bd
       -0.20881322 -0.18966591 0.026216403 -0.07185455
000300 80 74 eb 3d 40 5d 12 bb 6c 76 1c be 87 8f fc bd
       0.1149683 -0.0022333413 -0.1527955 -0.12332063
000310 85 51 fc bd 60 55 25 3e 4c 42 29 3e 64 7c d4 bd
       -0.12320236 0.16145849 0.16529197 -0.10375288
000320 30 30 98 bc 22 de 1b 3e 64 74 80 3d 9c b6 03 3e
       -0.018577665 0.15221456 0.062722 0.12862629
000330 52 c7 3b 3e 30 62 17 3c 82 b0 16 3e c0 9d 9e 3d
       0.18337753 0.009239718 0.1471577 0.07744932
000340 44 ea 87 3d fc 5d d4 3d 20 f1 3b bc 6a 82 61 3e
       0.066364795 0.103694886 -0.011471063 0.22022405
000350 10 1b 41 3e d0 93 07 3d ac 70 f9 3d c2 78 11 3e
       0.1885798 0.03309995 0.121796936 0.14206222
000360 90 ae f7 3c 58 b4 f3 3d 34 19 90 3d c0 45 e1 3d
       0.030234605 0.11899632 0.07036057 0.10999632
000370 f0 e2 88 bc 98 56 a3 bd e8 87 ba bc b4 70 8b 3d
       -0.016709775 -0.07975501 -0.022769883 0.06808606
000380 b0 29 12 3d 76 36 0c be bc 1c 45 3e be fa 38 be
       0.035684288 -0.1369265 0.19249243 -0.180644
000390 b8 45 18 3d 94 22 b8 3d a0 02 d8 bc 88 4d 2a 3e
       0.037175864 0.0899097 -0.02636844 0.16631138
0003a0 ba 14 22 3e b0 90 8d bc d0 49 c2 bc ac 51 72 bd
       0.15828219 -0.017280906 -0.023716837 -0.05915992
0003b0 cc 1e d4 3d 46 dd ae bd 72 e9 c0 bd 4b 70 37 be
       0.103574365 -0.08538298 -0.09419526 -0.1791393
0003c0 5c 21 5a 3e 20 2c 4e be 14 e6 43 bd 18 5b 53 3d
       0.21301788 -0.2013402 -0.04782684 0.051600546
0003d0 de db 60 be b0 5c 93 3c f4 76 44 be 6a 04 42 be
       -0.21958873 0.017988533 -0.19186002 -0.18946996
0003e0 50 cc 24 3e c8 d1 ae bc a8 43 0d 3e b0 f7 90 3d
       0.16093564 -0.021340266 0.1379534 0.07078493
0003f0 aa 2f 3f 3e 48 8e 16 be 14 8c 4d 3e dc 7e 32 3e
       0.18670526 -0.14702713 0.20072967 0.17431206

bias f4 [1, 20]
000000 00 00 00 00 00 00 00 00 00 00 00 00 00 00 00 00
       0.0 0.0 0.0 0.0
000010 00 00 00 00 00 00 00 00 00 00 00 00 00 00 00 00
       0.0 0.0 0.0 0.0
000020 00 00 00 00 00 00 00 00 00 00 00 00 00 00 00 00
       0.0 0.0 0.0 0.0
000030 00 00 00 00 00 00 00 00 00 00 00 00 00 00 00 00
       0.0 0.0 0.0 0.0
000040 00 00 00 00 00 00 00 00 00 00 00 00 00 00 00 00
       0.0 0.0 0.0 0.0

weight f4 [20, 20]
000000 aa 6c 87 3e e2 87 b7 bd 51 d6 bc bd 37 4e 40 3d
       0.26450092 -0.089614645 -0.09220565 0.04694959
000010 04 60 a2 be b8 3d 81 3e 02 92 80 bd 26 d1 43 3e
       -0.3171388 0.252424 -0.06277849 0.19122753
000020 04 59 d6 3d 48 17 e3 be c8 98 8c be 70 d6 a5 be
       0.10466197 -0.443537 -0.27460313 -0.32390165
000030 54 c1 b7 bd 11 44 85 3e d9 48 fa 3d d4 31 41 be
       -0.08972421 0.26028493 0.12220926 -0.18866664
000040 8a ef db bd f3 98 80 be 65 13 c9 be 8d 59 2b 3e
       -0.10739048 -0.2511669 -0.3927261 0.1673338
000050 1e f5 66 3e 09 7f 43 be e0 52 1c be 5d 5d 3a 3d
       0.22554442 -0.19091429 -0.1526599 0.045499194
000060 88 b7 24 be 84 53 fb 3d 1e f8 06 3e 77 be 3d be
       -0.16085637 0.12271789 0.13180587 -0.18529688
000070 78 bf 9c bd 8b b1 c2 3c a3 74 5f be f6 af 9f be
       -0.07653707 0.0237663 -0.21821837 -0.31188935
000080 bd fa 0b be 1f 60 5c bd ed 36 46 bd 08 e1 8d be
       -0.13669868 -0.053802606 -0.048392225 -0.27710748
000090 f6 18 35 3e ce 46 26 be 7d 10 cc be 7b d2 b1 bd
       0.17685303 -0.16237947 -0.3985633 -0.08682724
0000a0 2f 13 2a be 99 84 0d 3d 39 4f 61 be b5 8c 4d be
       -0.1660888 0.034550283 -0.22002877 -0.20073207
0000b0 da 85 ee 3d cb a3 e6 3d eb 2a 88 be c5 26 38 be
       0.11646624 0.1126171 -0.26595244 -0.1798354
0000c0 12 a4 89 3d 2e dd 98 3e 59 62 16 3e b3 b4 c6 3e
       0.06720747 0.29856247 0.14685954 0.38809738
0000d0 f2 9d 6f be 8d dc 9b 3d 90 df e9 3d c7 e9 0b 3e
       -0.23400095 0.07610426 0.11419594 0.13663398
0000e0 f9 c0 69 3d 48 72 f8 3d 94 e6 e2 3e c6 7b 64 bc
       0.0570688 0.121311724 0.44316542 -0.0139455255
0000f0 01 07 e3 3d 88 13 5c be 2c 69 6a 3e 39 a9 56 bc
       0.1108532 -0.21491826 0.22891682 -0.013101869
000100 30 09 12 3d 2f cf f1 3d 1c 5f 21 3d 54 cd 5d be
       0.035653293 0.11807095 0.039397344 -0.21660358
000110 3c d4 13 be 64 ad a1 bc 8b a9 7d be bb 30 5e be
       -0.1443643 -0.019736 -0.24771707 -0.21698277
000120 cd 40 7b bd 17 b5 70 3e 37 c0 40 3e 62 48 26 bd
       -0.061341096 0.2350658 0.18823324 -0.040596373
000130 42 65 0e be f0 c1 8a be 73 07 1f be b2 bb 4f 3e
       -0.13905814 -0.27101088 -0.15530185 0.20286444
000140 c3 ad 17 3e 6c 38 50 be 2c fc c2 3d 43 92 06 3b
       0.14812379 -0.20334023 0.09520754 0.0020533956
000150 94 ff ba bd e3 bc 37 bd e8 43 0a 3c 8f 72 86 bc
       -0.09130779 -0.04485787 0.008439042 -0.016412048
000160 a8 4e 0e 3e b5 2a a6 be dd 2a a3 bd 54 6c 9e be
       0.13897192 -0.32454458 -0.0796716 -0.30942023
000170 68 ef bc 3d 1b 44 05 3e 06 54 97 bd bd 18 d2 bd
       0.092253506 0.13014261 -0.07389073 -0.10258625
000180 1d 68 6b 3e cd 4c 87 3c 53 84 f5 bd 08 b3 67 3d
       0.22988935 0.016516114 -0.119881295 0.056567222
000190 6d ae 27 be ca 4f 74 3e 0b 58 27 bc 76 43 0e bd
       -0.16375132 0.23858562 -0.010213862 -0.034732305
0001a0 33 d7 37 3e ad e8 53 be 35 00 1b bd 1e 80 4c be
       0.17953186 -0.20694228 -0.037841994 -0.19970748
0001b0 a5 df 81 bd 98 f8 ad 3e 43 07 9b bc 31 58 82 3e
       -0.06341485 0.33978724 -0.018924361 0.2545791
0001c0 a6 2c 2c 3e fb 95 09 be 40 52 52 be 8e cd 6a bc
       0.16813907 -0.1343612 -0.20539188 -0.014331235
0001d0 a1 86 a0 3d 69 96 51 3e 23 ce 5a 3e 52 20 cc bd
       0.078381784 0.20467533 0.21367697 -0.09967102
0001e0 93 f9 50 be b7 36 48 3d 3d 46 64 be ac ea ea bd
       -0.20407705 0.048880305 -0.22292419 -0.11470541
0001f0 f4 88 28 3e 50 30 61 be c3 66 93 3d 0f b4 1d be
       0.16458493 -0.21991086 0.071973346 -0.15400718
000200 58 b8 33 3d 7c 0e 8a 3e 2e f6 7a 3e 69 ee 2c bc
       0.043876976 0.26964176 0.24507973 -0.010554888
000210 6d 76 2e be 8c 92 45 bc 53 0d e3 3d 62 6d 30 bc
       -0.17037363 -0.012058865 0.11086526 -0.010768266
000220 84 60 62 be cd 06 9f 3e d1 a6 5f 3e d4 09 19 bd
       -0.2210713 0.31059876 0.21840979 -0.03736289
000230 82 05 31 3e 11 ec 64 3e 61 05 3b be 49 6a 13 be
       0.17287257 0.22355677 -0.1826377 -0.14396013
000240 71 5a 85 bd f7 0a 4a bd 58 7b 4d be 61 26 57 be
       -0.06511391 -0.049326863 -0.20066583 -0.21010734
000250 cb a7 42 be 23 bb 2c 3e dc 97 8f 3e 07 79 1f 3d
       -0.1900932 0.16868262 0.28045547 0.03893378
000260 e5 60 8b 3c 3c 6c 19 3e 99 d0 40 3e 32 81 0f 3e
       0.017013976 0.14982694 0.18829574 0.14014128
000270 04 00 34 3d 7d 24 c5 bd 0b 5f 80 3e 99 a5 ec bd
       0.043945327 -0.096261 0.25072512 -0.11555023
000280 bc c6 68 be bd 4a b3 3d 3b 0b f2 bd 83 4f 92 3d
       -0.22732061 0.087544896 -0.11818548 0.07144072
000290 80 e7 a3 bd d3 65 88 3d d5 f1 8f be 94 7c 15 bd
       -0.080031395 0.066600464 -0.2811419 -0.03649576
0002a0 a7 30 10 be ed 6d 1b bb 40 52 6d 3e a0 44 40 3e
       -0.1408106 -0.0023716644 0.23175907 0.18776178
0002b0 cc ac 65 be bf 31 a0 bc ec 78 c3 bd 4a 3e a4 3e
       -0.22429198 -0.01955497 -0.095445484 0.32078773
0002c0 13 60 30 3d b6 11 9a 3c 6b 8c a3 bd d6 5b 87 bc
       0.043060374 0.018807273 -0.07985767 -0.016523283
0002d0 8e f0 f9 3d 31 15 36 3c c6 42 d2 3d 6a cb 5b be
       0.12204085 0.011113451 0.10266642 -0.21464315
0002e0 b8 11 41 3d 0f e7 c0 bd b3 1f 61 be 5a f9 ac 3d
       0.04713604 -0.09419071 -0.21984749 0.084459975
0002f0 6a c9 4c be ab 35 d1 3e 7e 47 9b 3e ec 01 0e bd
       -0.19998708 0.40861258 0.30327982 -0.0346698
000300 ac 36 fd 3d a3 da c8 3d 4e 2c 85 be 46 bf 2c 3e
       0.123639435 0.09807327 -0.26010364 0.1686984
000310 d9 df 4d be 97 5f d1 3d 3a 54 84 3e 5b 6f 2d be
       -0.20104922 0.102233104 0.2584551 -0.1693701
000320 71 21 c6 bd 3a e7 1c 3c 06 f0 37 bb f7 d8 26 bd
       -0.09674347 0.009576613 -0.002806665 -0.040734258
000330 22 2f 98 3e e2 1f 87 be e6 d6 dd bd bc 39 c3 3c
       0.2972346 -0.26391512 -0.10832004 0.02383124
000340 c1 5b f9 3d f4 83 77 3e 87 46 37 3d 49 b1 8d 3e
       0.12175704 0.2417143 0.044744994 0.2767432
000350 83 c2 1d be 31 1b 6b be 61 ea 8e be 34 76 9a 3e
       -0.15406232 -0.22959591 -0.27913192 0.30168307
000360 d6 b7 dc bd 98 27 84 3e a5 52 d6 3e 91 f8 3a 3e
       -0.107772514 0.25811458 0.41859928 0.18258883
000370 29 fd 8f 3d d6 d6 33 be 38 ef d4 3d 9c e1 17 3d
       0.07030708 -0.17562422 0.1039719 0.037080392
000380 c5 4d 69 3b 18 85 16 3d da a1 0f bd 8a 43 6d 3e
       0.0035599333 0.03674802 -0.035066463 0.23170295
000390 01 e7 33 3e 59 72 69 bd be b1 55 be cf 44 a9 be
       0.1756859 -0.056993816 -0.20868585 -0.3306031
0003a0 17 9e 81 3d be bd fd 3d 0b 7b 4e 3e 2e 3c 5b be
       0.06328981 0.12389706 0.20164125 -0.21409675
0003b0 b7 6c 8d 3d 8b a2 cc be 25 f7 d0 be 50 48 b6 3d
       0.06905501 -0.3996776 -0.40813556 0.08900511
0003c0 c4 d1 eb 3d 06 34 f7 bd d7 e4 23 be cd 94 9a 3d
       0.11514619 -0.120704696 -0.16005264 0.07547913
0003d0 80 6b 4b 3e 1d 76 4e be b8 15 d2 bd ec 47 06 3e
       0.19865227 -0.20162244 -0.10258049 0.13113374
0003e0 c4 7a 33 be 78 51 91 3e e5 df ba bd 3c 6e 84 3e
       -0.175273 0.28382468 -0.09124736 0.25865352
0003f0 fc 40 01 3e 88 0f af 3d 31 0b 4b be d3 14 c7 3d
       0.12622446 0.08547884 -0.19828488 0.09720769

weight f4 [20, 20]
000000 7e 86 07 3e 78 d0 98 3c bc f4 38 3e 2e bc 4f 3e
       0.13234898 0.018654093 0.18062109 0.20286629
000010 b2 70 2a be 2e 68 3f 3e b8 46 73 bd 01 81 3e be
       -0.16644552 0.18692085 -0.059393615 -0.18603899
000020 d4 01 a9 3d ac b1 f0 3d e0 c3 46 bd 60 4e f5 3c
       0.08252302 0.11752638 -0.048526645 0.029944599
000030 b8 56 c9 bc 65 ac 2d be a0 1c 6f 3d 04 2a ac 3d
       -0.024577484 -0.16960295 0.05837691 0.08406451
000040 88 33 c1 3d 98 10 4a 3e 90 77 7b 3d 28 d7 dc 3d
       0.09433657 0.19732893 0.06139332 0.10783225
000050 27 32 5b be 79 15 e1 bd b8 9e 4b bd 24 21 22 bd
       -0.2140585 -0.10990424 -0.049711913 -0.039582387
000060 cc 19 2e be 80 c1 04 3d 1e f1 b9 bd 04 d4 5f 3e
       -0.17002028 0.0324111 -0.090791926 0.21858221
000070 ec c4 00 bd 6c 35 0f 3e 9c d2 49 3e 7a 03 15 3e
       -0.0314378 0.13985223 0.19709247 0.14552107
000080 02 9a 51 be e8 1f 9f bc 78 db ad 3c dd 6a 0d be
       -0.20468906 -0.019424394 0.021222815 -0.13810296
000090 42 d2 3c 3e 30 01 d6 bc 70 ee ed bc 50 52 c8 3c
       0.18439582 -0.026123613 -0.02904436 0.024453312
0000a0 81 82 25 be 98 f8 ae 3d 48 be 54 bd 70 4b 20 bc
       -0.16163065 0.08543509 -0.05193928 -0.009783611
0000b0 24 9f 4c bd 60 6b fa bb 08 55 48 3d f0 3a 82 3d
       -0.049956456 -0.0076421946 0.048909217 0.06358898
0000c0 0c f8 4e 3e 28 0c 4e be 18 99 b2 3c a8 5a c6 3c
       0.2021181 -0.20121825 0.021801516 0.02421315
0000d0 d8 af bd bc 7a 48 22 3e 48 c0 9b 3d 0a 36 21 3e
       -0.023155138 0.1584796 0.07605034 0.1574327
0000e0 43 2b 34 be 98 3a ee 3d e8 76 96 3c d0 58 53 3d
       -0.17594628 0.116322696 0.018367246 0.05159837
0000f0 18 15 d9 3d 54 8c d7 bd 80 8a 50 3b cc 98 42 be
       0.105997264 -0.10524812 0.0031820834 -0.190036
000100 44 13 8e 3d ac e5 2c be c4 80 91 bd d0 68 fc 3d
       0.069372684 -0.16884488 -0.07104638 0.12324679
000110 4d 59 3a be 38 8c b7 3c b8 df 47 bd d0 d9 9e bc
       -0.18198128 0.022405729 -0.04879734 -0.01939097
000120 40 a6 7b 3c 94 ad ee bd 2c b6 10 3e 94 de f4 3d
       0.015359461 -0.11654201 0.14131993 0.11956516
000130 34 1d 27 3e e8 b4 2d 3e a0 9a 9b 3b 06 bd 03 3e
       0.16319734 0.16963542 0.0047486573 0.12865075
000140 6c f0 f2 3d 28 d1 c6 3c 34 91 39 bd c1 3e 17 be
       0.11862263 0.024269655 -0.045304492 -0.14770032
000150 7c 54 03 3e cb 5e 2e be 9c e4 57 3e f8 8e 0c be
       0.12825197 -0.17028348 0.21083301 -0.13726413
000160 1f a2 30 be 8f b0 f0 bd 44 e8 eb 3d ca 06 88 bd
       -0.17249344 -0.11752426 0.115189105 -0.0664192
000170 7c e4 55 be 8c fe 87 bd ac ee 33 be c0 3d 4f 3b
       -0.20887941 -0.06640348 -0.17571515 0.00316225
000180 e8 65 72 3d c0 85 19 3e 58 7c c7 bd c3 8a 37 be
       0.059179217 0.14992428 -0.097405136 -0.17924027
000190 50 4b 2c be 1b f3 df bd e6 3a 23 be 00 c9 20 be
       -0.16825604 -0.109350406 -0.15940437 -0.15701675
0001a0 e0 67 94 bb 6b c0 41 be 0e 77 14 be e0 38 b1 bb
       -0.0045289844 -0.18921058 -0.14498541 -0.0054083914
0001b0 a6 e0 07 3e 9c fb 0e be 20 fa 15 be 94 9e 1e bd
       0.1326929 -0.13963169 -0.14646196 -0.03872545
0001c0 f0 9d 28 bc 60 d9 66 3d c0 d7 2f 3d 6e c1 0f be
       -0.0102915615 0.05635965 0.042930365 -0.14038631
0001d0 bc de 55 3e 1a 7d 12 be 72 07 18 3e 93 c3 22 be
       0.20885748 -0.14305535 0.1484659 -0.15894918
0001e0 1c 8e 32 3e 3b 00 f1 bd 08 c5 d7 bc 82 93 c6 bd
       0.17437023 -0.11767622 -0.026339069 -0.09696104
0001f0 d8 a1 7c 3d 00 61 cc 3d e0 82 7e 3c 0c 6e 46 bd
       0.061677784 0.09979439 0.015534133 -0.048444793
000200 4c 16 01 bd a8 ad 9b 3d 90 7c 97 bd 6e a9 2c be
       -0.031515405 0.07601482 -0.07396805 -0.16861507
000210 c2 97 89 bd 48 87 87 bc 28 e8 12 be 82 ae 26 be
       -0.06718399 -0.016544 -0.14346373 -0.16277507
000220 40 89 1c bc 7c 74 b9 3d c0 d2 92 bc 3e b5 35 3e
       -0.009554207 0.09055421 -0.017922759 0.1774492
000230 ec 17 b1 3d 95 4a e2 bd c8 3d eb bc 08 31 4e 3e
       0.08647141 -0.11049382 -0.028715983 0.20135891
000240 ef 39 d2 bd 96 2f 90 bd 80 9f cf 3c a2 4c 3b be
       -0.10264956 -0.07040326 0.02534461 -0.18290952
000250 28 04 8d 3d a0 b3 a6 3b 17 80 e8 bd 74 15 b4 3d
       0.06885558 0.005087331 -0.11352556 0.08793154
000260 90 07 41 3e 40 57 60 3e 18 23 51 bd a4 87 95 3d
       0.18850541 0.21908283 -0.05105886 0.07301262
000270 3a 87 31 3e 88 4f 32 be d0 20 32 bc cb 47 25 be
       0.17336741 -0.17413151 -0.010872081 -0.16140668
000280 b0 5c 49 be 7c ad 3c 3e e4 17 02 3e 60 09 9d 3b
       -0.19664264 0.18425554 0.12704426 0.0047923774
000290 62 00 0a 3e 16 cb 09 3e e6 3b 11 be e0 43 e6 3b
       0.13476709 0.13456377 -0.14183006 0.0070271343
0002a0 30 3f bc 3c c2 96 5c be dc 5f 8e 3d 90 41 44 bd
       0.022979349 -0.21541885 0.069518775 -0.047914088
0002b0 48 d4 a9 3d 00 99 41 bb 5d d2 4a be fc 59 bc 3d
       0.082924426 -0.0029540658 -0.1980681 0.09196851
0002c0 9c ef 2b 3e 1b d0 e3 bd fe c4 39 3e 94 4d 6e bd
       0.16790622 -0.11123677 0.18141553 -0.058179453
0002d0 c0 b7 ed 3b 50 f8 e9 3d 6c 45 4d be a8 78 49 be
       0.0072545707 0.11424315 -0.20046014 -0.19674933
0002e0 d5 61 2e be 84 dd b4 bd 80 24 ec 3a bc e2 ae 3d
       -0.17029507 -0.08831313 0.0018016249 0.0853934
0002f0 50 65 6e 3c f6 ed 03 be e6 7d 2c 3e 7a da fb bd
       0.014550522 -0.12883744 0.16844901 -0.122975305
000300 14 f6 af 3d df 5a 39 be 40 7f 17 3b 30 4f 23 3d
       0.085918576 -0.18101071 0.0023116618 0.03987044
000310 10 54 22 bc 6c ff ce 3d 04 b9 cc 3d 8a ef 4e 3e
       -0.009907737 0.101073116 0.099962264 0.20208564
000320 e2 53 50 3e 5a 16 1f be b0 05 c3 3d 5a 5c d7 bd
       0.20344499 -0.1553587 0.09522569 -0.105156615
000330 f4 f8 64 3e 40 81 6b bd ae e3 56 3e 9c 54 54 bd
       0.22360593 -0.05749631 0.2098529 -0.051838502
000340 7c d1 05 be b4 38 b3 bd e8 47 fc bc d8 89 a3 bc
       -0.13068193 -0.0875105 -0.030796006 -0.01996319
000350 cb 3f e3 bd c0 e9 e3 bd 0a 98 59 3e 8a ef 02 3e
       -0.11096152 -0.11128569 0.21249405 0.1278669
000360 08 99 34 3e 4c a5 62 be 5e 30 1b 3e 75 4d f0 bd
       0.17636502 -0.22133368 0.1515517 -0.11733524
000370 fa 91 1f be 17 0a 15 be 40 90 35 bb aa dd 51 3e
       -0.1558303 -0.1455463 -0.0027704388 0.20494714
000380 aa 7b 08 3e 78 03 1e 3d b2 9a 2e 3e d2 93 c2 bd
       0.13328424 0.038577527 0.17051199 -0.09500851
000390 52 22 35 3e f0 d6 5c be 9b 0c 64 be a0 be bc 3c
       0.17688873 -0.21566367 -0.22270434 0.023040116
0003a0 70 00 4b 3d dd f3 09 be 78 f1 53 be 53 a9 32 be
       0.049560964 -0.13471933 -0.20697582 -0.17447405
0003b0 a0 07 bc bd f0 8a 04 3d 70 9b 2e 3e b8 0f b1 3c
       -0.09181142 0.032359064 0.17051482 0.02161394
0003c0 0e d0 14 be c4 fc 32 3e 40 e2 34 3b 94 d2 06 bd
       -0.14532492 0.17479235 0.0027600676 -0.032915667
0003d0 a0 df 26 3e 02 29 37 3e f4 87 5f 3e 98 d1 f3 bc
       0.16296244 0.17886737 0.21829206 -0.029763028
0003e0 00 15 c0 ba 3c b4 1b 3e 06 e3 0c 3e 60 1d 62 3d
       -0.0014654696 0.15205473 0.13758478 0.055203795
0003f0 8f f9 28 be f2 4d 4a 3e a6 e0 04 3e d4 67 1c be
       -0.16501449 0.19756296 0.12976322 -0.15273982

bias f4 [1, 20]
000000 00 00 00 00 00 00 00 00 00 00 00 00 00 00 00 00
       0.0 0.0 0.0 0.0
000010 00 00 00 00 00 00 00 00 00 00 00 00 00 00 00 00
       0.0 0.0 0.0 0.0
000020 00 00 00 00 00 00 00 00 00 00 00 00 00 00 00 00
       0.0 0.0 0.0 0.0
000030 00 00 00 00 00 00 00 00 00 00 00 00 00 00 00 00
       0.0 0.0 0.0 0.0
000040 00 00 00 00 00 00 00 00 00 00 00 00 00 00 00 00
       0.0 0.0 0.0 0.0

weight f4 [20, 20]
000000 89 3b fe 3d 96 80 72 be 6b e8 08 3e 04 cb 91 bd
       0.12413699 -0.23681864 0.1336991 -0.071188
000010 68 5c 39 be 62 9a 0e 3d 4a 32 b8 bd 2c ff aa bd
       -0.18101656 0.0348152 -0.08993967 -0.083494514
000020 a6 eb ea 3d 16 b4 03 be 68 93 0f 3d 63 ae 4f be
       0.114707276 -0.12861666 0.035052687 -0.20281367
000030 3a 5c ce bd c3 ae 6f bd 53 99 00 3e 90 3f 6d 3d
       -0.100761846 -0.058516275 0.12558489 0.057921946
000040 e3 4f 4f be 7c 9b 14 be de c1 5c 3e d8 a3 0f 3e
       -0.20245318 -0.14512438 0.2155833 0.14027345
000050 4a ab 92 bd a1 02 f4 3d d6 96 c1 3c 3d 44 ce bd
       -0.07161577 0.11914564 0.023631494 -0.10071609
000060 e7 21 63 3e 1e 44 38 3e 7f ef a6 3d b0 fa f0 3d
       0.22180901 0.17994735 0.08151149 0.11766565
000070 7b 65 97 3d fa 0b 40 3e e6 9d 2e bd 92 20 32 be
       0.07392403 0.18754569 -0.042631052 -0.17395237
000080 6e 52 10 be d6 6a 91 3d 87 de 58 bc fc 66 8c 3e
       -0.14093944 0.071004555 -0.013236648 0.2742232
000090 70 31 ed 3d f0 7f 17 3e 29 23 f6 3d 27 ff a1 3d
       0.11581695 0.14794898 0.12018425 0.079099946
0000a0 de 05 59 3b c5 d5 90 be 80 b8 97 3e 2f 29 7c be
       0.003311507 -0.28288093 0.2963295 -0.24625085
0000b0 07 fd b9 bb a1 ff 3f bd da 48 a5 bc 28 69 10 be
       -0.005675915 -0.046874646 -0.02017634 -0.14102614
0000c0 10 85 12 be 92 03 30 bc ae 1c d4 bd 82 38 80 be
       -0.14308572 -0.010743039 -0.10357033 -0.25043112
0000d0 46 59 b8 3d 34 e4 15 bd 4f 46 82 be e9 8f 2e bb
       0.090014026 -0.036594585 -0.25444266 -0.002663607
0000e0 5f 38 82 3e 69 16 e1 3d 48 bb a6 3d 4d 03 15 be
       0.25433633 0.109906025 0.0814119 -0.1455204
0000f0 7d 78 75 bd 44 28 20 bd 33 84 63 3e 1c ca 75 3d
       -0.05992936 -0.0391009 0.22218399 0.0600072
000100 2c b2 30 be 1b 2a 10 3e e3 35 bb bd 9a 29 07 bd
       -0.17255467 0.14078562 -0.091411375 -0.03299866
000110 8b d8 74 3e c2 ae 27 bc bb fc 50 3e 55 ad 7a 3c
       0.2391073 -0.010234537 0.20408909 0.015300115
000120 d2 b1 b5 3d b9 de 95 3e 07 18 ad be 8d ec d3 bd
       0.08871807 0.29271486 -0.33807394 -0.10347853
000130 97 c7 93 3d 99 4c 84 3e 79 fe 16 be 51 1b 47 bd
       0.07215803 0.2583969 -0.14745511 -0.048610035
000140 45 d9 00 3e 04 28 ac bd 52 b4 82 bd 67 8f 7a 3b
       0.12582882 -0.0840607 -0.063820496 0.0038232447
000150 16 6d a3 3e 9e 56 81 3a 58 59 72 bd b9 81 a7 bd
       0.31919163 0.0009867733 -0.059167236 -0.081790395
000160 76 a9 97 3c 83 ad 7c bd 1c 2a c8 bd fe 26 8d 3e
       0.018513422 -0.06168891 -0.09773657 0.2756881
000170 31 63 c2 3d da b3 28 be b9 bd 64 bd 70 7d 86 3e
       0.094915755 -0.16474858 -0.055844996 0.26267576
000180 f3 18 b8 be cc 91 62 3d 16 91 6a 3e 20 90 88 bd
       -0.35956535 0.055314824 0.22906908 -0.06668115
000190 f6 2a b3 3e 9d 58 75 3e 12 1f d2 be 8b 77 1b 3b
       0.34993714 0.23959585 -0.4103933 0.0023722376
0001a0 81 8e b7 3e 67 4a d1 be 1f ed 5a be 2a fb af be
       0.3585091 -0.40877077 -0.21379517 -0.3437131
0001b0 54 92 8d be 47 35 0e be c9 c0 5d be a0 b5 48 3e
       -0.27650702 -0.13887511 -0.21655573 0.19600534
0001c0 85 39 14 be a4 f5 a3 be c8 df bd 3e e7 97 2c 3e
       -0.14475067 -0.32023346 0.37084794 0.16854821
0001d0 05 d9 c2 be 38 38 ca 3d 7f 64 cf 3e 36 f0 65 3e
       -0.38056198 0.09874004 0.4050636 0.22454914
0001e0 21 f7 7c 3e a2 4b 67 3d a6 57 45 3d 1d 54 05 be
       0.24703647 0.056468613 0.04817929 -0.13020368
0001f0 bb 90 3e 3e f0 e2 a7 be 12 76 65 bd 51 42 c2 3d
       0.18609898 -0.32790327 -0.056020804 0.09485305
000200 2b 22 1b 3e e4 45 c6 bc 04 8f 13 bd 9a d3 a0 3e
       0.15149753 -0.024203248 -0.036025062 0.3141144
000210 1d 69 33 be c0 d3 8d be a2 49 39 3e ed 8c 1c be
       -0.17520566 -0.27700615 0.18094495 -0.15288134
000220 41 23 d9 bd 75 68 74 3d eb 75 8b 3c e9 7e 19 3e
       -0.10602427 0.05966993 0.017024001 0.14989819
000230 03 a3 30 be b5 b0 06 3d 39 14 7a 3c 85 d3 30 3c
       -0.17249684 0.032883365 0.0152636105 0.010792618
000240 b7 46 3a be b8 12 20 bd 79 32 42 3e 31 85 c0 bd
       -0.18191038 -0.03908035 0.18964566 -0.09400404
000250 1a fb 3e be 88 84 6a be 8c b9 9a bd d8 9e 96 3d
       -0.18650475 -0.22902119 -0.075549215 0.07354516
000260 6b 94 93 b9 e6 c5 68 be d6 87 f9 3d ad 3d 1f be
       -0.00028148605 -0.22731742 0.12184112 -0.15550871
000270 ae 31 9e 3c 0a 74 47 3e 4a e9 d0 3d ca 5d de bd
       0.019310798 0.19477859 0.10200746 -0.108577326
000280 21 88 bc 3e 59 c8 28 3e 72 49 4e be 78 95 1c bd
       0.36822608 0.16482677 -0.20145205 -0.038228482
000290 ff 5d 2e 3e d3 7b c0 be 42 1d 03 be 0d 8f 30 3d
       0.17028044 -0.3759447 -0.1280413 0.043105174
0002a0 1e d3 0a be 52 d6 73 be 2b 11 b7 bd de f1 e3 3d
       -0.13557097 -0.23812225 -0.089388214 0.11130117
0002b0 d9 6b a4 be 61 3f c9 be f5 1b 3a 3e ee 9c 1e 3e
       -0.3211353 -0.39306167 0.18174727 0.15489551
0002c0 64 de 7d bd 13 81 c2 bd 00 41 cd 3a e0 b8 3e 3e
       -0.061979666 -0.09497275 0.001565963 0.18625212
0002d0 f5 98 e7 3d 5e 84 41 be 07 e2 bb 3d b2 6c 83 bc
       0.11308471 -0.1889815 0.09173971 -0.01604304
0002e0 4a 0e c9 3d 58 ac b6 3d 3e dc e3 3d 2d 86 6c 3e
       0.098171785 0.08919591 0.11125992 0.23098059
0002f0 8c 71 97 3e 3d 03 83 3d 03 38 06 3e c6 73 e1 bd
       0.29578817 0.06397102 0.13107304 -0.1100841
000300 52 e8 a9 bc a0 a1 8c bd 7c 1c 61 be d9 18 ad bd
       -0.020740662 -0.06866765 -0.21983522 -0.08452005
000310 24 ee 4c 3e 91 d8 fe 3d 4e 4b 5f be 56 32 76 be
       0.20012718 0.124436505 -0.2180607 -0.24042639
000320 1f dc 75 3e 19 34 ef 3d c4 ed a8 be 7b 23 32 bd
       0.24009751 0.11679859 -0.329939 -0.043490868
000330 7b 19 22 3e c6 7c 4f be 74 47 bd bd 6a d2 f3 bd
       0.15830033 -0.20262441 -0.09242144 -0.11905368
000340 ff 75 bb bd 4f fc ac be 12 b1 bd bd 15 47 22 3d
       -0.09153365 -0.33786246 -0.09262289 0.03961857
000350 8a 3d 7c 3d f5 07 28 3c ee a9 77 3d b9 22 1b bd
       0.061582126 0.010255803 0.060464792 -0.03787491
000360 4b df a1 be f7 cc 09 3e 4d b9 9a 3d 4a 7a 52 3e
       -0.31615672 0.13457094 0.075548746 0.20554462
000370 85 38 87 be 45 bf f9 bd c6 9a a2 3e 33 93 74 be
       -0.26410308 -0.12194685 0.31758708 -0.23884277
000380 24 46 8c be fc 47 51 3e 6e 40 0f 3d 71 ac 01 be
       -0.27397263 0.20437616 0.034973554 -0.12663437
000390 eb eb 54 3e 43 56 0c 3e d3 ab a8 3d a4 1e 4f be
       0.2079312 0.13704781 0.08235898 -0.20226532
0003a0 57 f1 a7 bd 39 16 98 bd 45 45 b7 be db 4b 2d be
       -0.08200329 -0.07426114 -0.35795036 -0.16923468
0003b0 3c ff b8 3e 54 ae e7 3d d3 e0 29 be ca 86 5d be
       0.36132228 0.11312547 -0.1658967 -0.21633449
0003c0 35 25 c1 bd ef 83 6b be ad a8 9f 3e f8 d2 26 3d
       -0.09430925 -0.22999547 0.31183377 0.04072854
0003d0 32 fb 0f 3e 58 3c 17 3e ec 6c 6d 3e 0d 33 56 3e
       0.14060667 0.14769113 0.23186082 0.20917912
0003e0 fd 48 0d bd 66 fd 25 bd c1 a7 9a 3d 58 16 0c 3e
       -0.034493435 -0.040524863 0.07551528 0.13680398
0003f0 36 ff af 3d 69 0b 0b 3e b4 1b 44 be 53 d5 18 3e
       0.085935995 0.13578571 -0.19151193 0.14925127

weight f4 [20, 20]
000000 7b 37 01 be 42 ef 3b 3e d6 1a 09 3e 4a e6 27 3e
       -0.1261882 0.18352988 0.13389143 0.16396442
000010 53 36 62 be 98 c6 7d 3d fc 61 5f be 83 75 e8 bd
       -0.22091036 0.061956972 -0.21814722 -0.113505386
000020 58 33 3f 3d ad 0f 26 be 48 8f f5 3d b3 68 4f be
       0.046679825 -0.16216917 0.11990219 -0.20254783
000030 a8 f9 b4 3d 00 fe 40 3e 66 18 06 3e ec 62 ea 3d
       0.08836681 0.18846893 0.13095245 0.11444649
000040 c6 cf 03 be 58 75 39 3d 00 89 e5 3d 18 88 07 bd
       -0.12872228 0.045277923 0.11207771 -0.033088773
000050 54 a2 4b 3e a3 40 4b be c4 43 3b be 10 45 87 bd
       0.19886142 -0.19848876 -0.1828757 -0.066049695
000060 40 5e 45 bd 9d af 1f be de cb ae bd 06 c6 4a be
       -0.048185587 -0.15594335 -0.08534978 -0.19802102
000070 ca 82 49 3e f0 94 e8 3d 42 50 02 3e bb 1e ec bd
       0.19678798 0.113565326 0.12725928 -0.11529299
000080 c8 b9 8d 3c c0 31 46 be dc 19 3f 3e d6 b0 24 3e
       0.017300501 -0.19354916 0.18662208 0.16083083
000090 50 0d 1f 3e ec e4 d0 3d a8 b1 94 3d ca 1a 2d 3e
       0.15532422 0.101999134 0.07260448 0.1690475
0000a0 24 a1 64 bd b0 de 7a 3d d0 93 f6 bc 6c 51 03 3e
       -0.05581774 0.061247528 -0.03009978 0.12824029
0000b0 e8 6d fb 3d 30 24 43 bd 7c 65 3b be 60 8e 45 3e
       0.12276822 -0.047641933 -0.18300432 0.19292593
0000c0 b0 90 0b 3c af 1e 5d be e2 eb 8e bd 34 83 ff 3d
       0.008518383 -0.21593736 -0.06978585 0.12476197
0000d0 92 94 dc bd 7e 5f dd bd 54 17 27 3e 0c b5 90 3d
       -0.10770525 -0.10809229 0.16317493 0.07065782
0000e0 c4 50 9e 3d f0 e6 c4 bd 18 53 ee 3d 96 d3 54 be
       0.077302486 -0.0961436 0.116369426 -0.20783839
0000f0 f6 d7 5a be 00 18 e6 39 9d 19 fa bd b0 10 10 be
       -0.21371445 0.000438869 -0.122119166 -0.14068866
000100 4c 3a 9c bd 00 ff e6 3b ca ce 34 3e ac 51 88 3d
       -0.07628307 0.0070494413 0.17657009 0.06656203
000110 5c dc 13 3e 74 d3 dd 3d 98 79 db bd a8 68 2f bd
       0.14439529 0.10831347 -0.107165515 -0.042824417
000120 6c 36 43 3e 1a d8 58 3e d8 f6 ca 3d 22 65 3e be
       0.19063729 0.21176186 0.09910363 -0.18593267
000130 08 88 a4 bc 40 86 47 3e 04 a7 fa 3d b8 3d 84 bc
       -0.020084396 0.19484806 0.12238887 -0.016142711
000140 ef d0 25 be 8c 8f 12 3e 70 87 49 3d 00 cf ab 3c
       -0.16192983 0.14312571 0.04920143 0.020972729
000150 e0 f3 9a 3b 00 c2 d5 39 5a 77 03 3e 80 58 a1 3d
       0.004728779 0.00040771067 0.12838498 0.07878208
000160 54 d8 83 bd a0 ed c8 3c b8 51 05 3d c0 8b dc 3c
       -0.06437746 0.02452737 0.032548636 0.026922107
000170 26 71 43 3e 38 04 f7 3d 3d 31 48 be c0 9d 2e 3b
       0.19086131 0.120613515 -0.19550033 0.002664432
000180 a5 fd 5d be 92 c2 35 3e 8c c0 b7 3d 08 48 c0 bc
       -0.21678789 0.17750004 0.08972272 -0.023471847
000190 4c 10 16 be b8 7d 31 be dd e4 50 be e8 52 11 3e
       -0.14654654 -0.17333114 -0.20399804 0.14191782
0001a0 40 ba 24 3d b0 a5 cb 3d e0 46 fe 3c 5e 5a 44 3e
       0.040216684 0.09943712 0.031039655 0.19175097
0001b0 34 a7 c6 bd ce 9c 58 3e ec c8 45 be 40 e6 36 bd
       -0.0969986 0.21153566 -0.19314927 -0.044653177
0001c0 ac 91 92 3d 78 9e 53 3e 8a 41 cb bd 80 2d 44 bd
       0.07156691 0.2066592 -0.0992461 -0.047894955
0001d0 c0 3b c3 3c 70 eb 2b be c2 82 99 bd 71 a5 5d be
       0.023832202 -0.16789031 -0.07495643 -0.21645142
0001e0 3e d1 28 3e 10 ac c1 3d d4 47 4d 3e 85 5a 57 be
       0.1648607 0.094566464 0.20046932 -0.21030624
0001f0 c4 23 af bd dc dc 38 3e 05 09 14 be f4 c1 05 3e
       -0.085517436 0.18053001 -0.14456566 0.13062268
000200 3c 8e 5a be ba dd ad bd 04 e0 16 bd 9a 52 9b bd
       -0.2134332 -0.084895566 -0.03683473 -0.075841144
000210 3e 03 5d 3e 24 59 dd 3d 25 8c 5a be 40 db a9 3b
       0.21583268 0.10808018 -0.21342523 0.0051836073
000220 80 91 e0 bb e0 ab 86 3b 98 05 c0 3c c4 7d 02 3e
       -0.0068532825 0.0041098446 0.023440167 0.12743288
000230 f6 ad 10 3e b0 af 31 bd 42 b0 3a be 4c 12 b1 3d
       0.14128861 -0.04338044 -0.182313 0.08646068
000240 9c 65 ae 3d 3a 85 04 be ba 8b be bd f4 fc b3 3d
       0.08515474 -0.12941447 -0.093039945 0.08788481
000250 0a 29 b3 bd c9 bf 4f be b8 9a ad bd 69 08 fb bd
       -0.08748062 -0.20288004 -0.08476776 -0.122574635
000260 86 f3 22 be 7d ed d9 bd 48 09 e5 bc 98 d3 5f 3d
       -0.1591321 -0.106410004 -0.027958527 0.05464515
000270 c4 c3 b5 bd d0 20 dc bc ce f8 09 be a0 68 50 3e
       -0.0887523 -0.026871115 -0.13473818 0.20352411
000280 eb 7c ef bd c0 45 89 3d 10 ad 01 bd c8 28 c2 3c
       -0.11693748 0.06702757 -0.031659186 0.023701087
000290 c0 f1 c2 3c 36 da 36 be d7 2c e1 bd f8 14 3b 3d
       0.023796916 -0.17856678 -0.10994881 0.045674294
0002a0 20 a2 23 3e c8 6d 7d 3d 70 bc 92 bc 46 35 4c 3e
       0.15979815 0.061872274 -0.01791212 0.19942197
0002b0 1d b3 2e be 96 2a 35 3e c4 2c 00 bd 9c 46 57 3e
       -0.17060514 0.17692026 -0.03129269 0.21023029
0002c0 f8 ad 4b 3e 12 78 9b bd 68 34 3a bd 42 8c 14 be
       0.19890583 -0.07591261 -0.045460135 -0.14506629
0002d0 de d6 05 3e c2 1e 97 bd 9c 92 e6 3d dc 5a ba 3d
       0.13070247 -0.073789135 0.11258432 0.09099361
0002e0 b2 a8 1f be 0e 02 2c be 96 7d 08 3e 9a a4 4a 3e
       -0.15591696 -0.16797659 0.13329157 0.19789353
0002f0 af 68 5b be fa cf e1 bd 30 82 7f bd fd c2 45 be
       -0.21426652 -0.110259965 -0.062380016 -0.19312663
000300 a8 24 d7 bc d6 7c 38 be cc d5 96 3d ca f9 50 3e
       -0.026262596 -0.18016371 0.07364997 0.20407787
000310 44 b0 34 be e8 66 21 3e bc 2d 39 3e f0 f9 0c 3e
       -0.17645365 0.15761912 0.18083853 0.13767219
000320 58 38 c9 3c e9 8c 54 be f0 0c 2e be 90 90 57 3e
       0.024563 -0.20756878 -0.16997123 0.2105124
000330 90 34 4f 3c 30 3a b2 bd 91 93 fc bd 00 80 03 bd
       0.012646809 -0.08702505 -0.123328336 -0.032104492
000340 b8 58 52 3d d8 5b 62 3e f2 3a 0c be 58 f2 64 3e
       0.05135414 0.22105348 -0.13694361 0.22358072
000350 6c 61 9c 3d 50 88 9d 3d 0a 96 2e be c7 74 61 be
       0.07635769 0.07692015 -0.17049423 -0.22017203
000360 f8 ae 25 bd 12 5d 2b 3e 76 1a 2d 3e 40 37 5c 3d
       -0.040450066 0.16734722 0.16904625 0.053763628
000370 05 7a 28 be fe 01 36 3e ce 84 35 3e b7 9d 0b be
       -0.16452797 0.17774197 0.17726442 -0.13634382
000380 f4 25 44 bd 4e 49 1b 3e 20 0d 95 3b 4c 67 b4 bd
       -0.047887757 0.15164682 0.0045486838 -0.08808765
000390 88 77 60 3d 84 80 b4 3d 16 54 ea bd bc ed b8 3d
       0.054801494 0.08813575 -0.11441819 0.09029719
0003a0 b8 76 87 bd 20 4b 28 be c4 96 48 3e e0 18 f6 bc
       -0.06614441 -0.16434908 0.19588763 -0.030041158
0003b0 33 eb f9 bd 48 f0 e2 3d 82 43 62 be 98 ae 28 be
       -0.12203064 0.11080986 -0.22096065 -0.16472852
0003c0 58 74 03 bd 96 49 50 3e 6b c7 60 be 02 b7 a2 bd
       -0.032093376 0.20340571 -0.21951072 -0.07945062
0003d0 20 72 82 bb a0 eb 76 3d 5c 2a b1 3d 15 5f f8 bd
       -0.00398089 0.060283303 0.086506575 -0.121275105
0003e0 60 54 57 3e 0c f4 c7 3d 7c aa 9e bd e6 b6 28 be
       0.2102828 0.09763345 -0.07747361 -0.1647602
0003f0 6d 0f 50 be 30 fc 4c bd 60 d8 47 bd c0 92 54 bc
       -0.20318384 -0.050045192 -0.048790336 -0.012974441

bias f4 [1, 20]
000000 00 00 00 00 00 00 00 00 00 00 00 00 00 00 00 00
       0.0 0.0 0.0 0.0
000010 00 00 00 00 00 00 00 00 00 00 00 00 00 00 00 00
       0.0 0.0 0.0 0.0
000020 00 00 00 00 00 00 00 00 00 00 00 00 00 00 00 00
       0.0 0.0 0.0 0.0
000030 00 00 00 00 00 00 00 00 00 00 00 00 00 00 00 00
       0.0 0.0 0.0 0.0
000040 00 00 00 00 00 00 00 00 00 00 00 00 00 00 00 00
       0.0 0.0 0.0 0.0

weight f4 [20, 20]
000000 63 b9 4d bd 18 eb 09 be f8 9a 46 3e d0 25 ba 3d
       -0.050225627 -0.13468587 0.19395053 0.090892434
000010 b3 5c 6c bd fa 67 63 3d 6f ee c0 3d e2 bd 10 3e
       -0.057705592 0.05551908 0.094204776 0.14134935
000020 b4 f7 61 bd 31 8c 75 bd 2f 70 86 3c 8a 83 5f 3b
       -0.05516787 -0.05994815 0.016410915 0.0034105503
000030 16 63 0d be 4b e0 c5 bd 88 eb 00 3e 93 93 e6 3d
       -0.1380733 -0.09661921 0.12589848 0.11258616
000040 0c 73 61 3e 0f b3 f9 3d 63 61 2c 3e b3 c4 6e 3d
       0.22016543 0.12192356 0.16834025 0.058293056
000050 d4 44 1c 3e e9 3e 0b 3e 66 ff f1 3d a8 18 5f be
       0.15260631 0.13598217 0.118162915 -0.2178675
000060 0c 04 ee bd 1b 4c 16 be 3a 9b d5 3d 3b 23 b1 3d
       -0.11621866 -0.1467747 0.10429998 0.08649298
000070 4c ad 1b 3d 7d 97 c5 3d 97 1c 16 be 42 2f ab bd
       0.038007066 0.09648035 -0.14659344 -0.08358623
000080 e4 b1 33 be d9 62 04 3e 0a c8 04 3e e1 d3 7c 3d
       -0.17548329 0.12928332 0.12966934 0.0617255
000090 3d 6c 4d be a4 40 45 be c9 36 eb 3c 7a 5e 33 3d
       -0.20060821 -0.1926294 0.028712647 0.04379127
0000a0 74 a6 12 3e de 76 95 bd 0e e2 97 3d 6f b0 be bc
       0.1432131 -0.07298063 0.074161634 -0.02327749
0000b0 16 56 f4 bc 7a ac 0b 3e 5e c4 20 be 49 b2 93 3d
       -0.029826205 0.13640013 -0.15699908 0.072117396
0000c0 71 07 57 3e bd c2 50 3d b1 79 45 bc a1 12 19 3e
       0.20998932 0.050966967 -0.012052939 0.14948513
0000d0 da 87 92 be ed 67 9f 3c 68 9a 71 be af 89 1e be
       -0.28619272 0.019458735 -0.23594058 -0.1548221
0000e0 71 57 4d 3e 24 f8 2a bd 8f 97 15 be 98 f5 f9 3d
       0.20052887 -0.04174055 -0.14608596 0.122050464
0000f0 a5 80 75 3c 4d 8c 70 bd 41 60 48 be 4a 5d cc bd
       0.0149842845 -0.05872755 -0.19567968 -0.09978731
000100 57 e6 a8 bd c6 ce 0d be 4b 14 c8 3d 4a ee 2f 3e
       -0.08247059 -0.13848409 0.097694956 0.17180744
000110 50 d7 04 bc 87 50 db 3d 11 15 01 be 2c fa 03 3e
       -0.008107975 0.10708719 -0.12605692 0.12888402
000120 7f d1 b7 bd cf bf f0 3d 53 42 08 be 47 89 89 3d
       -0.08975505 0.117553346 -0.1330655 0.06715637
000130 6e a3 db 3d 0f f2 f1 3d 2b 8c 4d 3e f8 58 28 3e
       0.10724531 0.11813747 0.20073001 0.16440189
000140 46 fb 36 3e 0b 02 30 be b2 66 60 be f4 19 7e 3e
       0.1786929 -0.1718828 -0.21914175 0.24814588
000150 7b 40 59 be f9 37 22 be fa 5f 8d be ab bb 42 bd
       -0.21216004 -0.15841664 -0.27612287 -0.047542255
000160 4b ac f2 be 51 db 1d 3e 1d 64 97 be f9 c8 b7 3d
       -0.47397074 0.15415694 -0.29568568 0.08973879
000170 bc fd 16 3e 3e f2 73 3e c7 86 2d 3a 93 98 09 3e
       0.1474523 0.23822877 0.00066195097 0.13437109
000180 61 11 06 3d e0 d5 19 3e c2 f3 92 3e c3 fb 84 be
       0.032731418 0.15022993 0.28701597 -0.2597333
000190 bd c5 ac bc e8 5c cf 3d 2f 53 9f 3d 27 3b dd 3d
       -0.021090383 0.10125142 0.07779538 0.10802298
0001a0 3f fb 82 3d a6 11 1a be 90 71 3a 3e 7f 2d 13 be
       0.06395578 -0.15045795 0.18207383 -0.14372824
0001b0 4c e1 7f 3c 0f 40 88 3d db 26 8e 3d bf 56 cb bd
       0.01561768 0.06652843 0.06941005 -0.09928655
0001c0 1c bb 0d be d0 5e fa bd a3 5f 47 3e 80 3c 45 be
       -0.13840908 -0.12225115 0.19470076 -0.1926136
0001d0 e0 a3 46 3e 7a df 02 3e a8 47 c7 3d ea 1b 59 3d
       0.19398451 0.12780562 0.09730464 0.053005137
0001e0 dc 9d bb bd 2c 5c 12 3d 18 f3 a2 3d d6 23 ab 3a
       -0.09160969 0.035732433 0.07956523 0.0013056945
0001f0 03 65 3c 3e b6 eb fc 3d ba 30 3b 3e ab af d3 bd
       0.18397908 0.12349646 0.18280306 -0.103362404
000200 31 18 13 bd d3 a3 c5 3d fa 39 30 be 56 85 20 3e
       -0.035911743 0.096503876 -0.17209616 0.15675864
000210 19 9f b9 3c c4 24 e7 3d a3 58 5b be df 0e b4 3d
       0.022658871 0.11286309 -0.21420531 0.08791899
000220 42 e7 9f 3c 73 d3 e1 3a a6 b1 bd 3d cf e9 24 bd
       0.019519452 0.0017229154 0.092623994 -0.04026204
000230 dd 74 47 bb 31 42 e6 bc c1 24 fc 3d 41 6a 34 be
       -0.0030434646 -0.028107734 0.12311698 -0.17618658
000240 f4 96 ce 3d 11 3e 23 3e 0a df d5 3d 6c 63 21 be
       0.10087386 0.15941645 0.10442932 -0.15760583
000250 bc 3a 25 3d ca eb dd 3d 8c 57 df 3d 4c eb 10 be
       0.040339217 0.10835989 0.1090537 -0.14152259
000260 6c 98 04 be e7 94 9b bc b1 2e 51 3e c2 d9 88 bd
       -0.1294877 -0.0189919 0.20427968 -0.06682159
000270 82 85 c9 bd 10 0a bd bc d8 87 aa 3d ed 02 2f 3e
       -0.09839918 -0.023076087 0.083266914 0.1709096
000280 f6 4a 55 3e ed 5a 07 3c 06 61 42 be 02 2e 13 bd
       0.20829377 0.0082614245 -0.18982324 -0.03593255
000290 46 3c 10 be d7 d4 eb bd b6 05 8d bc a8 1f 40 be
       -0.14085492 -0.11515205 -0.017214637 -0.18762076
0002a0 5d 67 6f 3e 35 0a 29 be ed f7 02 be 9a c7 31 3e
       0.23379274 -0.165078 -0.12789889 0.17361298
0002b0 da 4d 5f be f5 ea ac 3c 14 5e fc 3d 0b 59 76 bd
       -0.21807042 0.02110813 0.123226315 -0.06014351
0002c0 cc 9e 5c 3c 88 86 8a bd e5 99 53 bd c9 e7 d1 3d
       0.0134655945 -0.06763941 -0.051660437 0.10249288
0002d0 78 3c 92 bd 5f 75 63 be f2 10 3a be e5 90 8d bb
       -0.0714044 -0.22212742 -0.18170527 -0.0043202513
0002e0 11 a1 39 3d 43 77 2d be f1 d5 17 bd d5 0b 5b 3d
       0.04531962 -0.16940026 -0.037069265 0.05347808
0002f0 58 06 06 3e fb 2f 83 bc 3c b5 e4 3d 6f a2 20 be
       0.13088357 -0.01601409 0.1116738 -0.15686963
000300 2d 62 65 3e f8 76 8b bd 4b 0f 0b bc 7e a3 bd bd
       0.22400732 -0.06809801 -0.008487533 -0.09259699
000310 a7 90 e8 3d f6 e6 36 be b3 05 80 bc 27 11 32 3e
       0.11355715 -0.17861542 -0.015627718 0.17389356
000320 3d c8 3a 3e bc 11 6a be be b0 c2 3d 80 64 b3 3c
       0.18240447 -0.22858328 0.09506367 0.021898508
000330 24 08 77 3c 21 71 61 be 0d dd a5 bd 08 41 67 3d
       0.0150776245 -0.22015812 -0.08098803 0.056458503
000340 0d 91 52 be 86 5c e5 bd e3 65 0c 3e d1 41 86 3d
       -0.20563145 -0.11199288 0.13710742 0.06555522
000350 b2 a6 ae bd ae 8b 69 3d b7 6f 5b 3e 60 09 c7 bb
       -0.08527888 0.057017975 0.21429335 -0.0060741156
000360 47 11 ab 3d 45 0c 01 be 56 13 93 3e f8 b4 a0 3d
       0.08352905 -0.12602337 0.2872569 0.07847017
000370 5a 68 e6 bb 6d 5f 79 3d 41 76 7c bc ea f9 cf 3d
       -0.0070314826 0.06088202 -0.015409053 0.10155089
000380 34 9c 5d 3d d0 e3 9c 3c 4a 4b 9a 3d 35 9d a5 bd
       0.054104045 0.019151598 0.075338915 -0.080866255
000390 05 80 24 be 13 f6 4e bd cd 40 2f 3d fb e9 a2 bd
       -0.1606446 -0.050527643 0.04278641 -0.079547845
0003a0 c9 b3 f5 bd 12 62 14 be f3 a9 07 3e 90 e3 a1 3d
       -0.11997182 -0.14490536 0.13248424 0.07904732
0003b0 f8 4e 1e be 81 25 32 be 86 12 12 be ea c5 68 3e
       -0.15459812 -0.17397119 -0.14264879 0.22731748
0003c0 7f 74 32 be e2 98 60 3e 46 33 da bd 5f fa cc bd
       -0.17427252 0.2193332 -0.10654311 -0.10008692
0003d0 aa 33 31 3e 46 59 21 be 88 b6 a2 bd 95 7b 5d 3d
       0.17304865 -0.15756711 -0.07944971 0.054072935
0003e0 4d 43 8b be f3 9b 4c 3d ab 72 48 be 5b e1 ff 3d
       -0.27199784 0.049953412 -0.19574992 0.12494155
0003f0 64 0c ae 3d 85 6d 04 3b f0 42 06 be aa 1c 38 be
       0.08498457 0.002020688 -0.13111472 -0.17979684
