neuromancer/datasets/Flexy_air/best_policy_flexy.pth (torch, 163183 bytes, 71 tensors)

weight f4 [1, 20]
-0.09064159 0.174777 0.09894726 -0.20295577 0.165972 -0.105210565 0.01427424 -0.040365323
-0.008081228 -0.003132239 0.048815787 -0.20768279 -0.19962966 0.09874633 0.21628621 -0.10429291
-0.043964952 -0.017137572 0.027102709 -0.08035427
00000000: 4ca2 b9bd bef8 323e dca4 ca3d a3d3 4fbe
00000010: 90f4 293e a378 d7bd 80de 693c 1c56 25bd
00000020: 2067 04bc 4046 4dbb 10f3 473d ccaa 54be
00000030: b86b 4cbe 843b ca3d 227a 5d3e 8597 d5bd
00000040: 9814 34bd 1864 8cbc 8006 de3c c890 a4bd

bias f4 [1, 20]
0.0 0.0 0.0 0.0 0.0 0.0 0.0 0.0
0.0 0.0 0.0 0.0 0.0 0.0 0.0 0.0
0.0 0.0 0.0 0.0
00000000: 0000 0000 0000 0000 0000 0000 0000 0000
00000010: 0000 0000 0000 0000 0000 0000 0000 0000
00000020: 0000 0000 0000 0000 0000 0000 0000 0000
00000030: 0000 0000 0000 0000 0000 0000 0000 0000
00000040: 0000 0000 0000 0000 0000 0000 0000 0000

weight f4 [20, 1]
0.58512825 -0.50165516 0.86492515 0.5859544 -0.33032918 0.7372911 0.6659146 0.033349723
0.8524091 -1.2707224 -0.87287676 -0.91074884 0.9394709 0.6904442 0.41906476 -0.43688646
0.92586887 -0.6316192 -1.0514556 0.86774755
00000000: f7ca 153f 796c 00bf bc6b 5d3f 1c01 163f
00000010: e820 a9be 1cbf 3c3f 6179 2a3f b899 083d
00000020: 7c37 5a3f 08a7 a2bf da74 5fbf d626 69bf
00000030: 2a81 703f f3c0 303f a88f d63e 95af dfbe
00000040: be05 6d3f ccb1 21bf 1996 86bf b424 5e3f

weight f4 [20, 20]
0.15030265 0.08096239 0.18473318 -0.18831918 0.17984143 0.13161442 0.19949144 -0.09928291
0.20390886 -0.15834025 0.1296846 -0.18135649 0.09679484 0.12453237 -0.012082398 0.113514245
-0.093949795 0.035030603 0.054711282 0.21241626 0.16888037 0.119238555 -0.1522811 -0.04312411
-0.036857948 -0.20290703 0.10388991 -0.19733095 -0.13650838 -0.120999664 -0.17090909 0.14067417
-0.117377356 0.18918154 -0.20145752 0.011822626 0.062601805 -0.17673823 0.0003668368 -0.10404306
0.11128473 0.07658404 -0.13271788 -0.20459647 -0.19409339 -0.056935772 -0.13123286 -0.17882207
0.10039356 0.0010245293 -0.0055529326 -0.1756038 0.21643728 -0.12891208 -0.15491141 0.13046357
0.10382992 -0.03031446 -0.07587701 -0.006835565 -0.13700202 -0.10609 -0.06723055 0.16295123
-0.15058927 -0.0479199 -0.21778694 0.19970676 -0.20451382 -0.076891884 0.018268615 -0.13053161
0.21883217 0.11154318 0.07024422 0.16535923 0.03677112 0.050934732 -0.12096741 -0.17054161
0.13508701 0.019807354 -0.09279801 0.04848078 -0.1517711 -0.07669078 0.004065469 0.055466205
-0.07653771 -0.192518 0.10009366 -0.17241193 -0.154487 0.020850867 0.13654166 0.03708929
0.20059365 0.086253405 -0.049458623 0.14217016 0.08268151 -0.010617778 -0.09962035 -0.19310233
0.19737393 -0.11498151 -0.19797403 -0.17760055 0.19038609 0.20563453 -0.084183484 0.04950556
0.17983446 -0.20187482 -0.17417791 -0.092196256 0.05471888 0.15367535 -0.11430138 -0.18331045
0.06918776 -0.12253092 -0.028363958 0.10516745 0.16679344 0.04380575 0.06291592 -0.010054678
0.16784802 0.05701992 0.05257079 -0.003611803 0.093196094 0.062870204 0.10703373 -0.05565889
0.057022035 -0.029525042 0.15387204 0.18485373 0.08451566 -0.15384218 -0.1749425 -0.19137928
-0.021051735 0.13451615 0.09914222 0.04908654 0.14648336 -0.21206573 -0.06952758 0.1438511
-0.17228892 0.17435503 -0.05488789 0.16651478 -0.12191301 0.007855654 0.19260597 -0.07249181
-0.21561734 0.103812516 -0.1720213 -0.09041534 0.0050231367 -0.14071414 -0.028168201 -0.1391193
0.033964723 -0.15663315 -0.14105546 0.18601316 -0.11486503 -0.05025953 -0.03473182 0.06727916
-0.08633001 -0.1283257 -0.022748366 -0.03742549 0.055436462 -0.113201454 0.18552607 0.15361643
-0.16478279 0.180327 0.12211561 0.02798605 -0.20881322 -0.18966591 0.026216403 -0.07185455
0.1149683 -0.0022333413 -0.1527955 -0.12332063 -0.12320236 0.16145849 0.16529197 -0.10375288
-0.018577665 0.15221456 0.062722 0.12862629 0.18337753 0.009239718 0.1471577 0.07744932
0.066364795 0.103694886 -0.011471063 0.22022405 0.1885798 0.03309995 0.121796936 0.14206222
0.030234605 0.11899632 0.07036057 0.10999632 -0.016709775 -0.07975501 -0.022769883 0.06808606
0.035684288 -0.1369265 0.19249243 -0.180644 0.037175864 0.0899097 -0.02636844 0.16631138
0.15828219 -0.017280906 -0.023716837 -0.05915992 0.103574365 -0.08538298 -0.09419526 -0.1791393
0.21301788 -0.2013402 -0.04782684 0.051600546 -0.21958873 0.017988533 -0.19186002 -0.18946996
0.16093564 -0.021340266 0.1379534 0.07078493 0.18670526 -0.14702713 0.20072967 0.17431206
00000000: f0e8 193e 9ccf a53d b22a 3d3e bed6 40be
00000010: 5a28 383e eec5 063e 7c47 4c3e d754 cbbd
00000020: 7ccd 503e f223 22be 0acc 043e 84b5 39be
00000030: 603c c63d d40a ff3d 40f5 45bc 287a e83d
00000040: c068 c0bd 407c 0f3d f018 603d a683 593e
00000050: faee 2c3e 5833 f43d 94ef 1bbe e8a2 30bd
00000060: 5cf8 16bd dcc6 4fbe 3cc4 d43d 2011 4abe
00000070: dac8 0bbe acce f7bd cb02 2fbe e40c 103e
00000080: 8a63 f0bd ceb8 413e e14a 4ebe b0b3 413c
00000090: 6035 803d defa 34be 0054 c039 8714 d5bd
000000a0: 40e9 e33d 18d8 9c3d 32e7 07be bd81 51be
000000b0: 6bc0 46be 7c35 69bd e861 06be 221d 37be
000000c0: 249b cd3d 8049 863a 60f5 b5bb 7cd1 33be
000000d0: bca1 5d3e 8701 04be 19a1 1ebe 3e98 053e
000000e0: c8a4 d43d 0856 f8bc 6865 9bbd e0fc dfbb
000000f0: 424a 0cbe b745 d9bd 2cb0 89bd b0dc 263e
00000100: 1334 1abe a847 44bd 8a03 5fbe ee7f 4c3e
00000110: 126c 51be 7e79 9dbd 10a8 953c 14aa 05be
00000120: 8a15 603e c070 e43d 34dc 8f3d ee53 293e
00000130: 509d 163d f0a0 503d c3bd f7bd 76a2 2ebe
00000140: 4054 0a3e 0843 a23c e20c bebd c893 463d
00000150: e269 1bbe 0e10 9dbd a037 853b 8830 633d
00000160: cebf 9cbd 7023 45be e8fd cc3d c18c 30be
00000170: d731 1ebe 70cf aa3c 94d1 0b3e f0ea 173d
00000180: 6c68 4d3e a0a5 b03d 2095 4abd 0e95 113e
00000190: ec54 a93d 30f6 2dbc c105 ccbd 9ebc 45be
000001a0: 641c 4a3e 6d7b ebbd b4b9 4abe ebdc 35be
000001b0: 92f4 423e dc91 523e 6468 acbd 58c6 4a3d
000001c0: 8626 383e 46b8 4ebe b25b 32be 64d1 bcbd
000001d0: e820 603d 125d 1d3e d816 eabd bcb5 3bbe
000001e0: 50b2 8d3d 7ef1 fabd 885b e8bc 0862 d73d
000001f0: e6cb 2a3e a86d 333d 10da 803d 60bc 24bc
00000200: 5ae0 2b3e b88d 693d 7854 573d 00b4 6cbb
00000210: 98dd be3d 18c2 803d 8034 db3d 94fa 63bd
00000220: f08f 693d 80de f1bc a290 1d3e 4c4a 3d3e
00000230: 8c16 ad3d ce88 1dbe 2024 33be eef8 43be
00000240: b074 acbc 9abe 093e 140b cb3d f80e 493d
00000250: bcff 153e c227 59be 7a64 8ebd b44d 133e
00000260: 826c 30be 208a 323e 20d2 60bd da82 2a3e
00000270: 87ad f9bd 00b5 003c 803a 453e 9676 94bd
00000280: cbca 5cbe a89b d43d 5a26 30be ae2b b9bd
00000290: 2099 a43b 5e17 10be 00c1 e6bc 4a75 0ebe
000002a0: 981e 0b3d 7164 20be d870 10be 3c7a 3e3e
000002b0: 5b3e ebbd f0dc 4dbd f442 0ebd a8c9 893d
000002c0: cacd b0bd d067 03be c85a babc 784b 19bd
000002d0: 5811 633d 2ad6 e7bd 8cfa 3d3e a04d 1d3e
000002e0: d2bc 28be a4a7 383e c017 fa3d 0043 e53c
000002f0: 22d3 55be c837 42be c8c3 d63c 7a28 93bd
00000300: 8074 eb3d 405d 12bb 6c76 1cbe 878f fcbd
00000310: 8551 fcbd 6055 253e 4c42 293e 647c d4bd
00000320: 3030 98bc 22de 1b3e 6474 803d 9cb6 033e
00000330: 52c7 3b3e 3062 173c 82b0 163e c09d 9e3d
00000340: 44ea 873d fc5d d43d 20f1 3bbc 6a82 613e
00000350: 101b 413e d093 073d ac70 f93d c278 113e
00000360: 90ae f73c 58b4 f33d 3419 903d c045 e13d
00000370: f0e2 88bc 9856 a3bd e887 babc b470 8b3d
00000380: b029 123d 7636 0cbe bc1c 453e befa 38be
00000390: b845 183d 9422 b83d a002 d8bc 884d 2a3e
000003a0: ba14 223e b090 8dbc d049 c2bc ac51 72bd
000003b0: cc1e d43d 46dd aebd 72e9 c0bd 4b70 37be
000003c0: 5c21 5a3e 202c 4ebe 14e6 43bd 185b 533d
000003d0: dedb 60be b05c 933c f476 44be 6a04 42be
000003e0: 50cc 243e c8d1 aebc a843 0d3e b0f7 903d
000003f0: aa2f 3f3e 488e 16be 148c 4d3e dc7e 323e

bias f4 [1, 20]
0.0 0.0 0.0 0.0 0.0 0.0 0.0 0.0
0.0 0.0 0.0 0.0 0.0 0.0 0.0 0.0
0.0 0.0 0.0 0.0
00000000: 0000 0000 0000 0000 0000 0000 0000 0000
00000010: 0000 0000 0000 0000 0000 0000 0000 0000
00000020: 0000 0000 0000 0000 0000 0000 0000 0000
00000030: 0000 0000 0000 0000 0000 0000 0000 0000
00000040: 0000 0000 0000 0000 0000 0000 0000 0000

weight f4 [20, 20]
0.26450092 -0.089614645 -0.09220565 0.04694959 -0.3171388 0.252424 -0.06277849 0.19122753
0.10466197 -0.443537 -0.27460313 -0.32390165 -0.08972421 0.26028493 0.12220926 -0.18866664
-0.10739048 -0.2511669 -0.3927261 0.1673338 0.22554442 -0.19091429 -0.1526599 0.045499194
-0.16085637 0.12271789 0.13180587 -0.18529688 -0.07653707 0.0237663 -0.21821837 -0.31188935
-0.13669868 -0.053802606 -0.048392225 -0.27710748 0.17685303 -0.16237947 -0.3985633 -0.08682724
-0.1660888 0.034550283 -0.22002877 -0.20073207 0.11646624 0.1126171 -0.26595244 -0.1798354
0.06720747 0.29856247 0.14685954 0.38809738 -0.23400095 0.07610426 0.11419594 0.13663398
0.0570688 0.121311724 0.44316542 -0.0139455255 0.1108532 -0.21491826 0.22891682 -0.013101869
0.035653293 0.11807095 0.039397344 -0.21660358 -0.1443643 -0.019736 -0.24771707 -0.21698277
-0.061341096 0.2350658 0.18823324 -0.040596373 -0.13905814 -0.27101088 -0.15530185 0.20286444
0.14812379 -0.20334023 0.09520754 0.0020533956 -0.09130779 -0.04485787 0.008439042 -0.016412048
0.13897192 -0.32454458 -0.0796716 -0.30942023 0.092253506 0.13014261 -0.07389073 -0.10258625
0.22988935 0.016516114 -0.119881295 0.056567222 -0.16375132 0.23858562 -0.010213862 -0.034732305
0.17953186 -0.20694228 -0.037841994 -0.19970748 -0.06341485 0.33978724 -0.018924361 0.2545791
0.16813907 -0.1343612 -0.20539188 -0.014331235 0.078381784 0.20467533 0.21367697 -0.09967102
-0.20407705 0.048880305 -0.22292419 -0.11470541 0.16458493 -0.21991086 0.071973346 -0.15400718
0.043876976 0.26964176 0.24507973 -0.010554888 -0.17037363 -0.012058865 0.11086526 -0.010768266
-0.2210713 0.31059876 0.21840979 -0.03736289 0.17287257 0.22355677 -0.1826377 -0.14396013
-0.06511391 -0.049326863 -0.20066583 -0.21010734 -0.1900932 0.16868262 0.28045547 0.03893378
0.017013976 0.14982694 0.18829574 0.14014128 0.043945327 -0.096261 0.25072512 -0.11555023
-0.22732061 0.087544896 -0.11818548 0.07144072 -0.080031395 0.066600464 -0.2811419 -0.03649576
-0.1408106 -0.0023716644 0.23175907 0.18776178 -0.22429198 -0.01955497 -0.095445484 0.32078773
0.043060374 0.018807273 -0.07985767 -0.016523283 0.12204085 0.011113451 0.10266642 -0.21464315
0.04713604 -0.09419071 -0.21984749 0.084459975 -0.19998708 0.40861258 0.30327982 -0.0346698
0.123639435 0.09807327 -0.26010364 0.1686984 -0.20104922 0.102233104 0.2584551 -0.1693701
-0.09674347 0.009576613 -0.002806665 -0.040734258 0.2972346 -0.26391512 -0.10832004 0.02383124
0.12175704 0.2417143 0.044744994 0.2767432 -0.15406232 -0.22959591 -0.27913192 0.30168307
-0.107772514 0.25811458 0.41859928 0.18258883 0.07030708 -0.17562422 0.1039719 0.037080392
0.0035599333 0.03674802 -0.035066463 0.23170295 0.1756859 -0.056993816 -0.20868585 -0.3306031
0.06328981 0.12389706 0.20164125 -0.21409675 0.06905501 -0.3996776 -0.40813556 0.08900511
0.11514619 -0.120704696 -0.16005264 0.07547913 0.19865227 -0.20162244 -0.10258049 0.13113374
-0.175273 0.28382468 -0.09124736 0.25865352 0.12622446 0.08547884 -0.19828488 0.09720769
00000000: aa6c 873e e287 b7bd 51d6 bcbd 374e 403d
00000010: 0460 a2be b83d 813e 0292 80bd 26d1 433e
00000020: 0459 d63d 4817 e3be c898 8cbe 70d6 a5be
00000030: 54c1 b7bd 1144 853e d948 fa3d d431 41be
00000040: 8aef dbbd f398 80be 6513 c9be 8d59 2b3e
00000050: 1ef5 663e 097f 43be e052 1cbe 5d5d 3a3d
00000060: 88b7 24be 8453 fb3d 1ef8 063e 77be 3dbe
00000070: 78bf 9cbd 8bb1 c23c a374 5fbe f6af 9fbe
00000080: bdfa 0bbe 1f60 5cbd ed36 46bd 08e1 8dbe
00000090: f618 353e ce46 26be 7d10 ccbe 7bd2 b1bd
000000a0: 2f13 2abe 9984 0d3d 394f 61be b58c 4dbe
000000b0: da85 ee3d cba3 e63d eb2a 88be c526 38be
000000c0: 12a4 893d 2edd 983e 5962 163e b3b4 c63e
000000d0: f29d 6fbe 8ddc 9b3d 90df e93d c7e9 0b3e
000000e0: f9c0 693d 4872 f83d 94e6 e23e c67b 64bc
000000f0: 0107 e33d 8813 5cbe 2c69 6a3e 39a9 56bc
00000100: 3009 123d 2fcf f13d 1c5f 213d 54cd 5dbe
00000110: 3cd4 13be 64ad a1bc 8ba9 7dbe bb30 5ebe
00000120: cd40 7bbd 17b5 703e 37c0 403e 6248 26bd
00000130: 4265 0ebe f0c1 8abe 7307 1fbe b2bb 4f3e
00000140: c3ad 173e 6c38 50be 2cfc c23d 4392 063b
00000150: 94ff babd e3bc 37bd e843 0a3c 8f72 86bc
00000160: a84e 0e3e b52a a6be dd2a a3bd 546c 9ebe
00000170: 68ef bc3d 1b44 053e 0654 97bd bd18 d2bd
00000180: 1d68 6b3e cd4c 873c 5384 f5bd 08b3 673d
00000190: 6dae 27be ca4f 743e 0b58 27bc 7643 0ebd
000001a0: 33d7 373e ade8 53be 3500 1bbd 1e80 4cbe
000001b0: a5df 81bd 98f8 ad3e 4307 9bbc 3158 823e
000001c0: a62c 2c3e fb95 09be 4052 52be 8ecd 6abc
000001d0: a186 a03d 6996 513e 23ce 5a3e 5220 ccbd
000001e0: 93f9 50be b736 483d 3d46 64be acea eabd
000001f0: f488 283e 5030 61be c366 933d 0fb4 1dbe
00000200: 58b8 333d 7c0e 8a3e 2ef6 7a3e 69ee 2cbc
00000210: 6d76 2ebe 8c92 45bc 530d e33d 626d 30bc
00000220: 8460 62be cd06 9f3e d1a6 5f3e d409 19bd
00000230: 8205 313e 11ec 643e 6105 3bbe 496a 13be
00000240: 715a 85bd f70a 4abd 587b 4dbe 6126 57be
00000250: cba7 42be 23bb 2c3e dc97 8f3e 0779 1f3d
00000260: e560 8b3c 3c6c 193e 99d0 403e 3281 0f3e
00000270: 0400 343d 7d24 c5bd 0b5f 803e 99a5 ecbd
00000280: bcc6 68be bd4a b33d 3b0b f2bd 834f 923d
00000290: 80e7 a3bd d365 883d d5f1 8fbe 947c 15bd
000002a0: a730 10be ed6d 1bbb 4052 6d3e a044 403e
000002b0: ccac 65be bf31 a0bc ec78 c3bd 4a3e a43e
000002c0: 1360 303d b611 9a3c 6b8c a3bd d65b 87bc
000002d0: 8ef0 f93d 3115 363c c642 d23d 6acb 5bbe
000002e0: b811 413d 0fe7 c0bd b31f 61be 5af9 ac3d
000002f0: 6ac9 4cbe ab35 d13e 7e47 9b3e ec01 0ebd
00000300: ac36 fd3d a3da c83d 4e2c 85be 46bf 2c3e
00000310: d9df 4dbe 975f d13d 3a54 843e 5b6f 2dbe
00000320: 7121 c6bd 3ae7 1c3c 06f0 37bb f7d8 26bd
00000330: 222f 983e e21f 87be e6d6 ddbd bc39 c33c
00000340: c15b f93d f483 773e 8746 373d 49b1 8d3e
00000350: 83c2 1dbe 311b 6bbe 61ea 8ebe 3476 9a3e
00000360: d6b7 dcbd 9827 843e a552 d63e 91f8 3a3e
00000370: 29fd 8f3d d6d6 33be 38ef d43d 9ce1 173d
00000380: c54d 693b 1885 163d daa1 0fbd 8a43 6d3e
00000390: 01e7 333e 5972 69bd beb1 55be cf44 a9be
000003a0: 179e 813d bebd fd3d 0b7b 4e3e 2e3c 5bbe
000003b0: b76c 8d3d 8ba2 ccbe 25f7 d0be 5048 b63d
000003c0: c4d1 eb3d 0634 f7bd d7e4 23be cd94 9a3d
000003d0: 806b 4b3e 1d76 4ebe b815 d2bd ec47 063e
000003e0: c47a 33be 7851 913e e5df babd 3c6e 843e
000003f0: fc40 013e 880f af3d 310b 4bbe d314 c73d

weight f4 [20, 20]
0.13234898 0.018654093 0.18062109 0.20286629 -0.16644552 0.18692085 -0.059393615 -0.18603899
0.08252302 0.11752638 -0.048526645 0.029944599 -0.024577484 -0.16960295 0.05837691 0.08406451
0.09433657 0.19732893 0.06139332 0.10783225 -0.2140585 -0.10990424 -0.049711913 -0.039582387
-0.17002028 0.0324111 -0.090791926 0.21858221 -0.0314378 0.13985223 0.19709247 0.14552107
-0.20468906 -0.019424394 0.021222815 -0.13810296 0.18439582 -0.026123613 -0.02904436 0.024453312
-0.16163065 0.08543509 -0.05193928 -0.009783611 -0.049956456 -0.0076421946 0.048909217 0.06358898
0.2021181 -0.20121825 0.021801516 0.02421315 -0.023155138 0.1584796 0.07605034 0.1574327
-0.17594628 0.116322696 0.018367246 0.05159837 0.105997264 -0.10524812 0.0031820834 -0.190036
0.069372684 -0.16884488 -0.07104638 0.12324679 -0.18198128 0.022405729 -0.04879734 -0.01939097
0.015359461 -0.11654201 0.14131993 0.11956516 0.16319734 0.16963542 0.0047486573 0.12865075
0.11862263 0.024269655 -0.045304492 -0.14770032 0.12825197 -0.17028348 0.21083301 -0.13726413
-0.17249344 -0.11752426 0.115189105 -0.0664192 -0.20887941 -0.06640348 -0.17571515 0.00316225
0.059179217 0.14992428 -0.097405136 -0.17924027 -0.16825604 -0.109350406 -0.15940437 -0.15701675
-0.0045289844 -0.18921058 -0.14498541 -0.0054083914 0.1326929 -0.13963169 -0.14646196 -0.03872545
-0.0102915615 0.05635965 0.042930365 -0.14038631 0.20885748 -0.14305535 0.1484659 -0.15894918
0.17437023 -0.11767622 -0.026339069 -0.09696104 0.061677784 0.09979439 0.015534133 -0.048444793
-0.031515405 0.07601482 -0.07396805 -0.16861507 -0.06718399 -0.016544 -0.14346373 -0.16277507
-0.009554207 0.09055421 -0.017922759 0.1774492 0.08647141 -0.11049382 -0.028715983 0.20135891
-0.10264956 -0.07040326 0.02534461 -0.18290952 0.06885558 0.005087331 -0.11352556 0.08793154
0.18850541 0.21908283 -0.05105886 0.07301262 0.17336741 -0.17413151 -0.010872081 -0.16140668
-0.19664264 0.18425554 0.12704426 0.0047923774 0.13476709 0.13456377 -0.14183006 0.0070271343
0.022979349 -0.21541885 0.069518775 -0.047914088 0.082924426 -0.0029540658 -0.1980681 0.09196851
0.16790622 -0.11123677 0.18141553 -0.058179453 0.0072545707 0.11424315 -0.20046014 -0.19674933
-0.17029507 -0.08831313 0.0018016249 0.0853934 0.014550522 -0.12883744 0.16844901 -0.122975305
0.085918576 -0.18101071 0.0023116618 0.03987044 -0.009907737 0.101073116 0.099962264 0.20208564
0.20344499 -0.1553587 0.09522569 -0.105156615 0.22360593 -0.05749631 0.2098529 -0.051838502
-0.13068193 -0.0875105 -0.030796006 -0.01996319 -0.11096152 -0.11128569 0.21249405 0.1278669
0.17636502 -0.22133368 0.1515517 -0.11733524 -0.1558303 -0.1455463 -0.0027704388 0.20494714
0.13328424 0.038577527 0.17051199 -0.09500851 0.17688873 -0.21566367 -0.22270434 0.023040116
0.049560964 -0.13471933 -0.20697582 -0.17447405 -0.09181142 0.032359064 0.17051482 0.02161394
-0.14532492 0.17479235 0.0027600676 -0.032915667 0.16296244 0.17886737 0.21829206 -0.029763028
-0.0014654696 0.15205473 0.13758478 0.055203795 -0.16501449 0.19756296 0.12976322 -0.15273982
00000000: 7e86 073e 78d0 983c bcf4 383e 2ebc 4f3e
00000010: b270 2abe 2e68 3f3e b846 73bd 0181 3ebe
00000020: d401 a93d acb1 f03d e0c3 46bd 604e f53c
00000030: b856 c9bc 65ac 2dbe a01c 6f3d 042a ac3d
00000040: 8833 c13d 9810 4a3e 9077 7b3d 28d7 dc3d
00000050: 2732 5bbe 7915 e1bd b89e 4bbd 2421 22bd
00000060: cc19 2ebe 80c1 043d 1ef1 b9bd 04d4 5f3e
00000070: ecc4 00bd 6c35 0f3e 9cd2 493e 7a03 153e
00000080: 029a 51be e81f 9fbc 78db ad3c dd6a 0dbe
00000090: 42d2 3c3e 3001 d6bc 70ee edbc 5052 c83c
000000a0: 8182 25be 98f8 ae3d 48be 54bd 704b 20bc
000000b0: 249f 4cbd 606b fabb 0855 483d f03a 823d
000000c0: 0cf8 4e3e 280c 4ebe 1899 b23c a85a c63c
000000d0: d8af bdbc 7a48 223e 48c0 9b3d 0a36 213e
000000e0: 432b 34be 983a ee3d e876 963c d058 533d
000000f0: 1815 d93d 548c d7bd 808a 503b cc98 42be
00000100: 4413 8e3d ace5 2cbe c480 91bd d068 fc3d
00000110: 4d59 3abe 388c b73c b8df 47bd d0d9 9ebc
00000120: 40a6 7b3c 94ad eebd 2cb6 103e 94de f43d
00000130: 341d 273e e8b4 2d3e a09a 9b3b 06bd 033e
00000140: 6cf0 f23d 28d1 c63c 3491 39bd c13e 17be
00000150: 7c54 033e cb5e 2ebe 9ce4 573e f88e 0cbe
00000160: 1fa2 30be 8fb0 f0bd 44e8 eb3d ca06 88bd
00000170: 7ce4 55be 8cfe 87bd acee 33be c03d 4f3b
00000180: e865 723d c085 193e 587c c7bd c38a 37be
00000190: 504b 2cbe 1bf3 dfbd e63a 23be 00c9 20be
000001a0: e067 94bb 6bc0 41be 0e77 14be e038 b1bb
000001b0: a6e0 073e 9cfb 0ebe 20fa 15be 949e 1ebd
000001c0: f09d 28bc 60d9 663d c0d7 2f3d 6ec1 0fbe
000001d0: bcde 553e 1a7d 12be 7207 183e 93c3 22be
000001e0: 1c8e 323e 3b00 f1bd 08c5 d7bc 8293 c6bd
000001f0: d8a1 7c3d 0061 cc3d e082 7e3c 0c6e 46bd
00000200: 4c16 01bd a8ad 9b3d 907c 97bd 6ea9 2cbe
00000210: c297 89bd 4887 87bc 28e8 12be 82ae 26be
00000220: 4089 1cbc 7c74 b93d c0d2 92bc 3eb5 353e
00000230: ec17 b13d 954a e2bd c83d ebbc 0831 4e3e
00000240: ef39 d2bd 962f 90bd 809f cf3c a24c 3bbe
00000250: 2804 8d3d a0b3 a63b 1780 e8bd 7415 b43d
00000260: 9007 413e 4057 603e 1823 51bd a487 953d
00000270: 3a87 313e 884f 32be d020 32bc cb47 25be
00000280: b05c 49be 7cad 3c3e e417 023e 6009 9d3b
00000290: 6200 0a3e 16cb 093e e63b 11be e043 e63b
000002a0: 303f bc3c c296 5cbe dc5f 8e3d 9041 44bd
000002b0: 48d4 a93d 0099 41bb 5dd2 4abe fc59 bc3d
000002c0: 9cef 2b3e 1bd0 e3bd fec4 393e 944d 6ebd
000002d0: c0b7 ed3b 50f8 e93d 6c45 4dbe a878 49be
000002e0: d561 2ebe 84dd b4bd 8024 ec3a bce2 ae3d
000002f0: 5065 6e3c f6ed 03be e67d 2c3e 7ada fbbd
00000300: 14f6 af3d df5a 39be 407f 173b 304f 233d
00000310: 1054 22bc 6cff ce3d 04b9 cc3d 8aef 4e3e
00000320: e253 503e 5a16 1fbe b005 c33d 5a5c d7bd
00000330: f4f8 643e 4081 6bbd aee3 563e 9c54 54bd
00000340: 7cd1 05be b438 b3bd e847 fcbc d889 a3bc
00000350: cb3f e3bd c0e9 e3bd 0a98 593e 8aef 023e
00000360: 0899 343e 4ca5 62be 5e30 1b3e 754d f0bd
00000370: fa91 1fbe 170a 15be 4090 35bb aadd 513e
00000380: aa7b 083e 7803 1e3d b29a 2e3e d293 c2bd
00000390: 5222 353e f0d6 5cbe 9b0c 64be a0be bc3c
000003a0: 7000 4b3d ddf3 09be 78f1 53be 53a9 32be
000003b0: a007 bcbd f08a 043d 709b 2e3e b80f b13c
000003c0: 0ed0 14be c4fc 323e 40e2 343b 94d2 06bd
000003d0: a0df 263e 0229 373e f487 5f3e 98d1 f3bc
000003e0: 0015 c0ba 3cb4 1b3e 06e3 0c3e 601d 623d
000003f0: 8ff9 28be f24d 4a3e a6e0 043e d467 1cbe

bias f4 [1, 20]
0.0 0.0 0.0 0.0 0.0 0.0 0.0 0.0
0.0 0.0 0.0 0.0 0.0 0.0 0.0 0.0
0.0 0.0 0.0 0.0
00000000: 0000 0000 0000 0000 0000 0000 0000 0000
00000010: 0000 0000 0000 0000 0000 0000 0000 0000
00000020: 0000 0000 0000 0000 0000 0000 0000 0000
00000030: 0000 0000 0000 0000 0000 0000 0000 0000
00000040: 0000 0000 0000 0000 0000 0000 0000 0000

weight f4 [20, 20]
0.12413699 -0.23681864 0.1336991 -0.071188 -0.18101656 0.0348152 -0.08993967 -0.083494514
0.114707276 -0.12861666 0.035052687 -0.20281367 -0.100761846 -0.058516275 0.12558489 0.057921946
-0.20245318 -0.14512438 0.2155833 0.14027345 -0.07161577 0.11914564 0.023631494 -0.10071609
0.22180901 0.17994735 0.08151149 0.11766565 0.07392403 0.18754569 -0.042631052 -0.17395237
-0.14093944 0.071004555 -0.013236648 0.2742232 0.11581695 0.14794898 0.12018425 0.079099946
0.003311507 -0.28288093 0.2963295 -0.24625085 -0.005675915 -0.046874646 -0.02017634 -0.14102614
-0.14308572 -0.010743039 -0.10357033 -0.25043112 0.090014026 -0.036594585 -0.25444266 -0.002663607
0.25433633 0.109906025 0.0814119 -0.1455204 -0.05992936 -0.0391009 0.22218399 0.0600072
-0.17255467 0.14078562 -0.091411375 -0.03299866 0.2391073 -0.010234537 0.20408909 0.015300115
0.08871807 0.29271486 -0.33807394 -0.10347853 0.07215803 0.2583969 -0.14745511 -0.048610035
0.12582882 -0.0840607 -0.063820496 0.0038232447 0.31919163 0.0009867733 -0.059167236 -0.081790395
0.018513422 -0.06168891 -0.09773657 0.2756881 0.094915755 -0.16474858 -0.055844996 0.26267576
-0.35956535 0.055314824 0.22906908 -0.06668115 0.34993714 0.23959585 -0.4103933 0.0023722376
0.3585091 -0.40877077 -0.21379517 -0.3437131 -0.27650702 -0.13887511 -0.21655573 0.19600534
-0.14475067 -0.32023346 0.37084794 0.16854821 -0.38056198 0.09874004 0.4050636 0.22454914
0.24703647 0.056468613 0.04817929 -0.13020368 0.18609898 -0.32790327 -0.056020804 0.09485305
0.15149753 -0.024203248 -0.036025062 0.3141144 -0.17520566 -0.27700615 0.18094495 -0.15288134
-0.10602427 0.05966993 0.017024001 0.14989819 -0.17249684 0.032883365 0.0152636105 0.010792618
-0.18191038 -0.03908035 0.18964566 -0.09400404 -0.18650475 -0.22902119 -0.075549215 0.07354516
-0.00028148605 -0.22731742 0.12184112 -0.15550871 0.019310798 0.19477859 0.10200746 -0.108577326
0.36822608 0.16482677 -0.20145205 -0.038228482 0.17028044 -0.3759447 -0.1280413 0.043105174
-0.13557097 -0.23812225 -0.089388214 0.11130117 -0.3211353 -0.39306167 0.18174727 0.15489551
-0.061979666 -0.09497275 0.001565963 0.18625212 0.11308471 -0.1889815 0.09173971 -0.01604304
0.098171785 0.08919591 0.11125992 0.23098059 0.29578817 0.06397102 0.13107304 -0.1100841
-0.020740662 -0.06866765 -0.21983522 -0.08452005 0.20012718 0.124436505 -0.2180607 -0.24042639
0.24009751 0.11679859 -0.329939 -0.043490868 0.15830033 -0.20262441 -0.09242144 -0.11905368
-0.09153365 -0.33786246 -0.09262289 0.03961857 0.061582126 0.010255803 0.060464792 -0.03787491
-0.31615672 0.13457094 0.075548746 0.20554462 -0.26410308 -0.12194685 0.31758708 -0.23884277
-0.27397263 0.20437616 0.034973554 -0.12663437 0.2079312 0.13704781 0.08235898 -0.20226532
-0.08200329 -0.07426114 -0.35795036 -0.16923468 0.36132228 0.11312547 -0.1658967 -0.21633449
-0.09430925 -0.22999547 0.31183377 0.04072854 0.14060667 0.14769113 0.23186082 0.20917912
-0.034493435 -0.040524863 0.07551528 0.13680398 0.085935995 0.13578571 -0.19151193 0.14925127
00000000: 893b fe3d 9680 72be 6be8 083e 04cb 91bd
00000010: 685c 39be 629a 0e3d 4a32 b8bd 2cff aabd
00000020: a6eb ea3d 16b4 03be 6893 0f3d 63ae 4fbe
00000030: 3a5c cebd c3ae 6fbd 5399 003e 903f 6d3d
00000040: e34f 4fbe 7c9b 14be dec1 5c3e d8a3 0f3e
00000050: 4aab 92bd a102 f43d d696 c13c 3d44 cebd
00000060: e721 633e 1e44 383e 7fef a63d b0fa f03d
00000070: 7b65 973d fa0b 403e e69d 2ebd 9220 32be
00000080: 6e52 10be d66a 913d 87de 58bc fc66 8c3e
00000090: 7031 ed3d f07f 173e 2923 f63d 27ff a13d
000000a0: de05 593b c5d5 90be 80b8 973e 2f29 7cbe
000000b0: 07fd b9bb a1ff 3fbd da48 a5bc 2869 10be
000000c0: 1085 12be 9203 30bc ae1c d4bd 8238 80be
000000d0: 4659 b83d 34e4 15bd 4f46 82be e98f 2ebb
000000e0: 5f38 823e 6916 e13d 48bb a63d 4d03 15be
000000f0: 7d78 75bd 4428 20bd 3384 633e 1cca 753d
00000100: 2cb2 30be 1b2a 103e e335 bbbd 9a29 07bd
00000110: 8bd8 743e c2ae 27bc bbfc 503e 55ad 7a3c
00000120: d2b1 b53d b9de 953e 0718 adbe 8dec d3bd
00000130: 97c7 933d 994c 843e 79fe 16be 511b 47bd
00000140: 45d9 003e 0428 acbd 52b4 82bd 678f 7a3b
00000150: 166d a33e 9e56 813a 5859 72bd b981 a7bd
00000160: 76a9 973c 83ad 7cbd 1c2a c8bd fe26 8d3e
00000170: 3163 c23d dab3 28be b9bd 64bd 707d 863e
00000180: f318 b8be cc91 623d 1691 6a3e 2090 88bd
00000190: f62a b33e 9d58 753e 121f d2be 8b77 1b3b
000001a0: 818e b73e 674a d1be 1fed 5abe 2afb afbe
000001b0: 5492 8dbe 4735 0ebe c9c0 5dbe a0b5 483e
000001c0: 8539 14be a4f5 a3be c8df bd3e e797 2c3e
000001d0: 05d9 c2be 3838 ca3d 7f64 cf3e 36f0 653e
000001e0: 21f7 7c3e a24b 673d a657 453d 1d54 05be
000001f0: bb90 3e3e f0e2 a7be 1276 65bd 5142 c23d
00000200: 2b22 1b3e e445 c6bc 048f 13bd 9ad3 a03e
00000210: 1d69 33be c0d3 8dbe a249 393e ed8c 1cbe
00000220: 4123 d9bd 7568 743d eb75 8b3c e97e 193e
00000230: 03a3 30be b5b0 063d 3914 7a3c 85d3 303c
00000240: b746 3abe b812 20bd 7932 423e 3185 c0bd
00000250: 1afb 3ebe 8884 6abe 8cb9 9abd d89e 963d
00000260: 6b94 93b9 e6c5 68be d687 f93d ad3d 1fbe
00000270: ae31 9e3c 0a74 473e 4ae9 d03d ca5d debd
00000280: 2188 bc3e 59c8 283e 7249 4ebe 7895 1cbd
00000290: ff5d 2e3e d37b c0be 421d 03be 0d8f 303d
000002a0: 1ed3 0abe 52d6 73be 2b11 b7bd def1 e33d
000002b0: d96b a4be 613f c9be f51b 3a3e ee9c 1e3e
000002c0: 64de 7dbd 1381 c2bd 0041 cd3a e0b8 3e3e
000002d0: f598 e73d 5e84 41be 07e2 bb3d b26c 83bc
000002e0: 4a0e c93d 58ac b63d 3edc e33d 2d86 6c3e
000002f0: 8c71 973e 3d03 833d 0338 063e c673 e1bd
00000300: 52e8 a9bc a0a1 8cbd 7c1c 61be d918 adbd
00000310: 24ee 4c3e 91d8 fe3d 4e4b 5fbe 5632 76be
00000320: 1fdc 753e 1934 ef3d c4ed a8be 7b23 32bd
00000330: 7b19 223e c67c 4fbe 7447 bdbd 6ad2 f3bd
00000340: ff75 bbbd 4ffc acbe 12b1 bdbd 1547 223d
00000350: 8a3d 7c3d f507 283c eea9 773d b922 1bbd
00000360: 4bdf a1be f7cc 093e 4db9 9a3d 4a7a 523e
00000370: 8538 87be 45bf f9bd c69a a23e 3393 74be
00000380: 2446 8cbe fc47 513e 6e40 0f3d 71ac 01be
00000390: ebeb 543e 4356 0c3e d3ab a83d a41e 4fbe
000003a0: 57f1 a7bd 3916 98bd 4545 b7be db4b 2dbe
000003b0: 3cff b83e 54ae e73d d3e0 29be ca86 5dbe
000003c0: 3525 c1bd ef83 6bbe ada8 9f3e f8d2 263d
000003d0: 32fb 0f3e 583c 173e ec6c 6d3e 0d33 563e
000003e0: fd48 0dbd 66fd 25bd c1a7 9a3d 5816 0c3e
000003f0: 36ff af3d 690b 0b3e b41b 44be 53d5 183e

weight f4 [84, 40]
-0.07561139 0.009245768 0.074192986 0.078024834 -0.11983219 -0.11230007 0.029322118 -0.0049551725
0.026131585 0.14980556 0.11797224 -0.15534773 0.13497575 -0.12985434 0.10842036 0.063486844
0.05859393 -0.13808128 0.135159 -0.05410149 -0.07046139 0.022076622 0.038252965 0.14039473
-0.15098462 -0.119469546 0.055953726 -0.011199236 0.12754618 -0.021706864 -0.042679533 0.120966
-0.058369838 0.13013078 -0.14354567 0.10754867 0.05185309 0.11473952 -0.11158125 0.033472076
-0.13557126 0.13864563 0.039734587 0.042575687 -0.0468798 -0.10591475 0.017184258 0.025020778
-0.068047956 -0.13156061 -0.13935506 -0.04129225 0.14464553 -0.15589553 -0.104855716 0.07422134
0.030585945 -0.035114422 -0.036578506 -0.09250888 0.15339966 -0.08888536 0.06937148 -0.007090509
0.06783621 0.008074328 0.017888084 0.12342493 -0.05632972 -0.032324955 0.05282262 0.09201236
0.11589472 -0.063239254 0.123139426 0.092348084 -0.11159368 0.1400171 0.06698665 0.062176704
-0.14217448 0.00883913 -0.08409727 0.073951885 0.12337957 -0.08123886 -0.023040771 -0.107282996
0.1562062 -0.056019433 -0.035759404 -0.051873937 -0.107932314 -0.028934836 -0.06884989 -0.04929529
-0.00072461367 -0.09090616 0.008408666 0.08394781 -0.15385562 0.091099635 -0.15581793 -0.097925946
-0.099003136 0.095941976 0.116680965 -0.09716956 -0.04898402 0.009158552 -0.1064767 -0.046910256
0.10147376 0.08310488 0.09715958 -0.14980626 0.01304619 0.04481934 -0.14322484 0.13615094
0.09700908 0.15563996 -0.03735722 0.013480887 -0.11370048 -0.13416103 -0.065361515 -0.028466254
0.059751958 -0.07370387 -0.07932094 -0.03252174 0.1075653 -0.00016793609 -0.13146403 0.09608413
0.059037626 0.12570359 -0.023066744 0.014020532 0.030499652 -0.050575323 0.07292792 0.07006605
-0.13338512 0.04766935 0.068582 -0.116162196 0.086118415 0.12463604 -0.12722152 -0.15776739
0.08923182 0.13908724 -0.1457197 -0.095926285 0.12428622 0.067922086 -0.018523455 0.012060016
-0.018644035 -0.021264777 -0.06095632 -0.11305501 -0.067643695 -0.113414064 -0.023001924 0.118841305
0.12558563 0.03102687 0.0020531118 0.10684599 -0.13198623 0.11541052 -0.13384609 -0.05438987
0.09258513 0.038311586 0.0732692 -0.062776975 0.11099197 0.06735712 -0.032920644 -0.06478882
-0.015686333 -0.14601219 0.07329634 -0.13004556 -0.06797556 0.10298915 -0.07444843 0.075718746
-0.105410665 -0.059089236 -0.036458217 -0.08977321 0.031419948 0.10118978 -0.09476188 0.006699845
-0.032161295 -0.12020643 -0.0054387003 -0.09531727 -0.04008475 -0.023528144 0.100543335 -0.12997971
0.08006321 -0.08360525 0.03964205 -0.13076371 -0.096606724 0.071389884 0.13605376 -0.09786977
-0.041949086 0.15385611 0.008637622 0.07458678 0.11876346 0.044966385 -0.056827396 0.12267847
-0.0013308525 0.11910258 0.13913135 -0.08235383 -0.108132675 0.050316036 -0.05293168 -0.06056305
-0.037264146 -0.080493584 0.12982075 0.011866912 0.034143716 0.056637257 -0.06471865 0.10436489
-0.1460756 -0.049424276 0.03271991 0.10341559 -0.07242344 -0.048663974 -0.059991293 0.14562045
0.052021578 -0.01679182 -0.017233074 -0.057582565 0.14557399 -0.09020906 -0.0016085654 0.15028192
00000000: 25da 9abd 907b 173c 7ef2 973d 7ccb 9f3d
00000010: 946a f5bd 94fd e5bd f034 f03c 005f a2bb
00000020: e811 d63c a166 193e 6e9b f13d 7a13 1fbe
00000030: 1537 0a3e 89f8 04be 7e0b de3d 6405 823d
00000040: 3000 703d 2e65 0dbe 1f67 0a3e 8699 5dbd
00000050: 104e 90bd 08da b43c 24af 1c3d a3c3 0f3e
00000060: b69b 1abe 73ac f4bd bc2f 653d 007d 37bc
00000070: 779b 023e 98d2 b1bc bcd0 2ebd 06bd f73d
00000080: 3615 6fbd 0141 053e a3fd 12be 7a42 dc3d
00000090: e863 543d 8efc ea3d b684 e4bd 041a 093d
000000a0: 31d3 0abe 1ff9 0d3e bcc0 223d d863 2e3d
000000b0: 0805 40bd d5e9 d8bd 00c6 8c3c 60f8 cc3c
000000c0: ba5c 8bbd d3b7 06be 18b3 0ebe 1022 29bd
000000d0: f51d 143e 14a3 1fbe 98be d6bd 5c01 983d
000000e0: 608f fa3c 24d4 0fbd 58d3 15bd 4c75 bdbd
000000f0: cd14 1d3e 8709 b6bd a212 8e3d 8057 e8bb
00000100: b6ed 8a3d 304a 043c 088a 923c 36c6 fc3d
00000110: feb9 66bd 2c67 04bd 885c 583d fa70 bc3d
00000120: 365a ed3d 9583 81bd 8630 fc3d fe20 bd3d
00000130: 3a8b e4bd a560 0f3e 4c30 893d 00ad 7e3d
00000140: 3096 11be 00d2 103c 313b acbd 1674 973d
00000150: 6eae fc3d 8f60 a6bd 00c0 bcbc 30b7 dbbd
00000160: 85f4 1f3e a274 65bd 7478 12bd c479 54bd
00000170: 9e0b ddbd c008 edbc 2c01 8dbd dce9 49bd
00000180: 00f4 3dba 022d babd 80c4 093c d4ec ab3d
00000190: 548c 1dbe 7292 ba3d bc8e 1fbe 668d c8bd
000001a0: 28c2 cabd 3a7d c43d 6ef6 ee3d d600 c7bd
000001b0: 78a3 48bd c00d 163c 7510 dabd f824 40bd
000001c0: 7ad1 cf3d e432 aa3d 9afb c63d d066 19be
000001d0: b0bf 553c 7c94 373d 88a9 12be 276b 0b3e
000001e0: b2ac c63d 1560 1f3e e203 19bd f0de 5c3c
000001f0: ccdb e8bd 8261 09be 42dc 85bd 1032 e9bc
00000200: 78be 743d 0ef2 96bd 0473 a2bd 8435 05bd
00000210: 324b dc3d 0018 30b9 829e 06be c2c7 c43d
00000220: 70d1 713d 71b8 003e 78f6 bcbc 60b6 653c
00000230: 68da f93c 1228 4fbd 3c5b 953d ca7e 8f3d
00000240: 1c96 08be f040 433d b874 8c3d 72e6 edbd
00000250: da5e b03d 2e41 ff3d 5c46 02be c68d 21be
00000260: 2cbf b63d e36c 0e3e 8c37 15be 0075 c4bd
00000270: c689 fe3d bc1a 8b3d 80be 97bc 6097 453c
00000280: 60bb 98bc 7833 aebc 56ad 79bd 6389 e7bd
00000290: c788 8abd a245 e8bd 886e bcbc 1263 f33d
000002a0: 8599 003e 102c fe3c 808d 063b 12d2 da3d
000002b0: 6627 07be 5a5c ec3d f30e 09be eac7 5ebd
000002c0: 469d bd3d 9cec 1c3d 2a0e 963d 3791 80bd
000002d0: c24f e33d 88f2 893d ccd7 06bd 00b0 84bd
000002e0: a080 80bc 3884 15be 641c 963d aa2a 05be
000002f0: c536 8bbd faeb d23d 6b78 98bd 6e12 9b3d
00000300: 8ce1 d7bd 8e07 72bd 3655 15bd 04db b7bd
00000310: 34b2 003d 963c cf3d 8412 c2bd 608a db3b
00000320: 90bb 03bd ca2e f6bd 2037 b2bb b335 c3bd
00000330: e82f 24bd 18be c0bc aae9 cd3d 6719 05be
00000340: 2ef8 a33d 3b39 abbd b45f 223d ece6 05be
00000350: bfd9 c5bd dc34 923d ad51 0b3e f26f c8bd
00000360: ced2 2bbd 758c 1d3e d084 0d3c f4c0 983d
00000370: 423a f33d ac2e 383d d8c3 68bd da3e fb3d
00000380: 0070 aeba 0eec f33d 7378 0e3e 20a9 a8bd
00000390: aa74 ddbd 3018 4e3d e4ce 58bd f610 78bd
000003a0: 4aa2 18bd d2d9 a4bd bbef 043e 706d 423c
000003b0: 48da 0b3d 78fc 673d 368b 84bd 42bd d53d
000003c0: d894 15be 1c71 4abd 5005 063d 8ecb d33d
000003d0: be52 94bd e053 47bd 6eb9 75bd 871d 153e
000003e0: 9414 553d 008f 89bc 602c 8dbc b2db 6bbd
000003f0: 5911 153e 87bf b8bd 80d6 d2ba 81e3 193e

bias f4 [1, 40]
0.0 0.0 0.0 0.0 0.0 0.0 0.0 0.0
0.0 0.0 0.0 0.0 0.0 0.0 0.0 0.0
0.0 0.0 0.0 0.0 0.0 0.0 0.0 0.0
0.0 0.0 0.0 0.0 0.0 0.0 0.0 0.0
0.0 0.0 0.0 0.0 0.0 0.0 0.0 0.0
00000000: 0000 0000 0000 0000 0000 0000 0000 0000
00000010: 0000 0000 0000 0000 0000 0000 0000 0000
00000020: 0000 0000 0000 0000 0000 0000 0000 0000
00000030: 0000 0000 0000 0000 0000 0000 0000 0000
00000040: 0000 0000 0000 0000 0000 0000 0000 0000
00000050: 0000 0000 0000 0000 0000 0000 0000 0000
00000060: 0000 0000 0000 0000 0000 0000 0000 0000
00000070: 0000 0000 0000 0000 0000 0000 0000 0000
00000080: 0000 0000 0000 0000 0000 0000 0000 0000
00000090: 0000 0000 0000 0000 0000 0000 0000 0000

weight f4 [40, 84]
-0.05180721 0.053001616 0.032610025 -0.04792595 0.07215474 -0.06537416 0.1094845 0.096906014
-0.019881794 -0.11178726 0.10447153 -0.02561836 0.01482337 0.025490664 -0.12550668 0.02306566
0.07675515 -0.035636548 0.05369577 0.05181545 0.043289088 0.09866792 0.005503096 -0.051020678
-0.045055285 -0.057253487 0.087480284 -0.025587216 -0.037269607 0.085798964 -0.0008733572 0.02106447
-0.050797816 -0.04033972 0.12831236 0.072815314 0.06776042 -0.065788984 -0.014431415 0.13730054
0.08189279 0.09874836 -0.003353144 0.14515828 0.027522132 0.012994469 0.034990925 0.058261093
0.10957474 0.10520864 -0.027843164 0.045827746 0.020074116 -0.020556489 0.10481106 0.056472354
0.07604734 0.0047717867 -0.05322395 0.08541965 0.117224544 0.019194672 0.12695685 0.12377028
0.13823846 0.115770765 0.07646688 -0.068407536 0.014204082 -0.018873818 0.0002690277 0.117159635
0.061308548 0.04571735 0.02505731 0.12989655 0.1042245 0.10599826 -0.07133604 -0.035834152
-0.07291277 -0.011990845 0.086486705 0.11840969 0.14996657 0.050165735 -0.051441025 -0.022863656
0.13312355 0.02342002 0.16549785 0.080587156 0.008600385 0.061826352 0.018373672 -0.061748583
-0.038667366 0.13448231 0.03398421 0.042105664 -0.08513569 0.0701994 -0.042401437 -0.04750443
0.0066542816 0.09556343 0.009419532 0.11607789 0.03026678 -0.04940517 0.03995654 -0.06659019
0.088458836 0.08243495 -0.0589485 0.007456223 -0.025193041 -0.004790383 0.046622206 -0.090171725
0.019495115 -0.015992051 -0.09151208 -0.09392879 -0.0796676 -0.057749573 0.07381643 0.1190287
0.025128625 0.011835872 -0.03857484 -0.0428759 0.010182364 -0.035439603 -0.013220558 -0.04680493
0.037740853 0.054997556 -0.027242199 0.09439826 0.028874416 0.103505746 0.021297712 -0.093499
0.07216369 0.0826163 0.080582686 0.1076114 0.014033999 -0.075583525 0.052395992 0.022705968
0.06728093 5.320486e-06 0.032013226 -0.020682512 0.11384941 -0.012046177 -0.07168346 -0.053405758
0.09428985 0.011051839 0.029022513 0.10823832 -0.040447284 0.029782036 0.07902524 -0.007734836
-0.08122346 -0.005754979 -0.029252723 -0.122181036 -0.031715076 0.10259815 -0.048983037 0.08058576
0.054646485 -0.11329407 0.009898827 -0.04632411 -0.058812898 0.03589872 -0.09441405 -0.12568885
-0.107865736 -0.032517444 -0.02293785 0.05302741 0.14645858 -0.052684877 0.083896495 -0.014348074
0.11704805 0.14416985 -0.04631016 0.10248338 0.07789898 -0.0001306416 0.09360566 0.10550557
0.041294005 0.14864115 0.07228222 0.022580499 -0.03532912 0.053847793 0.015207039 0.091673926
0.10326077 0.013974759 0.03554268 0.011272169 0.03177805 0.044902444 0.0550264 0.025080549
-0.015929863 0.123064674 0.14103876 0.057667222 0.12920398 0.102631144 0.040641475 0.09833792
0.12475672 0.089085385 0.0869845 0.11660658 0.14125043 0.12763314 0.099626265 -0.034683894
-0.018821448 -0.030074641 0.0031719676 0.090851426 0.05643736 -0.041791886 0.002744943 -0.06276304
0.015477994 -0.020936165 -0.005216891 0.091157116 0.016230155 -0.07031923 0.012128126 0.0024156151
0.07670672 -0.05490568 0.042416554 -0.011644324 -0.08682663 0.043541253 0.010158934 -0.0146929175
00000000: cc33 54bd 3918 593d 1792 053d 004e 44bd
00000010: ddc5 933d e3e2 85bd 6939 e03d a976 c63d
00000020: 25df a2bc b8f0 e4bd 2bf5 d53d 98dd d1bc
00000030: b8dd 723c ccd1 d03c d384 00be 32f4 bc3c
00000040: ce31 9d3d a1f7 11bd 19f0 5b3d 703c 543d
00000050: e64f 313d 6812 ca3d 5153 b43b 0ffb 50bd
00000060: e48b 38bd a282 6abd dd28 b33d 489c d1bc
00000070: 04a8 18bd 5eb7 af3d 02f2 64ba 658f ac3c
00000080: 5f11 50bd 433b 25bd 5164 033e 3220 953d
00000090: fac5 8a3d 60bc 86bd be71 6cbc 8398 0c3e
000000a0: 68b7 a73d 953c ca3d 6cc0 5bbb 5fa4 143e
000000b0: 1876 e13c c1e6 543c a552 0f3d 2fa3 6e3d
000000c0: b968 e03d a177 d73d 5917 e4bc e0b5 3b3d
000000d0: 7972 a43c 1566 a8bc 2ea7 d63d 8e4f 673d
000000e0: b5be 9b3d a65c 9c3b 5b01 5abd 7ff0 ae3d
000000f0: 6c13 f03d 253e 9d3c fa00 023e 467b fd3d
00000100: 628e 0d3e 3919 ed3d ab9a 9c3d 4019 8cbd
00000110: 3db8 683c 449d 9abc 490c 8d39 64f1 ef3d
00000120: ac1e 7b3d 1e42 3b3d fd44 cd3c 9a03 053e
00000130: a873 d53d 9e15 d93d a118 92bd d5c6 12bd
00000140: 4a53 95bd 4075 44bc f11f b13d c880 f23d
00000150: d690 193e 967a 4d3d d3b3 52bd 904c bbbc
00000160: 8a51 083e 57db bf3c 4578 293e e10a a53d
00000170: a1e8 0c3c a13d 7d3d 6284 963c 15ec 7cbd
00000180: ac61 1ebd bbb5 093e 0733 0b3d fd76 2c3d
00000190: 9f5b aebd b4c4 8f3d 21ad 2dbd 0194 42bd
000001a0: 290c da3b c2b6 c33d 6154 1a3c 3fba ed3d
000001b0: 0af2 f73c 135d 4abd 78a9 233d 7060 88bd
000001c0: e829 b53d a8d3 a83d fb73 71bd 5553 f43b
000001d0: a361 cebc a5f8 9cbb edf6 3e3d f4ab b8bd
000001e0: 38b4 9f3c c301 83bc af6a bbbd bd5d c0bd
000001f0: c428 a3bd d18a 6cbd 122d 973d 52c5 f33d
00000200: 8cda cd3c 3feb 413c a700 1ebd a49e 2fbd
00000210: eed3 263c 1e29 11bd 0a9b 58bc 87b6 3fbd
00000220: 2796 1a3d 1e45 613d 082b dfbc e053 c13d
00000230: 0a8a ec3c d2fa d33d 8a78 ae3c 677c bfbd
00000240: 8fca 933d bc32 a93d 8908 a53d 5e63 dc3d
00000250: dcee 653c 89cb 9abd 2e9d 563d de01 ba3c
00000260: 96ca 893d a086 b236 4d20 033d 5f6e a9bc
00000270: e129 e93d 545d 45bc c7ce 92bd ffbf 5abd
00000280: 091b c13d c612 353c 9fc0 ed3c 0dac dd3d
00000290: 0dac 25bd 75f9 f33c fcd7 a13d 8274 fdbb
000002a0: 7c58 a6bd 4394 bcbb 68a3 efbc 0d3a fabd
000002b0: abe7 01bd fb1e d23d 70a2 48bd 260a a53d
000002c0: fed4 5f3d b906 e8bd b12e 223c 5abe 3dbd
000002d0: cbe5 70bd 890a 133d 275c c1bd 94b4 00be
000002e0: b6e8 dcbd 0331 05bd 28e8 bbbc 4533 593d
000002f0: 3df9 153e 19cc 57bd edd1 ab3d 2f14 6bbc
00000300: e3b6 ef3d 43a1 133e b9af 3dbd cee2 d13d
00000310: 8089 9f3d d6fc 08b9 53b4 bf3d 4e13 d83d
00000320: e723 293d 6335 183e b308 943d bdfa b83c
00000330: 44b5 10bd 818f 5c3d f226 793c 8abf bb3d
00000340: 627a d33d 63f6 643c 3495 113d e7ae 383c
00000350: b329 023d a0eb 373d 5d63 613d b975 cd3c
00000360: 587f 82bc 5509 fc3d 776c 103e 7734 6c3d
00000370: 0c4e 043e 4730 d23d ad77 263d 6465 c93d
00000380: 7480 ff3d 6672 b63d ee24 b23d 6ecf ee3d
00000390: f4a3 103e 43b2 023e db08 cc3d b310 0ebd
000003a0: 702f 9abc 185f f6bc c9e0 4f3b 5010 ba3d
000003b0: dc2a 673d f82d 2bbd 80e4 333b e989 80bd
000003c0: 6a97 7d3c 5282 abbc 74f2 aabb 95b0 ba3d
000003d0: 1af5 843c 8703 90bd 0cb5 463c 4c4f 1e3b
000003e0: 6a18 9d3d c7e4 60bd fbbc 2d3d d6c7 3ebc
000003f0: 29d2 b1bd 5058 323d a871 263c 90ba 70bc

weight f4 [40, 40]
0.11489917 0.04024443 0.021900564 0.049735337 -0.033202715 -0.1398158 -0.08167856 0.050577417
0.012039587 -0.15793899 0.06411858 0.07508683 0.0071755648 -0.09632228 0.058328867 -0.06316625
-0.023145914 -0.14013521 0.08924569 -0.1107125 -0.12463349 -0.071251474 -0.059905402 0.034647554
-0.062455133 0.11676364 -0.12851442 -0.10762417 0.050019816 -0.03447692 0.08586991 0.011350289
-0.008088157 0.14294772 0.13725434 0.00057312846 -0.0002683103 0.098348305 0.008304715 -0.10399632
0.09726329 0.12337066 0.09875049 0.123437926 0.04324764 0.11240934 -0.112341985 -0.108648166
0.074591994 -0.091971055 0.13702352 0.09511159 0.09814493 -0.05038923 -0.0063274205 -0.07726847
-0.09952334 0.017786577 0.09688415 -0.118357815 -0.06562858 0.10888974 -0.12587357 0.017879799
-0.036556453 -0.116532 -0.01977843 0.061223447 -0.08484687 -0.089234926 0.14269234 -0.045484662
-0.107393876 0.14705916 -0.037873954 0.13602506 -0.022035718 -0.046518378 0.14144178 -0.03891314
-0.07597191 -0.034172796 0.15183689 0.09133172 0.110139266 -0.11731556 0.14688908 -0.14038166
-0.14877236 0.07118641 0.028881878 0.1473269 -0.1510294 0.13243626 0.12148954 0.12084083
-0.15511088 -0.14613868 -0.04605232 0.08073263 0.019598737 -0.098186955 -0.032342613 0.08362928
0.11456533 0.034025744 0.08448765 -0.14973198 0.15028755 -0.095682025 -0.06021314 -0.06250779
-0.03709402 -0.045526505 0.07726075 -0.05609437 0.14358376 -0.10622181 0.13477142 0.12698396
-0.08008917 0.10983415 0.04066661 0.021244556 0.048722178 -0.018865809 0.12736477 -0.040424913
-0.15073663 -0.026919186 0.11026375 0.13569616 0.00847128 0.10519968 -0.085321516 0.11994736
-0.15270317 0.084127754 -0.04119648 -0.034011945 0.012052149 -0.1508278 -0.019372806 0.10254718
0.04648304 0.09968756 0.05659446 -0.04392974 -0.09386106 -0.122645244 0.062215805 -0.032687545
0.0765726 -0.070446014 -0.14803058 -0.0718142 0.112281755 0.08010189 -0.15138209 0.052510247
-0.019554615 -0.10768443 0.08357479 -0.15482154 0.049187124 -0.12060461 -0.07964277 0.028725848
0.06760368 -0.07144863 0.021246836 0.020768777 0.035237476 -0.119872734 -0.08972793 -0.09527343
-0.15624341 0.023969173 0.06998274 -0.041687787 0.0441214 0.025309488 0.012303144 0.111877486
-0.06255604 -0.008819237 -0.07967883 -0.033027768 -0.08069061 -0.04241418 0.05552107 0.11416085
0.023231462 -0.044520363 -0.064563446 -0.15647388 -0.12274776 0.13760109 0.13819815 0.1528265
0.07582496 -0.11506528 0.013021097 -0.08082204 0.027977318 0.12133546 0.06780662 0.12151714
-0.14292355 0.1067663 -0.09919165 0.04271008 0.07603949 -0.09030378 -0.068509884 -0.060969785
-0.09523262 0.11559053 0.09926768 -0.13638133 0.09533371 -0.10149723 -0.08917666 0.03377764
0.04140173 0.14297836 0.13073198 -0.1137006 0.12613977 0.12755091 -0.12455338 -0.014404923
0.15211065 -0.01380904 -0.15782104 -0.15359412 0.03996961 -0.04098822 0.020799384 0.063759625
0.047669053 -0.10375826 -0.06691538 0.0022028089 0.12736394 0.118517175 0.053557843 -0.074780315
0.08812694 -0.09153071 0.110975906 0.082849056 -0.03628558 -0.040944003 -0.06323017 0.037772834
00000000: 4250 eb3d 58d7 243d d068 b33c 48b7 4b3d
00000010: 92ff 07bd e02b 0fbe 1747 a7bd 442a 4f3d
00000020: b041 453c c2ba 21be 9a50 833d 20c7 993d
00000030: 0021 eb3b 9e44 c5bd 40ea 6e3d 4f5d 81bd
00000040: 809c bdbc 9b7f 0fbe 72c6 b63d 3cbd e2bd
00000050: d83f ffbd 4bec 91bd 5e5f 75bd 98ea 0d3d
00000060: f4d0 7fbd c621 ef3d 4999 03be 106a dcbd
00000070: 94e1 4c3d ac37 0dbd 90dc af3d 90f6 393c
00000080: 3084 04bc e360 123e 678c 0c3e 003e 163a
00000090: 00ac 8cb9 d66a c93d 8010 083c 06fc d4bd
000000a0: fa31 c73d c2a9 fc3d b23d ca3d 06cd fc3d
000000b0: 7024 313d de36 e63d 8e13 e6bd ee82 debd
000000c0: b0c3 983d 525b bcbd e54f 0c3e dec9 c23d
000000d0: 3600 c93d f064 4ebd 4056 cfbb ee3e 9ebd
000000e0: e5d2 cbbd 28b5 913c 326b c63d 9565 f2bd
000000f0: 4768 86bd 9601 df3d 00e5 00be a878 923c
00000100: 38bc 15bd 54a8 eebd 6006 a2bc 70c5 7a3d
00000110: 32c4 adbd cdc0 b6bd f11d 123e 204e 3abd
00000120: 52f1 dbbd ad96 163e b821 1bbd 274a 0b3e
00000130: 4084 b4bc 0e8a 3ebd 1dd6 103e 6263 1fbd
00000140: 2997 9bbd c6f8 0bbd 217b 1b3e 200c bb3d
00000150: b290 e13d 2443 f0bd 176a 163e 36c0 0fbe
00000160: c857 18be 2eca 913d b099 ec3c dddc 163e
00000170: 73a7 1abe 5f9d 073e 82cf f83d 667b f73d
00000180: 63d5 1ebe 61a5 15be 5ca1 3cbd 2657 a53d
00000190: 888d a03c 3e16 c9bd b079 04bd d445 ab3d
000001a0: 3aa1 ea3d 945e 0b3d dc07 ad3d 5753 19be
000001b0: fbe4 193e f0f4 c3bd 0ea2 76bd 1604 80bd
000001c0: e6ef 17bd 007a 3abd e23a 9e3d 36c3 65bd
000001d0: 9f07 133e d28a d9bd 8501 0a3e 1508 023e
000001e0: ca05 a4bd baf0 e03d 0892 263d 1009 ae3c
000001f0: e890 473d 788c 9abc e96b 023e 9894 25bd
00000200: b45a 1abe a085 dcbc f6d1 e13d eff3 0a3e
00000210: 20cb 0a3c ee72 d73d 0cbd aebd f6a6 f53d
00000220: 385e 1cbe 2c4b ac3d a4bd 28bd 1c50 0bbd
00000230: 6076 453c 9a72 1abe b8b3 9ebc 4204 d23d
00000240: 0065 3e3d fe28 cc3d 98cf 673d acef 33bd
00000250: 3a3a c0bd 6e2d fbbd 00d6 7e3d 60e3 05bd
00000260: 18d2 9c3d 0046 90bd 5495 17be 5313 93bd
00000270: faf3 e53d 760c a43d e803 1bbe fc14 573d
00000280: 0031 a0bc a889 dcbd 4229 ab3d 8a89 1ebe
00000290: 7078 493d 8dff f6bd c01b a3bd 7852 eb3c
000002a0: cc73 8a3d a953 92bd d80d ae3c 4823 aa3c
000002b0: 2c55 103d d67f f5bd 47c3 b7bd b71e c3bd
000002c0: 46fe 1fbe 005b c43c 1c53 8f3d d0c0 2abd
000002d0: a4b8 343d d855 cf3c 2093 493c 0620 e53d
000002e0: 621d 80bd 907e 10bc a82e a3bd 2048 07bd
000002f0: 1e41 a5bd 7eba 2dbd 106a 633d 2acd e93d
00000300: e84f be3c fc5a 36bd d739 84bd b03a 20be
00000310: 2d63 fbbd 4de7 0c3e d183 0d3e 8d7e 1c3e
00000320: 1e4a 9b3d 58a7 ebbd 7056 553c 0786 a5bd
00000330: b030 e53c ba7e f83d 32de 8a3d fadd f83d
00000340: 8d5a 12be 4aa8 da3d fe24 cbbd c4f0 2e3d
00000350: 98ba 9b3d 30f1 b8bd e94e 8cbd 74bb 79bd
00000360: 5209 c3bd baba ec3d da4c cb3d 8ca7 0bbe
00000370: 523e c33d c8dd cfbd 41a2 b6bd 6c5a 0a3d
00000380: dc94 293d eb68 123e 9bde 053e dcdb e8bd
00000390: c92a 013e b59c 023e d815 ffbd a002 6cbc
000003a0: e5c2 1b3e 503f 62bc d79b 21be c747 1dbe
000003b0: 2cb7 233d 44e3 27bd 7863 aa3c 6894 823d
000003c0: a040 433d 367f d4bd ee0a 89bd 005d 103b
000003d0: b16b 023e 22b9 f23d 785f 5b3d 6c26 99bd
000003e0: e67b b43d 7474 bbbd 5647 e33d c4ac a93d
000003f0: 30a0 14bd e6b4 27bd d27e 81bd b0b7 1a3d

bias f4 [1, 40]
0.0 0.0 0.0 0.0 0.0 0.0 0.0 0.0
0.0 0.0 0.0 0.0 0.0 0.0 0.0 0.0
0.0 0.0 0.0 0.0 0.0 0.0 0.0 0.0
0.0 0.0 0.0 0.0 0.0 0.0 0.0 0.0
0.0 0.0 0.0 0.0 0.0 0.0 0.0 0.0
00000000: 0000 0000 0000 0000 0000 0000 0000 0000
00000010: 0000 0000 0000 0000 0000 0000 0000 0000
00000020: 0000 0000 0000 0000 0000 0000 0000 0000
00000030: 0000 0000 0000 0000 0000 0000 0000 0000
00000040: 0000 0000 0000 0000 0000 0000 0000 0000
00000050: 0000 0000 0000 0000 0000 0000 0000 0000
00000060: 0000 0000 0000 0000 0000 0000 0000 0000
00000070: 0000 0000 0000 0000 0000 0000 0000 0000
00000080: 0000 0000 0000 0000 0000 0000 0000 0000
00000090: 0000 0000 0000 0000 0000 0000 0000 0000
