neuromancer/train_scripts/papers/flexy/device_test_models/model1/best_policy_flexy4.pth (torch, 10487 bytes, 9 tensors)

weight f4 [32, 10]
0.107118696 -0.124710694 -0.29203424 0.074870944 0.16516882 0.30887607 0.06465548 -0.11154379
0.15406707 0.11389825 0.23785189 -0.1048432 -0.19461578 0.09552553 0.022221714 0.31092343
-0.0072369874 0.07286903 -0.021062165 -0.16472489 -0.13646494 -0.2456927 -0.17651464 0.18115687
0.08409804 0.104308665 0.25402233 -0.27757773 -0.1799477 -0.24699888 0.30207697 -0.2686059
0.24009135 -0.3097489 -0.2643908 0.06307936 -0.2834524 0.20469376 -0.09194964 0.29544976
-0.23577783 0.11283654 -0.27090156 0.05140975 -0.2476558 -0.104992524 0.2204307 -0.23521838
0.23454496 0.21264842 0.31059703 0.26943496 0.006407559 -0.23032925 -0.18903199 -0.15201955
-0.22524235 -0.22959627 -0.20349602 0.25904587 0.17250425 0.06353229 -0.0674116 -0.25544995
-0.2530017 -0.056845516 -0.18331264 -0.26271918 -0.15645282 -0.0925298 -0.2906016 -0.25360674
-0.31421152 -0.12258035 -0.0674749 -0.043847114 -0.0005031824 0.22395292 -0.052842855 -0.1595423
0.13706726 0.1599541 -0.1306885 -0.015661478 -0.024280101 0.038776368 0.118309945 0.22115824
0.06864807 -0.0622842 -0.0011488497 -0.20890331 -0.28194517 -0.27838132 0.13349757 0.24172547
0.035643607 0.24149314 -0.1990488 0.18419072 -0.24322975 0.26660267 0.07470325 -0.065451235
0.20637593 -0.091460705 0.12955683 0.06672087 0.31091347 0.026444376 0.07326648 -0.17988135
-0.18778946 -0.1441223 -0.15348355 -0.23864724 -0.03403771 -0.023741841 -0.17688416 -0.17035879
-0.21984684 -0.2738754 0.10350281 0.10324982 -0.29102668 0.052399576 0.16712669 -0.0017569959
-0.12567718 0.12649661 0.2734925 0.22952196 0.25767526 0.31106213 -0.09343608 0.24654624
0.06089577 -0.15577798 -0.21430928 0.16648778 -0.14713188 0.22407213 0.12594396 0.08424482
0.029822111 0.059360117 -0.15683089 -0.2093819 -0.31157365 0.105508745 0.22886094 -0.13421033
0.08127546 0.16412467 -0.12015614 -0.15547402 -0.13872507 0.18423662 -0.26190597 -0.24351807
0.0016413331 0.23354527 0.23770389 0.048468947 -0.13800988 -0.28234264 0.09192586 -0.24787539
-0.3090898 0.11738616 0.092965126 -0.070503086 0.18868592 -0.16952915 0.18754748 -0.24957168
0.109686375 0.013244629 -0.23222378 -0.0025790632 0.2039912 0.19956377 -0.047534734 0.27824292
-0.027035236 -0.18177775 -0.036393523 0.2794747 -0.13689306 0.25719222 -0.09257488 -0.08907646
-0.16988353 0.3091503 -0.09479733 -0.008883029 0.18052658 0.039022267 -0.14434186 -0.2865923
-0.10458355 -0.011249989 -0.15707731 0.1889433 0.28785327 -0.07221858 0.13220158 -0.19560805
-0.12668188 0.23289117 -0.2166923 -0.18256186 0.0046565533 -0.2147809 -0.16732955 0.059345216
0.045822978 0.22229972 0.06497711 0.14290515 -0.2721285 0.07485214 -0.2805794 0.055428743
0.064579576 0.1632488 -0.22308576 0.10602012 -0.31032255 0.17439187 0.13838208 -0.289117
-0.13789694 0.07552239 -0.21618485 0.0024020672 0.10646415 0.09317151 -0.16093269 0.24151012
-0.016979665 0.20364091 -0.1791251 0.3127323 0.06940946 -0.22222018 0.2526348 -0.09854007
0.09170458 -0.11771189 -0.22944665 0.1947402 -0.2685756 0.27196988 -0.19067077 0.1546844
00000000: 0c61 db3d 5268 ffbd 8385 95be f055 993d
00000010: 0422 293e 0125 9e3e 186a 843d 1271 e4bd
00000020: c2c3 1d3e 7c43 e93d 728f 733e 08b8 d6bd
00000030: 5c49 47be e4a2 c33d 500a b63c 5b31 9f3e
00000040: 4024 edbb 5c3c 953d 908a acbc a4ad 28be
00000050: 77bd 0bbe de96 7bbe 41c0 34be 3081 393e
00000060: 983b ac3d c89f d53d 370f 823e ab1e 8ebe
00000070: 3644 38be 46ed 7cbe d5a9 9a3e b686 89be
00000080: 82da 753e 6897 9ebe 3b5e 87be c02f 813d
00000090: ac20 91be 3e9b 513e 1850 bcbd 3145 973e
000000a0: be6f 71be d816 e73d 9cb3 8abe 0893 523d
000000b0: 7b99 7dbe 5206 d7bd 96b8 613e 16dd 70be
000000c0: 8e2c 703e 82c0 593e 9306 9f3e 61f3 893e
000000d0: 80f6 d13b 6edb 6bbe 9a91 41be 03ab 1bbe
000000e0: eea5 66be 491b 6bbe 4361 50be a9a1 843e
000000f0: f4a4 303e 381d 823d 180f 8abd 56ca 82be
00000100: 7089 81be d8d6 68bd 4fb6 3bbe 2183 86be
00000110: 2b35 20be 4480 bdbd bcc9 94be bed8 81be
00000120: 55e0 a0be 680b fbbd 4830 8abd 0899 33bd
00000130: 00e8 03ba ea53 653e c071 58bd 0f5f 23be
00000140: 5c5b 0c3e 02cb 233e 35d3 05be 804c 80bc
00000150: 10e7 c6bc f8d3 1e3d 7c4c f23d 4e77 623e
00000160: 5c97 8c3d b81d 7fbd 0095 96ba c0ea 55be
00000170: 1e5b 90be ff87 8ebe 96b3 083e e286 773e
00000180: 08ff 113d fa49 773e 73d3 4bbe 7e9c 3c3e
00000190: 3811 79be 2580 883e 04fe 983d 4c0b 86bd
000001a0: 3654 533e c04f bbbd 8caa 043e f4a4 883d
000001b0: 0d30 9f3e e0a1 d83c bc0c 963d d132 38be
000001c0: e14b 40be cc94 13be cb2a 1dbe f15f 74be
000001d0: 206b 0bbd 407e c2bc 1f21 35be 8972 2ebe
000001e0: 881f 61be 6539 8cbe 48f9 d33d a474 d33d
000001f0: 7301 95be f0a0 563d 4223 2b3e 004b e6ba
00000200: 85b1 00be 5488 013e 3507 8c3e ce07 6b3e
00000210: 03ee 833e 8943 9f3e 6a5b bfbd 9e76 7c3e
00000220: d86d 793d 4384 1fbe e473 5bbe c67b 2a3e
00000230: bda9 16be 2a73 653e 74f7 003e 8c88 ac3d
00000240: 804d f43c 9823 733d 4798 20be 3568 56be
00000250: 9586 9fbe f814 d83d 865a 6a3e 6f6e 09be
00000260: c073 a63d 4c10 283e 6c14 f6bd 9534 1fbe
00000270: f20d 0ebe 86a8 3c3e 8a18 86be cd5c 79be
00000280: 0022 d73a 7e26 6f3e a668 733e 6087 463d
00000290: 7652 0dbe 378f 90be a043 bc3d 0cd3 7dbe
000002a0: 0541 9ebe 2868 f03d 8064 be3d ec63 90bd
000002b0: e236 413e 0d99 2dbe 720c 403e b88f 7fbe
000002c0: 40a3 e03d 0000 593c 12cc 6dbe 8005 29bb
000002d0: 12e3 503e 725a 4c3e c8b3 42bd db75 8e3e
000002e0: 0079 ddbc f223 3abe 6011 15bd 4f17 8f3e
000002f0: b22d 0cbe b3ae 833e e697 bdbd b86d b6bd
00000300: f3f5 2dbe f348 9e3e 1a25 c2bd 208a 11bc
00000310: f6db 383e d0d5 1f3d 5ace 13be 3abc 92be
00000320: e62f d6bd e051 38bc e0d8 20be 5a7a 413e
00000330: 8161 933e 56e7 93bd da5f 073e 7a4d 48be
00000340: e5b8 01be 067b 6e3e 96e4 5dbe 7ff1 3abe
00000350: 0096 983b 86ef 5bbe 7058 2bbe f813 733d
00000360: e0b0 3b3d 8aa2 633e b812 853d ba55 123e
00000370: 6d54 8bbe 144c 993d 1aa8 8fbe 4009 633d
00000380: 4c42 843d b22a 273e 9870 64be 1421 d93d
00000390: 99e2 9ebe c893 323e 08b4 0d3e 2507 94be
000003a0: db34 0dbe 7cab 9a3d 905f 5dbe 006c 1d3b
000003b0: e009 da3d b4d0 be3d 8acb 24be 6e4e 773e
000003c0: f018 8bbc 3e87 503e 926c 37be 731e a03e
000003d0: 8c26 8e3d b08d 63be 5959 813e 60cf c9bd
000003e0: 9ccf bb3d ee12 f1bd 10f4 6abe fa69 473e
000003f0: be82 89be a33f 8b3e 333f 43be 9665 1e3e

bias f4 [1, 10]
0.0 0.0 0.0 0.0 0.0 0.0 0.0 0.0
0.0 0.0
00000000: 0000 0000 0000 0000 0000 0000 0000 0000
00000010: 0000 0000 0000 0000 0000 0000 0000 0000
00000020: 0000 0000 0000 0000

weight f4 [10, 32]
-0.085643105 -0.027923143 -0.20427667 -0.053597905 -0.09767635 0.009031103 0.10821923 -0.032569412
-0.07222201 -0.026745012 0.05561841 -0.03565018 -0.047242243 -0.067522675 0.08691303 0.11791196
-0.009233067 -0.24828967 -0.016198656 -0.22987475 -0.25801003 -0.00012703489 -0.22761664 0.027697133
-0.09513058 -0.2097952 -0.13727805 -0.14791691 -0.06362228 -0.082063 -0.11190973 0.012759284
-0.023359595 0.13837138 0.085563295 0.08548904 -0.00074286223 0.06621313 -0.15637583 0.0060262624
0.19023196 -0.12765507 -0.026871435 0.030691627 0.14670038 -0.13377018 -0.033987954 0.0601331
0.025181253 0.067266025 0.13356374 0.12626113 -0.072423115 0.0132738445 -0.03286963 0.12282789
-0.0646896 0.08423069 -0.081163235 0.13964473 -0.055382162 -0.053670075 0.0031658388 -0.075034015
-0.11731826 -0.23576736 -0.2106873 -0.19491339 -0.24432854 0.03175003 0.04325689 -0.005821633
-0.099515215 -0.18578589 -0.05271909 -0.07376927 -0.21324697 -0.23316549 -0.12917945 -0.22135963
-0.29247737 -0.27885336 -0.27224055 0.010445792 -0.08835828 -0.11674084 -0.18162054 -0.012596357
-0.00035434807 -0.047576852 -0.16576746 -0.05185203 -0.1959381 -0.2980797 -0.0932263 -0.08783054
0.0872264 -0.09151363 -0.07085782 0.02013949 0.09510284 -0.047933448 0.14521946 0.17766705
-0.010264558 -0.109969676 -0.03324505 -0.063103974 0.124389425 -0.100397274 0.048514944 0.120568424
-0.077481054 0.11281104 -0.047509268 0.15671636 0.15056682 0.143799 0.03244097 0.023167616
0.15561348 0.05296971 0.11813883 0.1768659 -0.12763222 0.025928041 0.13604802 0.09624734
0.01582316 -0.10085791 -0.043816645 -0.11238663 0.07300041 -0.031058498 -0.17283128 -0.027782075
0.0013134471 0.042702608 -0.0023888287 -0.18821818 0.06855514 0.057118446 -0.18002675 -0.18604282
-0.12779248 -0.21728006 -0.18509693 -0.19355959 0.016505241 -0.24763328 -0.16872926 -0.0427843
0.048990525 0.00849788 -0.23898159 0.037512623 -0.048802104 0.04158593 -0.2019545 -0.029946426
0.00065616687 -0.22182775 -0.13918123 -0.21802273 0.013993956 -0.1476865 -0.19446202 -0.19269064
-0.1430084 -0.03090341 -0.15041631 -0.124840185 -0.14501658 -0.1203935 -0.044735763 -0.16349193
-0.10119913 -0.15385935 -0.0017645395 -0.2145645 0.00834607 -0.147165 -0.22646044 0.046393685
-0.060610827 -0.21536154 -0.004345692 -0.14444198 -0.06660672 -0.17912416 -0.23608792 -0.085666396
-0.004172098 0.108792335 0.046790633 0.1502511 -0.04068383 0.1425229 -0.12473725 -0.12504426
-0.06902613 0.18592244 -0.020638041 -0.11181355 -0.11582104 0.05551474 -0.12873371 0.035975248
0.17908002 0.0052324524 0.2662985 0.18070662 0.052240014 0.09430733 0.2142965 0.1632527
-0.03504669 0.20237657 0.013301094 0.07885558 0.21997356 0.14627689 0.18921882 0.2022445
0.17685257 -0.038968705 0.07147741 0.038534556 -0.05842512 0.023032285 0.1680066 0.009822191
0.07367801 -0.09981346 0.16399235 -0.027522577 -0.13907528 -0.12086319 0.10541361 -0.14567004
0.07706003 0.25272438 0.011808119 -0.032127213 0.16809139 0.24665561 0.22969922 0.2240985
0.2573512 0.2727051 0.23816715 -0.055697583 0.24589519 0.1980944 0.18695933 0.08231895
00000000: a765 afbd 13bf e4bc e72d 51be 7a89 5bbd
00000010: 8a0a c8bd 31f7 133c 0ba2 dd3d 8167 05bd
00000020: 22e9 93bd 5b18 dbbc 21d0 633d ec05 12bd
00000030: 1581 41bd 5449 8abd 75ff b13d d37b f13d
00000040: 4a46 17bc a63f 7ebe 0bb3 84bc 4964 6bbe
00000050: e419 84be ab34 05b9 5614 69be 19e5 e23c
00000060: d2d3 c2bd 8ed4 56be 9e92 0cbe 8877 17be
00000070: 664c 82bd a510 a8bd ee30 e5bd 510c 513c
00000080: 9f5c bfbc 3ab1 0d3e cf3b af3d e114 af3d
00000090: a4bc 42ba c09a 873d fc20 20be f477 c53b
000000a0: 2bcc 423e 03b8 02be 7c21 dcbc 026d fb3c
000000b0: a038 163e 0dfb 08be f436 0bbd 204e 763d
000000c0: ea48 ce3c c5c2 893d efc4 083e 994a 013e
000000d0: 9252 94bd 8a7a 593c 4ea2 06bd 308d fb3d
000000e0: fb7b 84bd 2481 ac3d e938 a6bd 07ff 0e3e
000000f0: 68d8 62bd 27d5 5bbd f679 4f3b 6fab 99bd
00000100: 8e44 f0bd 006d 71be 69be 57be 6097 47be
00000110: 4331 7abe 520c 023d 232e 313d 66c3 bebb
00000120: a2ce cbbd a83e 3ebe f9ef 57bd 5814 97bd
00000130: 6a5d 5abe efc2 6ebe 9e47 04be 19ac 62be
00000140: 98bf 95be dec5 8ebe 1d63 8bbe d424 2b3c
00000150: 30f5 b4bd d215 efbd bcfa 39be f360 4ebc
00000160: cbc7 b9b9 f2df 42bd f2be 29be cb62 54bd
00000170: ffa3 48be e79d 98be 6eed bebd 80e0 b3bd
00000180: c1a3 b23d 7f6b bbbd e81d 91bd 92fb a43c
00000190: 47c5 c23d dd55 44bd 69b4 143e 5aee 353e
000001a0: ad2c 28bc c837 e1bd f62b 08bd a83c 81bd
000001b0: e2bf fe3d 169d cdbd 9bb7 463d 94ec f63d
000001c0: 63ae 9ebd 7909 e73d 1499 42bd 417a 203e
000001d0: 302e 1a3e 0c40 133e d3e0 043d 03ca bd3c
000001e0: 2459 1f3e c4f6 583d c5f2 f13d 561c 353e
000001f0: 05b2 02be 0b67 d43c 2c50 0b3e 531d c53d
00000200: 929f 813c 988e cebd 1579 33bd f62a e6bd
00000210: 3d81 953d 646e febc affa 30be 3c97 e3bc
00000220: f927 ac3a eee8 2e3d e58d 1cbb 44bc 40be
00000230: a366 8c3d 08f5 693d ef58 38be 0282 3ebe
00000240: 08dc 02be aa7e 5ebe 0d8a 3dbe 7c34 46be
00000250: 0036 873c 9493 7dbe 5dc7 2cbe 973e 2fbd
00000260: 4aaa 483d b13a 0b3c 97b7 74be d6a6 193d
00000270: b7e4 47bd 0256 2a3d 29cd 4ebe 3552 f5bc
00000280: 9d02 2c3a d026 63be 8685 0ebe 5a41 5fbe
00000290: e846 653c 213b 17be 0d21 47be b250 45be
000002a0: cb70 12be 2629 fdbc bc06 1abe 36ac ffbd
000002b0: 3a7f 14be de90 f6bd d93c 37bd 6e6a 27be
000002c0: 7d41 cfbd 4e8d 1dbe 1f48 e7ba ccb6 5bbe
000002d0: f4bd 083c 6cb2 16be 3fe5 67be 4e07 3e3d
000002e0: 0f43 78bd bc87 5cbe 4f66 8ebb 99e8 13be
000002f0: 1b69 88bd 536c 37be 08c1 71be dd71 afbd
00000300: 18b6 88bb 84ce de3d 89a7 3f3d 6ddb 193e
00000310: 16a4 26bd 86f1 113e 3e76 ffbd 9a0b 00be
00000320: 925d 8dbd 7462 3e3e 1c11 a9bc 81fe e4bd
00000330: 9533 edbd 6d63 633d c5d2 03be c85a 133d
00000340: c160 373e fe74 ab3b 4758 883e 280b 393e
00000350: a0f9 553d 3424 c13d 8b70 5b3e b72b 273e
00000360: 1e8d 0fbd ce3b 4f3e d5ec 593c 097f a13d
00000370: c040 613e 9cc9 153e 94c2 413e 2f19 4f3e
00000380: d718 353e a69d 1fbd c062 923d 69d6 1d3d
00000390: 2e4f 6fbd 34ae bc3c ec09 2c3e 41ed 203c
000003a0: 7fe4 963d 006b ccbd 9ced 273e 0777 e1bc
000003b0: c069 0ebe 1f87 f7bd 17e3 d73d 872a 15be
000003c0: a6d1 9d3d 1765 813e d776 413c d397 03bd
000003d0: 2620 2c3e 4a93 7c3e 4636 6b3e 147a 653e
000003e0: 89c3 833e 01a0 8b3e 17e2 733e 2623 64bd
000003f0: f3cb 7b3e 42d9 4a3e 4472 3f3e d696 a83d

weight f4 [10, 10]
-0.20014164 -0.07554333 0.20557347 0.21092358 0.14880371 0.26196352 0.05007878 -0.23009214
-0.252312 -0.20632064 0.27412412 0.18028551 -0.15930282 -0.017444879 0.1997501 -0.15601358
-0.03413102 0.008373618 -0.20067397 -0.14687292 -0.28286898 0.31078592 0.26579228 -0.12866065
0.09993264 -0.156605 0.10370779 0.14338583 0.09095487 0.12299934 0.27235064 -0.091781855
0.14432597 0.25924227 0.23437455 0.030017346 -0.21576887 0.047688395 0.20406082 0.16218564
0.2639123 0.050222278 0.022620857 0.13627616 -0.110649645 0.090179116 -0.14636669 -0.2648692
-0.18627979 0.29123166 0.15261737 -0.27636793 0.29969224 -0.2953606 -0.022583604 -0.07304169
-0.22381279 0.13184309 -0.31497982 -0.18204434 -0.07200386 -0.14019701 0.14447245 -0.17650805
-0.30831096 -0.008693606 0.016075134 0.2946677 -0.2800174 0.26925024 0.020390123 0.23731688
-0.25212297 0.30610415 0.047902137 0.016270489 0.18765995 0.22289231 -0.014346749 0.24117151
-0.11809304 -0.20156083 -0.031553596 0.15490139 -0.009252191 -0.0020332336 6.490946e-05 -0.20460436
0.106622905 -0.09576897 0.24692234 -0.08111894 -0.23221669 0.2254242 -0.12392305 0.10013616
0.30615714 -0.25817716 -0.19082525 0.013758481
00000000: eef1 4cbe 76b6 9abd da81 523e 5afc 573e
00000010: 0060 183e 1520 863e 681f 4d3d 469d 6bbe
00000020: 0a2f 81be b845 53be ff59 8c3e c49c 383e
00000030: 4720 23be 90e8 8ebc 4a8b 4c3e 06c2 1fbe
00000040: f8cc 0bbd 8031 093c 7a7d 4dbe db65 16be
00000050: 34d4 90be 551f 9f3e ed15 883e 9ebf 03be
00000060: 7ca9 cc3d 105d 20be c064 d43d bcd3 123e
00000070: 8c46 ba3d 14e7 fb3d 8b71 8b3e 20f8 bbbd
00000080: 30ca 133e 67bb 843e e2ff 6f3e f0e6 f53c
00000090: 84f2 5cbe e854 433d 52f5 503e fe13 263e
000000a0: 831f 873e e0b5 4d3d 604f b93c fa8b 0b3e
000000b0: 489c e2bd d4af b83d 26e1 15be f09c 87be
000000c0: 21c0 3ebe 511c 953e ba47 1c3e 1980 8dbe
000000d0: 4371 993e 8139 97be 4001 b9bc e296 95bd
000000e0: 2e2f 65be e001 073e 0945 a1be d569 3abe
000000f0: c276 93bd ce8f 0fbe 96f0 133e 87be 34be
00000100: efda 9dbe a06f 0ebc 00b0 833c afde 963e
00000110: 715e 8fbe 2bdb 893e 3009 a73c 3203 733e
00000120: 4316 81be afb9 9c3e 0835 443d b049 853c
00000130: ee29 403e e23d 643e a00e 6bbc aaf5 763e
00000140: c4da f1bd f665 4ebe 583e 01bd 789e 1e3e
00000150: 8096 17bc 0040 05bb 0020 8838 ce83 51be
00000160: 1c5d da3d 8622 c4bd 36d9 7c3e b021 a6bd
00000170: 36ca 6dbe 9ad5 663e 5ecb fdbd 3014 cd3d
00000180: a1c0 9c3e cc2f 84be b267 43be 406b 613c

bias f4 [1, 10]
0.0 0.0 0.0 0.0 0.0 0.0 0.0 0.0
0.0 0.0
00000000: 0000 0000 0000 0000 0000 0000 0000 0000
00000010: 0000 0000 0000 0000 0000 0000 0000 0000
00000020: 0000 0000 0000 0000

weight f4 [10, 10]
-0.09807218 -0.22190729 -0.24904104 0.29153508 -0.306849 -0.27218202 0.31088978 -0.07086067
-0.009680512 -0.4655906 0.13926971 0.20791318 -0.31408098 0.18200195 -0.3057108 -0.46217933
0.29622868 0.34685987 -0.0018256287 -0.051114604 0.37793726 -0.094407484 0.23990375 -0.056989588
0.18966812 0.48676446 -0.23916093 -0.3310231 -0.051599607 0.063116394 -0.10382501 0.16687134
-0.43601087 0.2818821 0.15995367 -0.15216638 -0.04695651 0.20787269 0.15285483 -0.44347402
0.015965987 -0.11708455 0.13078168 0.31856856 -0.3009515 0.17078458 0.2901853 -0.18385679
0.15693323 0.058933295 -0.36957484 0.06574837 -0.31660095 0.08118935 -0.22119401 -0.15874748
0.06264923 0.32207236 -0.2383972 -0.4216879 0.22119029 0.009915959 0.21482348 -0.04795718
0.20821263 0.07911928 -0.16396326 -0.065153785 0.0436904 0.08861937 -0.021890135 -0.2989359
0.3269046 -0.1832119 0.1055228 0.38130546 0.04794762 0.08884092 0.24505754 -0.04674444
0.3448638 0.2507919 -0.18846238 -0.3095962 0.41317254 -0.10717243 -0.024912676 -0.35777727
0.3184005 -0.053383004 -0.40882728 0.082320936 0.10424674 -0.12107639 -0.07264787 0.2278673
0.23565279 0.27473247 -0.086938985 -0.18426707
00000000: 11da c8bd aa3b 63be 9d04 7fbe 1644 953e
00000010: 501b 9dbe 715b 8bbe f22c 9f3e 661f 91bd
00000020: 039b 1ebc e461 eebe b89c 0e3e 31e7 543e
00000030: 39cf a0be b85e 3a3e 2086 9cbe c5a2 ecbe
00000040: 49ab 973e 9e97 b13e ef49 efba 8c5d 51bd
00000050: fe80 c13e b658 c1bd 54a9 753e ea6d 69bd
00000060: 5c38 423e 3139 f93e 9ae6 74be dc7b a9be
00000070: 1c5a 53bd 2b43 813d 35a2 d4bd 52e0 2a3e
00000080: d13c dfbe da52 903e e5ca 233e 81d1 1bbe
00000090: 7855 40bd 94dc 543e fa85 1c3e 070f e3be
000000a0: 1acb 823c 06ca efbd a2eb 053e 6b1b a33e
000000b0: 5116 9abe 27e2 2e3e 2b93 943e f444 3cbe
000000c0: 1bb3 203e 0a64 713d ea38 bdbe 15a7 863d
000000d0: 8519 a2be 9a46 a63d af80 62be b38e 22be
000000e0: 3d4e 803d abe6 a43e 651e 74be 7ae7 d7be
000000f0: b57f 623e 8c76 223c b0fa 5b3e bf6e 44bd
00000100: b135 553e 4a09 a23d fce5 27be 596f 85bd
00000110: b4f4 323d 127e b53d f152 b3bc 200e 99be
00000120: 0a60 a73e e69b 3bbe 561c d83d 783a c33e
00000130: b964 443d 3af2 b53d 5df0 7a3e 1977 3fbd
00000140: fd91 b03e cc67 803e 48fc 40be 6583 9ebe
00000150: 5a8b d33e 387d dbbd ab15 ccbc 952e b7be
00000160: 6405 a33e 23a8 5abd cf51 d1be e197 a83d
00000170: 517f d53d e6f6 f7bd 68c8 94bd 0c56 693e
00000180: f74e 713e bca9 8c3e 110d b2bd 82b0 3cbe

weight f4 [10, 16]
-0.028385818 -0.12836656 0.11823648 -0.072686076 0.05184135 0.13127497 -0.11993146 -0.17616385
0.056823015 -0.22322208 0.21570936 -0.20622459 -0.024375021 0.18062472 0.025796205 0.20345712
0.0716331 -0.082264125 -0.1866565 0.11587182 -0.09171358 0.102353245 0.15112495 -0.13335845
-0.037641346 0.012309939 0.094094306 0.047264874 0.17349097 -0.03654796 -0.13690326 0.17332652
-0.08555958 0.10682401 0.15482262 -0.033477813 -0.08546895 -0.02217114 -0.243325 -0.23743507
-0.18175235 -0.098680735 -0.20594433 0.06010723 -0.0582048 -0.15027815 0.10981366 -0.23432133
-0.16797367 0.032817423 0.02310425 0.07655689 0.21620908 0.079304814 -0.067516476 -0.10463038
-0.149905 0.0967181 -0.16615805 0.050154775 0.046167135 0.22983098 0.22143471 0.06665319
0.06456545 -0.019499391 -0.11368489 0.026218861 -0.19266596 0.14220682 0.07488993 -0.08026117
-0.04647982 0.00696519 0.23357108 0.057230562 -0.18544051 0.1340544 0.038063735 -0.16992041
0.065310955 0.08256686 0.10800314 -0.0068647265 -0.24180412 -0.028994828 -0.06908497 -0.14007244
-0.20202035 0.1733388 0.19845212 0.065098375 -0.17525989 0.03722909 -0.20847285 -0.01235342
0.003925234 0.18732756 0.20937395 -0.17086855 0.24037457 0.23677239 0.2243506 -0.07822317
-0.09413022 -0.21678782 0.047210157 0.01173982 -0.052152216 -0.12542278 -0.031466424 -0.07202703
-0.18387765 -0.15862736 -0.16160685 0.20514476 -0.093667 -0.08924639 0.029165983 0.0048856437
-0.23360863 -0.067812055 -0.03138584 -0.102882385 0.010404021 0.05552098 0.010958999 0.019729495
0.049705952 0.038827896 0.17727968 -0.17370558 -0.1486719 -0.15280747 0.18100959 0.044508457
0.01202935 -0.14063615 0.10214618 0.007968098 0.0071437955 0.0921261 0.036177784 -0.05749333
-0.2435131 0.16563374 -0.23791456 0.107017875 -0.016714543 -0.1641402 0.24063441 0.08303508
0.2133004 0.23932046 0.12396684 0.03418249 0.19398671 0.1769532 -0.18090567 -0.13385391
00000000: 6089 e8bc 8672 03be f825 f23d 70dc 94bd
00000010: 9857 543d f26c 063e a09e f5bd 4c64 34be
00000020: 40bf 683d 5494 64be eae2 5c3e 8a2c 53be
00000030: 20ae c7bc b0f5 383e 9052 d33c 1057 503e
00000040: 60b4 923d 187a a8bd e222 3fbe 344e ed3d
00000050: 54d4 bbbd 949e d13d 80c0 1a3e 1e8f 08be
00000060: d02d 1abd a0af 493c 84b4 c03d d098 413d
00000070: 9ea7 313e 50b3 15bd 5e30 0cbe 827c 313e
00000080: dc39 afbd 8cc6 da3d d289 1e3e 0820 09bd
00000090: 580a afbd 40a0 b5bc 302a 79be 2e22 73be
000000a0: 4a1d 3abe 2019 cabd 12e3 52be 0033 763d
000000b0: 2868 6ebd 84e2 19be fce5 e03d eef1 6fbe
000000c0: 4a01 2cbe 906b 063d 2045 bd3c dcc9 9c3d
000000d0: ea65 5d3e 906a a23d 1446 8abd 7448 d6bd
000000e0: b280 19be 2414 c63d 5625 2abe 186f 4d3d
000000f0: c019 3d3d d058 6b3e c8bf 623e 7881 883d
00000100: e43a 843d 30bd 9fbc a0d3 e8bd f0c8 d63c
00000110: 3a4a 45be aa9e 113e e45f 993d f85f a4bd
00000120: a061 3ebd 403c e43b 422d 6f3e 986a 6a3d
00000130: 1ee4 3dbe 8e45 093e b8e8 1b3d 9eff 2dbe
00000140: c0c1 853d d018 a93d c030 dd3d 80f1 e0bb
00000150: 809b 77be 9086 edbc 6c7c 8dbd 266f 0fbe
00000160: 6cde 4ebe ba7f 313e 0837 4b3e 4c52 853d
00000170: 5477 33be 887d 183d e879 55be 0066 4abc
00000180: 409f 803b ccd2 3f3e 2066 563e 2af8 2ebe
00000190: c024 763e 7674 723e 2abc 653e 7833 a0bd
000001a0: 58c7 c0bd a0fd 5dbe 705f 413d 6058 403c
000001b0: 909d 55bd d46e 00be f0e2 00bd e882 93bd
000001c0: 6c4a 3cbe 366f 22be 447c 25be 7811 523e
000001d0: 7cd4 bfbd d0c6 b6bd 80ed ee3c c017 a03b
000001e0: 1a37 6fbe 0ce1 8abd 708e 00bd 00b4 d2bd
000001f0: a075 2a3c f869 633d 608d 333c c09f a13c
00000200: 7898 4b3d 000a 1f3d ce88 353e e0df 31be
00000210: 723d 18be 9079 1cbe 945a 393e 804e 363d
00000220: c016 453c ec02 10be 0432 d13d a08c 023c
00000230: 8016 ea3b 9cac bc3d 282f 143d 207e 6bbd
00000240: 805b 79be e49b 293e e09f 73be 302c db3d
00000250: f0ec 88bc 5e14 28be de68 763e 4c0e aa3d
00000260: 6c6b 5a3e 6c10 753e 54e2 fd3d f002 0c3d
00000270: 74a4 463e 3833 353e 563f 39be 0011 09be

bias f4 [1, 16]
0.0 0.0 0.0 0.0 0.0 0.0 0.0 0.0
0.0 0.0 0.0 0.0 0.0 0.0 0.0 0.0
00000000: 0000 0000 0000 0000 0000 0000 0000 0000
00000010: 0000 0000 0000 0000 0000 0000 0000 0000
00000020: 0000 0000 0000 0000 0000 0000 0000 0000
00000030: 0000 0000 0000 0000 0000 0000 0000 0000

weight f4 [16, 10]
0.45235825 0.32563353 -0.17216113 -0.06273087 -0.29134542 -0.04391968 -0.17786618 0.097468995
0.08273131 0.24804465 0.025482405 -0.22579296 -0.34719363 0.21737306 0.14596716 0.2412957
-0.25918046 0.07045362 -0.10922719 0.17079109 0.1799735 0.178781 -0.40061617 -0.048926402
-0.14557905 -0.066806786 0.10549718 -0.05145429 -0.055311047 0.3010197 0.051803473 0.07137161
-0.16674513 0.10482167 0.16125745 0.018024534 -0.3158325 -0.31779003 0.009245605 0.35485113
0.4129163 0.035969578 -0.32607716 0.407812 0.21560445 -0.03023757 -0.15737152 0.08882454
0.17034881 0.066187054 -0.15963107 0.3490538 0.20112893 0.24765782 0.20511217 0.32468006
0.0040595443 0.16163893 -0.089662515 0.28443646 -0.035448644 0.05432625 -0.21471094 0.18576743
0.12443586 0.21778613 -0.027253848 -0.2433789 -0.3339753 -0.1470597 0.1933984 0.32043123
0.16091768 0.15039985 -0.2762085 0.19932005 -0.44848254 0.10801083 -0.13827625 -0.037263267
0.10020627 0.10108741 -0.049349796 0.20406343 0.2637335 0.10994207 0.12448639 -0.23132396
-0.22622065 0.21676195 -0.009911169 0.13169402 -0.15161084 0.08406364 -0.005566705 0.36861643
-0.041334584 -0.09179146 0.11197613 0.27453616 0.24971162 0.30130383 0.043112148 0.2152352
-0.33348033 0.3331245 0.11442799 0.22212416 -0.033358917 0.07696058 0.43146467 0.07241099
0.04967384 0.2608251 -0.058570325 0.02211811 -0.08119318 -0.05178387 -0.3955895 -0.034860294
0.36586332 0.06944102 0.04070013 0.097481355 0.2037594 0.3166956 -0.20415662 0.1819473
-0.13639215 -0.016351176 -0.049867745 0.14619353 -0.081823856 0.23853202 -0.2191162 0.19621168
0.11315803 -0.23955615 -0.3127646 0.094347395 0.15849607 0.042192686 0.09215089 -0.17804204
0.123002164 0.37835217 -0.120702475 -0.23988298 -0.27776232 0.23315422 0.30469894 0.065303996
-0.10300351 0.2718046 0.19687687 0.11244186 -0.17004654 -0.086264335 -0.15499422 -0.09114045
00000000: 809b e73e 70b9 a63e 024b 30be 0b79 80bd
00000010: 3a2b 95be 1fe5 33bd 8d22 36be d39d c73d
00000020: 086f a93d 6bff 7d3e 7ac0 d03c 4536 67be
00000030: 5dc3 b1be 0b97 5e3e 6a78 153e 3816 773e
00000040: 4db3 84be fd49 903d 81b2 dfbd dce3 2e3e
00000050: f94a 383e 5e12 373e 901d cdbe 0d67 48bd
00000060: ad12 15be ffd1 88bd e80e d83d bcc1 52bd
00000070: d68d 62bd 411f 9a3e e12f 543d 472b 923d
00000080: 3cbf 2abe beac d63d ac20 253e 30a8 933c
00000090: ccb4 a1be 60b5 a2be e17a 173c 0caf b53e
000000a0: c469 d33e d654 133d 96f3 a6be bccc d03e
000000b0: 6ac7 5c3e c8b4 f7bc 0026 21be a4e9 b53d
000000c0: eb6f 2e3e 148d 873d 5476 23be 2eb7 b23e
000000d0: bef4 4d3e 039a 7d3e ed08 523e 773c a63e
000000e0: ed05 853b ad84 253e fba0 b7bd a8a1 913e
000000f0: 9932 11bd 3485 5e3d 2fdd 5bbe d139 3e3e
00000100: 3ad8 fe3d 5403 5f3e 7643 dfbc 5238 79be
00000110: cffe aabe d196 16be 3b0a 463e 900f a43e
00000120: 9bc7 243e 6b02 1a3e 336b 8dbe 8e1a 4c3e
00000130: 819f e5be c834 dd3d 4a98 0dbe 5ea1 18bd
00000140: f238 cd3d ea06 cf3d 0323 4abd 01f6 503e
00000150: 1408 873e 4f29 e13d b8f2 fe3d 30e0 6cbe
00000160: 63a6 67be d8f6 5d3e 7562 22bc ccda 063e
00000170: df3f 1bbe 8f29 ac3d e868 b6bb 4bbb bc3e
00000180: 744e 29bd 29fd bbbd be53 e53d 0190 8c3e
00000190: 67b4 7f3e 7f44 9a3e 5d96 303d 9e66 5c3e
000001a0: efbd aabe 4b8f aa3e 3959 ea3d 8474 633e
000001b0: 5ca3 08bd 829d 9d3d f0e8 dc3e 374c 943d
000001c0: cc76 4b3d de8a 853e 70e7 6fbd 0a31 b53c
000001d0: 9c48 a6bd 531b 54bd b58a cabe abc9 0ebd
000001e0: 7052 bb3e 1837 8e3d 2eb5 263d 4ea4 c73d
000001f0: 4ea6 503e ed25 a23e 6f0e 51be 6550 3a3e
00000200: 62aa 0bbe e7f2 85bc 1f42 4cbd c2b3 153e
00000210: 4493 a7bd bd41 743e ff5f 60be b7eb 483e
00000220: 66bf e73d 354e 75be af22 a0be 3539 c13d
00000230: cb4c 223e 3dd2 2c3d 9bb9 bc3d a750 36be
00000240: 8fe8 fb3d 60b7 c13e dc32 f7bd e2a3 75be
00000250: dd36 8ebe fbbf 6e3e 8001 9c3e 1abe 853d
00000260: 81f3 d2bd f929 8b3e 179a 493e eb47 e63d
00000270: ae20 2ebe 5bab b0bd ceb6 1ebe d8a7 babd
