neuromancer/train_scripts/papers/flexy/device_test_models/model1/best_policy_flexy1.pth (torch, 16887 bytes, 9 tensors)

weight f4 [32, 20]
000000 94 99 3f bd a8 c3 56 bd be 29 5c 3e c2 ba 0d 3e
       -0.046777323 -0.052432686 0.21500298 0.13840774
000010 be 24 c9 bd b0 81 3b 3e b6 d4 47 3e b0 7f 0b be
       -0.09821461 0.1831119 0.19514737 -0.13622928
000020 d8 ca 60 be 26 bf 14 3e 3c 22 ad 3d 64 ec 3f bd
       -0.21952379 0.14526042 0.08453795 -0.0468563
000030 76 de 19 3e a8 6b 96 3d ae 19 31 3e 88 ba d8 3d
       0.15026268 0.073447526 0.17294952 0.10582453
000040 e0 90 56 3c 30 3a 89 3d c8 cf 0e 3d 35 eb 12 be
       0.013096064 0.067005515 0.034866124 -0.14347537
000050 1a c1 85 bd 72 d3 5a 3e 9c 49 10 be 80 c5 82 3d
       -0.06530972 0.21369722 -0.1409058 0.063853264
000060 d8 b6 9d bc 98 42 61 be 2a 3e 26 3e 6f 5d 48 be
       -0.019252226 -0.2199806 0.16234651 -0.19566892
000070 e8 ba 2c 3d 2c 22 d8 3d 92 8b 98 bd 60 0c 11 bd
       0.042170435 0.10553393 -0.07448496 -0.035412192
000080 ce cd 62 3e 5a 62 35 3e 96 9f 47 3e 9e a2 28 be
       0.22148821 0.177133 0.19494471 -0.16468284
000090 88 d2 09 be f0 0d d9 3c 00 d5 93 3d e8 a9 ad bc
       -0.13459218 0.026495904 0.07218361 -0.021199182
0000a0 50 20 58 bd 92 d9 fc bd c0 3b 6e bc 40 95 0c 3e
       -0.05276519 -0.12346186 -0.014540613 0.1372881
0000b0 bc c4 e1 3d f8 3e 77 3d 69 bf e7 bd cc 01 99 3d
       0.11023852 0.060362786 -0.113158055 0.07471046
0000c0 80 a2 b2 3a 99 af f2 bd e3 0b 56 be f8 3c 15 3d
       0.0013628751 -0.11849899 -0.20902972 0.036435097
0000d0 e6 35 3c be 44 f0 62 be 04 be 0b 3e d4 43 d0 3d
       -0.18379936 -0.22161967 0.13646704 0.10169187
0000e0 b8 72 21 3e 3f 72 50 be 9a 68 16 be e4 04 63 3e
       0.15766418 -0.20356081 -0.1468834 0.22169834
0000f0 d2 6f 28 3e f8 20 99 3d 60 44 3a bc 30 24 04 3d
       0.16448906 0.074769914 -0.011368841 0.032261074
000100 a1 25 2f be b8 2f 9b bc 6c b3 5d 3e ba 68 58 3e
       -0.17104198 -0.018943653 0.21650475 0.211337
000110 bc ec 96 3d bc 04 48 be c0 51 c4 bc 98 09 21 be
       0.07369372 -0.19533056 -0.023964763 -0.15726316
000120 dc f4 0d 3e e0 d6 df bc 27 4e 25 be 40 6b 7a 3d
       0.13862938 -0.02732414 -0.16143094 0.061137438
000130 a6 9b 22 3e 58 49 32 3e 80 73 1f 3e 28 54 22 3e
       0.15879688 0.17410791 0.15571404 0.15852416
000140 9a 49 3c be 16 fb 18 be a0 07 52 be 8c 8a fa bd
       -0.18387452 -0.14939532 -0.20510721 -0.12233457
000150 90 54 b7 3c b0 2d 06 be 78 fd 93 bc b2 6b 24 3e
       0.02237919 -0.13103366 -0.0180652 0.16056708
000160 ac 1e 95 3d de bd 5e 3e 58 af 35 be fb a8 36 be
       0.07281241 0.21752116 -0.1774267 -0.17837898
000170 9c 53 ff 3d 0c 50 13 bd ff e5 53 be e9 bb 58 be
       0.12467119 -0.03596501 -0.20693205 -0.21165432
000180 24 35 5c bd fa 31 59 be c0 71 ad 3d 5a 69 94 bd
       -0.053761616 -0.21210471 0.08468962 -0.07246657
000190 50 fe 27 3e 20 9e b2 bc f0 8c 49 3d 48 e7 54 3d
       0.16405606 -0.021803916 0.049206674 0.05197838
0001a0 68 1f 40 3d 70 ad 26 bd ae 99 8c bd e8 c2 7f 3d
       0.04690495 -0.040692747 -0.068652496 0.062441736
0001b0 9b 60 4b be 20 77 03 3d d4 b2 ae 3d 1c 71 3e 3e
       -0.19861071 0.03209603 0.085302025 0.18597835
0001c0 ef 47 5e be b6 91 15 3e b8 c5 d9 3d 00 5a ad ba
       -0.21707128 0.14606366 0.10633415 -0.0013225675
0001d0 ea dd 09 3e d8 fa ad 3c 12 9f 54 3e 60 1f 68 3d
       0.1346356 0.021237776 0.20763806 0.056670547
0001e0 90 8f cb bc c8 ec 47 3e fc 1c 18 bd 04 fa 35 be
       -0.02484873 0.19523919 -0.037137017 -0.17771155
0001f0 10 9d a5 bd 10 81 78 bd 44 d9 e0 3d 34 34 d7 3d
       -0.08086598 -0.06066996 0.1097894 0.10508004
000200 22 a1 22 3e b0 08 21 3c 70 1b aa bc c0 b5 69 3d
       0.1588178 0.009828731 -0.020765036 0.057058096
000210 d8 fc a0 bd 42 ed 05 3e 3e 74 4a 3e 9e 6e 23 3e
       -0.07860726 0.13078788 0.19770905 0.15960166
000220 08 fd 9d 3d d2 1c 99 bd b8 cd a6 3d 64 7d 24 3e
       0.077142775 -0.074762 0.081447065 0.16063458
000230 68 5d 7c 3d 66 54 a2 bd 40 94 57 bd fe ef a5 bd
       0.061612517 -0.07926254 -0.052631617 -0.081024155
000240 7a af fc bd b4 70 95 bd ae 8d db bd d0 f0 fd bc
       -0.12338157 -0.07296887 -0.10720383 -0.030998617
000250 e8 f6 5f 3e 64 6a 07 3e d4 a9 5e 3e 40 5f 42 3c
       0.21871531 0.13224179 0.21744472 0.01186353
000260 ec 43 30 3e b2 9f 2a 3e c2 0e a0 bd 40 55 68 3d
       0.1721341 0.16662481 -0.07815315 0.056721926
000270 30 34 61 3c 3c a5 5d bd 48 55 27 bd a0 50 a4 3d
       0.013745353 -0.054112658 -0.040852815 0.080231905
000280 90 1f 0d 3d 80 70 29 3b ae 09 37 be 82 90 0b 3e
       0.03445393 0.0025854409 -0.17874786 0.13629344
000290 28 71 3a be 2c 54 60 3e 85 21 4a be 78 dd 3b 3d
       -0.18207228 0.21907109 -0.19739349 0.045865506
0002a0 50 10 6c bd 12 90 61 3e a8 ff 24 3d c0 37 dc 3d
       -0.057632744 0.22027615 0.040282875 0.10752821
0002b0 ab 63 3d be 60 55 3d bc 3f c6 f0 bd a0 07 ca bc
       -0.18495052 -0.0115559995 -0.117565624 -0.024661839
0002c0 00 f5 ac 3d 60 43 2c 3d f8 b7 19 3e 40 34 df 3d
       0.084451675 0.04205644 0.15011585 0.10898638
0002d0 c8 0b a7 3c fa 41 27 be c8 97 15 3e 40 1d 8b bc
       0.02039136 -0.16333762 0.14608681 -0.01698172
0002e0 1a be 5d 3e 32 67 5b 3e 4b ca 18 be 0a 8c c0 bd
       0.21654549 0.21426085 -0.14920919 -0.0940171
0002f0 ad f6 fa bd 9e 85 0f 3e 8a 6f 57 3e 18 94 88 3d
       -0.12254081 0.14015815 0.21038643 0.06668872
000300 f6 51 32 3e 0c 68 80 3d 08 ac e8 3d eb ee 02 be
       0.17414078 0.06269845 0.11360937 -0.12786452
000310 c2 0b 5f be ce e6 17 3e 0c 1f 37 be b8 9d 7c bd
       -0.21781829 0.14834139 -0.17882937 -0.06167385
000320 a6 bd 58 be 66 4d 62 be 74 c2 e0 3d d8 c8 05 bd
       -0.21166095 -0.22099838 0.10974589 -0.032662243
000330 80 ec e9 3a ac 9f 20 bd 90 83 34 3e 00 67 4c 3c
       0.0017846972 -0.039214775 0.17628312 0.012475729
000340 d6 15 37 3e 08 8e 13 be 34 47 05 3e 50 85 cf bd
       0.17879423 -0.1440965 0.13015443 -0.10132849
000350 02 ac 1d be b8 32 b3 3c c6 28 14 be 54 06 33 3e
       -0.15397647 0.02187477 -0.14468679 0.17482883
000360 f4 31 3f 3e d0 22 7b 3d 00 2d 01 3d 50 92 b7 3d
       0.186714 0.061312497 0.031537056 0.08963454
000370 36 35 23 3e 68 ef b5 3d c5 10 fc bd 04 82 9c 3d
       0.15938267 0.08883554 -0.12307886 0.07641986
000380 fa 08 4a be ea 22 31 be 64 de 60 bd e2 9f 59 3e
       -0.19729987 -0.17298475 -0.05489959 0.21252397
000390 b2 a8 3d be 3a bf 25 be 06 a3 20 be 0c 37 f0 3d
       -0.18521383 -0.16186228 -0.15687189 0.11729249
0003a0 00 13 0c be d8 a4 27 3d 6c 33 c1 3d 4c b1 ae 3d
       -0.13679123 0.04092869 0.09433636 0.085299104
0003b0 20 d8 ee 3d 80 ee 9e bc 28 e3 ce bc dc ea c1 bd
       0.11662316 -0.019400835 -0.0252548 -0.09468624
0003c0 e8 be 96 3c 27 8c 33 be c0 5b 6f 3b 9f ec 2a be
       0.018401578 -0.17533933 0.0036523193 -0.16691826
0003d0 44 96 df 3d 38 5e 42 3d 38 8c 8d bd ba eb a4 bd
       0.10917333 0.047453135 -0.0691151 -0.08052774
0003e0 52 eb 53 3e 28 b8 48 3e a2 c6 5b 3e 8c a9 36 be
       0.20695236 0.196015 0.21462491 -0.17838115
0003f0 ea 70 03 3e 56 5f 2f 3e 90 4f 21 3c f4 8b eb 3d
       0.12836042 0.17126212 0.009845629 0.11501303

bias f4 [1, 20]
000000 00 00 00 00 00 00 00 00 00 00 00 00 00 00 00 00
       0.0 0.0 0.0 0.0
000010 00 00 00 00 00 00 00 00 00 00 00 00 00 00 00 00
       0.0 0.0 0.0 0.0
000020 00 00 00 00 00 00 00 00 00 00 00 00 00 00 00 00
       0.0 0.0 0.0 0.0
000030 00 00 00 00 00 00 00 00 00 00 00 00 00 00 00 00
       0.0 0.0 0.0 0.0
000040 00 00 00 00 00 00 00 00 00 00 00 00 00 00 00 00
       0.0 0.0 0.0 0.0

weight f4 [20, 32]
000000 f1 19 85 bd 7d b5 ad bc f5 0e a7 3d 58 80 04 bd
       -0.064990886 -0.021204704 0.0815715 -0.03234896
000010 b6 45 dc 3d e4 cb 43 bc 4d aa dc 3d f8 0c 09 3d
       0.10755484 -0.011950467 0.1077467 0.033459634
000020 48 75 07 bd b0 14 80 3d c7 bb a0 3b ee 57 09 be
       -0.033070832 0.06253946 0.0049051973 -0.13412449
000030 4a 06 08 bd a6 36 1a be f2 81 ff 3c b8 a8 43 3c
       -0.033209123 -0.15059909 0.031189892 0.011942081
000040 b5 b1 0d 3e 69 96 9e bd 8f 67 74 3e a3 81 e0 3d
       0.13837321 -0.07743532 0.2386763 0.10962226
000050 b1 5b 12 3e 1e 7f 4b 3e 2b e9 8c 3d d0 97 6f 3e
       0.1429279 0.1987271 0.06880411 0.23397756
000060 cb 75 57 bd bf ca 76 3e 8c b1 62 bd ef 80 4d 3e
       -0.05260257 0.24100779 -0.055345103 0.20068716
000070 7c 23 09 bd f4 5b 1d 3e 69 4e 05 3e 78 82 a6 3d
       -0.033481106 0.15367109 0.13018192 0.08130354
000080 06 cb 89 bd 6d ad 30 be df a3 78 be 72 6f 85 be
       -0.06728177 -0.17253657 -0.24281262 -0.2606159
000090 32 da af bd 01 5a 91 be 7b a9 90 3c 20 fc 8a be
       -0.08586539 -0.2838898 0.01765894 -0.2714548
0000a0 91 be 81 be 0c d1 9a bd 5b 4f a7 3c 63 a7 73 be
       -0.25340703 -0.07559404 0.020423582 -0.23794322
0000b0 dc 03 9c be 9d 89 72 be 8d a3 6b be 08 2f 7d be
       -0.30471694 -0.23685308 -0.23011608 -0.24724972
0000c0 9b ed 78 be 7c 12 71 be 3b 11 6d be b7 3b f4 bc
       -0.2430939 -0.23542207 -0.23151104 -0.02981363
0000d0 9f aa 21 bd cc 5b 60 be 25 92 5b be 4c db ae 3c
       -0.039469358 -0.21910018 -0.21442468 0.021344803
0000e0 99 4a 13 3d 6d 1d d4 bd 33 25 1b bc bd ea 72 3c
       0.035959814 -0.10357175 -0.009469318 0.014826474
0000f0 d1 86 d1 bd 71 1d 7d be 04 4d 75 be 37 5c 39 bd
       -0.10230792 -0.24718262 -0.2395516 -0.04525396
000100 ae 42 82 bd d7 b4 cd bd 21 ee 3d 3d 83 75 db bd
       -0.063603744 -0.10044258 0.046369676 -0.10715773
000110 cf af 28 be cb 1e f7 bc a3 75 62 be 92 dd f1 bd
       -0.16473316 -0.03016605 -0.22115187 -0.11809839
000120 91 c4 a2 3c 64 e5 4d be f6 bd b1 bd d6 5a 97 3d
       0.01986912 -0.20107037 -0.0867881 0.073903725
000130 45 af 26 be e2 20 1a 3c b5 df 8b bd 2a b1 71 be
       -0.16277798 0.009407254 -0.06829778 -0.23602739
000140 09 3a 7f bd 1d cc d2 3a 41 e5 e1 bd 7e 17 37 3d
       -0.062311206 0.0016082559 -0.11030055 0.04470014
000150 9c a1 d8 bd 49 65 e2 bd 26 40 31 be f6 ce f4 bc
       -0.105776995 -0.11054475 -0.17309627 -0.029883843
000160 e2 4f 8f bd 68 7c e7 bd b5 84 68 be d4 6f bc bc
       -0.06997658 -0.113030255 -0.22706874 -0.023002543
000170 6e a1 da bd 47 4b 47 be 75 7e 34 be cc 63 04 be
       -0.106753215 -0.1946231 -0.17626365 -0.12928694
000180 ef 23 55 be 79 72 d9 3c eb e4 7b bd 92 d1 2d bd
       -0.20814489 0.026543843 -0.06149761 -0.04243619
000190 0b 44 43 bd 23 eb b3 bd 06 c0 5c be 87 25 ee bd
       -0.047672313 -0.08785083 -0.21557626 -0.116282515
0001a0 7d ef 69 be be 82 8b 3d 35 e9 45 be 37 f6 45 3d
       -0.22845264 0.068120465 -0.19327243 0.048330512
0001b0 61 a8 69 be d9 11 dd bc e5 f8 a8 bd 55 c0 4a 3c
       -0.22818138 -0.02698605 -0.08250598 0.012374957
0001c0 00 1c 5a 3c 45 53 0a be c3 a1 66 3d d6 12 86 bd
       0.01331234 -0.13508327 0.05630661 -0.065465614
0001d0 b7 87 3d be 57 e4 2f be e6 e5 6a be 06 c7 24 be
       -0.18508802 -0.17176948 -0.22939262 -0.16091546
0001e0 72 86 eb 3d df 07 6c be 01 42 cb bd c9 4f bd bd
       0.11500253 -0.23049878 -0.099246986 -0.092437334
0001f0 78 d4 42 bc 7f a9 e3 bd e3 1f 52 be c4 55 42 be
       -0.011891477 -0.11116313 -0.20519976 -0.1897803
000200 d7 a1 08 3d de 76 5c 3d 1b 24 94 3d 6d d9 fc bd
       0.033357468 0.053824298 0.07233449 -0.12346158
000210 44 72 8b bd 6f 53 0c be 7f 07 34 3d 98 10 f1 3d
       -0.06808904 -0.13703702 0.04395246 0.11770743
000220 aa b5 5b 3d 99 fd 11 3e b7 20 1c 3e b7 33 cb 3d
       0.053640045 0.14256896 0.15246855 0.09921973
000230 d1 35 9f 3d be 21 5c bd 15 9c 07 3e b9 9d f5 bd
       0.077739365 -0.053743117 0.13243134 -0.11992974
000240 43 91 66 3d 05 45 64 3e d8 21 76 3c 63 9e 2b 3e
       0.056290876 0.22291954 0.015022717 0.16759638
000250 56 a9 33 3d 91 e6 79 3c ae 2e be 3d f2 3a 5f bc
       0.043862663 0.015252725 0.09286247 -0.0136248935
000260 07 86 13 3e b7 c8 85 3d 84 32 4a bd d3 26 09 bd
       0.14406596 0.06532424 -0.04936458 -0.03348429
000270 23 e8 46 3d 1e 37 de 3d e7 51 2a 3e 9b 20 a6 bd
       0.048561227 0.108503565 0.16632806 -0.08111688
000280 71 5c c7 bb 11 a5 0c be 5d fe 14 be a0 7d f5 bd
       -0.006084018 -0.13734843 -0.14550157 -0.11986852
000290 68 43 26 be 8b 91 73 bd 73 02 41 3d 8f 36 34 bd
       -0.16236651 -0.059464972 0.047121476 -0.043997344
0002a0 84 0b 5e 3d 86 4a 9c bd 42 0b 41 3d ec 7a 13 3e
       0.0542102 -0.07631402 0.047129877 0.1440236
0002b0 57 73 01 3e 74 e5 e7 bd c1 20 77 bc ab 40 79 bd
       0.12641655 -0.113230616 -0.015083493 -0.060852688
0002c0 0e 99 bf bd 96 ce d0 bd 40 e2 b2 bd 1d 33 5f be
       -0.09355365 -0.10195653 -0.0873456 -0.21796842
0002d0 c8 7a 9e bd 1c c9 d1 3d fa fe 5e bd 02 2f 01 bd
       -0.077382624 0.10243437 -0.054442383 -0.03153897
0002e0 1f af 98 bd d4 bb 30 be 76 8e da bd 87 a9 80 bc
       -0.07455277 -0.1725915 -0.106717035 -0.015705837
0002f0 3e 93 17 bc 2f f9 38 3c a3 53 80 3b 80 04 af bc
       -0.009251414 0.011289879 0.0039162203 -0.02136445
000300 53 09 0e bd 21 3f 0e 3e 3f 04 20 be 49 dc d7 3d
       -0.03467686 0.1389127 -0.1562662 0.10540063
000310 52 88 db bd f7 ee 19 be cb a2 bc bc 8a 65 d4 3d
       -0.107193604 -0.15032564 -0.023026844 0.103709295
000320 03 bb ec 3d 86 e8 ca 3d 60 b5 10 be 9e 20 17 bd
       0.11559107 0.099076316 -0.14131689 -0.03689634
000330 3d b5 bd 3d 71 80 5d bd eb e4 11 3b f5 6d 83 3c
       0.09263084 -0.05407757 0.002226169 0.016043643
000340 cf 08 9f 3d 10 f0 1c bd 9c 2f 37 3e 2b 9a 23 3c
       0.07765352 -0.03831488 0.17889255 0.009985487
000350 a7 b7 32 bd 00 71 96 3d 9a d1 84 3d 0a 26 6b 3e
       -0.043632176 0.07345772 0.06485291 0.2296373
000360 3c 25 f9 3d 4f f4 c5 bc f7 ec d0 3b a0 ef 09 3e
       0.12165305 -0.024164347 0.0063759047 0.13470316
000370 d1 a8 07 3e 36 cc 56 3e 26 b6 07 bc 61 71 9f 3d
       0.13247992 0.20976338 -0.008283174 0.07785297
000380 7a e7 95 bd 54 30 40 be c5 d1 c5 bd 10 e9 0b be
       -0.07319541 -0.18768436 -0.09659151 -0.13663125
000390 b7 b3 4b be 42 44 74 be 83 5b ee bd 17 2e 95 be
       -0.19892775 -0.23854163 -0.11638548 -0.29136726
0003a0 dd b6 93 3b fe 09 27 be ad a8 06 3b 5e e1 3b be
       0.004507883 -0.16312405 0.0020547316 -0.1834769
0003b0 0a da 40 be b4 a3 34 be 87 d4 9a be 25 8a 96 be
       -0.18833175 -0.17640573 -0.3024027 -0.2940227
0003c0 59 72 29 be 32 41 5d be 02 9b 60 be 5c 5e 56 be
       -0.16547526 -0.21606901 -0.21934131 -0.20934433
0003d0 9f ec 6a bd c3 56 8c bd 24 cf 3e be 2b 1d 24 be
       -0.057354566 -0.06852486 -0.18633705 -0.16026752
0003e0 01 10 0f be 2f 52 a6 bd ed d2 61 be ac b0 b8 bd
       -0.13970949 -0.08121144 -0.22053118 -0.090180725
0003f0 cb 1e b5 bd ed 38 33 3c 5e b1 03 be 29 da 38 bd
       -0.08843764 0.010938865 -0.12860629 -0.04512993

weight f4 [20, 20]
000000 8e f2 16 be 28 6c 42 be 05 76 64 be 04 7a 13 3e
       -0.14740965 -0.18986571 -0.22310646 0.14402014
000010 02 05 07 be 4b 0c 50 be 4c 5d 04 bd 38 c6 37 be
       -0.13185504 -0.2031719 -0.032315537 -0.17946708
000020 e4 af c2 3d 0f c4 5d be 8b ff 34 be 88 f7 30 be
       0.09506205 -0.21656822 -0.17675607 -0.17281926
000030 8a c8 42 3e ca 75 21 3e 34 0c df 3d f4 cd 21 3e
       0.19021812 0.15767589 0.108909994 0.15801221
000040 e0 5b 8e 3c 23 1c 3d be 42 3a 31 be 28 6d 29 be
       0.017377794 -0.18467765 -0.1730738 -0.16545546
000050 60 7a 60 3d 30 de 55 3d 9c 58 c3 bd a6 41 f1 bd
       0.054804206 0.052213848 -0.09538385 -0.117800996
000060 10 47 63 3e 93 50 d1 bd 7c 80 5f 3e 60 15 f3 3d
       0.22195077 -0.102204464 0.21826357 0.11869311
000070 8c 91 2f be 1d 36 62 be d6 fd 5b be 48 08 2c be
       -0.17145365 -0.22090955 -0.2148355 -0.16800034
000080 08 fe 33 3e 48 5d 2b 3d b8 bf 0a 3e c8 61 b6 3d
       0.17577374 0.041837007 0.13549697 0.08905369
000090 90 d8 59 bc dc 0a 0a be c6 e8 9a bd 8a 28 26 3e
       -0.013296261 -0.13480705 -0.07563929 0.16226402
0000a0 98 98 1f be d4 a3 3c 3e 81 4f 50 be 6a 3b d1 bd
       -0.15585554 0.1842187 -0.20342828 -0.102164105
0000b0 ba ce 0a 3e d0 77 32 3d 1c f8 a8 bd 08 51 88 3c
       0.13555422 0.043571293 -0.08250448 0.016640201
0000c0 f0 95 2e bd 2b 6b d9 bd f2 68 34 3e a0 1b 42 3d
       -0.04262346 -0.10616144 0.17618158 0.047389627
0000d0 e8 eb 5a be 68 96 6a bd 10 77 0a 3c aa cd 4b 3e
       -0.21379054 -0.057272345 0.008451238 0.19902673
0000e0 fc b0 0c 3e 74 d2 f7 3d c2 97 0c be 30 66 85 bc
       0.13739389 0.121006876 -0.13729766 -0.016284078
0000f0 58 4d 4c 3e a5 c8 3e be 6d 0f 3e be ef 6b 5a be
       0.1995138 -0.18631227 -0.18560572 -0.21330236
000100 fc 62 f2 3d 1a 10 34 be b8 03 9b 3d c8 19 db 3d
       0.11835286 -0.17584267 0.07569069 0.10698277
000110 84 80 9f bd b4 55 37 be d2 22 17 3e 58 af e0 3d
       -0.07788184 -0.17903787 0.14759377 0.10970944
000120 f4 d4 f2 3d a8 15 35 3e 1e 3d 64 3e f4 33 5d 3e
       0.11857024 0.17684042 0.2228894 0.2160185
000130 20 35 f3 bb 30 79 21 bd 08 49 15 be f2 02 08 3e
       -0.0074221045 -0.039422214 -0.1457864 0.13282374
000140 88 e3 4f 3d 34 53 ca 3d da c3 b8 bd 10 e7 5d 3d
       0.0507541 0.09879151 -0.09021731 0.054175436
000150 f0 4e b1 3d 1c 3c 9f bd 3a 30 3b 3e 49 e5 d8 bd
       0.08657634 -0.07775137 0.18280116 -0.10590608
000160 18 6d 1d be c4 74 02 3e 2a 7d 27 3e 90 56 d6 bd
       -0.15373647 0.12739855 0.1635634 -0.10465729
000170 0c e4 86 bd d0 fc b3 bc f8 14 5e 3d 94 10 63 bd
       -0.06586465 -0.021971136 0.054219216 -0.055435732
000180 c0 42 55 bd 50 3e e3 bc 4c 1a 13 3e 54 84 10 3e
       -0.05206561 -0.027739674 0.143655 0.14112979
000190 20 0a bb 3d 52 70 5f 3e 08 fe 99 bd e0 23 bf 3b
       0.091327906 0.2182019 -0.07519156 0.005833134
0001a0 2e b8 64 3e 26 f3 b0 bd 88 2a d9 3d c0 91 f5 3d
       0.22335884 -0.08640127 0.10603815 0.1199069
0001b0 90 f0 8b 3d c0 34 1c bd 70 0d e5 3c 31 dc e2 bd
       0.06832993 -0.038136244 0.027960509 -0.110771544
0001c0 dc ff ad 3d 9a 1c 35 be b8 d9 bb 3c 7e dd 01 be
       0.08496067 -0.17686692 0.022930965 -0.12682149
0001d0 58 d5 f9 bc d8 37 91 bd 20 73 e5 3c e0 34 6f bc
       -0.030497238 -0.070907295 0.028008997 -0.014600009
0001e0 3f 29 1f be c0 1e 82 bc e2 54 3e 3e 4b 95 0a be
       -0.15543078 -0.015883803 0.18587068 -0.13533513
0001f0 4c 7a 36 3e 69 75 e0 bd c0 ac a3 3b b2 47 3a 3e
       0.1782009 -0.10959894 0.0049949586 0.18191412
000200 0c 1f 54 bd 80 41 7f 3d a6 a7 61 be 50 7f 7e 3d
       -0.05178742 0.062318325 -0.22036609 0.062133133
000210 e0 a3 08 be 9c b7 51 3e 60 b1 98 3b 2a ea 59 be
       -0.13343763 0.20480198 0.0046598166 -0.21280733
000220 76 e0 90 bd fe 0e 07 3e c4 60 af bd 2c 20 65 bd
       -0.070740625 0.13189313 -0.085633785 -0.055938885
000230 00 ef 5a bb a4 32 40 be 88 50 05 3d ae 7f 53 be
       -0.0033406615 -0.18769318 0.032547504 -0.20654175
000240 28 80 93 3c 00 4a b8 3d 30 42 28 3c 70 ac bb 3d
       0.018005446 0.089984894 0.010269687 0.09163749
000250 e2 1a 90 bd e0 dc e4 3c 38 68 3f bd 76 d9 3b 3e
       -0.070363775 0.027937353 -0.04673025 0.18344674
000260 20 2f c3 bc 08 44 58 bd c8 1c 59 3e 04 01 5f be
       -0.023826182 -0.052799255 0.21202385 -0.21777731
000270 44 5f 2f 3e 30 18 03 be 98 4b 99 bc 40 ea 45 3e
       0.17126185 -0.12802196 -0.018712804 0.1932764
000280 f4 63 9e 3d 62 05 45 be 26 fd 20 be 5c 56 4e bd
       0.07733908 -0.19240335 -0.15721568 -0.050375327
000290 fe 8b 1e be 9a 6c cd bd ee 81 93 bd f6 77 0f 3e
       -0.1548309 -0.1003048 -0.072025165 0.14010605
0002a0 b6 82 4e 3e d6 df 62 3e c8 f0 f3 3d 15 e2 48 be
       0.2016705 0.22155699 0.1191116 -0.19617493
0002b0 e4 8b ac 3d e8 a7 8f 3d 25 55 27 be 42 6d 03 be
       0.084251195 0.070144475 -0.16341074 -0.12834647
0002c0 d4 43 99 3d 0a d4 a4 bd 98 22 0b 3d 54 07 f6 3d
       0.0748364 -0.08048256 0.033968538 0.120131165
0002d0 2a 46 01 3e 38 7c 51 be a8 07 52 3e 25 5c 49 be
       0.12624422 -0.20457542 0.20510733 -0.19664057
0002e0 4e 64 16 3e a2 22 52 3e d0 d1 42 bc d8 4d 41 3e
       0.146867 0.20521024 -0.0118908435 0.18877351
0002f0 a0 3d 08 3e 5c 5f 06 3e 0c 35 26 be 7b 0b 62 be
       0.13304758 0.13122314 -0.16231173 -0.22074692
000300 b0 f4 56 3d 6e 0c 1b 3e 10 c2 9f bd b6 87 3a 3e
       0.052479446 0.1514146 -0.07800686 0.18215832
000310 98 73 ae bc 1a a7 30 3e f2 a2 da bd 48 69 86 bd
       -0.021295354 0.17251244 -0.106756106 -0.065630496
000320 1c ae ba 3d bc 65 31 be 90 34 b5 3c a0 46 71 bd
       0.0911524 -0.17323965 0.02211979 -0.058905244
000330 78 6a 89 3d b6 9d 4c 3e 8a b0 62 be 5a fe 1d be
       0.067097604 0.19982037 -0.22137657 -0.15429059
000340 54 5a a9 bd c0 12 b7 bc 68 a0 ae 3c 88 26 d3 bc
       -0.08269182 -0.022347808 0.021316722 -0.02577521
000350 6e d5 a7 bd 60 16 1a 3e b2 08 1e be 9a cc 28 3e
       -0.08195005 0.15047598 -0.15433004 0.164843
000360 78 74 1b be c8 47 19 3d e0 74 00 3c 40 66 d4 3c
       -0.15181148 0.03742197 0.007840365 0.025927663
000370 b8 5f d7 bd 59 0a e8 bd 00 f4 58 3c c0 0d 9f 3d
       -0.10516304 -0.11330099 0.013241768 0.077662945
000380 8a 80 9d bd 57 92 57 be ec 6f 91 3d 0c 57 5b bd
       -0.076905325 -0.21051918 0.071014255 -0.05354981
000390 40 3f 26 3e 54 d0 0c bd c2 ce 5c be 04 4c 45 bd
       0.16235065 -0.034378365 -0.21563247 -0.048168197
0003a0 00 ef f3 3c e0 7c ac 3c b0 36 01 bd 6a 97 9d bd
       0.02977705 0.021055639 -0.031546295 -0.076948956
0003b0 f2 38 04 3e 96 d0 31 3e 78 30 14 3e b2 d6 3c 3e
       0.12912348 0.17364725 0.14471614 0.18441275
0003c0 a0 85 16 3c 2d a5 e5 bd 52 40 58 3e 40 8c 35 3e
       0.009187132 -0.112131454 0.21118286 0.17729282
0003d0 02 29 1f be 68 d2 23 be 68 e0 97 bc 1c 30 00 be
       -0.15542987 -0.15998232 -0.018539622 -0.12518352
0003e0 3d c3 e6 bd ae bf 64 be 82 aa 5e be d0 5b 0a bd
       -0.112677075 -0.22338745 -0.21744731 -0.033778965
0003f0 50 52 50 3c d4 f8 89 3d 8c 23 95 3d ec 20 02 be
       0.012714937 0.06736913 0.07282171 -0.12707871

bias f4 [1, 20]
000000 00 00 00 00 00 00 00 00 00 00 00 00 00 00 00 00
       0.0 0.0 0.0 0.0
000010 00 00 00 00 00 00 00 00 00 00 00 00 00 00 00 00
       0.0 0.0 0.0 0.0
000020 00 00 00 00 00 00 00 00 00 00 00 00 00 00 00 00
       0.0 0.0 0.0 0.0
000030 00 00 00 00 00 00 00 00 00 00 00 00 00 00 00 00
       0.0 0.0 0.0 0.0
000040 00 00 00 00 00 00 00 00 00 00 00 00 00 00 00 00
       0.0 0.0 0.0 0.0

weight f4 [20, 20]
000000 2a ca 58 3d 9b 0d de bd 0c 95 f3 bd f3 16 d6 bd
       0.052927174 -0.10842439 -0.11893663 -0.10453596
000010 d2 a4 1a bd 74 50 8d bd 24 72 36 be f3 01 81 3d
       -0.03775484 -0.06900111 -0.17816979 0.062992
000020 b1 4f 2c 3d f5 db c4 bd 97 61 30 be 92 b9 3c 3d
       0.042068187 -0.09612266 -0.17224728 0.04607541
000030 97 9a 79 be 66 02 2d be e5 72 0e be ef c3 46 3d
       -0.24375378 -0.16895446 -0.13911016 0.0485267
000040 a6 cf 69 3d 76 22 27 3d 33 e7 31 3d 28 df 69 bd
       0.057082795 0.04080435 0.04343338 -0.057097584
000050 99 23 4c be d5 39 e9 bd 15 c5 6a 3e db 62 82 3d
       -0.19935454 -0.11387984 0.22926743 0.063665114
000060 31 ab 68 bd e2 12 13 bd 24 c5 77 be 81 8e b9 bd
       -0.056803886 -0.03590668 -0.24196297 -0.090603836
000070 17 b1 29 3e 02 2a 46 3b 6c 8f 65 3e 4a dd ed bd
       0.1657146 0.003023744 0.22417992 -0.11614473
000080 4b 44 61 3e 2e 56 97 bd 9c 78 3b bd 61 c0 92 3e
       0.21998708 -0.07389484 -0.04576932 0.28662398
000090 e5 38 ff bd f5 8f 3e be 9b 04 80 3e 7a a8 91 bd
       -0.12462024 -0.18609603 0.25003514 -0.071122125
0000a0 50 73 f5 3d 21 4a 8f be 29 f9 33 3d 55 95 a5 bd
       0.11984885 -0.27986243 0.04393879 -0.080851234
0000b0 48 69 e3 bd 0f f1 30 be 43 c0 d2 bd fd b2 8b bd
       -0.11104065 -0.17279457 -0.10290577 -0.06821249
0000c0 03 e1 a6 bb c5 9c 54 be cc 0d 35 be a5 83 4a be
       -0.0050927415 -0.20762928 -0.17681044 -0.19776781
0000d0 aa c6 06 be 65 cf 0e be 9c bf 8e be 42 65 f6 bc
       -0.13161722 -0.13946302 -0.2788056 -0.03007758
0000e0 e7 03 84 3d fe 8f 45 3d 41 e3 df bd 69 14 22 be
       0.06446057 0.048233025 -0.10932017 -0.15828098
0000f0 a0 b2 d5 bd 40 58 ae 3a ab f3 6d 3e 02 e7 63 3e
       -0.10434461 0.0013301447 0.23237483 0.22256091
000100 43 a8 80 3d e8 06 59 bd f0 41 75 be 24 bf fb 3d
       0.062820934 -0.052985102 -0.23950934 0.122923166
000110 98 46 99 3d c6 e7 42 3e 2c 2c 1d be f6 19 92 3d
       0.07484168 0.19033727 -0.15348881 0.07133858
000120 5b ed 23 3e b4 1e 60 3e b4 59 c4 bd fe 11 bc 3c
       0.16008513 0.21886712 -0.09587422 0.022957798
000130 38 f1 21 be 57 29 47 be 56 8b 36 3e ad b8 44 bd
       -0.15814674 -0.19449364 0.1782659 -0.048027683
000140 94 d8 3e be 3a a4 09 3e 3e c3 3c 3e f5 f8 af bd
       -0.18637305 0.13441554 0.18433854 -0.08592407
000150 6e 1d 3a be 55 10 0d bd 99 72 74 3c c6 5b 2a 3e
       -0.18175289 -0.034439404 0.0149199 0.16636571
000160 46 c0 59 be 61 01 81 bd a5 43 c6 3c ee 08 5a 3e
       -0.21264753 -0.06299091 0.024202177 0.21292469
000170 6c e0 6f 3d 2f 70 56 be 7e 40 87 3e d1 17 17 3e
       0.058563635 -0.20941232 0.2641639 0.14755179
000180 cb 0a 22 be b5 2a 99 bd 4c f5 f1 3d 9e fd 73 3e
       -0.1582443 -0.07478849 0.11814365 0.23827216
000190 02 94 a5 bd fa 4e e8 3c 4e f9 35 3e 51 43 07 be
       -0.08084871 0.028357971 0.17770883 -0.13209273
0001a0 ce 18 f9 3d b1 8b 57 3e 61 a3 cf bd 01 48 56 3e
       0.12162934 0.21049382 -0.10138584 0.20925905
0001b0 34 89 60 be 21 b2 61 bb 13 a5 56 3e 34 59 3a be
       -0.21927339 -0.0034438448 0.20961408 -0.18198091
0001c0 19 b5 81 3e b9 4e 71 bd c3 01 0a bd f3 2b 3e 3d
       0.2533348 -0.058912966 -0.033693086 0.046428632
0001d0 c6 44 7e be 94 d2 18 3d 66 c5 a4 bc 84 8f 8c 3d
       -0.24830922 0.037310198 -0.020113658 0.06863311
0001e0 ae b9 dd 3d 50 d5 14 3e 60 36 00 bd 1a ab 18 3d
       0.10826431 0.14534497 -0.031301856 0.03727255
0001f0 53 dd 62 be a4 58 0d bc 4d cc 77 bd 6e 77 3c bd
       -0.22154741 -0.008627091 -0.06049757 -0.046012335
000200 50 b2 74 be 96 93 86 3e 37 eb 21 bd 3f 6f 3a b9
       -0.23896146 0.26284474 -0.03953096 -0.00017779785
000210 10 5d 7f 3e 1f b7 46 be 37 a8 87 3e b8 87 33 3e
       0.24937844 -0.19405793 0.26495525 0.17532241
000220 6a cf 6a bd af 4d de bd 89 0f 3d 3e d7 78 ed 3d
       -0.05732671 -0.10854661 0.18462957 0.11595314
000230 45 0f ce 3d 42 22 b5 3b f0 c0 da bd 45 b0 01 bd
       0.10061506 0.0055277655 -0.10681331 -0.031662244
000240 c7 42 c5 bd a3 54 0b be b6 9e 0a 3c 52 30 6e be
       -0.096318774 -0.13606505 0.008460691 -0.2326062
000250 0a bf b3 3d 49 96 10 3e e1 40 ed 3d 43 6a e5 3c
       0.08776672 0.14119829 0.1158464 0.028004771
000260 02 37 e9 bd 9f 40 22 be 89 81 c7 3d 77 8c 20 bd
       -0.11387445 -0.15844963 0.09741504 -0.039196458
000270 72 9b ff 39 7e 27 c6 bd 5c 8c 94 3d d2 eb 63 3c
       0.00048753206 -0.09675501 0.07253334 0.013911204
000280 51 97 d6 3d 50 de 2f be 8f a3 d6 3d 9a a8 14 3e
       0.1047808 -0.17174649 0.10480415 0.14517441
000290 de 3d 2e be 4f 6b ae 3d 76 90 39 3e 29 26 eb bd
       -0.17015788 0.08516561 0.18121514 -0.11481888
0002a0 fe 73 b7 3d 3c d4 3e 3e 37 56 60 3d dc 06 e8 bd
       0.08957671 0.18635648 0.05476972 -0.11329433
0002b0 40 44 12 be 2d b4 c5 3c 39 04 e2 3d a0 47 c2 3d
       -0.14283848 0.024133766 0.11035962 0.09486318
0002c0 14 97 c6 bd c2 ed 61 3e 79 f7 bc 3d 8c fb a5 bd
       -0.096967846 0.22063354 0.09226889 -0.081046194
0002d0 4a 29 99 3e 35 4d 7d 3d db b2 ac 3d ab 31 00 be
       0.29914314 0.06184121 0.084325515 -0.12518947
0002e0 4f 95 97 3a 7f 5d 7a be d7 6e 19 bd d8 1b 85 be
       0.0011564883 -0.24449728 -0.03745922 -0.25997806
0002f0 4a 90 10 3d b4 e0 b3 bc cf df 0d be 43 44 38 be
       0.035293855 -0.021957733 -0.13854907 -0.1799479
000300 4b 95 3a be 08 64 3f 3d f4 0c 1b bd 12 38 80 3d
       -0.18221013 0.046726257 -0.03785415 0.062606946
000310 69 36 8d bd 19 12 7d 3e 33 c4 67 bd ef 6a e0 bc
       -0.068951435 0.24713935 -0.056583595 -0.02739474
000320 c3 d8 1b 3c 7a 14 85 3e 2b 0e 34 3e de e5 0c bd
       0.009512129 0.25992185 0.1758353 -0.034398906
000330 cc 01 55 bd 6a 09 66 3e 84 8d 04 be 76 7d 00 be
       -0.052003667 0.22464529 -0.12944609 -0.1254786
000340 f1 4f 30 bd 9b 47 c2 3d 4a 62 52 bd 6b f0 28 3d
       -0.043044988 0.09486314 -0.051363267 0.041244905
000350 65 8f a4 bd 58 e2 46 be 9d 27 75 3d ef 17 80 3e
       -0.08035163 -0.19422281 0.05985223 0.2501826
000360 4b 5b 20 be 31 7c 0c 3e e4 4a eb bd b0 98 50 3e
       -0.15659826 0.1371925 -0.11488894 0.20370746
000370 69 b1 86 3e a8 32 1c bd 3c 49 16 be e4 85 68 be
       0.26307228 -0.038134247 -0.14676374 -0.22707325
000380 de af b8 3d 5e df 81 be 2b 26 07 3e 8b 56 23 be
       0.09017919 -0.25365728 0.13198154 -0.15950982
000390 8c d9 02 3e ed cb b3 3c dc 6e 02 3e 44 a7 7a 3d
       0.127783 0.021947825 0.12737602 0.061194673
0003a0 d7 9d 21 be f8 02 2f 3e 50 f8 5e be 62 ba 58 be
       -0.15782867 0.17090976 -0.21774411 -0.2116485
0003b0 c3 e2 20 3e 5a db 33 3e f1 02 82 be 28 6b 62 be
       0.15711503 0.17564145 -0.2539287 -0.2211119
0003c0 d7 40 04 3e 69 ab 14 3e 6e ff 7f 3e ad b3 63 bd
       0.1291536 0.14518513 0.24999782 -0.055591274
0003d0 0d d2 19 be 47 a8 16 be 4c bf 6f be eb d4 a6 ba
       -0.15021534 -0.1471263 -0.23412818 -0.001272825
0003e0 18 34 23 be 9d 9e 3c 3e 06 bd aa bc e8 35 e0 bd
       -0.15937841 0.18419881 -0.020842087 -0.10947782
0003f0 7a 6a 56 bd 58 30 be bd 56 93 28 3d 17 62 71 3e
       -0.052347638 -0.092865646 0.041156135 0.23572575

weight f4 [20, 16]
000000 58 96 a7 3d 12 01 17 3e f4 29 ca 3d 12 94 6f 3e
       0.08182973 0.14746502 0.09871283 0.23396328
000010 20 e9 7c 3e a8 25 54 be 98 ce 3c 3e 56 fa 2e 3e
       0.24698305 -0.2071749 0.18438184 0.17087683
000020 20 17 17 3d be 9e 16 3e 48 93 6d 3d 64 bf 62 be
       0.036887288 0.14708993 0.058001786 -0.22143322
000030 d6 60 14 be 54 97 50 3e de 47 77 be c0 cf 83 3b
       -0.14490065 0.20370227 -0.24148509 0.0040225685
000040 ce f9 0f be d8 f5 cf bd 10 5c e3 3c 34 5d 6d 3e
       -0.14060137 -0.10154313 0.02775386 0.23180085
000050 d6 0b 35 be 22 57 67 be c8 98 2d 3d 64 24 e0 3d
       -0.17680296 -0.22591832 0.04238203 0.10944441
000060 2c da 70 3e ba 24 57 be 20 ce 72 be bc ff 43 be
       0.23520726 -0.21010104 -0.23711443 -0.19140524
000070 60 41 0d 3d 76 cc 46 be 52 85 0e 3e 40 99 7a bd
       0.034486175 -0.19413933 0.13918045 -0.061181307
000080 b0 7c 23 3d 5c 4b c5 bd e0 93 5d bc 58 e9 4a bd
       0.039913833 -0.09633514 -0.013524026 -0.04953894
000090 10 75 72 3d d0 5b f0 bd 50 13 18 3d 80 2e ec bd
       0.05919367 -0.11736262 0.037127793 -0.11532307
0000a0 58 33 2e bd 08 50 6c 3e 2c d7 9f bd 94 ec 7e 3e
       -0.042529434 0.23077404 -0.07804713 0.24894935
0000b0 48 19 46 bd 80 a4 1e bb 00 d6 14 bc 90 20 4c 3e
       -0.048363954 -0.0024206936 -0.009084225 0.19934297
0000c0 e8 53 76 3e 5a 5c 74 be 26 3d 3f 3e 4a a3 70 be
       0.24055445 -0.23863354 0.1867567 -0.2349979
0000d0 3a db 17 3e 40 06 4d 3c 34 33 c8 3d d4 af 93 3d
       0.14829722 0.012513697 0.09775391 0.07211271
0000e0 06 20 17 3e be 19 19 be c8 fe 37 3d d0 fd 87 3d
       0.1475831 -0.14951226 0.044920713 0.06640208
0000f0 b2 19 4d be 58 92 22 be 50 9f 17 bd a0 f7 08 3c
       -0.20029333 -0.15876138 -0.037017167 0.00835982
000100 2e 29 29 be a0 ab 04 3d f8 4c 3a 3d a6 62 60 3e
       -0.16519615 0.032390237 0.04548356 0.21912631
000110 4e 05 3a be a4 34 93 3d 14 a1 be 3d 98 43 ea 3d
       -0.18166086 0.07187775 0.09308067 0.11438674
000120 c4 c3 9a 3d 20 a0 a8 3d e0 92 db bc 56 6c 3c 3e
       0.075568706 0.082336664 -0.026803434 0.18400702
000130 94 b5 19 be 72 72 00 be 60 04 70 bc 94 5e 94 3d
       -0.15010673 -0.12543657 -0.014649481 0.07244602
000140 28 fe 5e be 28 24 40 3e 5e 26 0e 3e b0 40 cd 3c
       -0.2177664 0.18763793 0.13881823 0.02505526
000150 cc a9 24 3e 5c c8 f1 3d 88 8e cc bd 9c 24 5f be
       0.16080397 0.11805794 -0.09988123 -0.21791309
000160 ec cd 61 3e 5c 8d 6d 3e 24 f1 f5 3d 14 5c f0 3d
       0.22051209 0.23198456 0.120088845 0.117363125
000170 80 d7 44 3c f0 f7 e1 bc 90 c1 43 bd 88 12 58 3d
       0.01201427 -0.027584046 -0.047792017 0.052752048
000180 4e ce 29 3e 34 70 bb bd c8 88 70 3e 7c e8 70 3e
       0.16582605 -0.091522604 0.23489678 0.23526186
000190 a0 ce 1e be b6 57 75 be 06 db 68 be 30 68 59 3e
       -0.15508509 -0.2395924 -0.22739801 0.2123115
0001a0 00 12 5d be e0 b0 88 bd ee 5f 40 be 58 91 40 3d
       -0.21588898 -0.06674361 -0.18786594 0.04701361
0001b0 50 13 ac bd d4 16 f9 3d bc 91 63 be c0 a7 80 bc
       -0.08402121 0.12162557 -0.22223562 -0.01570499
0001c0 88 fa 82 3d 80 3c 7a bd c0 c5 34 3e b0 75 c2 bc
       0.06395441 -0.061092854 0.1765356 -0.023737758
0001d0 a0 13 94 bd 80 bf 04 bc 64 54 90 bd 80 bd 3d bc
       -0.07230306 -0.008102298 -0.07047346 -0.011580825
0001e0 cc d6 42 3e 58 35 9e 3d e8 c3 85 3d b0 1d f6 bc
       0.19027251 0.07725018 0.06531507 -0.030043453
0001f0 e2 fd 7e be fc 63 cc 3d 7c 3d 8e bd 3c bc ec bd
       -0.24901536 0.09980008 -0.06945321 -0.1155934
000200 60 25 a2 3d 40 d0 52 3e 30 a5 9f 3d 10 25 14 3d
       0.07917285 0.20587254 0.07795179 0.036168158
000210 22 07 5c be 24 a0 f1 3d d6 ea 67 be f2 73 09 be
       -0.21487096 0.117981225 -0.22648177 -0.13423136
000220 f2 8a 2a 3e a8 4e 94 bd 30 c8 f8 bd 00 90 bf 3a
       0.16654566 -0.07241565 -0.12147558 0.0014615059
000230 a0 17 1f 3e 36 1e 06 3e 54 bb 8a bd ea 2d 29 be
       0.15536356 0.13097462 -0.06774011 -0.16521421
000240 96 a5 2a 3e 48 1d be bd f2 6d 16 be c0 4b 2a 3c
       0.16664729 -0.09282929 -0.14690378 0.010394037
000250 4c 8a 60 be 8e be 3e be 2e 22 7a 3e 4e 7e 78 be
       -0.21927756 -0.18627378 0.24427101 -0.24266931
000260 0c df 1a 3e 56 9e 0b 3e 80 15 36 bc c8 83 60 3d
       0.15124148 0.13634619 -0.011113524 0.054813176
000270 18 04 e7 bd 14 92 9e 3d 82 ff 5d be 26 87 0e 3e
       -0.11280078 0.07742706 -0.216795 0.13918743
000280 e0 88 3e 3e a2 c3 6a be 3a e7 4c be 9c 21 44 be
       0.18606901 -0.2292619 -0.20010081 -0.19153446
000290 f8 23 6d be d0 75 ee bd 20 54 84 3d ca ea 3b be
       -0.23158252 -0.11643565 0.06461358 -0.18351284
0002a0 10 8c 61 3e 00 23 71 bb fc ae 78 3e bc 14 8b 3d
       0.22026086 -0.0036794543 0.24285501 0.06791064
0002b0 56 28 11 be f0 19 2e be da 93 62 3e 9c ce a0 bd
       -0.14175543 -0.17002082 0.22126713 -0.078519076
0002c0 c0 2e ae bb 32 73 19 3e 76 44 26 3e c0 86 b2 3d
       -0.0053156316 0.1498535 0.16237053 0.08717108
0002d0 d0 58 c7 3d b8 b0 20 3e 5e 8a 20 be f8 f3 93 bd
       0.097337365 0.15692413 -0.15677783 -0.07224268
0002e0 e8 85 3b be a8 e4 b4 3d 54 6d 9a bd ac 23 a5 bd
       -0.183128 0.08832675 -0.07540384 -0.080634445
0002f0 d4 2e c9 bd 00 00 1f 3c 40 7b 2e 3c a8 6a 43 be
       -0.09823385 0.00970459 0.010649502 -0.19083655
000300 2c 13 c2 bd b0 97 dd 3c 00 dc ae 3b 10 cb 96 bd
       -0.09476313 0.02704987 0.0053362846 -0.0736295
000310 30 38 76 be f4 88 65 be 3c 7b 91 3d 84 5f 6c 3e
       -0.24044871 -0.22415525 0.07103583 0.23083311
000320 6c 9d 4e 3e c0 f9 01 3c 88 95 a4 bd f4 68 0d be
       0.20177239 0.00793308 -0.08036333 -0.13809568
000330 c8 00 16 bd e0 a9 18 3c 38 79 96 3d 60 f0 3a bc
       -0.03662184 0.009317845 0.073473394 -0.011409849
000340 92 f1 29 be b2 f5 39 be 18 db 74 be e8 96 1b 3d
       -0.16596058 -0.18160132 -0.23911703 0.037985712
000350 10 35 b2 3d 08 51 61 3e 2e 88 4d 3e a8 bf fe bd
       0.08701527 0.22003567 0.2007148 -0.12438899
000360 20 75 39 bd 78 3d 62 3d 28 2d 56 bd 1a cd 64 be
       -0.045277715 0.055234402 -0.052289158 -0.22343865
000370 2c 28 8b 3d 72 ab 73 3e 18 90 07 3d 2e 8e 68 be
       0.067947716 0.2379587 0.033096403 -0.22710487
000380 88 37 9c 3d 88 de cc 3d b8 3b 76 3e f0 d9 eb 3c
       0.07627779 0.10003382 0.24046218 0.028790444
000390 86 59 74 be 28 bd ba 3d 7c 43 a5 3d 90 57 5f 3d
       -0.23862275 0.0911811 0.08069512 0.054526865
0003a0 16 92 6c be 80 c9 a6 3b ee 59 6a be e2 7d 62 3e
       -0.23102602 0.0050899386 -0.22885868 0.22118333
0003b0 a0 c9 69 3e c4 33 4a 3e e0 1e 83 bd d2 db 64 3e
       0.2283082 0.1974631 -0.06402373 0.2234948
0003c0 b0 6c 8a 3c c8 c6 0d be 90 af 24 3d 14 92 44 3e
       0.01689753 -0.1384536 0.040206492 0.1919635
0003d0 e8 e4 3b 3e 00 dd 06 be 18 3d 68 3e 08 b9 31 3d
       0.1834904 -0.13170242 0.22679555 0.04338935
0003e0 3a 1a 3a be 30 ed f9 bc 08 1c 5f 3d d0 ca 40 3e
       -0.18174067 -0.030508608 0.054470092 0.18827367
0003f0 d2 e5 1b be de b1 78 3e 74 95 fa 3d e0 03 65 be
       -0.15224388 0.24286601 0.12235537 -0.2236476

bias f4 [1, 16]
000000 00 00 00 00 00 00 00 00 00 00 00 00 00 00 00 00
       0.0 0.0 0.0 0.0
000010 00 00 00 00 00 00 00 00 00 00 00 00 00 00 00 00
       0.0 0.0 0.0 0.0
000020 00 00 00 00 00 00 00 00 00 00 00 00 00 00 00 00
       0.0 0.0 0.0 0.0
000030 00 00 00 00 00 00 00 00 00 00 00 00 00 00 00 00
       0.0 0.0 0.0 0.0

weight f4 [16, 20]
000000 13 b8 67 3d e8 13 92 3d 50 97 6d 3e 2e 9d a6 bd
       0.05657203 0.07132703 0.23202252 -0.081354484
000010 25 1b a0 be e9 39 3b be 41 97 7b 3d 53 98 be 3d
       -0.3127071 -0.1828381 0.061423544 0.09306397
000020 02 15 7d bd 3f a6 83 bd e1 ae ef bd 19 df 3f 3e
       -0.061787613 -0.06428193 -0.117032774 0.18737449
000030 13 da 02 3e 2e c2 85 3e 10 c3 43 3d 69 67 15 bd
       0.12778501 0.2612471 0.047793448 -0.036475573
000040 3d e2 88 3e 12 99 46 bd ad 61 b5 bd 27 e9 e7 3d
       0.26735106 -0.048485823 -0.08856521 0.11323767
000050 f7 dc 14 be 82 15 c1 bc 6a 30 82 3e e9 75 c5 bb
       -0.14537416 -0.023569826 0.25427562 -0.006026019
000060 93 83 42 be e0 1b 18 3c 7e 0b e7 bc 4b fe 74 3d
       -0.18995504 0.00928399 -0.028203722 0.059812825
000070 c1 10 fd 3d 30 48 3f 3d 79 e0 6e be 1a 60 d1 3d
       0.12356711 0.046699703 -0.23327817 0.10223408
000080 88 17 f1 3d e0 b0 c8 3d f3 33 19 3e 4f da c1 ba
       0.11772066 0.09799361 0.14961223 -0.0014789792
000090 6d 48 37 bd d4 6d 01 bc fa 48 2b be b7 88 00 3e
       -0.044746805 -0.00789972 -0.16727057 0.12552153
0000a0 0e 37 20 3e d6 5c 03 3c 8e 2b 27 3e 0d 04 df 3d
       0.15646002 0.008017739 0.16325209 0.108894445
0000b0 39 ca 88 3c c5 01 70 be aa 31 9d bd 0a 67 b6 3d
       0.01669799 -0.23438175 -0.07675488 0.08906372
0000c0 9e 7a 61 3e 91 54 56 bd 70 3b 3d be cc 61 62 3e
       0.22019431 -0.052326743 -0.18479705 0.22107619
0000d0 70 45 89 3d 79 45 32 3d b3 fc 37 3e 20 ed 02 3e
       0.06702697 0.043523286 0.17967491 0.12785769
0000e0 24 ae a0 bd 24 32 1c 3e e8 64 bf 3c ab fe 66 3e
       -0.07845715 0.15253502 0.023363546 0.22558086
0000f0 6c b8 40 3e 80 33 a4 bb 15 79 3a 3e c4 56 3c be
       0.18820351 -0.005011022 0.18210252 -0.18392473
000100 3f bf 9a 3d d2 d3 00 3e 12 e4 4c be 00 01 fa 3d
       0.075560085 0.12580803 -0.20008877 0.12207222
000110 6a d1 0d 3e 92 92 cd 3d a0 c7 1a bd 71 53 95 3e
       0.13849416 0.10037722 -0.037788033 0.29165223
000120 72 8f 0d be 4a 78 8b 3d 2d 8e 10 be e0 e6 ef 3d
       -0.13824251 0.06810053 -0.14116736 0.11713958
000130 de cd 25 3d ce 7f 4f bd f3 e7 09 be c7 04 c1 3d
       0.040479533 -0.050658993 -0.13467388 0.09424739
000140 f9 5e cc 3d e9 9e 07 3d 50 6d a9 3e 69 a2 98 be
       0.09979052 0.033110533 0.3309121 -0.2981141
000150 78 9e 11 bd f0 5c 89 3d 60 a7 82 be c4 e2 0f 3e
       -0.03555152 0.067071795 -0.25518322 0.14051348
000160 3f 22 ac 3d 2e 77 f4 bc bd 9b 96 3c f8 fa ef 3c
       0.084049694 -0.029841986 0.018384809 0.029294476
000170 45 24 4a be fc af 0b 3d a1 ab 85 3e f4 86 b6 bd
       -0.19740398 0.03410338 0.26107505 -0.08912459
000180 9b 0c a3 bc 5d 42 17 3d 4d 42 3d be 28 2c 79 bd
       -0.019903472 0.036928523 -0.18482323 -0.060833126
000190 eb d4 de 3d 37 49 a6 3b ff 7c 92 3e 15 9a 6c bc
       0.10880455 0.005074646 0.2861099 -0.014441033
0001a0 89 a2 0b be fa 9b 51 be 36 7f f8 ba 4e 36 59 be
       -0.13636221 -0.20469657 -0.001895881 -0.21212122
0001b0 3d fd 27 be 82 05 e8 3d 2f be 31 be eb ae 7e 3e
       -0.16405196 0.113291755 -0.17357706 0.24871413
0001c0 8c c3 3f be 28 13 29 bc 78 bf 3d 3e 6c 07 4f be
       -0.18726939 -0.010319509 0.18530071 -0.20217675
0001d0 9b 05 62 3b 79 49 73 be 3f 71 4a bd 06 00 ad bd
       0.0034488204 -0.23758496 -0.049424406 -0.0844727
0001e0 0b 23 a6 bd 4a 8e 17 bd 07 f2 41 3e fa 97 a7 bd
       -0.08112153 -0.03700093 0.18939982 -0.08183284
0001f0 5b 77 39 3d 15 b0 35 be 28 fb fb 3d 33 3d 74 bd
       0.045279842 -0.17742951 0.12303764 -0.059628677
000200 d2 f0 29 3d 10 41 f9 bc ff 98 c5 bb 03 7b 78 3e
       0.04148943 -0.030426532 -0.0060302014 0.24265675
000210 21 4e 28 be d2 3a 38 3e 14 77 87 3e 63 48 2d be
       -0.16436054 0.17991188 0.26458037 -0.16922145
000220 68 02 79 3e e6 a6 fe bc af 1f 2f be 19 46 cf 3d
       0.24317324 -0.031085443 -0.1710193 0.10120792
000230 73 3b f8 3d 32 b1 98 bc 53 e4 c8 bc 01 48 c2 bd
       0.12120714 -0.01863918 -0.024522936 -0.0948639
000240 5d 96 8c be 9c 45 89 bc d2 03 83 be 3d 58 6b 3e
       -0.27458468 -0.016756825 -0.25588852 0.22982879
000250 6a 1e 87 bd 6f e4 db bc f2 5d ce 3d 89 8c 4c 3e
       -0.06597598 -0.026842324 0.100765124 0.19975485
000260 01 d0 3f bd 5f 20 0a 3d d6 2a d4 3d 6f 8b 44 3d
       -0.046829227 0.033722278 0.10359733 0.047984537
000270 44 30 c4 bc 2e ae 50 be 6b f3 32 bd 93 1b b5 bd
       -0.023948796 -0.20378944 -0.043689173 -0.0884315
000280 a6 6f ac bd e7 61 32 be 6e 79 2d 3e 9b 9e 7f be
       -0.08419733 -0.1742016 0.16940853 -0.24962847
000290 97 f8 3a be d1 cb 47 be 09 26 4c bb 7b 55 43 be
       -0.18258892 -0.19511344 -0.00311506 -0.19075577
0002a0 1e b7 f9 bd ef bb 1f 3e d4 39 4c be 3d 38 71 3e
       -0.1219313 0.15599035 -0.19943935 0.2355661
0002b0 13 21 38 3e f2 04 5d 3d f3 67 b8 3d 57 63 d4 3d
       0.17981367 0.053959794 0.09004202 0.1037051
0002c0 6b fc cf bc d5 64 37 3e fe b9 35 3d c9 af 34 be
       -0.025388917 0.17909558 0.04436683 -0.17645182
0002d0 dc 79 07 be a4 b3 98 bd da 2e 62 3e 59 8f 43 be
       -0.1323008 -0.07456139 0.22088185 -0.19097652
0002e0 4c 74 0f be 5b 27 25 3e 7b be 44 be 41 fb 89 3d
       -0.14009207 0.16128294 -0.19213288 0.06737376
0002f0 a8 48 e6 bd 99 99 f0 3d f2 6d 3d 3d 65 41 d1 3d
       -0.11244327 0.117480464 0.04624743 0.10217551
000300 b6 88 a3 bd da 17 21 3e 77 54 26 3e b5 a9 bf 3d
       -0.0798506 0.15731755 0.16243158 0.09358541
000310 42 d7 3a 3e 72 c0 eb 3c 33 21 b8 3c 1e 44 e0 3d
       0.18246177 0.028778289 0.022476768 0.10950492
000320 34 7a 4e bd 2d 59 85 be c1 94 ad bd 98 b3 04 be
       -0.05040951 -0.26044598 -0.08475638 -0.12959135
000330 05 0d 6b be 4e c0 1d be 62 5e 0d be 94 29 1c bd
       -0.22954185 -0.1540539 -0.13805535 -0.03812559
000340 00 e2 55 3e 73 1f f8 3d dd 53 af bd 03 9f f3 bd
       0.20886993 0.121153735 -0.085609175 -0.118955635
000350 ba b6 dd bd 1b 0f 01 be d8 25 65 3e 23 6b 24 3e
       -0.10825868 -0.12603419 0.22377717 0.16056494
000360 b4 f6 8b 3d a8 6c 52 be 5a 31 cb 3d 15 96 24 3e
       0.06834164 -0.20549262 0.099215224 0.16072877
000370 86 c3 ef bd a6 90 86 be 98 31 cb 3d 10 f3 80 be
       -0.11707215 -0.26282233 0.09921569 -0.25185442
000380 56 08 5a bd 5d 55 b9 3d 23 c3 d8 3d 5b 8c 3f 3e
       -0.053230606 0.09049485 0.105840944 0.18705885
000390 08 d2 3c 3e 0c 1b 0b 3c 6f 84 b0 3d 00 90 d0 3d
       0.18439496 0.008490335 0.0861901 0.10183716
0003a0 9f 79 b2 3c 61 1a 62 3e 8a 8c 61 3e 13 05 01 bc
       0.02178651 0.22080375 0.22026268 -0.007874745
0003b0 86 73 b5 3c 4c bf 66 bd fa ca 85 be 20 65 1e 3d
       0.022149812 -0.05633478 -0.2613142 0.03867066
0003c0 fe 84 f0 bc 35 56 4a bd 4f e9 3c bd 71 b2 44 bd
       -0.02936029 -0.04939862 -0.046120938 -0.048021737
0003d0 22 bb 5a be 01 85 df 3d 2b c4 99 be 5d bb fc bd
       -0.21360448 0.1091404 -0.30032477 -0.12340424
0003e0 a1 f6 48 be aa e1 48 3e 74 23 11 be 0f d4 35 3e
       -0.19625331 0.19617334 -0.1417368 0.17756675
0003f0 7b d4 fb 3c 53 42 e3 3d 71 23 e5 bd 1c 62 14 3e
       0.030740967 0.11096635 -0.111884005 0.14490551
