neuromancer/train_scripts/papers/flexy/device_test_models/model1/best_policy_flexy3.pth (torch, 11063 bytes, 9 tensors)

weight f4 [8, 20]
0.11788118 0.011499777 0.06943381 -0.04531066 -0.072841585 -0.049519986 0.17860544 0.12264261
-0.08214685 -0.21203312 -0.13305077 -0.06442176 0.07398066 -0.14087945 -0.060622796 0.033892244
-0.17679237 0.10120723 -0.057265073 -0.20329447 -0.0113327205 0.09617856 -0.17266476 -0.19850121
0.1585423 -0.101499304 -0.1555873 0.090952694 0.019607678 -0.13529864 0.057289124 0.0314036
-0.018828765 0.093595386 0.052532405 -0.086368024 -0.0978723 -0.14141639 0.07983601 0.06279653
0.058876306 0.19156176 -0.016668245 0.088742584 0.005001202 0.083835155 0.11006969 -0.14739162
-0.13897082 0.068829656 -0.13455865 -0.060413897 -0.14082584 -0.21485238 0.16384542 0.035889447
-0.19445448 0.17253008 -0.00468418 -0.04165286 -0.021077484 -0.16863793 0.21729556 -0.039018124
0.18532497 -0.0034439266 -0.19924168 0.0862425 0.20097497 0.13961473 0.012666985 -0.037010506
0.04086539 0.003436461 -0.14035252 0.1838344 0.13625035 -0.18035647 0.20392436 0.025664106
-0.02918841 0.00956969 0.09060925 0.11232263 0.062023044 -0.15086207 -0.035973057 -0.18637986
-0.18512967 -0.14863089 0.16949356 0.009734184 0.22206965 -0.033200756 -0.18376252 -0.011031911
-0.16542485 -0.20680909 -0.11166124 0.12274912 -0.1582039 0.034238517 0.021748483 0.009404451
0.0863978 0.08985332 -0.18667522 -0.0414543 -0.13142899 0.0811297 -0.1237036 -0.049475625
0.09200165 0.19536209 -0.14605373 -0.20243913 -0.18000212 -0.03644894 -0.1759091 -0.075274035
0.054608643 -0.1475173 -0.0024224967 0.18414962 0.17793262 -0.1077568 -0.16856286 0.15672731
0.077958286 -0.060132593 -0.15823764 0.051451176 0.1718874 -0.13784128 0.12056878 -0.02573046
0.19940042 0.007622823 0.110137284 -0.068198115 0.07935673 -0.14163014 0.049212337 0.11706349
-0.042508364 0.21081313 0.019969583 -0.21815918 -0.10965197 -0.21953937 -0.16326949 -0.13672832
-0.060454175 -0.1419473 -0.11496059 0.047582954 0.15564516 0.12832195 -0.13712482 0.0018106103
00000000: b06b f13d 9069 3c3c 5033 8e3d ac97 39bd
00000010: f82d 95bd 78d5 4abd 58e4 363e 0c2c fb3d
00000020: 9c3c a8bd 361f 59be 763e 08be 8eef 83bd
00000030: 2c83 973d b442 10be 9c4f 78bd 98d2 0a3d
00000040: 0f09 35be bc45 cf3d c88e 6abd 6d2c 50be
00000050: e0ac 39bc 44f9 c43d 08cf 30be e743 4bbe
00000060: ea58 223e dede cfbd 4752 1fbe 6845 ba3d
00000070: 48a0 a03c ba8b 0abe 00a8 6a3d 10a1 003d
00000080: c83e 9abc f0ae bf3d 382c 573d b8e1 b0bd
00000090: 4671 c8bd 75cf 10be 1081 a33d 789b 803d
000000a0: 4828 713d c428 443e d88b 88bc acbe b53d
000000b0: 20e1 a33b c4b1 ab3d 386c e13d d4ed 16be
000000c0: 5e4e 0ebe 90f6 8c3d bec9 09be 9074 77bd
000000d0: a634 10be 4302 5cbe 18c7 273e d000 133d
000000e0: 131f 47be baab 303e c07d 99bb 309c 2abd
000000f0: b0aa acbc 6caf 2cbe ba82 5e3e 78d1 1fbd
00000100: d4c5 3d3e 80b3 61bb 0306 4cbe e89f b03d
00000110: 62cc 4d3e 2af7 0e3e 3089 4f3c 5498 17bd
00000120: 7862 273d 4036 613b 92b8 0fbe 163f 3c3e
00000130: 3685 0b3e 5eaf 38be 8cd1 503e 883d d23c
00000140: 881c efbc 30ca 1c3c 5891 b93d 6809 e63d
00000150: e00b 7e3d 967b 1abe 7c58 13bd 5dda 3ebe
00000160: a292 3dbe b232 18be b88f 2d3e 207c 1f3c
00000170: 3a66 633e 84fd 07bd 3e2c 3cbe 30bf 34bc
00000180: 2265 29be c3c5 53be a6ae e4bd e463 fb3d
00000190: 3400 22be b03d 0c3d e029 b23c 2015 1a3c
000001a0: 54f1 b03d 0405 b83d ca27 3fbe fccb 29bd
000001b0: 5295 06be 5427 a63d 5058 fdbd f4a6 4abd
000001c0: 5c6b bc3d 000d 483e 1c8f 15be 344c 4fbe
000001d0: 7a52 38be 7c4b 15bd 8421 34be 4629 9abd
000001e0: 50ad 5f3d c60e 17be c0c2 1ebb b891 3c3e
000001f0: f833 363e 99af dcbd be9b 2cbe 207d 203e
00000200: 98a8 9f3d 984d 76bd 0c09 22be 78be 523d
00000210: 4003 303e 4426 0dbe c4ec f63d b0c8 d2bc
00000220: a02f 4c3e e0c8 f93b a88f e13d 74ab 8bbd
00000230: c885 a23d 7e07 11be e092 493d fcbe ef3d
00000240: 401d 2ebd 66df 573e 4097 a33c 1f65 5fbe
00000250: 3691 e0bd eece 60be 1e30 27be 8202 0cbe
00000260: cc9e 77bd a25a 11be 7570 ebbd 58e6 423d
00000270: 7261 1f3e d466 033e 736a 0cbe 0052 ed3a

bias f4 [1, 20]
0.0 0.0 0.0 0.0 0.0 0.0 0.0 0.0
0.0 0.0 0.0 0.0 0.0 0.0 0.0 0.0
0.0 0.0 0.0 0.0
00000000: 0000 0000 0000 0000 0000 0000 0000 0000
00000010: 0000 0000 0000 0000 0000 0000 0000 0000
00000020: 0000 0000 0000 0000 0000 0000 0000 0000
00000030: 0000 0000 0000 0000 0000 0000 0000 0000
00000040: 0000 0000 0000 0000 0000 0000 0000 0000

weight f4 [20, 8]
-0.13607447 -0.015494338 -0.40656292 -0.112143904 0.027629867 0.08725033 -0.2097438 -0.39941734
-0.014776922 -0.25013855 0.18764694 -0.22651482 -0.33128044 0.0627916 -0.27144456 0.14876935
0.27668095 0.20553844 -0.050443992 0.20961894 -0.21631797 -0.07871926 -0.18849884 0.35738286
-0.12740916 0.0070981644 0.296528 -0.05290771 0.07635284 -0.25880548 -0.29015946 0.030782823
0.33012095 -0.3162252 -0.24013335 -0.324267 0.06361585 -0.093966626 0.28242466 -0.0751996
0.15061247 0.18993808 0.091419995 0.25288343 -0.25794378 -0.038124785 -0.10248719 0.296182
-0.12421813 -0.10978444 -0.15400448 0.34534374 -0.10637339 -0.40613458 -0.4444492 -0.22789362
0.13009529 0.25055015 0.1818633 0.15945832 -0.037716605 -0.24611051 0.23068358 0.25947458
-0.252355 0.22794643 0.28013492 0.24418966 -0.06406822 -0.19612712 0.16635475 0.053495016
-0.3077968 -0.042574953 -0.29244545 0.16188926 0.327078 0.1861296 0.11320649 0.2133462
-0.4514522 -0.036412153 -0.12322532 -0.35035944 -0.43629882 -0.32099533 -0.49379396 -0.35647735
-0.22652589 0.26768148 0.004189654 -0.34793466 -0.15316023 -0.30752233 -0.1294629 -0.38765246
-0.26650098 0.024952041 -0.0029747488 0.26457176 0.44302338 -0.09157675 -0.043835633 0.32292122
0.23672421 0.3074784 0.09093361 -0.23562807 -0.49069244 0.0513337 -0.4974588 -0.4815687
0.2138491 0.1060853 -0.1704384 0.07745055 0.2742244 0.19581604 -0.033824515 0.15267947
0.3233 -0.016539305 0.3087836 0.18032722 -0.24474147 0.21849386 0.06582131 0.0005655492
0.13974746 0.018070884 -0.32468164 0.25518164 0.45932764 0.32968685 9.027475e-05 0.42936155
0.058543783 -0.05431883 0.25871906 0.17531392 0.13719937 -0.007185889 -0.29948914 0.17382152
0.29351658 0.27296162 0.16311842 0.09420322 0.37220272 0.37267146 -0.18737757 0.43213692
-0.18421309 -0.21227622 0.23114823 -0.077609 -0.29859737 -0.40069255 -0.057827003 -0.31871685
00000000: 1b57 0bbe f7db 7dbc 0429 d0be b4ab e5bd
00000010: 0858 e23c 4db0 b23d 14c7 56be 6e80 ccbe
00000020: e71a 72bc 2912 80be 8526 403e 80f3 67be
00000030: 979d a9be e298 803d c8fa 8abe fe56 183e
00000040: 20a9 8d3e ab78 523e 5c9e 4ebd 59a6 563e
00000050: 7582 5dbe 9037 a1bd d705 41be e3fa b63e
00000060: 8c77 02be b897 e83b 85d2 973e c1b5 58bd
00000070: e15e 9c3d 2782 84be c88f 94be 422c fc3c
00000080: 9d05 a93e 45e8 a1be 84e5 75be 5306 a6be
00000090: 0749 823d 9371 c0bd f799 903e 3f02 9abd
000000a0: 283a 1a3e 217f 423e 683a bb3d f079 813e
000000b0: 3511 84be bc28 1cbd cee4 d1bd 2ba5 973e
000000c0: 1366 febd aad6 e0bd 5ab3 1dbe e5d0 b03e
000000d0: 4bda d9bd dff0 cfbe d88e e3be f25c 69be
000000e0: b337 053e 1c48 803e 5f3a 3a3e 0b49 233e
000000f0: ba7c 1abd 6504 7cbe 5138 6c3e dad9 843e
00000100: ad34 81be ca6a 693e d86d 8f3e db0c 7a3e
00000110: 3336 83bd 8cd5 48be e658 2a3e 971d 5b3d
00000120: 8b97 9dbe 1363 2ebd 69bb 95be 4cc6 253e
00000130: c576 a73e c298 3e3e ced8 e73d 6d77 5a3e
00000140: be24 e7be e924 15bd 8e5d fcbd 5062 b3be
00000150: 8f62 dfbe 8059 a4be 90d2 fcbe 3384 b6be
00000160: 67f6 67be 8c0d 893e 5d49 893b 7e24 b2be
00000170: 09d6 1cbe 9173 9dbe ec91 04be 627a c6be
00000180: d172 88be 3968 cc3c 01f4 42bb f375 873e
00000190: f6d3 e23e 978c bbbd fe8c 33bd ee55 a53e
000001a0: d567 723e cf6d 9d3e 673b ba3d 7c48 71be
000001b0: 0a3c fbbe 4943 523d ebb2 febe 2c90 f6be
000001c0: 42fb 5a3e 4043 d93d 6787 2ebe 659e 9e3d
000001d0: 2467 8c3e 0084 483e 938b 0abd 0258 1c3e
000001e0: 9487 a53e 707d 87bc e218 9e3e b3a7 383e
000001f0: 829d 7abe dbbc 5f3e 53cd 863d 5d41 143a
00000200: f519 0f3e 6409 943c ac3c a6be 2ba7 823e
00000210: fe2c eb3e b7cc a83e e351 bd38 47d5 db3e
00000220: 9bcb 6f3d 6c7d 5ebd d376 843e 7e85 333e
00000230: fe7d 0c3e 9b77 ebbb a456 99be 45fe 313e
00000240: ce47 963e a0c1 8b3e 8408 273e 9eed c03d
00000250: 5b91 be3e cbce be3e e8df 3fbe 0d41 dd3e
00000260: 5ba2 3cbe f05e 59be 1fb2 6c3e 78f1 9ebd
00000270: c1e1 98be 9327 cdbe 02dc 6cbd db2e a3be

weight f4 [20, 20]
-0.14303824 -0.008986324 0.0030544251 -0.046202585 -0.20058158 0.053088456 -0.039960474 -0.083091944
0.09252733 0.060828388 -0.18331236 -0.14365545 0.15684268 0.03688696 0.09951669 -0.029871047
0.0898743 0.19717464 0.19622546 -0.21090758 -0.16219546 0.13046867 -0.07500929 -0.07363352
-0.15383688 0.09106091 0.06550968 0.19555134 0.18257937 0.19532776 -0.0125246495 -0.087917805
0.21066374 -0.13179588 0.061613888 -0.11119511 0.05596921 0.11633399 -0.18458807 0.15857634
0.0032559037 -0.04735157 -0.17882992 -0.20804787 0.2226302 -0.1614522 -0.0685215 0.14180681
-0.058089033 0.21656105 -0.18417552 0.19659406 -0.051121667 -0.18398744 -0.07730898 0.19164994
-0.012165487 0.06866145 0.1241979 -0.0015226156 -0.011054054 -0.21298707 -0.027950719 -0.119291574
-0.16286677 -0.003384754 0.17028227 -0.18017574 0.048656672 0.14607084 0.20335966 0.04107192
-0.04405193 -0.056143954 -0.1014783 -0.071672186 -0.0069589466 0.013610899 -0.21269351 -0.13693145
0.018421784 0.09883168 0.20089129 -0.14141771 -0.19547093 0.033147216 -0.22218771 -0.16943564
0.1931169 -0.12953013 0.076568276 0.06426597 0.0059333146 -0.120497175 0.09500539 0.05488071
-0.0618051 0.09786469 0.08143112 -0.16562422 0.07063335 0.12831208 -0.01716122 -0.11272754
0.07042089 -0.18381557 0.19979426 -0.057244837 -0.12057586 0.21961412 0.20746505 -0.037064597
0.00532043 0.069245875 0.047638774 0.18135747 -0.09512991 -0.19013864 -0.09863592 -0.21887584
0.12013686 0.12800434 0.21841887 0.13971603 0.0690051 0.0694617 -0.043201238 0.18805239
0.08654001 -0.11041627 -0.21917097 0.09151974 -0.112526685 -0.21801692 0.1717253 -0.01910919
0.07687315 0.034193814 0.102689534 0.009575978 -0.150309 0.07414186 0.16663116 -0.04273382
0.12763897 0.17138946 0.1461451 -0.17112103 -0.18134852 -0.20446408 0.13002765 0.051262915
0.050498128 0.10933769 -0.15352626 0.20798844 -0.14534402 -0.1417521 -0.06694089 -0.077475
-0.20037016 0.12706736 0.016849712 -0.1253022 0.02373001 0.14533725 -0.13039729 0.017571643
0.11235529 0.16682523 -0.18200551 -0.07651156 0.21278167 -0.117172316 -0.08270635 0.11519945
0.03939691 0.07119495 0.10068977 -0.12975329 0.025016472 0.101153314 -0.039950475 -0.04163353
0.1844486 0.08438313 -0.2114495 0.09496915 0.14804101 0.13463601 -0.06088318 -0.14724627
0.12759605 -0.059198678 -0.11089779 -0.06751108 -0.18660997 0.18297789 0.20032501 -0.072804034
-0.01612693 -0.111411184 -0.017624557 -0.1426839 0.20506415 -0.047498792 0.04303795 -0.024894416
-0.17039904 -0.059465364 -0.007937282 0.12852532 0.20365652 -0.19943212 -0.029195413 -0.15067193
0.20965412 0.20457432 0.17281532 -0.04149349 0.05274287 -0.11154198 0.06769055 -0.1741599
0.17581314 0.082185656 -0.22107981 -0.11138615 0.19345635 -0.078964844 0.12359765 -0.014342964
-0.20826487 0.10827914 -0.19734141 -0.08961539 -0.044661716 0.16173232 -0.020267636 0.21648589
0.19514757 -0.22307208 -0.054689407 -0.05492848 -0.08642763 -0.0005518794 -0.101831995 -0.010096252
-0.12733576 0.17446676 0.0121899545 -0.098350614 0.05333391 -0.06531508 0.06486252 -0.16669527
00000000: 9e78 12be 603b 13bc c02c 483b ec3e 3dbd
00000010: 4265 4dbe 4873 593d 98ad 23bd 1c2c aabd
00000020: f87e bd3d 3027 793d 3cb6 3bbe 6a1a 13be
00000030: 5e9b 203e c816 173d 68cf cb3d 20b4 f4bc
00000040: 0410 b83d 26e8 493e 54ef 483e 28f8 57be
00000050: 9116 26be 9499 053e 789e 99bd 2ccd 96bd
00000060: 6a87 1dbe 247e ba3d f029 863d 9c3e 483e
00000070: 16f6 3a3e 0004 483e 3034 4dbc 400e b4bd
00000080: 3cb8 573e 80f5 06be d85e 7c3d 43ba e3bd
00000090: f83f 653d 8440 ee3d a804 3dbe d661 223e
000000a0: 0061 553b b8f3 41bd 311f 37be 800a 55be
000000b0: 2cf9 633e ba53 25be 0055 8cbd ce35 113e
000000c0: c4ee 6dbd 2ec2 5d3e 8298 3cbe f44f 493e
000000d0: f464 51bd 3467 3cbe 2c54 9ebd e23f 443e
000000e0: c051 47bc 609e 8c3d 785b fe3d 8092 c7ba
000000f0: 101c 35bc 4819 5abe e8f8 e4bc 244f f4bd
00000100: 8cc6 26be c0d2 5dbb 7a5e 2e3e fd7f 38be
00000110: 384c 473d 9893 153e 843d 503e 083b 283d
00000120: cc6f 34bd 34f7 65bd dbd3 cfbd dec8 92bd
00000130: e007 e4bb 4000 5f3c 54cc 59be c237 0cbe
00000140: 48e9 963c 4468 ca3d 72b6 4d3e cecf 10be
00000150: 8829 48be 60c5 073d 2d85 63be 8980 2dbe
00000160: 70c0 453e 8ca3 04be d4cf 9c3d e09d 833d
00000170: 406c c23b 39c7 f6bd 3092 c23d 98ca 603d
00000180: 5827 7dbd 486d c83d 5cc5 a63d 6599 29be
00000190: 38a8 903d 3e64 033e b095 8cbc b2dd e6bd
000001a0: d438 903d 263a 3cbe de96 4c3e 9079 6abd
000001b0: 7af0 f6bd 86e2 603e b871 543e 0cd1 17bd
000001c0: 0057 ae3b c8d0 8d3d e020 433d c6b5 393e
000001d0: 78d3 c2bd b4b3 42be a101 cabd fd20 60be
000001e0: 500a f63d 9213 033e 32a9 5f3e b811 0f3e
000001f0: 8c52 8d3d f041 8e3d c8f3 30bd ce90 403e
00000200: e43b b13d ed21 e2bd 5b6e 60be b46e bb3d
00000210: 6474 e6bd d43f 5fbe c2d8 2f3e e08a 9cbc
00000220: ac6f 9d3d d00e 0c3d e44e d23d 90e4 1c3c
00000230: 9aea 19be b0d7 973d 5ca1 2a3e a809 2fbd
00000240: cab3 023e b880 2f3e 10a7 153e 5a3a 2fbe
00000250: 6db3 39be 085f 51be f825 053e 10f9 513d
00000260: 20d7 4e3d 70ec df3d fd35 1dbe ecfa 543e
00000270: 10d5 14be 7627 11be 4e18 89bd 36ab 9ebd
00000280: d62d 4dbe f21d 023e 6808 8a3c 384f 00be
00000290: 7065 c23c 4ad3 143e de86 05be 68f2 8f3c
000002a0: 881a e63d 3cd4 2a3e a75f 3abe 18b2 9cbd
000002b0: 70e3 593e 0af8 efbd f261 a9bd b0ed eb3d
000002c0: a85e 213d a8ce 913d 7036 ce3d 0cde 04be
000002d0: 58ef cc3c 7829 cf3d 1ca3 23bd ec87 2abd
000002e0: 18e0 3c3e 10d1 ac3d 3886 58be 307f c23d
000002f0: 1098 173e 06de 093e a460 79bd bac7 16be
00000300: 8aa8 023e 507a 72bd 611e e3bd 4043 8abd
00000310: af16 3fbe 8e5e 3b3e 0022 4d3e 481a 95bd
00000320: a01c 84bc 8c2b e4bd 6061 90bc ba1b 12be
00000330: 56fc 513e 188e 42bd 9048 303d 60ef cbbc
00000340: 167d 2ebe f491 73bd 600b 02bc 249c 033e
00000350: 568b 503e ef37 4cbe 382b efbc be49 1abe
00000360: 92af 563e ee7b 513e 80f6 303e 14f5 29bd
00000370: e808 583d 1f70 e4bd 58a1 8a3d f956 32be
00000380: 5c08 343e f450 a83d bf62 62be 6c1e e4bd
00000390: 6c19 463e 52b8 a1bd c420 fd3d c0fe 6abc
000003a0: 6343 55be 74c1 dd3d de13 4abe 4688 b7bd
000003b0: 34ef 36bd 289d 253e 5008 a6bc 7aae 5d3e
000003c0: c4d4 473e 026d 64be 0002 60bd b0fc 60bd
000003d0: f800 b1bd 00ac 10ba 4b8d d0bd c06a 25bc
000003e0: 4e64 02be 6aa7 323e 60b8 473c 0c6c c9bd
000003f0: a874 5a3d eac3 85bd a4d6 843d 2ab2 2abe

bias f4 [1, 20]
0.0 0.0 0.0 0.0 0.0 0.0 0.0 0.0
0.0 0.0 0.0 0.0 0.0 0.0 0.0 0.0
0.0 0.0 0.0 0.0
00000000: 0000 0000 0000 0000 0000 0000 0000 0000
00000010: 0000 0000 0000 0000 0000 0000 0000 0000
00000020: 0000 0000 0000 0000 0000 0000 0000 0000
00000030: 0000 0000 0000 0000 0000 0000 0000 0000
00000040: 0000 0000 0000 0000 0000 0000 0000 0000

weight f4 [20, 20]
0.1978547 0.19517522 0.113462634 0.16834721 0.058798406 -0.04851462 0.051024158 -0.11749033
-0.101533405 -0.21198581 0.28461662 0.004772565 -0.040390495 0.28571543 -0.15413225 0.05695175
-0.13507949 0.15709741 0.080002256 0.23848368 -0.12613252 0.15778154 0.16094954 -0.10138917
0.034279246 0.11729114 0.1230355 0.03724562 0.03930782 0.079228625 0.05300781 0.12448447
-0.019110778 -0.27738374 0.055661187 -0.1355535 0.1620689 -0.1033661 -0.11362725 -0.107050665
-0.07173889 -0.12675545 0.20727515 -0.0071070003 0.12187882 -0.041272227 -0.23663823 0.2271593
-0.11018153 0.08648275 -0.18676399 -0.36285642 0.1577536 -0.2111256 0.14102408 0.01303456
-0.109127 0.2764632 -0.035241794 -0.25381845 -0.12685202 0.17296655 0.23638284 0.35504866
-0.1843854 -0.054342452 0.116477616 -0.1380157 0.15850893 -0.08854395 0.27592647 0.23082156
-0.34589618 0.37551597 -0.21531586 0.16219598 -0.02718074 0.16227075 0.016350979 -0.063899584
0.05798584 -0.17319278 -0.16357236 -0.13423225 0.02997006 -0.028594371 -0.0078855725 -0.114126146
0.054868102 -0.18288802 -0.0028353438 -0.09182078 0.14390893 0.04238732 0.13598137 0.123684995
0.061350446 -0.22322176 -0.092269175 -0.029735042 0.24084216 0.056415785 0.0440905 0.087135896
0.09829683 -0.034162655 0.23038676 -0.16053529 -0.0736191 0.05607523 -0.022368385 0.12087432
-0.15590626 0.2646951 -0.10243643 -0.21951474 -0.104895905 -0.2251067 -0.19786343 0.14416397
0.18034114 0.24587518 0.2897886 0.31571838 -0.0010951654 0.014405413 0.062465608 0.13150401
0.066667624 -0.3578447 0.24659257 0.21465997 0.044072177 0.13099958 -0.22089726 -0.1393547
-0.2595253 0.1183278 -0.08437032 0.024581343 -0.18964837 -0.011378031 -0.09198406 -0.19161285
0.114002466 0.025796257 -0.16535863 -0.118800566 0.19645742 0.09559088 -0.12719163 -0.0975468
0.30718312 -0.3023372 0.17224571 0.06342852 0.039470196 -0.07155888 0.025678517 0.08767233
-0.14178897 -0.13935931 -0.21396452 -0.051980942 0.12344728 -0.13255373 -0.16543338 -0.09586197
-0.2444806 0.35100386 -0.19585517 -0.36485836 -0.11832787 -0.04414994 0.115016535 -0.14740759
-0.003329515 -0.08478286 0.1033378 -0.17869487 0.29362658 0.26649997 0.20897196 0.30616534
0.13378146 0.13371451 0.0696376 -0.14420432 0.20421213 -0.12092933 0.27650782 0.074235074
-0.27823216 0.3294933 -0.23020673 0.16253912 -0.18254896 0.1991563 0.16258653 0.19095911
-0.25427797 -0.020567013 0.024451748 -0.00019561533 0.11913839 0.15704867 -0.17769441 -0.04194184
0.18613946 0.11955983 0.012135941 -0.1181047 0.2681386 -0.060439583 0.03266318 0.015086799
0.12883908 0.15382166 0.25300404 -0.024165047 0.27739146 0.05717806 -0.14773037 -0.048092216
0.024071878 0.17392878 0.056748286 -0.029689047 -0.054053504 -0.32579824 0.21564585 0.19396144
-0.30062503 -0.019628227 0.054987494 -0.22797774 0.12077275 -0.08878472 -0.095755056 0.13749607
0.1888722 0.18980753 0.059854407 0.13894299 -0.027959066 -0.19079578 0.029345127 0.054304417
-0.10851722 -0.3087805 0.017591486 0.12598209 -0.00554282 0.1269128 -0.13612054 0.18127352
00000000: 6c9a 4a3e 03dc 473e 195f e83d 3663 2c3e
00000010: 99d6 703d 44b7 46bd b5fe 503d c59e f0bd
00000020: bff0 cfbd cf12 59be 45b9 913e 2d63 9c3b
00000030: 8170 25bd 4b49 923e d8d4 1dbe 3d46 693d
00000040: 4752 0abe 25de 203e 39d8 a33d 1135 743e
00000050: e228 01be 7c91 213e f5cf 243e 20a5 cfbd
00000060: 6568 0c3d 5636 f03d 09fa fb3d dd8e 183d
00000070: 3d01 213d 9e42 a23d b81e 593d b7f1 fe3d
00000080: 358e 9cbc 3e05 8ebe fcfc 633d 89ce 0abe
00000090: 64f5 253e 9bb1 d3bd 67b5 e8bd 613d dbbd
000000a0: d7eb 92bd 2ecc 01be f03f 543e d7e1 e8bb
000000b0: 9a9b f93d 110d 29bd 4b51 72be 739c 683e
000000c0: dba6 e1bd de1d b13d 0f3f 3fbe 51c8 b9be
000000d0: 298a 213e 4f31 58be 9e68 103e e88e 553c
000000e0: fa7d dfbd 968c 8d3e b359 10bd 7ef4 81be
000000f0: 7fe5 01be 251e 313e 580e 723e f0c8 b53e
00000100: 87cf 3cbe 3196 5ebd d18b ee3d fd53 0dbe
00000110: 2a50 223e 8856 b5bd 3c46 8d3e 7d5c 6c3e
00000120: 4e19 b1be a143 c03e c37b 5cbe b416 263e
00000130: 25aa debc 4e2a 263e 7df2 853c c9dd 82bd
00000140: 8f82 6d3d 7359 31be 837f 27be 2e74 09be
00000150: c583 f53c be3e eabc 7d32 01bc f8ba e9bd
00000160: 60bd 603d ff46 3bbe 2dd1 39bb 880c bcbd
00000170: dd5c 133e 549e 2d3d b33e 0b3e 8f4e fd3d
00000180: 9b4a 7b3d 3f94 64be 9ff7 bcbd e796 f3bc
00000190: 549f 763e 3d14 673d 3d98 343d 4e74 b23d
000001a0: d94f c93d 24ee 0bbd 82ea 6b3e 5d63 24be
000001b0: 9cc5 96bd 24af 653d e73d b7bc f58c f73d
000001c0: e4a5 1fbe 1e86 873e 31ca d1bd 79c8 60be
000001d0: aad3 d6bd 5f82 66be b69c 4abe b89f 133e
000001e0: 59ab 383e b4c6 7b3e 2c5f 943e d7a5 a13e
000001f0: a78b 8fba ae04 6c3c f0db 7f3d fda8 063e
00000200: 0989 883d 6c37 b7be c382 7c3e d3cf 5b3e
00000210: 0785 343d c124 063e e432 62be 00b3 0ebe
00000220: 80e0 84be d855 f23d 59ca acbd d05e c93c
00000230: 2f33 42be ec6a 3abc 2462 bcbd 2936 44be
00000240: 207a e93d ac52 d33c c653 29be b64d f3bd
00000250: 222c 493e 27c5 c33d 863e 02be 9ec6 c7bd
00000260: 1b47 9d3e f1cb 9abe 2e61 303e d0e6 813d
00000270: 80ab 213d 768d 92bd c15b d23c 8d8d b33d
00000280: 2131 11be 35b4 0ebe 8419 5bbe f8e9 54bd
00000290: edd1 fc3d 2abc 07be 5e67 29be 4853 c4bd
000002a0: 1f59 7abe c7b6 b33e 428e 48be b7ce babe
000002b0: e255 f2bd 91d6 34bd ca8d eb3d 04f2 16be
000002c0: fe33 5abb a3a2 adbd c5a2 d33d cafb 36be
000002d0: 3956 963e af72 883e bffc 553e b4c1 9c3e
000002e0: 02fe 083e 75ec 083e 289e 8e3d 4caa 13be
000002f0: fc1c 513e cca9 f7bd 6f92 8d3e 8f08 983d
00000300: 7274 8ebe 59b3 a83e 50bb 6bbe a870 263e
00000310: 1dee 3abe a1ef 4b3e 157d 263e c98a 433e
00000320: b930 82be 277c a8bc 084f c83c 171e 4db9
00000330: d4fe f33d 5ed1 203e 86f5 35be 35cb 2bbd
00000340: 589b 3e3e c9db f43d d3d5 463c e1e0 f1bd
00000350: 7649 893e 7f8f 77bd d4c9 053d 9f2e 773c
00000360: 64ee 033e 6d83 1d3e bf89 813e c7f5 c5bc
00000370: 4106 8e3e 8b33 6a3d a146 17be 58fc 44bd
00000380: 6332 c53c 631a 323e e470 683d 7236 f3bc
00000390: 3567 5dbd 07cf a6be 44d2 5c3e d49d 463e
000003a0: 86eb 99be 60cb a0bc 913a 613d ff72 69be
000003b0: b457 f73d c3d4 b5bd 3a1b c4bd c5cb 0c3e
000003c0: b767 413e e85c 423e e529 753d 1247 0e3e
000003d0: 690a e5bc f85f 43be 3165 f03c 4f6e 5e3d
000003e0: 473e debd 7a18 9ebe 051c 903c 7301 013e
000003f0: 8ba0 b5bb 6ef5 013e 2f63 0bbe c49f 393e

weight f4 [20, 4]
0.47931218 0.20456481 -0.11145735 -0.025296986 -0.4557292 -0.4508239 -0.041268766 -0.023383617
0.15308839 0.444593 -0.29538494 -0.1227355 -0.19147038 0.1380763 0.285657 -0.13839841
0.0705381 -0.33451378 -0.3226984 -0.29239297 0.04802215 0.40025884 0.20730615 0.1955688
-0.2946887 0.18240565 -0.34367 0.467439 0.2598527 0.4351874 0.29168582 -0.49958915
0.244964 0.15295553 -0.31353956 -0.057626545 0.012300372 0.04525596 -0.47503275 0.32485265
0.40758365 0.29475892 -0.44619697 -0.46480262 0.2391786 0.28738678 -0.011148155 -0.39875662
-0.25638467 -0.395455 -0.3861919 -0.2704476 -0.36177182 0.08619994 -0.36389214 -0.44197077
0.09198481 0.38851714 -0.45898938 -0.3048774 0.28960675 -0.043007374 0.31635505 -0.24819857
-0.20281684 -0.30486625 -0.0004259944 0.03921467 -0.43452454 0.4608509 0.115110636 -0.14972734
0.44440085 0.40837336 -0.452114 0.18200415 0.46924353 -0.488541 0.14124501 0.013725877
00000000: 6868 f53e 7079 513e c043 e4bd a03b cfbc
00000010: 5655 e9be 64d2 e6be 7009 29bd 008f bfbc
00000020: 34c3 1c3e b2a1 e33e b23c 97be c05c fbbd
00000030: d010 44be e063 0d3e a241 923e 50b8 0dbe
00000040: 4876 903d 6445 abbe ba38 a5be 88b4 95be
00000050: e0b2 443d baee cc3e 1048 543e 3043 483e
00000060: 70e1 96be 8cc8 3a3e 84f5 afbe 2a54 ef3e
00000070: 6a0b 853e e2d0 de3e d857 953e 26ca ffbe
00000080: d8d7 7a3e 60a0 1c3e 4288 a0be d009 6cbd
00000090: 8087 493c 505e 393d 7e37 f3be 1653 a63e
000000a0: ceae d03e a4ea 963e ee73 e4be 9cfa edbe
000000b0: 3ceb 743e 5c24 933e c0a6 36bc d429 ccbe
000000c0: da44 83be 1479 cabe f2ba c5be 1c78 8abe
000000d0: 283a b9be 9889 b03d 1250 babe fe49 e2be
000000e0: 8862 bc3d b8eb c63e a800 ebbe e418 9cbe
000000f0: 5647 943e 8028 30bd 4af9 a13e c427 7ebe
00000100: 38af 4fbe 6e17 9cbe 0058 dfb9 909f 203d
00000110: 007a debe a6f4 eb3e 20bf eb3d 2052 19be
00000120: 8288 e33e 5016 d13e 7c7b e7be 4c5f 3a3e
00000130: b040 f03e 0c22 fabe 88a2 103e 80e2 603c

bias f4 [1, 4]
0.0 0.0 0.0 0.0
00000000: 0000 0000 0000 0000 0000 0000 0000 0000

weight f4 [4, 20]
-0.18996832 -0.051710233 0.0029542188 -0.36279115 0.2050542 0.080382876 -0.32789534 0.26531556
0.35019806 -0.3434493 0.034367226 0.032387603 -0.16801281 0.048722263 0.21597415 0.09318823
0.30274278 -0.029148418 -0.19910342 0.008182684 -0.16226512 0.025394816 0.23379478 -0.06894967
0.0679759 -0.13778155 -0.21394761 0.10532682 0.10311663 -0.11003498 0.0018496636 -0.15594871
-0.062494807 -0.06927137 0.17756596 0.20254706 0.20559867 0.10375965 -0.23632888 -0.015020346
-0.255592 0.037002616 0.18233484 -0.17076996 -0.14335223 -0.19605672 -0.0034015262 0.16308735
0.1768101 -0.054000873 0.1982487 -0.1549395 -0.06169877 0.13102403 0.19770102 -0.053009115
0.26055515 -0.19868693 -0.072265126 0.08911917 0.017172312 0.101073764 0.21911512 -0.15689354
-0.16961896 -0.014746658 -0.2639019 0.29683444 0.018985473 -0.22330076 0.12916546 -0.33726412
-0.04678389 0.0054502306 -0.018810917 0.21654381 0.29222322 -0.02864552 0.06719283 0.08332167
00000000: 0e87 42be 1cce 53bd 919b 413b c3bf b9be
00000010: baf9 513e c79f a43d e6e1 a7be 71d7 873e
00000020: 294d b33e 96d8 afbe a6c4 0c3d dda8 043d
00000030: 8d0b 2cbe ff90 473d 5428 5d3e 79d9 be3d
00000040: 1a01 9b3e aac8 eebc c4e1 4bbe aa10 063c
00000050: d428 26be ca08 d03c e667 6f3e 7c35 8dbd
00000060: f336 8b3d 9b16 0dbe 1515 5bbe 96b5 d73d
00000070: d02e d33d 055a e1bd 6970 f23a 05b1 1fbe
00000080: 8efa 7fbd 26de 8dbd dad3 353e 7f68 4f3e
00000090: 7588 523e f07f d43d 3300 72be e617 76bc
000000a0: f4dc 82be 0e90 173d fcb5 3a3e 52de 2ebe
000000b0: edca 12be 18c3 48be 24ec 5ebb 5f00 273e
000000c0: b50d 353e 0530 5dbd b501 4b3e 76a8 1ebe
000000d0: d9b7 7cbd 2a2b 063e 2372 4a3e 1620 59bd
000000e0: 7c67 853e 9674 4bbe bdff 93bd 1d84 b63d
000000f0: f3ac 8c3c c3ff ce3d b75f 603e b3a8 20be
00000100: 98b0 2dbe f79b 71bc 261e 87be affa 973e
00000110: 6c87 9b3c f4a8 64be f343 043e e2ad acbe
00000120: 77a0 3fbd d997 b23b 5a19 9abc a9bd 5d3e
00000130: 489e 953e 02aa eabc 659c 893d 8da4 aa3d
