neuromancer/train_scripts/papers/flexy/device_test_models/model1/best_policy_flexy.pth (torch, 7479 bytes, 9 tensors)

weight f4 [8, 10]
000000 94 f3 6f be 83 0d 8c 3e d8 4b a0 3d 82 b5 a0 bd
       -0.23432761 0.2735406 0.07826966 -0.0784712
000010 62 0f 90 be 4c c7 c1 3d 68 2e 44 be d0 38 59 bd
       -0.28136736 0.09461841 -0.19158328 -0.053032696
000020 ed 77 35 be 09 1f 88 3e ae dc 1b be 30 d3 80 be
       -0.1772153 0.26586178 -0.15220901 -0.25161123
000030 3e 26 9d bd 00 e2 d7 3a 98 46 d1 3d cd 70 88 3e
       -0.0767331 0.0016470551 0.10218543 0.2664856
000040 08 3f 48 be 98 bd 35 3d 35 4a 3e be 2a 3d 01 3e
       -0.19555295 0.044370264 -0.18582995 0.12620988
000050 b0 3f 3a 3e af 01 a0 3e fc 2f 84 be c7 5b 43 be
       0.18188357 0.31251284 -0.2581786 -0.19077979
000060 f0 47 22 3e b0 e7 f5 bc 69 1b 9a 3e 72 f6 5f 3e
       0.15847754 -0.030017704 0.30099037 0.21871355
000070 ee 0b fd bd 48 70 c7 3d ee 74 6c be 30 f9 04 3e
       -0.12355791 0.09738213 -0.2309148 0.12985682
000080 cc 64 82 be 6a 53 5c be 00 d7 65 be 40 00 f4 3d
       -0.25467527 -0.21516195 -0.22445297 0.1191411
000090 f1 7a 8b be 40 9d 28 3e e4 48 90 be 2a 61 d8 bd
       -0.27242234 0.16466236 -0.2818061 -0.105654076
0000a0 20 82 51 bc b6 89 69 3e 7d 05 87 be 60 a5 69 bc
       -0.012787372 0.22806439 -0.26371375 -0.01426062
0000b0 60 36 0e 3e a5 ab 81 be de 1d 33 be a2 8e 08 3e
       0.1388793 -0.25326267 -0.17491862 0.1333566
0000c0 40 24 5d 3c 6e 3b 7b be 20 ef f9 bc a0 2f 3f 3d
       0.013497412 -0.2453439 -0.030509531 0.046676278
0000d0 16 c9 46 3e 8e e1 28 3e 3e 8f 60 be 10 25 37 bd
       0.19412646 0.16492292 -0.21929643 -0.04471308
0000e0 a8 eb 5f be 43 ce 3b be a8 65 c3 3d 97 76 08 be
       -0.2186724 -0.18340401 0.09540874 -0.13326488
0000f0 1c dd 69 be d0 8b df 3d a5 c3 29 be ad 53 9b be
       -0.22838253 0.10915339 -0.16578539 -0.30337277
000100 0b 45 34 be fa 99 33 be c8 66 da 3d c8 fd 6d 3d
       -0.17604463 -0.17539206 0.10664135 0.058103353
000110 c0 7d 62 3c 68 8a 99 3d aa fd 99 bd 55 92 8d 3e
       0.013823926 0.07497102 -0.07519086 0.27650705
000120 a1 e9 35 be a0 3a 76 3c af 01 80 3e 2e 07 65 be
       -0.17764904 0.015028626 0.25001284 -0.2236602
000130 20 e9 b1 3c 66 e7 f1 bd b4 ca fe 3d 7a 89 fe bd
       0.021717608 -0.11811714 0.12441006 -0.12428565

bias f4 [1, 10]
000000 00 00 00 00 00 00 00 00 00 00 00 00 00 00 00 00
       0.0 0.0 0.0 0.0
000010 00 00 00 00 00 00 00 00 00 00 00 00 00 00 00 00
       0.0 0.0 0.0 0.0
000020 00 00 00 00 00 00 00 00
       0.0 0.0

weight f4 [10, 8]
000000 9b 87 d7 bd 6c 19 16 be 8d 76 ac 3d 6e 7c 8b 3d
       -0.105239116 -0.14658135 0.08421049 0.068108425
000010 22 8e 73 bd 25 e0 46 3e 1b 4a 05 3f 96 e5 94 3e
       -0.05946172 0.19421442 0.520662 0.2908141
000020 6c 4d a3 3e f8 07 8d 3d 0b e2 49 bd 1f a1 6a ba
       0.31895006 0.068862855 -0.049287837 -0.00089504005
000030 da 80 eb 3e 80 97 dd 3e 29 90 d0 3e d2 2b 8d bd
       0.45996743 0.43279648 0.40734985 -0.06893124
000040 3c 17 8a be 7c be 81 be f8 2f 92 3e 5e d0 7f 3c
       -0.2697085 -0.2534064 0.28552222 0.015613643
000050 65 88 87 be 3b fd fe bd 1d 56 f9 be fd e3 40 be
       -0.26471248 -0.12450644 -0.48698512 -0.1883697
000060 05 95 0a bf e1 72 c9 3d de 68 00 bf 75 3f 08 bf
       -0.54133636 0.098363645 -0.50160015 -0.5322183
000070 9c dc d3 be d0 de 0a bf e7 fe 0e bf 0d 65 90 3d
       -0.4137925 -0.54246235 -0.558577 0.07050524
000080 c8 ec 04 be 24 e6 ae be eb cb 38 3d 76 e5 da bd
       -0.1298095 -0.34159958 0.045116346 -0.106882975
000090 d1 c8 ff 3d ef e4 c8 be 4f 3c 03 3d 8a 78 94 bc
       0.124894746 -0.39237162 0.032039937 -0.018123884
0000a0 28 62 ad be 59 1d 91 be b0 1c 42 3c 87 24 7d be
       -0.3386395 -0.28342703 0.01184766 -0.24720965
0000b0 8a c9 f7 be 7f c0 1f be c1 7e 00 be de a5 fb be
       -0.4839595 -0.15600775 -0.12548353 -0.49149984
0000c0 a5 51 00 3e 0b 12 87 bd b7 c7 6e be 3f 91 57 be
       0.12531145 -0.06595238 -0.23318373 -0.210515
0000d0 c6 e3 f0 3e 13 67 84 3e 13 cc a6 3e fa 35 1b be
       0.47048777 0.2585989 0.3257757 -0.15157309
0000e0 07 4a 3e be 14 72 29 be 38 93 40 bc 1b 48 2c 3c
       -0.18582927 -0.16547424 -0.01175385 0.010515238
0000f0 ab 03 55 be 45 87 d0 be 58 92 af be d3 29 e2 bd
       -0.2080218 -0.40728202 -0.3429134 -0.110431336
000100 a9 41 40 be 37 3c 9d 3d 1b 29 4d 3e bb c5 91 be
       -0.18775047 0.07677501 0.20035212 -0.2847117
000110 76 a7 8b 3e e0 70 af 3e b3 ad 03 3e 3a 93 c7 3d
       0.272762 0.34265804 0.1285923 0.09744878
000120 d1 71 92 3e 2a e9 dc bd 11 b6 81 3e b2 9a 82 3d
       0.2860246 -0.1078666 0.25334218 0.06377162
000130 db c4 64 3e 59 f5 e1 bc d6 56 40 3e 42 37 97 3e
       0.2234072 -0.027582811 0.18783125 0.29534346

weight f4 [10, 10]
000000 7c aa c7 3d 2a 4d 5d be 88 2c 9d 3d 4d cf a0 3e
       0.09749314 -0.21611467 0.07674509 0.31408158
000010 14 d3 fa bd 88 bd 03 3e 3d fd 85 3e 87 00 38 be
       -0.12247291 0.12865269 0.26169768 -0.17968951
000020 ae 8f 68 3e a8 bf 16 3e 3f 1e 97 3e f8 d5 0d 3d
       0.2271106 0.14721549 0.29515263 0.034627885
000030 81 cc 81 3e 04 20 9b 3d 70 75 d4 bc a0 d0 72 3d
       0.25351337 0.07574466 -0.025934905 0.05928099
000040 e4 0a 60 be 28 25 11 bd 64 5b c4 3d 58 f6 46 3d
       -0.21879154 -0.035435826 0.09587744 0.048574775
000050 d2 3a 66 3e b4 ad ad 3d 1b 3e 95 3e 40 aa 45 3d
       0.22483376 0.08480397 0.29148945 0.048258066
000060 24 d3 f7 3d d5 e2 39 be fc ef 1f be cc 40 39 3e
       0.12100819 -0.18152936 -0.1561889 0.18091124
000070 44 8f 88 be ac 9a ce 3d 1c 79 50 be f7 08 9a 3e
       -0.26671803 0.10088095 -0.203587 0.30084965
000080 f4 08 9e bd 37 b3 8d 3e f1 e9 89 3e a0 a7 a1 be
       -0.077165514 0.27675793 0.26936296 -0.315732
000090 6a 21 90 bd a8 72 3a be e2 ee 59 3e 4e 04 76 be
       -0.07037623 -0.182078 0.21282533 -0.2402508
0000a0 a1 16 84 3e 78 bc ab 3d 16 4d 8c be cc 86 74 be
       0.25798514 0.08385557 -0.27402562 -0.23879546
0000b0 50 ce 82 bc 14 f7 89 be 38 e7 34 be 16 9f 95 bd
       -0.015967518 -0.26946318 -0.17666328 -0.07305734
0000c0 87 27 5e be 9e 4c 0b 3e 22 8b 4a 3e e1 6f 9f 3e
       -0.21694766 0.13603446 0.19779637 0.31140044
0000d0 60 63 cd bc 4e 33 34 be be 12 43 3e 52 a6 91 be
       -0.0250718 -0.17597696 0.19050118 -0.28447205
0000e0 16 ab 4d 3e 5e 29 7a 3e 8e 55 6a be e8 36 8c be
       0.20084795 0.24429843 -0.22884199 -0.2738564
0000f0 a0 ac 1d bc 17 1f 96 3e 80 34 d4 bb c4 89 83 3d
       -0.009623677 0.29320595 -0.006475985 0.06422761
000100 c0 66 af bb 64 3f c2 bd 46 ad cb bd a7 b6 8f 3e
       -0.005352825 -0.09484747 -0.09945159 0.2806904
000110 08 22 de bd aa 04 2c 3e fe 39 f5 bd 55 64 1f be
       -0.10846335 0.16798654 -0.11973952 -0.15565617
000120 86 82 7a 3e 2f b1 1d be a0 41 0d 3c 10 b7 8d 3c
       0.24463853 -0.15399621 0.008621603 0.017299205
000130 9c 1b 22 3e 7b e8 a0 3e 7c 2b 55 be b0 38 84 3c
       0.15830845 0.3142737 -0.20817369 0.016140312
000140 a6 9b 46 3e 56 7f 67 3e 36 51 48 be 5f 88 6e be
       0.19395313 0.22607169 -0.1956223 -0.23294209
000150 14 b8 27 3e 7a 75 3e 3e 40 b0 c8 3b 0e 04 4f 3e
       0.16378814 0.18599501 0.0061245263 0.2021639
000160 74 cf 66 be c8 5b 22 be 02 02 8c be 20 5b 8f be
       -0.22540075 -0.15855324 -0.27345282 -0.2799921
000170 40 b5 0e bd 05 1a 8b 3e 94 50 b5 3d 82 a0 60 3e
       -0.034840822 0.2716829 0.0885326 0.21936229
000180 68 0a 52 3d 58 69 2b bd de 21 9c bd b8 0a 5b 3d
       0.051279455 -0.04184851 -0.07623647 0.05347702

bias f4 [1, 10]
000000 00 00 00 00 00 00 00 00 00 00 00 00 00 00 00 00
       0.0 0.0 0.0 0.0
000010 00 00 00 00 00 00 00 00 00 00 00 00 00 00 00 00
       0.0 0.0 0.0 0.0
000020 00 00 00 00 00 00 00 00
       0.0 0.0

weight f4 [10, 10]
000000 04 02 07 bd 7a a7 95 bd 9c ed 30 bd c6 9f 67 3e
       -0.032960907 -0.07307334 -0.043195352 0.22619542
000010 e8 a7 f2 3d a6 f0 6b 3b a7 1a e7 be 8a 1d b7 bb
       0.11848432 0.0036001592 -0.45137522 -0.005588238
000020 13 cd 08 be bc 7e 91 3e 12 c8 d9 be 4a 12 ba be
       -0.1335948 0.28417003 -0.42535454 -0.36342078
000030 1b 78 d6 3e 7a e2 17 be ff 0c 6f 3e b0 86 ec 3d
       0.41888508 -0.14832488 0.23344801 0.11549127
000040 55 71 ee be 42 18 e3 3c 04 a2 e1 be ca 0f 76 bd
       -0.4657084 0.027721528 -0.4406892 -0.06007365
000050 1d dc 87 bd 39 41 df be 7a 4c 55 3e d6 96 a5 bc
       -0.0663378 -0.43604448 0.20829955 -0.020213526
000060 a4 0a 8a 3e ef 55 de 3e 67 24 37 bd 6a 06 6a 3e
       0.26961243 0.43424937 -0.04471245 0.2285401
000070 d2 01 67 be 26 5a 3d bd c1 49 cc be 7f c2 55 be
       -0.22559288 -0.04622855 -0.3990002 -0.20874976
000080 58 7d a3 3e ae 22 76 3e 8c 4d 02 be bb 0d 8b 3e
       0.31931567 0.24036667 -0.12724894 0.27158913
000090 10 8a b8 3c 57 06 42 3e 62 a1 12 3e 4d 0c 3b be
       0.02252677 0.18947731 0.14319375 -0.18266411
0000a0 6f d7 a7 3e a6 8e 80 ba 64 44 59 be 31 0a 16 3e
       0.3278155 -0.0009808138 -0.21217495 0.14652325
0000b0 5b ac 63 bd 08 d9 81 be ae f6 2a 3e cf 68 cd 3d
       -0.055584293 -0.25360894 0.16695663 0.10029756
0000c0 77 23 c9 3b 98 3e 1f be 8e 0f c1 3d 3a 88 bb bd
       0.006138261 -0.15551221 0.09426795 -0.091568425
0000d0 6f cc 15 3e c8 68 70 3e ef 6d 44 3d 2f c3 ba 3e
       0.14628766 0.23477471 0.047956403 0.36477038
0000e0 46 40 e7 be a0 f4 a6 3e 7c 5e 65 be d1 26 37 3e
       -0.45166224 0.3260851 -0.22399324 0.17885901
0000f0 66 49 e9 be 01 0a 17 be 2a c8 8d bd 80 d8 62 bd
       -0.4556381 -0.1474991 -0.06922944 -0.05538225
000100 e7 a6 b1 3e 11 da c2 3e 67 1a 46 be 25 9d 26 3c
       0.3469765 0.38056996 -0.19346009 0.010169302
000110 ae cf e5 be 63 d5 58 be 95 d1 b3 be ca 76 cb be
       -0.4488501 -0.2117515 -0.35120836 -0.39739066
000120 74 bf f6 bd 07 d6 d9 3e ec dd e3 3d be 02 88 3e
       -0.120482355 0.42546102 0.111263126 0.26564592
000130 ca 2f c5 be 89 1f e4 3e 1e ed b6 be 92 f5 59 3e
       -0.38513023 0.4455531 -0.3572778 0.21285084
000140 07 ec 23 3e e1 13 26 3d 6a 13 44 3e b1 d6 84 be
       0.16008006 0.0405463 0.19148031 -0.25945047
000150 f7 28 0a bb 7f 5b 4e be 43 0c 15 be 79 2c 61 be
       -0.0021081546 -0.2015209 -0.14555459 -0.21989621
000160 9c 41 60 be f0 98 62 3e 85 df 8b 3b 61 75 c4 bd
       -0.21900028 0.22128654 0.004268589 -0.09592701
000170 c5 ba a9 bd c7 88 ea bd a8 37 e2 bd bc e2 87 be
       -0.082875766 -0.114518695 -0.11045772 -0.26540172
000180 d5 6f 1f 3f 79 34 57 3b 60 62 c0 3e ab 78 56 be
       0.6228002 0.0032837673 0.37575054 -0.20944469

weight f4 [10, 4]
000000 28 32 4f 3e 08 f0 78 3e fc 42 87 3e c8 89 f9 be
       0.20233977 0.24310315 0.26418293 -0.4873793
000010 a8 58 e4 bd 5c 44 aa 3e bc 11 9f 3e 2c 0d 7f 3e
       -0.11149722 0.3325528 0.31068218 0.24907368
000020 a4 49 7f be 86 1f ce 3e f0 f2 06 be e0 11 3b 3d
       -0.24930435 0.40258425 -0.13178611 0.045671344
000030 ec 1c cd be d2 d8 93 be 8c 43 29 3e 64 ee aa be
       -0.40061128 -0.28876358 0.16529673 -0.33385003
000040 0c 50 a8 be 9a 8c 8a 3e fa 3d e7 be f6 1d c4 3e
       -0.3287357 0.27060395 -0.45164472 0.38304108
000050 90 20 c6 be 42 cd f7 3e a8 c1 84 bd b4 ec 07 3e
       -0.38696718 0.48398787 -0.064822495 0.13273889
000060 a0 89 f1 3c c4 7c 07 3e 80 5c ef 3d 80 19 88 3e
       0.02948457 0.13231188 0.11687565 0.26581955
000070 8e 0f a0 3e 40 ec c5 bc 50 9c 36 be c0 03 9b 3d
       0.31261867 -0.024160504 -0.17833066 0.07569075
000080 10 9f 8f 3e 5c 57 ec be bc f9 7d be 7a 4c cf be
       0.28051043 -0.461604 -0.24802297 -0.40488034
000090 18 25 8c 3d 80 24 e8 3b aa 1b b8 be a4 90 e7 3e
       0.068430126 0.0070844293 -0.35958606 0.4522754

bias f4 [1, 4]
000000 00 00 00 00 00 00 00 00 00 00 00 00 00 00 00 00
       0.0 0.0 0.0 0.0

weight f4 [4, 10]
000000 0a d8 75 be a4 47 b8 be 27 ed 40 3b 9c 6a 2b bd
       -0.24008194 -0.35992157 0.0029438229 -0.041849717
000010 95 35 91 3e eb 9f ce be b0 83 9c bd 75 16 f3 be
       0.28361192 -0.40356383 -0.07642305 -0.4747807
000020 4a e5 01 be c6 2f 3d 3e 60 b3 14 bc 00 41 e7 be
       -0.12685123 0.18475255 -0.009075969 -0.4516678
000030 6b ef 10 bd 1a 89 a8 be ac a7 66 be ff 14 d8 be
       -0.035384577 -0.329171 -0.22524899 -0.4220352
000040 d0 c6 7d 3d d3 bb be be 28 2c c6 bd 06 90 48 be
       0.06195718 -0.37252674 -0.09676391 -0.1958619
000050 1e c8 bd 3b 68 ee 66 be 1f d2 ce be 58 97 42 3e
       0.005791678 -0.22551882 -0.40394685 0.19003046
000060 3c 97 5a 3d 84 cf ac bd d0 df c1 be 99 69 65 be
       0.053366885 -0.08438018 -0.37866068 -0.22403564
000070 f1 f3 70 3e a6 37 2b 3e db d7 b5 3e f9 56 da bb
       0.23530556 0.16720447 0.35516247 -0.0066632
000080 a3 8a c3 be 8f b8 52 be 22 3e 5f 3e 5d d2 e4 be
       -0.3819171 -0.20578216 0.21801046 -0.44691744
000090 83 2a 37 3b 82 dd de be e8 73 f8 3d b8 87 bd bb
       0.0027948923 -0.43528372 0.12131482 -0.005784001
