neuromancer/train_scripts/papers/flexy/device_test_models/model1/best_policy_flexy2.pth (torch, 11063 bytes, 9 tensors)

weight f4 [8, 20]
000000 9d e3 63 be 64 7f a6 3d a6 fb f9 bd 11 77 13 be
       -0.22254796 0.081297666 -0.12206201 -0.14400889
000010 54 7d 49 be 51 77 40 be 26 a4 87 bd 06 fe 07 3e
       -0.19676715 -0.18795516 -0.06623106 0.13280496
000020 8a 62 87 bd ac 69 55 3e 68 fa a0 bc ec 49 10 3e
       -0.06610592 0.20841092 -0.019650653 0.14090699
000030 44 2d bf 3d c0 f2 f5 3b ee e7 0b be 50 94 2f bc
       0.093348056 0.0075057447 -0.13662693 -0.010716513
000040 d4 45 4d bd 2a 9c 26 be a4 42 27 bd 80 5c 3a bc
       -0.05011542 -0.1627051 -0.040835038 -0.011374593
000050 7c 76 ad 3d c4 a5 4c 3e 5e 0d 00 3e 7e 1f a3 bd
       0.08469865 0.1998511 0.12505099 -0.07964991
000060 a0 17 b0 bc 40 41 5d 3c 54 ea 96 3d 50 a8 4f 3e
       -0.02149564 0.013504326 0.07368913 0.2027905
000070 6a 03 4c be 20 1b 22 3d 36 ad 00 3e 10 f8 30 bc
       -0.19923177 0.03957665 0.12566075 -0.01080133
000080 b8 a7 61 bd 74 15 9d 3d c6 36 09 be 10 55 8a 3c
       -0.05509159 0.076701075 -0.133998 0.016886264
000090 ac 35 e2 3d c2 a7 02 3e ec 1f 69 bd 30 f9 a6 bc
       0.11045393 0.12759307 -0.05691521 -0.020382494
0000a0 00 d0 72 3b a8 fc 53 3d a2 9a 9f bd e0 f2 b9 3c
       0.0037050247 0.051754624 -0.07793166 0.02269882
0000b0 00 79 98 bb 74 32 35 be 50 a7 40 3d e0 3d 72 3d
       -0.004653096 -0.17695028 0.04703456 0.05914104
0000c0 88 02 b9 bd 60 78 2f 3d 48 2a 8f 3c 00 87 5a 3e
       -0.09033686 0.042839408 0.017476216 0.21340561
0000d0 7e cf 2a 3e 54 d9 1b be c6 4b 82 bd 46 dc 4f be
       0.16680714 -0.15219623 -0.06362109 -0.20298871
0000e0 c8 58 7f 3d 96 11 1c be ec 5f e8 3d 90 fe ed bd
       0.062340528 -0.15241084 0.11346421 -0.116208196
0000f0 18 e1 0a 3d 18 f7 0a 3e b0 bd 9c 3d f8 ca 57 3d
       0.033906072 0.13570821 0.076533675 0.0526838
000100 80 d8 41 3d 40 b5 88 bc c8 ef 90 3d 70 da 7f 3c
       0.04732561 -0.01668799 0.07076985 0.015616044
000110 22 9c 4e be 5c 64 1d 3e 40 c9 68 bc 70 ec 27 3c
       -0.20176747 0.15370315 -0.014208138 0.010249242
000120 58 9c a7 bd bc ed 91 bd 60 a8 81 bc c8 b5 45 be
       -0.08184117 -0.07125422 -0.015827358 -0.19307625
000130 54 f3 28 3e e8 3a 8d 3d d4 40 1d be a0 cc 0f bc
       0.16499072 0.06896001 -0.15356761 -0.008776814
000140 20 96 bf bb ce 3a 3e be 20 75 e3 bd 3c 1f e7 3d
       -0.0058467537 -0.1857712 -0.11106324 0.11285254
000150 c4 28 2f be 82 5f 40 3e f3 ee f2 bd 37 ee 32 be
       -0.17105395 0.18786433 -0.11861982 -0.17473684
000160 73 43 08 be 9e 7e dd bd d8 27 50 3e e0 47 6f bc
       -0.1330698 -0.10815166 0.20327699 -0.014604539
000170 ed 07 34 be 00 fa 89 39 60 4e ec 3d d0 f1 11 bd
       -0.17581148 0.0002631694 0.11538386 -0.035631
000180 90 3a 0f bd ee 85 33 3e 90 9f a4 3c e6 e9 0c be
       -0.03496796 0.17531559 0.020095617 -0.137611
000190 16 68 18 3e c9 1b 22 be 50 28 9a 3c 70 39 dd 3d
       0.14883456 -0.15830912 0.01881805 0.10801971
0001a0 fd 58 1d be 2e 5a 0a be 8c c5 42 bd 32 e1 62 be
       -0.15365978 -0.13510963 -0.047551677 -0.22156218
0001b0 20 6a bb bd 18 52 9a bd 10 75 65 bc 00 72 c4 3c
       -0.09151101 -0.075351894 -0.014004961 0.02398014
0001c0 48 0e f5 3d 74 8f 16 be 40 47 13 3c e8 60 90 3d
       0.119656146 -0.1470316 0.008989155 0.070497334
0001d0 7c e4 37 be 76 4b e9 bd ec 78 b0 3d e0 0c b0 3b
       -0.17958254 -0.11391346 0.08616814 0.0053726286
0001e0 2a 64 21 be 44 c6 91 bd ac 93 5e bd 34 d4 c9 3d
       -0.15760866 -0.07117894 -0.05434005 0.09854928
0001f0 c4 a9 6c bd 40 ec e7 3d 58 80 01 3d f0 d9 1b be
       -0.05777909 0.11324358 0.03161654 -0.15219855
000200 00 81 86 bb e0 ed 42 3e 34 4d b7 bd a4 a6 06 3e
       -0.0041047335 0.19036055 -0.08950272 0.13149506
000210 50 22 2e 3e 9a ca 3d 3e 7e 0e 14 3e 38 25 1f be
       0.17005277 0.18534318 0.14458653 -0.15541542
000220 98 91 30 3d 74 e4 d4 3d 2f b3 33 be a8 c8 91 bc
       0.0431076 0.103951365 -0.17548822 -0.017795876
000230 c0 2a 82 3b 9c c1 54 bd b2 5f f7 bd 24 50 3a be
       0.0039723814 -0.051942453 -0.12078799 -0.18194634
000240 e0 63 21 be 8e ec 08 3e 6c 52 f6 3d 3b ad fe bd
       -0.15760756 0.13371488 0.120274395 -0.12435385
000250 6e 66 2a 3e 87 19 fa bd 04 c1 05 be 81 ad 49 be
       0.16640636 -0.122119 -0.13061911 -0.19695093
000260 10 23 5d 3e 10 58 e6 3c cd c7 19 be 30 a3 df 3d
       0.21595407 0.028118163 -0.15017624 0.109197974
000270 ac 3e 84 3d 34 ad 04 be 80 70 e4 bb 60 b2 f7 3c
       0.06457266 -0.12956697 -0.006971419 0.030236423

bias f4 [1, 20]
000000 00 00 00 00 00 00 00 00 00 00 00 00 00 00 00 00
       0.0 0.0 0.0 0.0
000010 00 00 00 00 00 00 00 00 00 00 00 00 00 00 00 00
       0.0 0.0 0.0 0.0
000020 00 00 00 00 00 00 00 00 00 00 00 00 00 00 00 00
       0.0 0.0 0.0 0.0
000030 00 00 00 00 00 00 00 00 00 00 00 00 00 00 00 00
       0.0 0.0 0.0 0.0
000040 00 00 00 00 00 00 00 00 00 00 00 00 00 00 00 00
       0.0 0.0 0.0 0.0

weight f4 [20, 8]
000000 7f b2 be bd 15 15 9d 3e f8 d7 8a be 4b 65 4f 3e
       -0.09311389 0.30680147 -0.27117896 0.20253484
000010 fa 81 61 3e 47 5f 84 3e 8f 2a 3e 3e 08 9f 50 be
       0.22022238 0.2585394 0.18570922 -0.20373166
000020 b4 9f 10 be 70 13 41 3e cd 72 9a bd 1e 64 8b 3e
       -0.14123422 0.18855071 -0.07541428 0.2722482
000030 31 e9 ed 3e ff f2 03 3e 70 00 3a 3d a5 c3 ca 3c
       0.46466973 0.12885664 0.045410573 0.024751494
000040 15 7b e1 bd bb f0 ae bd 44 fa 7f be d8 1f 93 3e
       -0.11009804 -0.085420094 -0.24997813 0.28735232
000050 44 c2 d4 3d 8a bc 69 bd 1e 86 b3 3c 8d 3f 87 3e
       0.10388616 -0.05706457 0.021914538 0.26415673
000060 05 b2 8b bc 77 bf ad be 1f b9 9e 3e 1e 39 5b be
       -0.01705266 -0.3393514 0.3100061 -0.21408507
000070 75 f9 00 be e2 d0 a5 be 34 8c 6f be 84 cb 62 be
       -0.1259516 -0.32385927 -0.23393327 -0.22147948
000080 49 14 3b be 99 8d 81 3e 14 f2 f4 3d da 76 1c be
       -0.18269457 0.25303343 0.11960235 -0.15279713
000090 60 e0 bd 3e c3 3b 14 3e 92 b1 63 bd 71 4a 82 be
       0.37085247 0.14475922 -0.055589266 -0.2544742
0000a0 fe 7b 08 3c 9e 63 50 3e 7c d0 77 3e 18 cf 70 be
       0.008330343 0.20350501 0.24200624 -0.235165
0000b0 42 35 6b 3e bf 3d 96 3c 29 c5 7b bd b6 2c b5 bd
       0.22969535 0.01833999 -0.061467323 -0.088464186
0000c0 0d d0 a3 be c6 89 e1 be 14 50 8e be 6c d3 f0 be
       -0.31994668 -0.44050425 -0.2779547 -0.47036302
0000d0 c9 c8 ab bb c0 d8 b3 be 83 31 21 bd 31 c9 b9 be
       -0.0052424413 -0.35126305 -0.03935386 -0.3628631
0000e0 20 95 23 be 11 85 86 3e e7 73 cd be 51 36 9f be
       -0.15974855 0.26273397 -0.4012749 -0.31096128
0000f0 1c e5 99 be 40 b7 bf be 58 58 57 bd 66 1e 99 be
       -0.3005761 -0.37444496 -0.052574486 -0.29906005
000100 04 76 3e be b9 eb 43 be cf f5 1f 3e 3a 85 3b be
       -0.18599707 -0.1913289 0.15621112 -0.1831254
000110 cf 09 e4 3d 12 75 8f be 43 95 e6 be 98 74 b8 3d
       0.11134683 -0.28019005 -0.45035753 0.090066135
000120 32 50 b4 be 2b 2d 60 3e 67 ca 71 3e 15 4a 3b be
       -0.35217434 0.2189223 0.23612367 -0.18289979
000130 3c a8 8f 3c 6e ac b3 3e 82 cf eb 3e 1d a3 2a be
       0.017536275 0.3509249 0.46056753 -0.16663785
000140 0f ae 11 3d 93 ab ba 3d fb 66 a1 3e 66 a7 96 3e
       0.035566386 0.091147564 0.3152388 0.2942459
000150 e4 d5 40 be cb 27 e9 bd cd 5a d4 3c 0e 14 d9 bd
       -0.18831593 -0.11384543 0.025922203 -0.10599528
000160 38 79 a0 3e 8f b8 9a 3c bf 90 3e bd 7b 3a 96 3e
       0.31342483 0.018886833 -0.04652476 0.29341492
000170 ce 27 54 be 18 c7 c4 3e bf 80 8d be c7 d4 a2 bd
       -0.2071831 0.38433146 -0.27637288 -0.0795074
000180 de 70 59 be 15 85 90 3e 07 4d 4b be 5e 90 0e 3e
       -0.21234462 0.28226534 -0.19853602 0.13922259
000190 19 85 53 be 36 28 a3 3e 6e 90 10 3e 91 2e 7f 3e
       -0.20656241 0.31866616 0.14117596 0.24920107
0001a0 60 4a b8 bd 4f d2 4d 3e a8 53 9d 3d 03 9a 25 3e
       -0.08998561 0.20099758 0.07681972 0.16172032
0001b0 5a b2 08 3e 0e 74 22 be e6 ae 5a 3e 79 61 71 be
       0.13349286 -0.15864584 0.21355781 -0.23572339
0001c0 25 ad aa 3e 25 df 74 3e 5d 1f 18 3e 71 2f a5 be
       0.33335224 0.23913248 0.14855714 -0.32262757
0001d0 1d cc 45 bc 0c b6 bf 3e ac a2 21 3e f2 40 ec 3c
       -0.01207259 0.37443578 0.1578471 0.028839562
0001e0 f1 96 52 be 88 74 d6 bd 26 b2 74 be 65 d2 ca bd
       -0.20565392 -0.10471445 -0.23896083 -0.09903411
0001f0 85 96 0c bf 8a 68 48 be 79 47 f5 be ed 58 de be
       -0.54917175 -0.19571128 -0.47906092 -0.4342722
000200 1d d0 70 3d 35 27 9b 3e 58 e9 e8 3b 06 3d 93 3e
       0.058792222 0.3030335 0.007107895 0.28757495
000210 dc d8 a0 be 8b ff 26 be 12 7a 49 3e a4 ed 09 3e
       -0.3141545 -0.1630842 0.19675472 0.13469559
000220 98 19 77 be 1f d7 43 3d e4 22 08 3e 97 25 47 bb
       -0.24130857 0.047812577 0.1329456 -0.0030387396
000230 a1 86 ad be 62 a5 c1 3c ca cb d6 be 1a 9c be bd
       -0.33891776 0.023638431 -0.41952354 -0.09307118
000240 30 df d6 bd 10 3b 17 3e 42 89 31 3d fd 0d 9a 3e
       -0.104917884 0.14768624 0.04334379 0.30088797
000250 06 22 08 bd 6e 36 c6 be f5 5b b2 be f2 82 6e bd
       -0.033235572 -0.38713402 -0.34835783 -0.058230348
000260 7c 46 25 3e c1 b5 3c be 69 6f 2c 3e d9 ad cb 3d
       0.16140169 -0.18428709 0.16839375 0.09945268
000270 7c 4a 93 be 07 08 e2 be 2e 3e 6a be 5c 15 b9 3d
       -0.28767765 -0.4414675 -0.22875282 0.09037277

weight f4 [20, 20]
000000 2e b2 4c 3e 98 1d 01 be f7 30 e3 bd a9 9f d0 bd
       0.19989845 -0.12608945 -0.11093324 -0.10186703
000010 04 18 b7 3d 5a a0 51 3e 36 94 09 be 00 97 1f bd
       0.089401275 0.20471326 -0.13435444 -0.038962364
000020 f2 db 17 3e f8 26 c9 bc 11 11 16 be c0 31 aa 3d
       0.14829996 -0.024554715 -0.14654948 0.0831027
000030 28 91 d1 3d 2c d8 42 be f1 09 5d be c8 5f 3a 3e
       0.102327645 -0.19027776 -0.21585824 0.182006
000040 60 5a 31 3e d0 97 3a 3d 44 35 51 3e da d5 92 bd
       0.17319632 0.045554936 0.20430475 -0.07169695
000050 50 92 d7 bd 00 ec a8 bd 4c ff 47 3e 38 7b 54 3d
       -0.10525954 -0.082481384 0.19530982 0.051875323
000060 28 b1 9c 3c 98 e2 f6 3d 70 2a 55 3c 6a ea 39 be
       0.019127443 0.12054938 0.013010606 -0.18155828
000070 04 5f 38 3e de 2e 21 3e 61 68 60 be 08 44 88 bd
       0.18004996 0.15740535 -0.21914817 -0.06653601
000080 a0 f3 51 3e 5e c4 a6 bd 76 4a fc bd 36 49 20 be
       0.20503092 -0.08142923 -0.1231889 -0.15652928
000090 fa 5e 01 be 48 ba 53 be d8 2e e5 bd 40 f3 37 bd
       -0.12633887 -0.2067653 -0.11190575 -0.044909716
0000a0 ec 31 1c bd 42 78 08 3e d6 75 61 3e 4c 18 67 bd
       -0.038133547 0.13327125 0.22017607 -0.056419656
0000b0 f0 31 f6 bc d8 56 29 be 48 f8 5d be 28 9d 57 3e
       -0.030053109 -0.16537035 -0.21676743 0.21056044
0000c0 58 a7 35 be e6 99 37 be 88 8c 8f bd 2c 1d 5e bd
       -0.17739618 -0.17929801 -0.07009226 -0.05422704
0000d0 d0 15 50 3d 50 de dd 3c e0 a4 7c bd 88 87 0f be
       0.050802052 0.027083546 -0.061680675 -0.14016545
0000e0 18 fa 35 3d d9 36 4e be 40 a1 b6 3b 85 64 3f be
       0.04442796 -0.2013811 0.0055734217 -0.18690689
0000f0 84 3f 26 3e a7 89 62 be 30 39 33 3c ae 9a 2b 3e
       0.16235167 -0.22122823 0.0109389275 0.16758224
000100 b0 3b 70 bd e8 f4 03 3d cc 59 ce 3d 78 a3 98 3d
       -0.058650672 0.032215983 0.10075721 0.07453054
000110 98 e2 5c be 8e 99 63 3e 14 4f 1d 3e c0 20 60 3c
       -0.21570814 0.22226545 0.15362197 0.013679683
000120 28 00 a3 bd fc 4c 80 3d 92 2f c5 bd b6 f9 c5 bd
       -0.07959014 0.062646836 -0.09628214 -0.09666769
000130 58 e7 01 3e f8 1c a2 bc fa 1d 13 3e f0 f4 a4 3d
       0.12685907 -0.019789204 0.14366904 0.080545306
000140 d4 ba 57 3e 80 fd 8b bb 68 27 c9 3c c4 72 83 bd
       0.21067363 -0.004272163 0.024554923 -0.06418374
000150 24 c8 b2 3d 88 08 97 bc 38 5d c6 bd 80 84 4b 3e
       0.0872958 -0.018436685 -0.09685749 0.19874763
000160 d8 f3 d9 3d 46 f0 cb bd d4 39 82 3d 0a a2 0d be
       0.10642213 -0.09957938 0.06358686 -0.13831344
000170 9c 9a 30 3e 83 18 42 be e0 64 ff 3d d6 21 39 3e
       0.17246479 -0.18954663 0.12470412 0.18079314
000180 44 15 8f bd a8 c7 16 be 30 bd 3c 3d d9 5b 61 be
       -0.06986478 -0.147246 0.04607886 -0.22007693
000190 e2 4d a7 bd 28 0d a7 3d 12 3a c7 bd 62 da 1a be
       -0.08169152 0.08156806 -0.09727873 -0.15122369
0001a0 d0 77 7b bc 92 a4 87 bd 61 bc f6 bd eb 8c 0c be
       -0.01534839 -0.06623186 -0.12047649 -0.13725631
0001b0 74 58 21 be 9a 7a 0b be 30 00 05 bd c0 3b 84 bd
       -0.15756398 -0.13620988 -0.032470882 -0.06456709
0001c0 c0 7c ea bc 34 42 33 3e 7e ec 0a 3e ae 42 0c 3e
       -0.028623939 0.17505723 0.13566777 0.13697311
0001d0 8b 85 5d be b0 be 10 3c ac e7 6b bd 60 47 3a 3d
       -0.21632974 0.008834526 -0.057593986 0.045478225
0001e0 00 38 0a 3c 06 ba ae bd cc c8 c4 bd 89 2a 5a be
       0.008436203 -0.08531575 -0.096086115 -0.21305288
0001f0 c7 a9 4c be a0 2d 25 3e 10 6b ea bd e4 bd 5f bd
       -0.1998664 0.16130686 -0.11446202 -0.054624453
000200 0a cf 40 be ac a7 13 be e8 9f 96 3d 6c b9 04 bd
       -0.18828979 -0.1441943 0.073547184 -0.032403395
000210 ae 8b b6 bd e2 2a 2d 3e 58 eb 0e 3d 88 d4 41 3e
       -0.089133605 0.1691089 0.03489241 0.1892873
000220 5c 28 48 bd ee 6f fd bd 90 6a 61 bd 80 c7 67 3c
       -0.048866615 -0.123748645 -0.055033267 0.014146686
000230 b4 34 82 3d c5 7b d7 bd b2 96 2e 3e 9c 0b 93 3d
       0.063577086 -0.10521654 0.17049673 0.07179949
000240 53 b3 3a be c2 a3 14 3e d2 46 21 be 9c ae cb 3d
       -0.1823247 0.14515594 -0.15749672 0.099454135
000250 c8 f8 3a 3d 74 eb 76 bd 20 98 7b bd 77 b6 1e be
       0.045647413 -0.06028314 -0.061424375 -0.15499292
000260 11 b1 49 be 22 87 d1 bd 04 5c 12 be dc 33 97 3d
       -0.19696452 -0.10230853 -0.14292914 0.07382938
000270 94 7a 09 3e 6c 59 3b bd cc ed 28 be 94 9d 18 be
       0.13425666 -0.045739576 -0.16496962 -0.14903861
000280 ed 04 11 be a8 c1 79 3d d8 de 20 be 10 98 9e 3c
       -0.14162035 0.0609757 -0.15710008 0.019359618
000290 d0 2a 70 bc c4 6b c6 3d 16 e0 01 3e f4 a9 8f bd
       -0.014658645 0.096885234 0.12683138 -0.07014838
0002a0 54 41 7a bd 34 67 b4 3d ae 3b 33 3e 52 b1 20 3e
       -0.061097458 0.08808747 0.17503235 0.15692642
0002b0 f6 b2 3b 3e ee 22 3b be 09 90 1f be 70 25 60 bc
       0.18329987 -0.18275043 -0.15582289 -0.013680801
0002c0 df 95 60 be 94 f7 21 be 20 cf 14 3c 60 83 2b 3d
       -0.21932171 -0.158171 0.009082586 0.041873336
0002d0 2a 81 0b be 92 fe 48 3e f0 12 c3 bc 8c b0 4c bd
       -0.13623491 0.19628361 -0.023812741 -0.049973056
0002e0 4a f2 0b 3e d4 ff 5e be 7e 0d 4a 3e 48 43 f3 3d
       0.13666645 -0.21777278 0.1973171 0.11878067
0002f0 8c 78 e3 3d 28 94 33 bd df 45 5a be 5f 95 29 be
       0.11106977 -0.043842465 -0.21315716 -0.16560887
000300 5c f6 03 be e7 c3 f2 bd 88 3e 05 3d 30 b6 96 bc
       -0.12886947 -0.11853772 0.032530338 -0.01839742
000310 1e 16 8e bd 9e 0f 87 bd 08 73 1c be e8 91 67 bd
       -0.06937812 -0.065947756 -0.15278256 -0.05653563
000320 14 fa 04 be d4 21 3c bd 82 09 84 bd c8 50 09 be
       -0.12986022 -0.0459307 -0.06447126 -0.13409722
000330 4a 54 ee bd 70 d6 40 3d f0 f8 3e 3e 72 6a 2d 3e
       -0.116371706 0.047079504 0.1864965 0.16935137
000340 20 6c 44 3d a0 f7 7a bc 18 fc 78 bd 80 27 c1 ba
       0.04795468 -0.015317827 -0.06078729 -0.0014736503
000350 10 64 56 be 30 74 6d 3d 4e bf 31 3e 6c 6b 5c bd
       -0.20936608 0.057972133 0.17358133 -0.053813383
000360 f8 9c 90 3d f0 ca 26 bc c0 46 ac bc eb 86 5a be
       0.070611894 -0.01018022 -0.02102983 -0.2134053
000370 26 6c 46 3e 9c 7f f0 3d 38 2e 8a 3d 7e 01 3f 3e
       0.19377193 0.117430896 0.06747097 0.18652913
000380 a4 6f 55 be 50 7b 06 bc fe f1 37 be 0d 22 09 be
       -0.20843369 -0.008208111 -0.17963406 -0.13391896
000390 67 9e f8 bd 10 55 65 3d db f5 61 be a6 14 04 3e
       -0.12139588 0.055989325 -0.22066443 0.12898502
0003a0 8c d3 52 3e e0 d8 58 3d 98 4d b7 bd 60 e1 7b 3d
       0.20588511 0.052941203 -0.08950347 0.06149423
0003b0 72 13 3a 3e 23 b4 28 be b0 58 3f 3e 2c f6 de 3d
       0.1817148 -0.16474967 0.18686175 0.10886797
0003c0 80 7e a9 3d 24 c3 98 bd ee 85 23 3e 74 d9 b1 3d
       0.08276081 -0.07459095 0.15969059 0.08684054
0003d0 98 f2 51 3e cc c3 fc bd 3a 40 5d 3e 88 4c 59 3e
       0.20502698 -0.12342033 0.21606532 0.212206
0003e0 58 7d a5 bd 97 99 02 be e1 f8 c9 bd 10 d7 0a 3d
       -0.08080548 -0.12753902 -0.09861923 0.033896506
0003f0 df 91 dc bd f8 69 50 3d a0 f4 48 3e 50 4e 27 bd
       -0.1077001 0.05088231 0.19624567 -0.04084617

bias f4 [1, 20]
000000 00 00 00 00 00 00 00 00 00 00 00 00 00 00 00 00
       0.0 0.0 0.0 0.0
000010 00 00 00 00 00 00 00 00 00 00 00 00 00 00 00 00
       0.0 0.0 0.0 0.0
000020 00 00 00 00 00 00 00 00 00 00 00 00 00 00 00 00
       0.0 0.0 0.0 0.0
000030 00 00 00 00 00 00 00 00 00 00 00 00 00 00 00 00
       0.0 0.0 0.0 0.0
000040 00 00 00 00 00 00 00 00 00 00 00 00 00 00 00 00
       0.0 0.0 0.0 0.0

weight f4 [20, 20]
000000 2b 46 0a 3e 9f b2 00 3e cd fe 48 bd d9 cf 33 bd
       0.1350333 0.12568139 -0.049071122 -0.04389939
000010 85 6f f0 3d af 44 24 3e 2b 41 65 bd 6a d1 92 3d
       0.11740021 0.16041826 -0.055970352 0.07168849
000020 43 5f 11 3e d4 16 20 3d b4 46 02 be 29 f5 6e be
       0.14196496 0.03908427 -0.12722284 -0.23335709
000030 f7 49 1d bd a3 1c 1b 3e b6 e1 1b be 2c 94 3c 3e
       -0.038400616 0.15147643 -0.1522282 0.18415898
000040 fd 58 ff 3d 96 bb 69 3e 8e 0e 39 bd cd d2 c1 3c
       0.12468145 0.22825465 -0.045179896 0.023660088
000050 2d ec fd bd c2 a8 f1 3d a6 f1 5e 3e 83 9c 09 3d
       -0.123985626 0.11799766 0.21771869 0.033596527
000060 ea 6e 04 bc cf c6 26 be a8 a7 73 3c 71 82 0e be
       -0.008083085 -0.16286777 0.014871515 -0.13916947
000070 71 d9 fe 3d 9c b3 f3 bd 98 43 84 3e 34 d4 3a 3e
       0.124438174 -0.11899492 0.2583282 0.18245012
000080 de eb b7 3d 63 5a ff 3d ad 1a b8 bd 09 f1 5a 3c
       0.08980535 0.12468412 -0.08989463 0.013363131
000090 15 d1 e8 3d 9d a5 a2 bc bb 44 04 3e 29 11 74 3e
       0.11368004 -0.019854361 0.12916844 0.23834671
0000a0 a5 1b aa 3d d2 1b 01 bd 82 6c 95 bc f8 ac 44 3e
       0.08306054 -0.031520672 -0.018240217 0.19206607
0000b0 50 14 33 be b3 f5 2a 3e 9c b2 1b 3e fb 04 97 3e
       -0.17488217 0.1669529 0.15204853 0.29495987
0000c0 92 93 ae 3b ee 68 1b be 71 62 e6 3e 92 f7 a7 3c
       0.0053276503 -0.15176746 0.4499698 0.020503793
0000d0 c9 0f aa 3d ac fe 18 bc b2 a5 86 bb cf 6f f7 3d
       0.08303792 -0.009338062 -0.004109108 0.12081873
0000e0 45 fe fd bd d5 b4 18 bd 25 a3 38 ba 97 c6 b0 3e
       -0.12402014 -0.03728183 -0.00070433534 0.34526512
0000f0 ef 9e c4 bd d3 d4 e8 3c 00 2a cc bc e3 54 14 3c
       -0.09600627 0.028421795 -0.02492237 0.009053442
000100 79 6a fe 3d 2f 0d 44 be e5 5c 87 3e c6 8c 86 3e
       0.12422652 -0.19145654 0.2643806 0.26279277
000110 e1 c5 5d bc 84 dc 91 bd ef 78 f4 3e 6b e3 68 3e
       -0.013535948 -0.07122138 0.47748515 0.22743003
000120 2e 20 7e be e8 ce c7 bd 6d b4 e5 3c 21 ee b3 3e
       -0.24816963 -0.09756261 0.028040135 0.35142615
000130 ae 4c fb 3d db dc d6 3e f7 cf a5 3e fc 80 93 3d
       0.12270485 0.41965374 0.32385227 0.07202336
000140 c7 08 b6 3d 97 bc 8c 3e 59 1c 55 be 67 12 8a 3c
       0.08888393 0.27487633 -0.20811595 0.016854478
000150 1e 38 b0 3d e4 78 33 bd 05 1f af 3c c0 83 a5 be
       0.086044535 -0.043816462 0.021377096 -0.3232708
000160 62 53 79 be 3d 1a af 3e 65 62 69 3d 1d f9 55 3c
       -0.24348214 0.34199706 0.056978602 0.0130598815
000170 5f e1 64 bd 8f 43 ba 3d 1a 0e 20 3e 17 2d f2 bd
       -0.055878993 0.09094917 0.1563038 -0.118250065
000180 55 1c 50 3e e0 76 9d be a6 59 0e be 15 7f 93 be
       0.20323308 -0.30754757 -0.13901386 -0.28807893
000190 a2 86 35 3e 9f 4b 2e 3d 5d 05 13 3e 1f 73 50 be
       0.1772714 0.042552587 0.14357515 -0.20356415
0001a0 cd a0 54 be cc ba 51 3e 97 de 7e bd 98 2e ac be
       -0.20764466 0.20481414 -0.062223997 -0.33629298
0001b0 c8 18 e6 bd 9b 73 9e 3e 4c 18 64 bd 9c c6 4d 3d
       -0.112351954 0.30947575 -0.055687234 0.050238237
0001c0 2f c4 8c 3e 7d 39 ca bc fc 25 db 3d 40 33 7d bd
       0.27493426 -0.024685616 0.10700604 -0.061816454
0001d0 6b 75 52 be b6 94 6a be 24 a2 85 be e2 7f cb bc
       -0.20552604 -0.22908291 -0.26100266 -0.024841253
0001e0 62 42 93 be 1e 73 db bd ce db 62 be d1 52 94 3e
       -0.28761584 -0.10715316 -0.22154161 0.28969434
0001f0 4d 95 df bd 87 0a ed bd 38 91 ad bd 71 67 b5 3e
       -0.10917149 -0.115742736 -0.08474964 0.35430482
000200 49 cf 73 3d 2e b4 1d be fd 7c b1 bd 2e 61 8d 3d
       0.059523854 -0.15400764 -0.08666418 0.06903301
000210 28 39 46 be 69 07 d2 3d cf e7 2b be 97 a4 71 3e
       -0.19357741 0.102553196 -0.16787647 0.23597942
000220 e4 27 13 be ab c5 09 3e 5a e9 3d 3d 2f 90 91 3e
       -0.14370686 0.1345431 0.04636512 0.28430316
000230 50 1d 53 3c 78 a3 3f 3d c6 44 3c 3e 5b be fe bd
       0.012885407 0.046786755 0.1838561 -0.12438651
000240 8f 64 4e be 2f 98 0f bd d9 69 b9 bd 96 b6 13 be
       -0.20155548 -0.035057243 -0.09053392 -0.1442512
000250 ce fb 11 be 63 08 0e be ef a8 73 3e 71 bd c8 3d
       -0.14256212 -0.13870387 0.23794912 0.09801758
000260 a2 30 0a 3d 85 58 08 3e f4 d2 62 be f1 69 95 3c
       0.033737786 0.13315018 -0.22150785 0.018238993
000270 23 49 d0 bd 87 77 10 3d f7 eb 7b 3e a1 ef 94 3d
       -0.101702 0.03527024 0.24601732 0.07272268
000280 f2 ae 88 3e 00 9d 7d 3e ea fc 2b 3e c7 49 8e be
       0.26695973 0.24766922 0.16795698 -0.27790663
000290 f6 40 9c bd b6 b0 5f 3e f2 35 93 be bf 02 10 be
       -0.07629578 0.21844754 -0.28752095 -0.14063548
0002a0 6c ae 97 be 62 e7 a2 3e ef ec 56 be 9c 1a 97 be
       -0.2962526 0.31817156 -0.2098882 -0.2951249
0002b0 fe 80 d2 bd 8a 64 96 bd 28 c1 47 3e c6 53 10 bd
       -0.102785096 -0.07343395 0.19507277 -0.035236143
0002c0 b7 d1 9a bd d8 f5 c1 be 58 21 1b be b1 c6 c5 be
       -0.07559531 -0.37882876 -0.15149438 -0.38628152
0002d0 11 a3 a5 bc 70 0c e9 bd 2e ea c3 3d 8f 54 9d bd
       -0.020219358 -0.113793254 0.095661506 -0.07682144
0002e0 a2 27 ae 3d 97 81 20 be 68 76 20 3e c5 0a 25 3e
       0.08503653 -0.15674435 0.15670168 0.1611739
0002f0 dd 92 c5 3d b3 a9 9d be f5 0b 10 bd 02 6b 40 3e
       0.096471526 -0.30793533 -0.035167653 0.1879082
000300 cd f7 e9 bd a1 42 38 3e 8b 1c 8c be ed 86 c4 3d
       -0.114242174 0.17994167 -0.27365527 0.095960476
000310 f4 29 c7 3d 24 4a 51 3e f8 5f 85 3e 65 74 98 3d
       0.09724799 0.20438439 0.2604978 0.074440755
000320 47 a3 f4 bc 6e 8a 0f be 34 1f 74 be 02 b2 89 3e
       -0.029863013 -0.1401765 -0.23840028 0.26893622
000330 33 2b 87 3d b3 41 22 be 44 de b2 bd ca 3c 91 3d
       0.066000365 -0.15845375 -0.087338 0.07091673
000340 c2 aa 2d 3e 94 c0 ee bb da 9a d7 bd 52 73 4b be
       0.1695967 -0.0072861407 -0.105275825 -0.1986821
000350 56 84 56 bc eb ca 2d bc 2d 67 42 be f8 6f a6 3e
       -0.013093075 -0.010607461 -0.18984671 0.325073
000360 de 1a fe bd 30 ca 72 3e 5f 8e c8 3d 31 c2 9f 3d
       -0.12407468 0.23709941 0.0979278 0.07800711
000370 d9 77 70 be c3 e2 9f bd f7 71 28 3e bd f0 f7 3d
       -0.23483218 -0.07806923 0.16449724 0.12106464
000380 d1 14 87 3d 6c 6f 4e bd e9 17 ef 3d 41 de 74 be
       0.06595767 -0.05039923 0.116744824 -0.23912908
000390 23 f1 0e be d0 6b 04 3e e5 2f a4 be 92 c5 a1 be
       -0.13959174 0.12931752 -0.3206779 -0.31596047
0003a0 81 fa ae 3d ca 1c eb 3c 7f 98 8e bd a4 58 0c 3c
       0.085438736 0.028700251 -0.0696268 0.008566055
0003b0 04 a7 87 3d ab d6 88 be 7d b2 9a be ab 98 cd bd
       0.066236526 -0.2672628 -0.302143 -0.10038885
0003c0 60 98 99 3e 35 db 6d 3d b7 f7 20 3e b9 a1 23 3e
       0.29999065 0.05807038 0.15719496 0.15979661
0003d0 d2 e1 8b bd 6c c8 29 be f1 a5 26 3e 02 9e 88 be
       -0.06830181 -0.16580361 0.16274239 -0.2668305
0003e0 f4 76 bd bd 57 5a 6f 3e 0f 1f b5 3d dd 10 40 be
       -0.09251204 0.23374306 0.088438146 -0.18756433
0003f0 84 61 08 3e ae ae c8 bc 22 eb 0c be 27 e3 8c be
       0.1331845 -0.024497356 -0.13761571 -0.27517053

weight f4 [20, 4]
000000 d4 b6 97 3e a4 d8 9d be 50 b8 fb 3d 9a 99 c9 3e
       0.29631674 -0.30829346 0.12291014 0.39375
000010 92 a9 8b be ac 73 91 be fc 30 77 3e 90 aa 25 3e
       -0.2727781 -0.28408563 0.2413978 0.16178346
000020 da d2 a1 be 7e 95 b2 3e c0 d1 2d bd 10 5a 26 3e
       -0.3160618 0.34879678 -0.04243636 0.16245294
000030 f8 b6 fa 3e 50 24 9a bd 80 76 9f 3d 68 5a 44 3e
       0.4896772 -0.07526457 0.07786274 0.19175112
000040 e0 11 15 3e a2 8f a8 be f8 51 04 be b4 26 9d be
       0.145576 -0.32922083 -0.12921894 -0.3069359
000050 82 ca a5 3e ee 1e 96 be 6e c2 fb 3e ea 79 df be
       0.32381064 -0.29320472 0.49171776 -0.436477
000060 f6 24 e6 3e 9c 76 01 be 92 0c ba be 68 8a a4 3e
       0.44950074 -0.12642902 -0.36337715 0.32136846
000070 6c 40 76 3e ec 0b a2 3e 80 89 84 3d 4a ee ff be
       0.24048012 0.3164972 0.064715385 -0.49986488
000080 a4 e8 f4 be 5e 51 92 3e c8 97 9c 3d 40 93 46 bc
       -0.4783374 0.28577703 0.076461375 -0.012120068
000090 f8 d0 b0 3e 4e 98 a2 be 1c fb 24 be 30 0c 7f 3e
       0.3453443 -0.31756824 -0.16111416 0.24906993
0000a0 b0 fc 55 3d 6e 42 e6 3e 4c 0a 2e be c6 9e 94 be
       0.052242935 0.44972557 -0.16996115 -0.29027385
0000b0 a0 d7 a0 3e dc ab c6 3e a8 0d 78 3e fe e0 a6 be
       0.3141451 0.38802993 0.2422396 -0.3259353
0000c0 20 11 0e 3e d0 35 50 3e 94 63 5d 3e 3e f1 a4 3e
       0.1387372 0.20333028 0.21620017 0.32215303
0000d0 fc 4a 45 be 40 f1 26 3e 5c 1f 18 3e d8 67 8c be
       -0.19266886 0.16302967 0.14855713 -0.27422976
0000e0 44 63 0c 3e e2 0c 82 3e 02 9c 8c 3e d8 cb e2 3e
       0.13709742 0.25400454 0.27462775 0.44296145
0000f0 b0 97 48 3d 00 67 e0 3b 40 18 62 bd f6 a8 e6 be
       0.048972785 0.006848216 -0.055198908 -0.45050782
000100 a0 1d a4 3c 42 a6 97 3e 66 55 8c 3e 9c b5 13 be
       0.020033658 0.29619032 0.27408904 -0.14424747
000110 40 4c f2 3e 64 c9 38 be f6 fb 92 be f8 a9 4c be
       0.473238 -0.18045574 -0.28707856 -0.19986713
000120 90 1d 13 be be bb 88 3e 4c c7 54 3e 98 2c 33 3e
       -0.14366746 0.26705736 0.2077915 0.1749748
000130 20 77 a0 3e b6 46 f0 be f6 22 9c be 80 90 55 bc
       0.31340885 -0.46928948 -0.30495423 -0.01303494

bias f4 [1, 4]
000000 00 00 00 00 00 00 00 00 00 00 00 00 00 00 00 00
       0.0 0.0 0.0 0.0

weight f4 [4, 20]
000000 5f ca 2d 3c c3 e7 20 be a4 8e c3 be f7 1f 40 be
       0.010607331 -0.1571341 -0.38194764 -0.18762194
000010 84 d5 44 3e ce 72 04 3e 04 98 0e bd 6e 79 35 be
       0.19222075 0.1293442 -0.034812942 -0.17722103
000020 7b 9e 8a 3e 52 ae e3 bd d9 dd 3d bd 55 ea a8 3e
       0.27074036 -0.11117233 -0.04635415 0.3299128
000030 22 83 38 3e c0 ff 49 3e 9a bb a0 be 0b e3 5b 3e
       0.18018773 0.19726467 -0.3139313 0.21473329
000040 ec 32 83 bd ac 33 56 3d 1c 19 25 be dd fe 82 be
       -0.06406197 0.052295372 -0.1612286 -0.2558507
000050 49 7b a7 3d c6 cd 4a 3e ab 4a f2 bb 38 cf 96 bd
       0.08177812 0.19805059 -0.007394155 -0.073637426
000060 ed 6f 96 3e ff f9 f2 bc d1 e1 10 be 11 10 50 bd
       0.29382268 -0.029660223 -0.14148642 -0.050796572
000070 3f a8 80 3e 48 7b 94 be a5 df de 3d 58 eb 23 be
       0.25128362 -0.29000306 0.108825006 -0.16007745
000080 12 8b f5 3d d0 96 26 3e d0 67 95 be 02 b0 95 bd
       0.11989416 0.16268468 -0.29180765 -0.073089615
000090 fb cc 7c 3e bc 95 87 3e bc 59 71 bd 03 ab 8c bd
       0.24687569 0.26481426 -0.058923468 -0.068685554
0000a0 eb 6a f9 bd fa 48 57 bd d3 b7 4b be a3 ae 89 bd
       -0.12178596 -0.05255983 -0.19894342 -0.067227624
0000b0 bf 8f b5 3d 1d 69 20 3e e9 01 7f be 02 62 93 3d
       0.08865308 0.15665098 -0.24903072 0.07196428
0000c0 90 d9 6f 3e 3e a0 41 bd 44 1c 42 be 8c 3c 09 3e
       0.23422837 -0.04727196 -0.18956095 0.13402003
0000d0 8b 2b d2 bc 4c 07 0b be dd 8d 26 be 93 ab 59 bd
       -0.025655529 -0.13577002 -0.16265054 -0.05314214
0000e0 24 2e 96 3d 0f b3 69 3d 96 f6 27 be fb f2 87 be
       0.073330194 0.05705553 -0.16402659 -0.26552567
0000f0 95 e3 3b be c4 aa ce bd 52 dc ae be 20 f5 65 bd
       -0.18348534 -0.10091165 -0.34152466 -0.056141973
000100 c8 b7 a4 bc aa 66 7e 3e b9 e6 1c be 88 f8 5c 3e
       -0.020107165 0.2484385 -0.15322389 0.21579182
000110 98 69 81 3d 22 11 a5 be c9 fd 50 be ff a8 26 be
       0.063189685 -0.32239634 -0.20409311 -0.16275404
000120 f4 93 22 3e 55 f7 1d be 07 01 d4 bd 2d 8b 1e 3e
       0.15876752 -0.15426381 -0.103517585 0.15482779
000130 36 1a 2f 3e fd b3 02 3d 4e 70 b4 3d 1d 32 9f be
       0.17099842 0.03190993 0.08810483 -0.3109292
