neuromancer/datasets/Flexy_air/device_test_models/model1/best_dynamics_flexy.pth (torch, 130807 bytes, 56 tensors)

weight f4 [30, 30]
00000000: a03f 04be 40a5 a7bc 3dd3 0fbe d832 1cbe
00000010: c956 c0bd 6b7e 33be 0025 de3a f6df 9bbd
00000020: 7cea c23d 9908 bdbd 114c dbbd dc7a a5bd
00000030: b90f acbd 5455 5a3d da6d acbd 34a5 bb3d
00000040: ab6a 34be 5085 55bc 3458 44bd a092 e73d
00000050: 1c3f 19bd 50df a3bd b015 4fbc 42cb 323e
00000060: 2489 133d 80eb 01bd e8bf 43bd 3832 b63c
00000070: eea5 1bbe 130a 90bd f4b4 3c3d 743b b93d
00000080: 50d1 37bc 585e f7bd a049 fd3d 6086 323d
00000090: 54a0 cd3d 1447 d23d ce38 283e e451 f8bd
000000a0: 30ff 563c d04f b83d 23e4 25be 40bd 343e
000000b0: 40b4 4abb 7456 9a3d b846 36be 8214 7fbd
000000c0: 5045 b53d 1c6a 353e 285c ee3d 60d3 20bd
000000d0: a0e0 ff3d 522c 34be 3c8f d03d b4df a83d
000000e0: 5cdd bf3d 4f2c 16be 5415 dbbd 5cf1 35be
000000f0: c480 093d 1600 273e 0042 ef3a 081b 69bd
00000100: 5830 623d 6805 cfbc f960 31be a866 d03c
00000110: 7ad3 c1bd 464e 09be 6cd6 14be 1db4 3abe
00000120: d4ff 203e 5c9a 1e3d beb2 1fbe 0035 9fba
00000130: 34f5 ea3d 188a 403d a42d cd3d 7245 083e
00000140: 1af3 2e3e 1c5d c43d 44d5 0b3e fc85 083e
00000150: 701a 963c e83e b03c a42a 093e 487d 983d
00000160: a899 0d3e 56b7 223e b0f6 c23d 4e6c 2b3e
00000170: 1ce1 e53d 80ef 53bc e06f a03b 77e5 d4bd
00000180: 3840 9bbc c8c3 34bd 8cf4 983d f8ca b03d
00000190: 141c 33be f0a2 d93c 68af e73d 6c0d f03d
000001a0: 9421 8cbd 1858 a93c 3091 e33d 3295 373e
000001b0: f83c a43d 5d27 26be d8d1 d8bc 6e0c 393e
000001c0: 8092 81bb 5089 913d 0a52 d6bd 60fd a73d
000001d0: 983c 8a3c 769b a2bd 3557 16be c0d4 683d
000001e0: e207 38be 34a4 273e c041 3dbb 80de 183d
000001f0: 9870 e83d ac29 333e 29fd 10be 64c9 0fbd
00000200: e3b8 bdbd 40f7 b43d 980f 19be 7840 183d
00000210: e046 053d 5871 4dbd d44d 063d 3020 6c3c
00000220: f404 a63d 607f f43b 5578 b2bd a055 fb3d
00000230: cc0e a03d 591b 16be 02ff 38be 9687 cabd
00000240: 604c 21be a852 383d 0ef6 363e 601d 20be
00000250: 3af4 383e 4c21 cb3d 10ac 233d 4540 07be
00000260: b43b 1e3e 507c 1d3c 002b 9b3d 4054 b9bb
00000270: fd18 19be 8035 d53c 0cd5 22bd b0f9 033d
00000280: 50c7 1c3e 744b cf3d 853e 86bd 9273 fabd
00000290: 40c0 103e 5543 2fbe 3569 3abe c03a 083c
000002a0: e867 e23d 8c07 a23d 25b4 06be dd6b b6bd
000002b0: bec2 0a3e 383e 4ebd ec76 15be 424e 33be
000002c0: a0e7 953c b82a e1bd f0cc 3e3d 373e e3bd
000002d0: 774c 94bd 6cfe 003d df8e e4bd 444b 033e
000002e0: 6c9c 8c3d 10be e13d 4440 733d 0a06 37be
000002f0: 660f aebd e88d da3d 748a 1abd aeab 74bd
00000300: fc8d c23d ac9b 1dbe 0000 0c3a 6a53 0abe
00000310: 2255 0a3e cc34 a93d 08b4 243e 5c5b 19bd
00000320: dcd3 083d 624a 273e f5d0 16be b85d 5b3d
00000330: 4a66 123e beae 243e b0d0 2c3e d842 4a3d
00000340: e95f d4bd e818 91bc ec2d b13d 3257 0a3e
00000350: 4cc1 cf3d b092 0d3c dcd3 27bd adc8 a0bd
00000360: a1bc 01be 0044 2ebb 5411 913d d8f4 0fbe
00000370: 1ace 863d 52e8 08be 9488 cb3d a2d7 0f3e
00000380: 70d5 3cbc b803 a63d 621b 9abd e8cc 1fbe
00000390: a8b1 36bd 3af0 303e 406c fcbd 580e 013e
000003a0: 202d 9abd 203a 6c3c 8899 9a3d 6fcf f9bd
000003b0: adfc 8ebd de00 07be 239c f7bd 2409 ed3d
000003c0: 2842 c63c 16cd 6cbd bf4e a2bd a41e bfbd
000003d0: 330b 32be 2fda b2bd 3bb8 e2bd 0054 013c
000003e0: 9522 38be 406d 98bb b4e9 0e3d 2eb6 22be
000003f0: 686a a2bc a9c5 b8bd 921e b1bd e417 5abd
-0.12914896 -0.02046454 -0.14045425 -0.1525377 -0.09391553 -0.17528693 0.0016948283 -0.076110765
0.095173806 -0.092301555 -0.10707868 -0.08080074 -0.08401436 0.05330403 -0.0841939 0.09162369
-0.17618816 -0.013032272 -0.04793568 0.113072634 -0.0374137 -0.08001578 -0.012639448 0.17460349
0.03601946 -0.03171873 -0.047790438 0.022240743 -0.15200016 -0.070331715 0.046071008 0.09044543
-0.011219338 -0.120785415 0.123675585 0.04358518 0.10040346 0.10267463 0.1642792 -0.121249944
0.013122365 0.08999598 -0.16200309 0.17650318 -0.0030930191 0.07536021 -0.17800415 -0.062275417
0.08851111 0.17716259 0.11638671 -0.039264083 0.12494016 -0.17595032 0.1018357 0.08245793
0.09368393 -0.1466534 -0.106974274 -0.17767853 0.033570066 0.16308627 0.0018253922 -0.056910545
0.055221885 -0.025271133 -0.17322148 0.025439575 -0.09464164 -0.13408765 -0.1453492 -0.1823277
0.1572259 0.038721427 -0.15595528 -0.0012146533 0.1147255 0.047006696 0.10018471 0.13307741
0.17084923 0.09588072 0.13655573 0.13332361 0.018323153 0.021514371 0.13395172 0.074457705
0.13828146 0.1589025 0.09519708 0.16740534 0.11224577 -0.012935519 0.004896149 -0.103953294
-0.01895152 -0.044132024 0.074685186 0.08632463 -0.1749118 0.026566952 0.11312753 0.1172131
-0.06842342 0.02067189 0.11111677 0.17928007 0.08019441 -0.16225953 -0.026467249 0.18071148
-0.0039542317 0.071062684 -0.104648665 0.08202624 0.016874596 -0.07939808 -0.14681704 0.05684352
-0.17971757 0.16371232 -0.0028878301 0.037321568 0.113496006 0.17496365 -0.14159073 -0.03510417
-0.0926378 0.08836222 -0.14947355 0.037170857 0.032538295 -0.05015692 0.032789066 0.014411971
0.081064135 0.0074614733 -0.08714358 0.12272191 0.07815322 -0.1465887 -0.18066028 -0.09889142
-0.15751791 0.045000702 0.178673 -0.15636206 0.18061915 0.0991846 0.039959013 -0.1320811
0.15452462 0.009612158 0.07576561 -0.0056557953 -0.14950939 0.026026487 -0.03975396 0.032220542
0.15310407 0.101218134 -0.065548934 -0.122290745 0.14135838 -0.17115529 -0.18204196 0.008314788
0.11054975 0.07911596 -0.13154657 -0.08907292 0.13550851 -0.050352305 -0.14596146 -0.17510322
0.018298924 -0.10994476 0.046582162 -0.11095851 -0.07241147 0.031492636 -0.11160063 0.1282168
0.068657726 0.1102258 0.05938746 -0.17873397 -0.08499031 0.10671598 -0.037729695 -0.05973404
0.094997376 -0.15391415 0.0005340576 -0.13508382 0.13509038 0.08262023 0.16084301 -0.037440643
0.03340517 0.16336969 -0.14728148 0.053556174 0.14296833 0.16082284 0.16876483 0.049380153
-0.10369856 -0.017712072 0.08651337 0.13509825 0.1014429 0.00864093 -0.04097353 -0.07850776
-0.12669612 -0.0026590824 0.07083383 -0.14058244 0.065822795 -0.13369873 0.099381596 0.14047101
-0.011525497 0.08106178 -0.07524754 -0.1560551 -0.04460302 0.17279139 -0.123253345 0.12603128
-0.07528138 0.014418155 0.07548815 -0.12197768 -0.06981788 -0.13183925 -0.120903276 0.11574009
0.024201468 -0.057812773 -0.07925176 -0.09332016 -0.17387085 -0.087330215 -0.110702954 0.007893562
-0.17981942 -0.0046516955 0.034890845 -0.15889809 -0.01982613 -0.09022076 -0.08648409 -0.05324544

bias f4 [1, 30]
00000000: 0000 0000 0000 0000 0000 0000 0000 0000
00000010: 0000 0000 0000 0000 0000 0000 0000 0000
00000020: 0000 0000 0000 0000 0000 0000 0000 0000
00000030: 0000 0000 0000 0000 0000 0000 0000 0000
00000040: 0000 0000 0000 0000 0000 0000 0000 0000
00000050: 0000 0000 0000 0000 0000 0000 0000 0000
00000060: 0000 0000 0000 0000 0000 0000 0000 0000
00000070: 0000 0000 0000 0000
0.0 0.0 0.0 0.0 0.0 0.0 0.0 0.0
0.0 0.0 0.0 0.0 0.0 0.0 0.0 0.0
0.0 0.0 0.0 0.0 0.0 0.0 0.0 0.0
0.0 0.0 0.0 0.0 0.0 0.0

weight f4 [30, 30]
00000000: d994 2fbe 7300 90bc e70f 6ebd 3b28 233e
00000010: 1b5f e03d 6ded 183c 53b8 2dbd 53df c4bd
00000020: b816 42be f215 b03d 7aff 10be dbda bfbd
00000030: 147a 023e 610b 203c 45cf 943c 5355 f73d
00000040: 9bc8 2fbe f736 2b3d dd3f f53b ab89 443d
00000050: ab3f 97bd 4746 d83d 3ca9 04be ae3f 62bd
00000060: 4048 f2bc 6168 843a c9e1 38bd 9c6b 543c
00000070: 2458 023e 1ae1 033e 8bec 8ebc d539 bcbc
00000080: 1b54 443d 7b8a 533d c0e5 d9bd a4c5 e43c
00000090: 1680 9d3d db41 e93d 834d 93bd 8686 cc3a
000000a0: 265f 9b3d f438 09be b828 84bd cb61 7c3d
000000b0: eb82 693b b737 0fbe a65f 7b3d 3aaa 2fbe
000000c0: def0 f93d 020c c33d a393 0ebe 8d3b 203c
000000d0: a8a9 d1bd 41ce 96bd 4c2e 383e 949a 013e
000000e0: 47e2 86bd 70c4 e93d df65 ac3d b656 103e
000000f0: af73 2b3e cc95 a1bc 063a 25be e354 783c
00000100: 1497 bebd 33a7 f9bd 8d45 13be ef4c 163e
00000110: 82c1 a13c 2865 0d3e 6938 923d a4b4 bcbd
00000120: fb82 f0bc 68f4 ee3c 8377 163e 26ca ff3d
00000130: dad0 463d 05a3 f1bd 9176 a6bd 686c 25bd
00000140: a154 413e cc06 29be d0b6 8cbd 67f7 d9bb
00000150: 03f6 bc3c 0a59 1c3e 4b9a 133e 1cf7 363e
00000160: 543e 85bc b053 f23d 9b71 333d 565a 9b3d
00000170: f356 c4bd 28b6 213e 6110 053d 4fdf 123e
00000180: 3ad5 22be 572d 203e 1661 16be 3bdf 16be
00000190: ea0b 0dbe 2904 83bd 7ace 183e 9a06 293e
000001a0: e66e 43bd f687 1cbd fd55 1cbc d266 04be
000001b0: 4fef 9cbd 9e19 cabb 93aa 39be 238e f7bd
000001c0: 6db5 27be 3fef 26be 9443 bbbc 2d34 31be
000001d0: dd41 113e 6e7a 7c3d 7aa1 7abd 0a0e 343d
000001e0: eaf6 0dbe 4bb9 dabb b91f 793d 5342 42be
000001f0: 9283 bebd 6a1f adbd 926a 31be 1bb7 483e
00000200: 7ebc 2ebe b8ec 5abd 0eb2 bf3d 45e9 763c
00000210: f812 adbd 00e1 513d e411 0dbe 8b45 a3bb
00000220: 280b 2cbe 1197 133e fe91 c73d d0e6 08be
00000230: 04b6 263e 25d2 fc3c a91a a6bd 1064 08be
00000240: eab9 50bd 4022 9e3c ea03 333e ebdd 183d
00000250: 0e6c bfbd b4bf cb3d ea93 643d 4863 babc
00000260: 726d 183e 59c3 9a3a bc1e bb3d 9026 703c
00000270: 3653 c5bb 7b1a 5b3d 9274 cebc 7d50 19be
00000280: b9e7 64bd 475f 20bd ecf0 403d 2a47 fa3d
00000290: 8794 303e cbd9 b23c c52d 81bd 81ba 0e3e
000002a0: bf23 2e3e 01f1 603d a17a f4bc c162 0b3e
000002b0: 1fb4 323e 56f9 18be 0607 e73d cf45 29be
000002c0: 12bd e6bd e43b b93c 3819 a73d 88fa 003d
000002d0: 7cd0 0a3e a3f0 ecbd d090 3f3d 80bd 023e
000002e0: 1507 4abd 9fbc f0bd 9ac9 fd3d 7287 bb3d
000002f0: e9f9 183e 5b25 b03c 5b90 8e3d ce77 00be
00000300: 672f 8c3c 3ebb 3f3e ec37 ab3c 37ce 0f3e
00000310: 2425 2fbe e6bf 023e d842 86bd 0ae7 eebd
00000320: d74f 1fbe 2674 ffbd 07c0 843d 815a 25be
00000330: a062 febd 63ae e63d 43c3 50bd bc3a 963d
00000340: 92f5 e43d af6b f2bd 4540 5f3d d288 bcbd
00000350: 73bd 563c 9ec5 aabd 0874 e2bc f1a9 30be
00000360: d67a 97bd 93a1 133e 0f15 ecbd 984c fc3d
00000370: 9677 b43d 85bd 673b 639f 95bd a38c 053e
00000380: 8d57 1dbe 7f9a 37bd 286f 023e 5adc b7bd
00000390: d909 1c3c 5a24 e93d 7b91 3bbc a0dc 52bd
000003a0: 6918 a5bd a6ed 37bb 2ae2 0bbe 6adb 9d3c
000003b0: b857 b3bd 873e 2d3e 310c b7bc c948 06bc
000003c0: a5ad 0ebe dc36 84bd 0071 ac3d 89a0 16be
000003d0: 8171 ea3d a376 13bd 55b7 783d 9ed1 26bb
000003e0: 9be9 1fbe 9a26 d63d 23ca 8dbd 3a0d d5bb
000003f0: 9994 02be 6ef1 ed3d 9457 923c 9b78 d9bc
-0.17146625 -0.01757834 -0.058120634 0.15933315 0.1095564 0.0093339505 -0.042412113 -0.09612908
-0.18953979 0.08597936 -0.14159957 -0.09367915 0.12741882 0.009768338 0.01816524 0.12076821
-0.17166369 0.041800465 0.0074844197 0.047982853 -0.073851906 0.10560279 -0.12955183 -0.05523651
-0.029575467 0.0010101908 -0.0451372 0.012965109 0.12728935 0.12878838 -0.017446777 -0.022976795
0.04793177 0.051645737 -0.106395245 0.027926274 0.07690446 0.11389514 -0.071925186 0.0015604056
0.075865075 -0.13400632 -0.06453079 0.0616167 0.0035631012 -0.13986097 0.061370514 -0.1715478
0.12204145 0.09523775 -0.13923506 0.009779823 -0.102374375 -0.073635586 0.17986411 0.12656623
-0.06586128 0.114144206 0.08417868 0.14095578 0.16743349 -0.019724749 -0.16135415 0.015156957
-0.093061596 -0.12190094 -0.14382 0.14677785 0.019745592 0.1380812 0.07139666 -0.09214142
-0.029359331 0.029169276 0.14694028 0.12489729 0.04853902 -0.11798672 -0.081280835 -0.040386587
0.1887994 -0.16506499 -0.06870806 -0.006651807 0.023066526 0.1526834 0.14414327 0.17867702
-0.016265072 0.118323684 0.043809514 0.075855896 -0.09586897 0.15792143 0.032486323 0.14342998
-0.15901652 0.15642296 -0.14685473 -0.14733593 -0.13774076 -0.06397278 0.14922515 0.16506425
-0.047713183 -0.0382156 -0.009541986 -0.12929848 -0.07662832 -0.0061676046 -0.18131475 -0.12087657
-0.16377802 -0.16302203 -0.022859372 -0.1730506 0.14185281 0.061640196 -0.061189152 0.0439587
-0.13863721 -0.0066749207 0.06082127 -0.18970613 -0.09302439 -0.084532574 -0.1732581 0.19601099
-0.17064092 -0.05344841 0.09360133 0.015070264 -0.084508836 0.051239967 -0.13776356 -0.0049826554
-0.16801131 0.14413096 0.09744643 -0.13369298 0.16280371 0.030861923 -0.08110554 -0.13319421
-0.05095855 0.019303441 0.17481962 0.037321012 -0.09346782 0.09948674 0.055805124 -0.02275242
0.148855 0.0011807486 0.091367215 0.0146576315 -0.0060218824 0.05349205 -0.02520207 -0.1497211
-0.05588505 -0.039153364 0.04710476 0.12220605 0.17244159 0.021832367 -0.06307558 0.13938333
0.17005824 0.05491734 -0.02984363 0.1361189 0.17451523 -0.14938864 0.112806365 -0.16530536
-0.11266531 0.022611566 0.08159107 0.031488925 0.13556093 -0.11569335 0.046768963 0.12767601
-0.04932316 -0.117547266 0.12391968 0.091566935 0.14939083 0.021502187 0.06961127 -0.12545702
0.017112447 0.18723771 0.020900689 0.14043508 -0.17104012 0.12768516 -0.06555718 -0.11665161
-0.155578 -0.124733254 0.06481939 -0.16147806 -0.12421155 0.112637304 -0.050967466 0.073354214
0.11179651 -0.11836945 0.05450465 -0.09205784 0.013106692 -0.08338474 -0.027643219 -0.17252328
-0.07396476 0.14417104 -0.11527454 0.123192966 0.08811872 0.0035360765 -0.07305791 0.1304193
-0.15365429 -0.044825073 0.12737715 -0.089775756 0.009523832 0.11383887 -0.011448259 -0.051479936
-0.080612965 -0.0028065233 -0.13660493 0.019269664 -0.087569654 0.16918384 -0.02234468 -0.008196064
-0.13933428 -0.06455776 0.084199905 -0.14709677 0.114474304 -0.036001813 0.060721714 -0.0025454531
-0.15616457 0.104565814 -0.0692332 -0.006501821 -0.12751998 0.11618315 0.017864026 -0.026546767

weight f4 [30, 30]
00000000: d073 183c 0800 a83c 9475 be3d 80a6 2d3b
00000010: 2418 853d cc81 3c3d f2cc 873d 20dc 3fbc
00000020: 542a 713d afcd a6bd 986c f13d 40b6 0e3c
00000030: e352 e4bd 58d7 393e 8098 493d 589b d73d
00000040: 0df7 20be 10d7 54bc 1815 003e 503c 2b3d
00000050: caaa 283e 4c45 173e 386a ec3d 6af9 f9bd
00000060: e0f3 b8bb bc44 de3d 8d73 92bd 8045 5cbb
00000070: a461 dabd acee 163d 9300 20be 3841 cebd
00000080: 9148 14be 4046 c43d 00be cdbc 89c1 2dbe
00000090: c0b4 5abd 1033 373e d064 703c fe03 e8bd
000000a0: 88d3 913c 2876 e93c 5c46 2f3e d4dd 153e
000000b0: ee2e 96bd 70ed 02be a02c fc3c 1343 edbd
000000c0: 7021 ef3d 56a7 7abd 707f 7c3d bbfe 9dbd
000000d0: a0d6 5f3c 50ae c43c a091 d7bd 442f cb3d
000000e0: 0802 d93d bcee acbd 686b 8d3c a8e1 9ebc
000000f0: 10cf 54bd 06aa 863d 6ff0 39be 6622 c7bd
00000100: 16d9 393e 5e87 fbbd e8fd 983c 7021 95bd
00000110: 7872 f03d 2d34 e3bd 58a3 ae3d 3e81 243e
00000120: ed7e e2bd 2045 fbbb 2895 a3bd 3810 713d
00000130: 787f ad3d 7411 1d3e 68d6 8bbc 78d5 c3bc
00000140: 3ba7 bcbd 1c3f e7bd 50da b93d cccc c43d
00000150: bc21 c0bd 23bc b5bd 44a6 e63d 6cde 933d
00000160: 0f81 36be cc3d 6c3d fc11 803d 4cbe 1fbd
00000170: 402d 573d 09a1 c3bd ae83 123e 2bde b3bd
00000180: ae67 1abe c4ee 1f3e 000c ed3a 7818 3abd
00000190: a00d d03b aced d13d c4f3 20be 68b8 d2bd
000001a0: ae33 07be 45c5 27be f8e1 cabc 00ba 2cbe
000001b0: d08c 993c d946 93bd 847c 9a3d 7f11 10be
000001c0: 5411 a63d ea7b 013e 7493 b73d e210 883d
000001d0: 104e 56bd 471f ecbd 00dd 033e 8ba9 12be
000001e0: 6c41 113e 8e5a 94bd 18d1 b23d 54a6 9a3d
000001f0: 6c79 013e 3c01 b73d 86a1 02be c858 273e
00000200: 2cf7 d0bd e0ce eebc e038 ba3d 4ee8 33be
00000210: c2c9 023e 98f0 023e 188e 383e e02e ed3d
00000220: 3cbf 313e 9088 7cbd 3020 6fbc e613 343e
00000230: 9414 a3bd 0732 01be 08ca b5bc bc84 16bd
00000240: 7c2c 1c3e 541c 18be 208b a13d 707d ab3c
00000250: f805 fc3c 90df 43bd 89ed 21be bcb3 233e
00000260: 6f3e 04be 9c62 db3d 10e8 9fbd 2f5a 91bd
00000270: 9c30 f6bd 509e d2bc c479 753d 908c e33c
00000280: 1ca7 863d 48a7 983d 4cd6 e83d 9679 20be
00000290: f000 363d 3662 72bd 9cd2 0dbe 2250 29be
000002a0: 3952 34be 5f6a e8bd bad8 e8bd f3bc e8bd
000002b0: c004 053c 9cba 343d 3fcd 82bd 406c 72bd
000002c0: 92ae 96bd 0046 43ba 189e e13d 246c 69bd
000002d0: 3038 da3c 182f f73d 26ac 33be 7256 0e3e
000002e0: 8082 47bc 6054 983b 29e1 b8bd 581f 2f3e
000002f0: c038 7ebc c02b 34be 5cf9 293e 7c1d 1c3d
00000300: 3215 313e 17be c4bd 72ca 0ebe f0c1 3cbd
00000310: adfb b7bd 3459 de3d 4812 c7bc c052 2abc
00000320: 8418 24bd 3479 17bd 28df 39be d08c 59bd
00000330: 7e38 0d3e 84e5 923d fa23 223e 30c8 773d
00000340: b05b 28bd f89d 113e 83af 14be 2b14 e0bd
00000350: 08da da3d 9edf 083e 68a3 003d 95a1 84bd
00000360: 3cbf 273d 32e3 843d 44bc de3d 0ec9 273e
00000370: cbde 88bd 46b1 0d3e f80d e4bc c893 f03c
00000380: 7cff 153e 3870 003e fea3 b9bd 8bb5 01be
00000390: 3cbc 333e 5462 debd c4f7 42bd ec1b 18bd
000003a0: 5200 19be ba3c efbd 7097 1ebe 56ee 0b3e
000003b0: 3083 b43d 1c99 033e d47a a93d 3030 0a3d
000003c0: d21b 2abe 82b8 0c3e acb5 ea3d 9b0a a0bd
000003d0: 0339 aebd f86b f53c 1404 e3bd 703d 0a3e
000003e0: 48d2 bd3d 90be dbbc 788d be3d f89b 9d3c
000003f0: 70ff f53c 9613 843d 8c52 833d d035 ea3d
0.009304956 0.020507827 0.0929977 0.0026496947 0.06498745 0.04602222 0.06630887 -0.011710197
0.058878258 -0.081447 0.11788291 0.008710444 -0.11148622 0.18148553 0.0492177 0.10527676
-0.15719242 -0.012990728 0.12508047 0.041805565 0.16471401 0.14772528 0.11543697 -0.12205775
-0.0056443065 0.10852954 -0.07150946 -0.0033610761 -0.10663155 0.03684871 -0.15625219 -0.10071033
-0.14480807 0.095837116 -0.025115013 -0.16968359 -0.053395033 0.17890573 0.014672473 -0.113288864
0.017801061 0.028498724 0.17116684 0.14635402 -0.0733317 -0.12785888 0.030782998 -0.11585059
0.116762996 -0.06119474 0.06164497 -0.077146016 0.01366201 0.0240089 -0.10525823 0.099211246
0.105960906 -0.084439725 0.01726313 -0.01939471 -0.051955283 0.06575398 -0.18158124 -0.09723358
0.18149218 -0.122816786 0.01867576 -0.07281768 0.11740583 -0.11093936 0.08527249 0.16064927
-0.110593654 -0.0076681525 -0.07987434 0.058853358 0.08471578 0.15338689 -0.01707001 -0.0239055
-0.09211584 -0.11291334 0.09074843 0.096093744 -0.09381434 -0.08873775 0.112621814 0.07220158
-0.1782267 0.05767612 0.0625343 -0.03899984 0.05253339 -0.095521994 0.14308044 -0.087826096
-0.15078613 0.15618426 0.0018085241 -0.04543349 0.0063492805 0.102504104 -0.15717989 -0.10289079
-0.13203308 -0.16383846 -0.024765953 -0.16867828 0.018743902 -0.071912475 0.07543281 -0.14069174
0.08108774 0.12644926 0.08963671 0.06643845 -0.05232054 -0.11529403 0.12877274 -0.14322488
0.14185113 -0.072438344 0.08731288 0.07551256 0.12643975 0.08935782 -0.12756929 0.16342461
-0.10203394 -0.02915138 0.09092879 -0.17569086 0.12772277 0.12787092 0.18022954 0.11581206
0.17358106 -0.061653674 -0.014595076 0.17585716 -0.07962909 -0.1261674 -0.022191063 -0.03674768
0.15251344 -0.14854556 0.07887864 0.020933837 0.030764565 -0.047820628 -0.15813269 0.15986532
-0.12914442 0.107121676 -0.07807934 -0.07097279 -0.1202099 -0.025710255 0.059930578 0.027776986
0.06574842 0.07453781 0.11368999 -0.15671381 0.044434488 -0.059175692 -0.13849872 -0.16534474
-0.1760949 -0.11348414 -0.11369462 -0.11364164 0.008118808 0.044123277 -0.06386804 -0.059185266
-0.073575154 -0.00074490905 0.11016482 -0.056987897 0.02663812 0.12069529 -0.17546138 0.13900164
-0.01217711 0.00464873 -0.09027321 0.171018 -0.01551646 -0.17594814 0.1659903 0.038114056
0.17293242 -0.09606569 -0.13944414 -0.04608339 -0.0898355 0.10856858 -0.02430071 -0.010395706
-0.040062442 -0.036980823 -0.18151534 -0.053112805 0.13791081 0.07172683 0.15834036 0.060493648
-0.041103065 0.14220417 -0.14520077 -0.10941347 0.106861174 0.13366553 0.031405836 -0.06476132
0.04095386 0.064886466 0.108757526 0.1638529 -0.066831194 0.13837156 -0.027838692 0.029367343
0.14648241 0.12542808 -0.09064482 -0.1266691 0.17552274 -0.10858598 -0.04759957 -0.037136003
-0.14941528 -0.116815045 -0.15487456 0.13665137 0.088140845 0.12851375 0.08275381 0.03373736
-0.16612175 0.13742259 0.114604324 -0.07814523 -0.08506968 0.02995871 -0.11084762 0.13499999
0.092686236 -0.026824266 0.09304327 0.01923941 0.030029029 0.06449048 0.06412229 0.11436045

bias f4 [1, 30]
00000000: 0000 0000 0000 0000 0000 0000 0000 0000
00000010: 0000 0000 0000 0000 0000 0000 0000 0000
00000020: 0000 0000 0000 0000 0000 0000 0000 0000
00000030: 0000 0000 0000 0000 0000 0000 0000 0000
00000040: 0000 0000 0000 0000 0000 0000 0000 0000
00000050: 0000 0000 0000 0000 0000 0000 0000 0000
00000060: 0000 0000 0000 0000 0000 0000 0000 0000
00000070: 0000 0000 0000 0000
0.0 0.0 0.0 0.0 0.0 0.0 0.0 0.0
0.0 0.0 0.0 0.0 0.0 0.0 0.0 0.0
0.0 0.0 0.0 0.0 0.0 0.0 0.0 0.0
0.0 0.0 0.0 0.0 0.0 0.0

weight f4 [30, 30]
00000000: 590d 08bc ccfa 1bbe c61d 373e a883 c9bd
00000010: 62b3 f13d d64f 33bd 4b7b 0c3e f6f4 07be
00000020: b77e 093e 6f31 cf3d 9305 1c3e f019 873d
00000030: f0c5 c83d 8d87 003e e7a9 c7bd 623b 1fbe
00000040: e3ed bcbc 79e0 093e f846 0bbd cdd8 d7bd
00000050: 5e89 193e 684e 94bd c074 02be 1dba 833d
00000060: 6e2b e2bd 69aa f73d 94d2 c0bd c5b7 703d
00000070: c04f 863c 1182 d43d a4ed d5bd 6d45 5c3d
00000080: 7d03 243d c44a 79bd cdcf 39be 4768 efbc
00000090: 3348 e33d 4b5d cebc cae5 e43d 9606 21be
000000a0: 1333 2c3d 0804 f2bc edba 033e e948 c83d
000000b0: 2968 0cbd 409d 1d3e 5d0d 263e 1590 0a3d
000000c0: 6dfe 0f3c 9a9d 84bc c7e3 8f3d 4d61 37be
000000d0: b155 133d 4ed2 d9bc f303 32be d9bc 0bbe
000000e0: 6b97 0b3e adce 33bd 06f3 3dbe 838c 83bc
000000f0: 7ae8 21be f7a7 b4bd f9a3 14be c944 233e
00000100: 4987 94bd e34d ecbd 8282 c7bb 0d16 e03d
00000110: 4fae 3dbb 9337 c5bd 2717 173e 2cca 9cbd
00000120: 8bce 593d 2d81 4bbc 3232 f43d 2d2d 31bc
00000130: 3beb dd3d a464 8c3d 1222 33bd abc8 e8ba
00000140: 2bde ad3c f97c 11be 5682 063e 497d 21be
00000150: 65c3 3a3e 8b18 8cbd d15d f13d d552 eb3d
00000160: 908a 61bd 9b06 3c3e e1e7 4bbc d292 043e
00000170: 2386 95bd 7226 c13d 16a2 cebc d9dc e63d
00000180: e10e 1dbe 5e55 0d3e 9d32 e9bc d858 9dbb
00000190: ea85 80bd 913b 9e3d e6d6 0a3e 05ae f3bd
000001a0: 8e61 e13d 2e85 e6bc 5541 0cbd 2d6f f43d
000001b0: 6992 2bbe 49dd d7bd 931d f13c 772c 38be
000001c0: b2ec 563d 72f9 00be 3df4 e93d 1658 37be
000001d0: 9356 103e 77e9 80bc 7f5f 0a3e 00c7 f1bd
000001e0: af98 babc d321 1e3e 49d9 c63d a200 02be
000001f0: c4ab aa3c d199 363e 009e 173e ed5b 233e
00000200: c2ad 4d3d af03 e6bc 1453 043e df2c 2ebe
00000210: 65ee 303e f7ad 2fbe 8717 24be a5a7 103c
00000220: 6787 583c a58a de3d 1b90 483d dbf0 543d
00000230: 37f9 4c3d 498a 853d 4647 293d e13c 84bd
00000240: c7c3 0cbe 271a b33d 240d 173e c61b 0c3d
00000250: b318 27be e12f 0bbb bc22 21be 3f5c 37bd
00000260: ccaf 9d3b 796d ffbd 71b4 6ebc 255c 11be
00000270: f3b4 073e 7ee5 0a3e cc04 943d 79ba 4a3d
00000280: 8c5f 9fbd e53b e53d c17f c43b dbf6 c53d
00000290: 18cd 9abc 1de2 97bd 58f9 a63c 4c9b 2fbe
000002a0: d8d8 09be a8ee fd3b fafc 22be d74a 0bbe
000002b0: 1bca 623d 4b8c 91bd 97e2 80bd 2184 c83d
000002c0: b749 293e 2c27 943b 33bf 323e 08b6 72bc
000002d0: c80c 9a3d 1e84 03be 46c1 133e eabd 1cbe
000002e0: f7ff dbbc 9efe f5bd 667d 1cbe 794d e53c
000002f0: 51dc d73d e4e7 ee3d b380 8f3d ac94 fe3d
00000300: 20b8 1ebe 9009 d53c e3c3 22be 04c0 073d
00000310: c469 163e ccd2 953d 7b4f 1abe af05 163c
00000320: fcf9 04be db4d 2ebe aae7 c4bd 1533 e13c
00000330: ce73 c53d 15d7 7cbd 2634 98bd 1650 8b3d
00000340: ed3f d43d aa66 053d a697 ffbd 75a9 02be
00000350: ca06 f93d 2b27 443e 4e30 21bd 1a4b 8a3d
00000360: d947 dd3d 91d7 0e3e 25b9 383d b80b 07bd
00000370: 2f21 11be 4823 7a3c 24e9 3bbb f1e6 b93c
00000380: 5062 25bc a4e8 1d3e d21c d73d fa01 aabc
00000390: 84af 283a 9389 e43c 6469 543d ff2e 803d
000003a0: 0ec3 9bbd 8cbc bd3d 84aa 243e c8e6 ffbd
000003b0: f749 ff3d a53e 0cbe f625 9c3d 04c7 853c
000003c0: 7c01 a43d 8632 803c e3ec e0bd 769a f6bd
000003d0: 2f60 973d cf2a 893d e04b 98bd 4e7b 023d
000003e0: 9f59 08be 969d db3d 22b3 f1bc 2684 babd
000003f0: cc78 6d3d 4354 ac3b c417 32be 14bc 173e
-0.008303964 -0.1523239 0.17882451 -0.098395646 0.11801793 -0.04377731 0.13718908 -0.13277039
0.13427244 0.101168506 0.15236501 0.06596744 0.098033786 0.12551709 -0.09749203 -0.15549996
-0.023062652 0.13464536 -0.034003228 -0.10539398 0.14993808 -0.07241517 -0.12739849 0.06431983
-0.1104344 0.1209305 -0.094151646 0.058769006 0.01639545 0.10376371 -0.10445717 0.053777147
0.04004239 -0.060862318 -0.18145676 -0.029224528 0.11097755 -0.02519097 0.11176641 -0.15725169
0.042040896 -0.029542938 0.12864275 0.097795315 -0.034279022 0.15392017 0.16216035 0.033828814
0.008788687 -0.016188432 0.07025867 -0.17908211 0.035970394 -0.026589539 -0.17384319 -0.13646258
0.1363198 -0.043898273 -0.18549737 -0.016058212 -0.15811339 -0.08821099 -0.14515676 0.15944208
-0.07252366 -0.11538293 -0.006088556 0.10941706 -0.0028943007 -0.096297406 0.14754926 -0.07655749
0.05317549 -0.012420935 0.119236365 -0.010813993 0.10835882 0.06855133 -0.043733664 -0.0017759999
0.021224102 -0.1420783 0.13135657 -0.15770449 0.182386 -0.06840619 0.11785472 0.11490408
-0.055063784 0.18361895 -0.012445421 0.12946633 -0.07300975 0.09431161 -0.025223773 0.11272592
-0.15337707 0.13802096 -0.028466517 -0.0048018508 -0.06275542 0.07726205 0.1355854 -0.11898426
0.11004935 -0.028139677 -0.034241993 0.119352676 -0.1675507 -0.10540254 0.029433047 -0.17985712
0.052471824 -0.12595156 0.11423538 -0.17904696 0.14095525 -0.015736325 0.13512991 -0.11805534
-0.022777883 0.1544259 0.097094126 -0.12695554 0.020833857 0.17832114 0.14806366 0.15953036
0.050214536 -0.028077928 0.12922317 -0.17009304 0.1727844 -0.17156206 -0.160246 0.008829032
0.013215876 0.10866288 0.048965555 0.05198751 0.050042357 0.065205164 0.041327737 -0.06456924
-0.13746558 0.087452225 0.14751107 0.034206174 -0.16318016 -0.0021238255 -0.15735906 -0.044765707
0.0048122164 -0.12472052 -0.014569388 -0.14195307 0.1325262 0.13564107 0.072274774 0.04949424
-0.07781896 0.111930646 0.0059966748 0.096662246 -0.018896624 -0.074161746 0.020382568 -0.17149085
-0.13461626 0.0077493973 -0.15916815 -0.13602768 0.055368524 -0.07106837 -0.062932186 0.097908266
0.16532026 0.004521271 0.17455749 -0.014813907 0.07521969 -0.12843367 0.14429197 -0.15306821
-0.026855452 -0.12011455 -0.1528221 0.027991043 0.10540069 0.116653234 0.07006969 0.12430701
-0.15499926 0.026005536 -0.15895037 0.033142105 0.14688784 0.07315597 -0.15069382 0.0091566285
-0.12985986 -0.17021887 -0.09614499 0.027490178 0.096412286 -0.061728556 -0.074318215 0.068023846
0.103637554 0.03256861 -0.124800965 -0.12759955 0.12159498 0.19155566 -0.039352708 0.06752606
0.108047195 0.1394942 0.045098443 -0.03297016 -0.14172815 0.015267201 -0.0028672898 0.02269313
-0.01009424 0.15420777 0.10503544 -0.020752896 0.0006434845 0.027897632 0.05185832 0.06258964
-0.07605563 0.09264478 0.16080672 -0.1249519 0.124652795 -0.13695772 0.07624428 0.01633025
0.080080956 0.015649091 -0.109826826 -0.1204118 0.073913924 0.06697618 -0.07436347 0.031855874
-0.13315438 0.107234165 -0.029504362 -0.091072366 0.05797653 0.005259068 -0.17391878 0.1481784

weight f4 [30, 30]
00000000: a00e 1dbd 6843 23bd a415 50bd 6c8e 153d
00000010: 33d8 38be 2c8c d63d 28a2 233e 0cb4 233e
00000020: e827 ad3d 8c6a fd3d 2c30 1d3d 1c11 3ebd
00000030: f468 d2bd e81e 29be 2032 db3c a86e 6e3d
00000040: e4c4 23be 727a bdbd f42f 10be 206c ef3d
00000050: 91d2 11be 90b4 bebc 70d3 ad3d 005c 033e
00000060: 203e 3a3e bc18 ddbd 801f 0e3c 4036 223c
00000070: 3d30 0dbe 0a29 223e e408 803d 82cd 9ebd
00000080: 7492 5abd d029 36bc 288d c3bc 9439 65bd
00000090: a86c e93c 0301 b3bd b2e2 153e 70c7 3d3c
000000a0: 50e3 a1bd 343d fcbd 648e 1dbe c953 0dbe
000000b0: a0a7 2e3c e512 09be 943d 053e b865 d13d
000000c0: 5e7d 303e 704b a1bc 6022 37be 2093 673c
000000d0: 409a 153c 94d8 1abd 50e7 e73c d454 2d3d
000000e0: a425 943d 20d2 7e3c 1292 133e d06d 44bd
000000f0: 66b6 c8bd d2df 26be f254 1ebe 6aa6 003e
00000100: b8c9 693d fef2 35be abaf 1abe efbe a8bd
00000110: b815 c3bc 45a9 16be f0a5 123c 4dc7 89bd
00000120: 0471 24bd 873d 9bbd d648 043e 5073 8e3c
00000130: 4142 1abe 803c 6f3c 6898 1ebd bfc6 07be
00000140: 644d 213e a439 2d3e a0b0 e63d 0020 883d
00000150: 748f ebbd b82c 0d3d d829 503d cc13 45bd
00000160: 2608 8abd 2453 ba3d ec27 5e3d e527 34be
00000170: 7119 f2bd 4135 0dbe d0db 72bc 646e d83d
00000180: 00a0 9c3a 5017 aabc bf7f 31be 48f3 4e3d
00000190: 916a f3bd cc85 363d 9ebc 113e 7cb4 b7bd
000001a0: 282b f8bc e83a 9e3c 1b20 1dbe e4ee 3cbd
000001b0: c839 e13d 6007 7e3c 7834 b63d f0c1 4fbd
000001c0: 8092 80ba bc13 01be b6cf 0b3e f09d 2c3e
000001d0: 9c38 603d 8c9b 523d 3ac3 883d 401d 9e3b
000001e0: 3ff7 31be f001 583d 7c30 023d 3080 9ebd
000001f0: a44f 63bd 7459 763d 3802 24bd ec07 f33d
00000200: 80b1 82bc 2ea2 1fbe 56ec 6ebd 7ca5 cebd
00000210: d2b3 2e3e 1ead 34be 0863 053e f8b3 8e3d
00000220: a081 11be 5c0e 48bd 717f 0bbe 94fd 243e
00000230: 9866 ee3d 0094 af3d 294a 2bbe 90eb 71bc
00000240: b084 d73c 9420 ab3d 0f17 9ebd 6735 19be
00000250: ec07 0cbd 8ebf 2f3e 2c59 ec3d e40e 6f3d
00000260: c8c6 493d 7c47 b6bd 30c8 a23c e647 113e
00000270: 0843 5cbd b17b 3abe ee5d 8bbd 5a0d 05be
00000280: c050 6abb 7541 d8bd 3cc5 983d c801 d03c
00000290: a4b0 b63d 4b58 18be dfd4 1bbe 1c58 a43d
000002a0: 48cb 7b3d f653 063e 505d 70bc f40c 2fbd
000002b0: fc20 423d 184a 1d3e 60f3 c53d a804 5cbd
000002c0: 4dd4 91bd 86ec 2a3e 24ca 173e 58ba 40bd
000002d0: e05e 463d 9f93 19be d09a 143e 8a17 333e
000002e0: dce1 b9bd 2824 87bc 98ca 0ebe 0073 c63a
000002f0: 74c0 623d f8ff a93d 6852 ac3d fcc9 6a3d
00000300: 28a0 c1bc 7c83 883d eea7 f9bd 1c2e 043e
00000310: 565e edbd 7bc9 1bbe c406 72bd 4c79 bd3d
00000320: f8e1 5e3d 200b 553c 4c2d 88bd 2c60 173e
00000330: 6925 81bd e0c3 29bc 0e69 ffbd f543 f1bd
00000340: f4e3 08bd 4241 133e bc7e f23d b553 2ebe
00000350: 20d3 d2bb 5aac 24be 6d4e 14be 6e82 b5bd
00000360: 506d c83d 8098 c0bb 5824 0cbe 40de 55bd
00000370: 6c1b 383e 6965 34be e0e0 243d fe77 76bd
00000380: c615 e2bd 3064 6ebc fef4 193e 8acb 843d
00000390: fef4 7bbd 9a9f 33be 2070 d0bd 7114 b2bd
000003a0: 8007 bd3b 18a3 213e 0c21 f7bd a0ec 373c
000003b0: b3a8 29be 2061 55bc 40c7 d2bc 233b 36be
000003c0: 7868 1c3e 806b c73a a7e8 afbd 775f 1dbe
000003d0: 87e4 94bd 8044 34bd 46af 143e 82e1 9abd
000003e0: 2abd 2a3e 71e6 09be 44a5 cb3d b821 633d
000003f0: 18e2 bebd 3c64 22bd 1f6a 26be d60b 0f3e
-0.038344026 -0.039859205 -0.050801888 0.036512777 -0.18051223 0.104759544 0.15979826 0.15986651
0.08454877 0.12373838 0.03837602 -0.046403036 -0.102739245 -0.16515696 0.0267573 0.058211
-0.15993077 -0.0925187 -0.14080793 0.11690545 -0.14240481 -0.023279458 0.08487594 0.12828064
0.18187761 -0.10795733 0.008674502 0.0099006295 -0.13787933 0.15835968 0.06251696 -0.07754041
-0.053362325 -0.011118367 -0.02387102 -0.055963114 0.028494194 -0.08740427 0.14637259 0.011583194
-0.079046845 -0.12316361 -0.15386349 -0.13801493 0.010660082 -0.13386114 0.13011771 0.102244794
0.17235324 -0.019689292 -0.17884207 0.014134198 0.009131014 -0.0378042 0.02830854 0.042317227
0.07233742 0.015553027 0.1441119 -0.047956288 -0.09800415 -0.16296318 -0.15462092 0.12563482
0.05707714 -0.17768475 -0.15106075 -0.08239543 -0.023814067 -0.14713009 0.008950695 -0.06727467
-0.040146843 -0.07580095 0.1291841 0.01738897 -0.15064336 0.014601827 -0.038719565 -0.1325941
0.15752178 0.1691652 0.11264157 0.066467285 -0.11501971 0.034466475 0.050821155 -0.048114583
-0.067398354 0.09097889 0.05423729 -0.17593344 -0.11821259 -0.13789846 -0.014822915 0.1056793
0.0011949539 -0.02076307 -0.17333888 0.05052498 -0.1188556 0.044561192 0.14232108 -0.089699715
-0.030294016 0.019315198 -0.15344279 -0.04612626 0.10997349 0.015504688 0.08896726 -0.050722063
-0.0009809285 -0.12605184 0.13653454 0.16857123 0.054741487 0.051417872 0.066778615 0.004825264
-0.17379473 0.052736223 0.03178452 -0.077392936 -0.055495873 0.060143903 -0.04004118 0.11866745
-0.01595378 -0.1558921 -0.058330856 -0.100901574 0.17060784 -0.17644164 0.13026059 0.0696792
-0.14209604 -0.04884182 -0.13622834 0.16112357 0.11640662 0.08573151 -0.16727509 -0.014765635
0.026308388 0.08355823 -0.07719242 -0.14961778 -0.034187242 0.17162916 0.11540446 0.05836381
0.04926184 -0.08900353 0.019870847 0.14187583 -0.053774863 -0.18211247 -0.06805025 -0.12993374
-0.0035753697 -0.1055936 0.074594945 0.025391474 0.0892041 -0.14877431 -0.15217923 0.08024618
0.06147316 0.13117966 -0.014670685 -0.042736962 0.047394738 0.15360296 0.09665561 -0.053715378
-0.07120571 0.16691789 0.14823204 -0.04705271 0.048430324 -0.14997719 0.14512181 0.17489448
-0.090762824 -0.016496733 -0.13944471 0.0015140474 0.05535932 0.08300775 0.08414155 0.057321534
-0.023635939 0.06665704 -0.12190233 0.12908214 -0.11590259 -0.15213577 -0.059088483 0.09251651
0.05441472 0.013003141 -0.06649265 0.1478278 -0.063059635 -0.010361642 -0.124712095 -0.1178054
-0.033420518 0.14380363 0.11840579 -0.17024119 -0.0064338595 -0.16081372 -0.14483042 -0.08862768
0.09786475 -0.0058775544 -0.13685739 -0.052213907 0.1797921 -0.1761681 0.04025352 -0.060173027
-0.11039309 -0.014550254 0.15034863 0.064841345 -0.06151294 -0.17541352 -0.10177636 -0.08695305
0.0057687163 0.15784872 -0.1206685 0.011225849 -0.1656826 -0.013023645 -0.025729775 -0.17795996
0.15274227 0.0015214533 -0.08589297 -0.15368448 -0.07270151 -0.04401064 0.14519987 -0.075625435
0.16673723 -0.13466813 0.09943631 0.05545208 -0.09320468 -0.039646372 -0.1625142 0.13969359

bias f4 [1, 30]
00000000: 0000 0000 0000 0000 0000 0000 0000 0000
00000010: 0000 0000 0000 0000 0000 0000 0000 0000
00000020: 0000 0000 0000 0000 0000 0000 0000 0000
00000030: 0000 0000 0000 0000 0000 0000 0000 0000
00000040: 0000 0000 0000 0000 0000 0000 0000 0000
00000050: 0000 0000 0000 0000 0000 0000 0000 0000
00000060: 0000 0000 0000 0000 0000 0000 0000 0000
00000070: 0000 0000 0000 0000
0.0 0.0 0.0 0.0 0.0 0.0 0.0 0.0
0.0 0.0 0.0 0.0 0.0 0.0 0.0 0.0
0.0 0.0 0.0 0.0 0.0 0.0 0.0 0.0
0.0 0.0 0.0 0.0 0.0 0.0

weight f4 [30, 30]
00000000: 0804 68bc a6b4 88bd bfa4 933c 6cb6 2a3e
00000010: 6f3b 023e 0247 89bd 4e74 39be 5335 843d
00000020: 44c1 a3bd 33c1 a4bd ec79 28be 62f0 1dbe
00000030: 9078 0d3d 5211 63bd 2a1c 08be 3667 d6bc
00000040: 43a9 e5bd 99a5 31be 9ea2 dd3d 0b96 023e
00000050: 9974 43bd 8a08 61bc 0bd0 1ebd 997e de3b
00000060: 270d 0c3e d3e9 38bb 7647 06be f722 87bc
00000070: 8b28 a6bb 5fcd 123e 556f f1bc b6dd aabd
00000080: d38c d4bd c382 323c c2e3 363e 2929 15be
00000090: 7d42 31be 81f5 aebd f157 8d3c 1586 293e
000000a0: dc2d 98bd db1b 2b3e 2b99 c1bd 6c52 36be
000000b0: 4812 8e3d 44f0 1a3e ffac 25be 2109 c63d
000000c0: a0d7 d53c 1a2e 80bd 38c1 2abe 9b5a f93b
000000d0: 4167 9cbc 3974 153e 6e03 77bc a744 a7bc
000000e0: 4bb8 b7bd 85ad 883d e876 f0bb d9f8 a23d
000000f0: 7543 0abe a48c 853d c68b cabd a7b9 39bd
00000100: 6a1a c93d 3625 933d 2961 8c3d b8e2 20bd
00000110: 7dcc f13a 92f8 acbb 9be5 2b3e 81b0 0cbd
00000120: a041 11be 277f 16be 46eb 16be 751a c93c
00000130: 35ce 30be 50e2 d0bc 664b 083e d262 2e3e
00000140: 4c64 07be ff96 8abd 66b3 363e 6bfd b3bc
00000150: f35e 713c c78b 233e ceb7 a63c a2a0 b3bc
00000160: 89e3 c03c 7feb 2fbe 1281 5dbd b5d2 a53c
00000170: e3fa 90bd 18dc bb3d d6e7 e3bc 145f 373e
00000180: 089e e83b 81ca c4bd 7b10 42bd c56a af3d
00000190: dbe1 3ebe 2973 19be c3a8 fe3d 6b37 b5bd
000001a0: d4ea aebd a2ec 173e d91c f1bd 7c21 42bd
000001b0: 39a0 1ebe 58f2 283e 26c6 2abd 5913 b43c
000001c0: 443b b9bd 1378 403e 3671 0e3d 0a99 acbd
000001d0: beb3 7a3d 20ae 7cbc b96e 0b3e aecb 12be
000001e0: 1487 82ba bf82 0ebd 4071 d53c a95b 083e
000001f0: c0cc 113e 507d 04be 3a45 c7bd 43ee e23c
00000200: 4f2e 293e 8dc6 1cbd 891e 36be 610a 1dbc
00000210: e866 e5bb f54c 423e ca20 25be 4032 dabd
00000220: 2792 a9bc c174 29bd 2f98 acbd c475 223d
00000230: 2b84 323e 03f4 5b3d a996 c03c 1511 15bd
00000240: d0dd e13c 02e6 a03c c17a 16be c467 02be
00000250: ed24 083e bfd0 20bd 0751 a2bd 69a4 6dbc
00000260: 0331 0bbd 3960 56bd fa0c cc3d 0058 8bbc
00000270: 4041 83bd 0981 983b 564d e4bd 4350 113d
00000280: c3f0 0d3d a5ab 48bd 8cbb bd3d 82d9 503c
00000290: ed8a ae3d bddf aabd 1144 70bd a699 d7bd
000002a0: 8331 adbd a2c0 0bbe 1eb0 45bc 2bc7 4f3d
000002b0: c1d6 9a3d edca 52bd 56d7 e93d e4bb fcbd
000002c0: 2b6f c0bd 4ee6 2ebe 433c 0bbe b979 27bd
000002d0: 0968 e8bc 9c58 813d f697 00be 453b d73d
000002e0: 8f5a adbd d82f e73c 329c cc3d 29f1 163e
000002f0: 0fe5 9d3d 2e6c 8c3d f578 2e3e d4e7 01bd
00000300: d51b 743d 1bd8 383e 2f65 073e 91ee fb3d
00000310: 3c44 173e 1ebe 043e d520 a43d d013 13bc
00000320: 288c 0bbd 48f0 163e 4c02 0a3e a92e 183e
00000330: 6957 1bbd 48ac 103e 4fdd d8bd 2652 4c3b
00000340: 1525 b0bd 8560 be3d afea 523d 38d7 043e
00000350: c10c 893b 7cab f8bb 3ab1 b33d 8331 01be
00000360: 75ba 133e 86b9 f1bc cbd9 183e 6cc9 763d
00000370: 85de b33d 33d0 9abd 1828 e83c 0267 26be
00000380: 1d3e 50bd bec8 b03d 7b2a 62bd 2295 2abd
00000390: 422b d0bd 957c 10be d055 083e 3971 11bd
000003a0: 1caa 333d 03e9 313e 9dc0 10be 093e 1e3e
000003b0: c202 d53d e1ac 863c 1a17 3cbd 27a3 223d
000003c0: 5efd 29be a8d7 82bc 913e 27bd 3360 a63c
000003d0: e79c 6dbd 6a4d 273e df88 fb3d d753 90bd
000003e0: a3c9 183e dcbf 7abd 456b e33d 33e9 e6bb
000003f0: ebbd c43d a5a2 25bc 4e22 403d 6bde 353e
-0.014161117 -0.06675081 0.018022893 0.16671151 0.12717985 -0.06702997 -0.18110773 0.06455483
-0.07995847 -0.08044662 -0.1645276 -0.1542373 0.034538805 -0.05543644 -0.13291994 -0.026172262
-0.11213925 -0.17348327 0.108220324 0.1275255 -0.047718618 -0.013734946 -0.038772624 0.006789994
0.13676892 -0.0028215542 -0.13113198 -0.016496165 -0.005070751 0.14336155 -0.029472033 -0.08343069
-0.103784226 0.010895434 0.1786032 -0.14566483 -0.1731052 -0.0854292 0.017253848 0.16555054
-0.07430622 0.16709845 -0.094530426 -0.17804879 0.069370806 0.15130717 -0.16179274 0.0966971
0.026103795 -0.06258793 -0.1667527 0.007609678 -0.019092204 0.14595117 -0.015076501 -0.020418478
-0.08970698 0.06673721 -0.0073383935 0.0795762 -0.13502295 0.06520966 -0.09889941 -0.045343067
0.09819491 0.07184832 0.06854469 -0.039278716 0.0018447783 -0.0052786553 0.16786806 -0.034348015
-0.1418519 -0.14696942 -0.14738187 0.024548749 -0.17266162 -0.02549854 0.13310012 0.17029884
-0.13221854 -0.067670815 0.17841873 -0.021971425 0.01473211 0.1597129 0.020351317 -0.021927182
0.023545997 -0.17179678 -0.05407817 0.020242075 -0.07079103 0.09172839 -0.027820509 0.17907363
0.007098917 -0.09608937 -0.047379 0.085652865 -0.18640845 -0.14985336 0.124345325 -0.08848461
-0.08540884 0.14836362 -0.117730804 -0.047395214 -0.15490808 0.16498697 -0.041692875 0.021981882
-0.09044507 0.18795805 0.034775935 -0.084276274 0.06120657 -0.015422374 0.13616456 -0.1433551
-0.0009958469 -0.034792658 0.026054978 0.13316216 0.14238262 -0.12938428 -0.09730001 0.027701503
0.16521572 -0.03827529 -0.17785086 -0.009584994 -0.007000793 0.1897467 -0.1612579 -0.10654116
-0.020699574 -0.04137111 -0.08427464 0.03966309 0.1743323 0.053699505 0.02350934 -0.036393244
0.027571589 0.019640926 -0.14695264 -0.12734896 0.13295336 -0.039261576 -0.07925611 -0.0145045305
-0.033982288 -0.05233786 0.099634126 -0.017009735 -0.0640893 0.004654054 -0.11147563 0.035476934
0.034653436 -0.048991818 0.09264287 0.01274717 0.08522592 -0.08343456 -0.058658663 -0.10527353
-0.08456709 -0.13647702 -0.012065915 0.05072705 0.07560492 -0.051463056 0.11418025 -0.12340525
-0.093962036 -0.17080042 -0.13597207 -0.04088757 -0.02836992 0.06315729 -0.12557968 0.10509352
-0.08464538 0.028221056 0.099907294 0.14740433 0.07709705 0.06856571 0.17038329 -0.03171523
0.059596855 0.18051188 0.13222192 0.12301362 0.14772123 0.12963149 0.08014075 -0.008976892
-0.03406921 0.14740098 0.13477439 0.1486155 -0.037925158 0.1412822 -0.10589086 0.0031176894
-0.08600823 0.092957534 0.051493343 0.12972724 0.0041824286 -0.007588802 0.08774038 -0.12616543
0.14426596 -0.02950741 0.14926831 0.060250685 0.087826766 -0.07559242 0.02833943 -0.16250232
-0.050840486 0.086320385 -0.055216294 -0.04164613 -0.10164501 -0.14110024 0.13313985 -0.03550837
0.0438634 0.17374043 -0.14135976 0.15453352 0.10400917 0.016439857 -0.04592047 0.039706375
-0.16600558 -0.015971974 -0.040831152 0.020309543 -0.05801096 0.16338125 0.122819655 -0.07047241
0.14920668 -0.061218128 0.111044444 -0.0070468425 0.096065365 -0.010109578 0.046907715 0.17760627

weight f4 [30, 30]
00000000: 20ea f53b d285 9dbd f05a 183d 0001 783a
00000010: c408 f73d 40dc 0ebc 03f9 bfbd d692 283e
00000020: f5ee f0bd 667c 20be bb95 9abd 0075 883d
00000030: e4a8 453d 288f 2e3d 5c1d d33d 0a3a 2fbe
00000040: 14ef 033e 32b1 373e a8f1 093d 8ef4 0c3e
00000050: 2883 24be b833 4e3d b410 923d 505d 1c3c
00000060: b7cb 0ebe a71a cfbd 8f05 31be 27c5 0dbe
00000070: a2e9 303e 2887 42bd 146e f3bd 2077 dabc
00000080: 2024 ebbb ad70 2ebe 54be 1abe e888 393d
00000090: 5012 193d 7012 f2bd e082 973d 6f21 35be
000000a0: 3c54 febd fc97 f1bd a0c0 9abc f053 1c3e
000000b0: a069 fa3c cebd 01be 5228 843d 8058 7cbc
000000c0: 4cc9 273e 4c9e 37bd 0af9 293e e0d0 033e
000000d0: ec82 ca3d fcd9 1bbd 0e7d 163e 807a 5ebc
000000e0: 0c46 b2bd d08e babc 6ed8 1e3e 38a0 363e
000000f0: 5c65 35bd da1c 363e e41e 423d d8fa abbc
00000100: cc18 223e 72ba e2bd 60cb dd3d 9053 2cbc
00000110: e48a b7bd 4a65 363e 3ce2 cb3d 8fd7 2dbe
00000120: e014 0c3e 88d3 e23c 3871 383e d453 a93d
00000130: d872 a4bd 12f3 fcbd 684d 3c3d 5e7b fcbd
00000140: 90df f63c 1fd5 d7bd 6069 8e3b 1063 9e3d
00000150: 9e78 0d3e 881f 263d d8ed 363e a8f8 873d
00000160: 50df 943d 3200 91bd 102f 7bbd a2e8 febd
00000170: f1ec bdbd f0ff 963d d50e e4bd 583c 8e3d
00000180: 34e7 303d 6090 4cbd 9e35 093e 17ae 2bbe
00000190: 7b94 05be 1839 7fbd 8cbe f83d ecd9 9ebd
000001a0: 106c d63d a853 7a3d 18b9 243e 80b1 fe3c
000001b0: 140b 823d 9878 6dbd d88a fcbd b416 103e
000001c0: a274 833d b0d4 203d 2c83 35be 2862 0bbd
000001d0: 09d6 1bbe 2034 f4bc 80ca fc3d 2478 343e
000001e0: 54bf c83d 72b4 b2bd 90e1 66bd 286e e7bc
000001f0: 009a cabb 5acb 823d 0cf9 bcbd 1495 14be
00000200: c65e 073e 8086 2b3e 9cbf 9d3d ac56 d13d
00000210: 34c3 c33d a65a 01be 3a90 fbbd 6097 313d
00000220: 4f50 d7bd 009e 0abc 8a06 b8bd e8df e43d
00000230: 88c1 e9bd 462f 24be fcbb 21be 580f 223e
00000240: f8c1 803d 688d 7ebd b86a e93c fda8 b2bd
00000250: b63e 05be 21b5 05be d2e4 243e 5238 353e
00000260: 8004 beba c2d0 cbbd 1cd8 5fbd b8c2 b03d
00000270: 28e6 973c 93e9 bcbd 3011 38be 6083 87bd
00000280: 34db b73d e40f bc3d c890 d3bc 7cdc d93d
00000290: 4087 00bb 2a76 23be 78c5 563d d8da bf3c
000002a0: 505b c93c bc8b 133e e088 9f3b e83c 6ebd
000002b0: a694 7abd 0409 86bd 4476 2d3d 08af 473d
000002c0: 05a6 2abe c8a0 f23d 7813 853c 3a2d 313e
000002d0: a07b ccbc d343 d3bd 3eaa 11be 508b db3d
000002e0: f05e c43d 2ef0 01be 3fda e2bd f4fc d63d
000002f0: f888 fd3d 327f 183e bc52 133d a0f1 90bd
00000300: 689b 0f3e 5cf6 9c3d 64f6 193d 1c09 253e
00000310: d85b ec3d 70c3 083e f128 ccbd 2cea 19bd
00000320: 29fd 0bbe 10c8 1cbd 808e 923a 0e56 06be
00000330: 05a1 34be 9c1f 2a3e 0c00 c03d 76e8 2d3e
00000340: 0ef0 17be 59e0 93bd 30a6 b43d d802 973d
00000350: de1c 2d3e 1e8c 16be 785d c73d e69b 1f3e
00000360: d85e 273d 38e5 cb3c 9b91 0abe a6a4 24be
00000370: 00c3 2b3a 184e b73c e80f d0bc 7066 7d3d
00000380: 88d3 ee3c 9862 b43d a881 b13d 56a7 1bbe
00000390: b8c0 eb3d f8f1 b23d 38e9 c6bc 374d 38be
000003a0: c8cb b2bd 2c2d 913d 7887 a43c af8d a0bd
000003b0: d0f2 febd 04ee ebbd 4487 98bd 336a 33be
000003c0: 52b7 2abe c080 273b 40a0 073c bca3 403d
000003d0: 7cbb cdbd dd3f 88bd 1715 edbd 30cc a2bd
000003e0: 2921 cdbd e5ca a8bd 1cd7 793d 40f2 b7bc
000003f0: 88a2 b83d 51a9 2cbe a2fd d4bd e0ff 393e
0.0075047165 -0.0769154 0.0371961 0.0009460598 0.12062219 -0.008719504 -0.09373667 0.16462263
-0.117643274 -0.15672454 -0.0754809 0.06662941 0.04825677 0.042616993 0.10308334 -0.17111984
0.1288417 0.17938688 0.033677727 0.13765165 -0.16065657 0.05034229 0.07132092 0.009543732
-0.13944899 -0.101125054 -0.17287277 -0.13844739 0.17276624 -0.047492176 -0.1188623 -0.026668131
-0.0071759373 -0.1703517 -0.15111667 0.04529658 0.03737098 -0.11819923 0.07398009 -0.17688535
-0.1241841 -0.11796567 -0.018890679 0.15266395 0.030567944 -0.12670061 0.06453003 -0.015401959
0.16385382 -0.044828698 0.16598907 0.12872648 0.098882526 -0.038049683 0.14696142 -0.013579011
-0.08704767 -0.022773176 0.15512249 0.17834556 -0.044286117 0.17784443 0.04739274 -0.020993635
0.15829772 -0.11070718 0.10829806 -0.01051797 -0.08962038 0.17812076 0.0995526 -0.1697676
0.13679838 0.027688757 0.1801194 0.08267942 -0.08029717 -0.123510495 0.045972258 -0.12328218
0.0301359 -0.105386965 0.004346058 0.077337384 0.13815543 0.040557414 0.17864168 0.06639224
0.07269156 -0.070801154 -0.06132418 -0.12446715 -0.092737086 0.07373035 -0.111356415 0.069451034
0.043189242 -0.049942374 0.1339936 -0.16765629 -0.13044922 -0.06231031 0.12145719 -0.07756409
0.1046983 0.061114937 0.16086233 0.031090498 0.06349769 -0.057976335 -0.1233117 0.1407116
0.0641873 0.039265335 -0.1772582 -0.034029156 -0.15218367 -0.029810011 0.12343311 0.17623955
0.09802118 -0.087258235 -0.056367457 -0.028250769 -0.006182909 0.063864425 -0.092271894 -0.14509994
0.13219747 0.16750526 0.07702562 0.102216095 0.095587164 -0.12632236 -0.122833684 0.043357253
-0.105133645 -0.008460522 -0.08985622 0.11175519 -0.11413866 -0.16033658 -0.15794367 0.15826166
0.062869966 -0.062146574 0.02849327 -0.08723638 -0.13012204 -0.13057376 0.16102913 0.17697266
-0.0014497191 -0.09951927 -0.054649457 0.0863089 0.018542364 -0.09224238 -0.17975307 -0.06616855
0.089773566 0.091827184 -0.025825873 0.10637757 -0.0019611865 -0.15963045 0.052434415 0.023419783
0.024579674 0.14408773 0.0048686117 -0.058163553 -0.06117692 -0.06544688 0.042349115 0.048750907
-0.16664894 0.11847073 0.016244635 0.17302409 -0.024961293 -0.10315671 -0.14225098 0.10719931
0.095884204 -0.12689278 -0.110767834 0.10497466 0.1237964 0.14892271 0.035967574 -0.07077336
0.14024127 0.07664177 0.037588492 0.16116756 0.11540955 0.13355803 -0.099687465 -0.03757684
-0.13670792 -0.038276732 0.0011181384 -0.13118765 -0.17639549 0.1661362 0.09375009 0.16983208
-0.14837667 -0.07220525 0.0882076 0.07373589 0.16905543 -0.14701888 0.097346246 0.15586814
0.040861934 0.024889573 -0.13532107 -0.16078433 0.00065521896 0.022376105 -0.02539821 0.06186527
0.0291536 0.08807868 0.08667308 -0.15200552 0.115113676 0.08737558 -0.02428113 -0.17998205
-0.087302744 0.07088694 0.020084128 -0.07839524 -0.124486566 -0.11520007 -0.07447675 -0.1752098
-0.16671494 0.0025558919 0.008277953 0.04703115 -0.100455254 -0.06652806 -0.11576288 -0.07949102
-0.100160904 -0.08241824 0.06099616 -0.022454381 0.090153754 -0.16861464 -0.10399939 0.18164015

bias f4 [1, 30]
00000000: 0000 0000 0000 0000 0000 0000 0000 0000
00000010: 0000 0000 0000 0000 0000 0000 0000 0000
00000020: 0000 0000 0000 0000 0000 0000 0000 0000
00000030: 0000 0000 0000 0000 0000 0000 0000 0000
00000040: 0000 0000 0000 0000 0000 0000 0000 0000
00000050: 0000 0000 0000 0000 0000 0000 0000 0000
00000060: 0000 0000 0000 0000 0000 0000 0000 0000
00000070: 0000 0000 0000 0000
0.0 0.0 0.0 0.0 0.0 0.0 0.0 0.0
0.0 0.0 0.0 0.0 0.0 0.0 0.0 0.0
0.0 0.0 0.0 0.0 0.0 0.0 0.0 0.0
0.0 0.0 0.0 0.0 0.0 0.0
