neuromancer/train_scripts/papers/flexy/ape_models/best_model_state_dict.pth (torch, 654105 bytes, 112 tensors)

components.0.net.rnn.rnn_cells.0.lin_in.weight f4 [1, 50]
00000000: 58c4 1abd 5c2e e23c b5b0 103e 3a1a 073e
00000010: 09ed bebd 6544 6ebd cd4f d53d 5de6 33bc
00000020: bb1d 9abb e094 d73c 918f 84bd 2e0d 813d
00000030: 4f40 b0bc 5b90 db3d 3789 013e e417 ac3d
00000040: e6a8 fa3d aeed e93d b3ad 653d dcf8 cbbd
00000050: ee95 9abd 3e47 2c3d eac8 bbbd d930 febd
00000060: 9614 0ebc 6986 f1bd 9b36 02be da83 553d
00000070: fc63 da3d 764f 6c3d b1f4 ba3d 705f f5bd
00000080: 4341 dc3d eb5e fcbd f0d7 7ebd 2255 7bbd
00000090: 34e9 fb3d 8217 d33b 0f84 7c3d 69c0 9abd
000000a0: 12b8 e3bd fb7c 63bd 69dd fd3c 3648 a63d
000000b0: 5483 633d 6419 d1bd 772c b33b 16a2 f8bd
000000c0: 2d95 d53d 38ca 1fbd
-0.037784904 0.027609996 0.14129908 0.13193598 -0.093225546 -0.058170695 0.104156114 -0.010980216
-0.004703251 0.026316106 -0.064726956 0.06301342 -0.02151504 0.10720893 0.1265 0.08402994
0.12239246 0.11422287 0.056073856 -0.099595755 -0.07548128 0.04206013 -0.09169181 -0.12411661
-0.0086719 -0.11793215 -0.12716143 0.052127697 0.10663602 0.057692967 0.091287024 -0.11981094
0.10754635 -0.12322792 -0.062217653 -0.061360486 0.12300339 0.0064420113 0.06164938 -0.075562306
-0.11119093 -0.055539113 0.030989366 0.08119242 0.055545166 -0.10209921 0.005467947 -0.121402904
0.10428844 -0.03901121

components.0.net.rnn.rnn_cells.0.lin_in.bias f4 [1, 50]
00000000: 0000 0000 0000 0000 0000 0000 0000 0000
00000010: 0000 0000 0000 0000 0000 0000 0000 0000
00000020: 0000 0000 0000 0000 0000 0000 0000 0000
00000030: 0000 0000 0000 0000 0000 0000 0000 0000
00000040: 0000 0000 0000 0000 0000 0000 0000 0000
00000050: 0000 0000 0000 0000 0000 0000 0000 0000
00000060: 0000 0000 0000 0000 0000 0000 0000 0000
00000070: 0000 0000 0000 0000 0000 0000 0000 0000
00000080: 0000 0000 0000 0000 0000 0000 0000 0000
00000090: 0000 0000 0000 0000 0000 0000 0000 0000
000000a0: 0000 0000 0000 0000 0000 0000 0000 0000
000000b0: 0000 0000 0000 0000 0000 0000 0000 0000
000000c0: 0000 0000 0000 0000
0.0 0.0 0.0 0.0 0.0 0.0 0.0 0.0
0.0 0.0 0.0 0.0 0.0 0.0 0.0 0.0
0.0 0.0 0.0 0.0 0.0 0.0 0.0 0.0
0.0 0.0 0.0 0.0 0.0 0.0 0.0 0.0
0.0 0.0 0.0 0.0 0.0 0.0 0.0 0.0
0.0 0.0 0.0 0.0 0.0 0.0 0.0 0.0
0.0 0.0

components.0.net.rnn.rnn_cells.0.lin_in.linear.weight f4 [50, 1]
00000000: 538f 523f 0794 2fbf 9a75 063f 8505 66bf
00000010: 4d5f b33d e6bd 27bf 7ff1 763f 00d3 563f
00000020: ab3a 02bf dfb9 5c3f e097 3f3f e289 5b3e
00000030: 3f74 173f 5f9d 19be d280 6dbf 610e 973e
00000040: 7c8d 3abd a9d7 6a3f 04f3 0fbf 9b47 fe3e
00000050: 2d51 c5bc 7d84 11bf 790a 9a3e 034f 9c3e
00000060: 4a3e 01bf 6a36 22bf 8522 dbbd c540 33bf
00000070: 380c 36bf 73f6 59bf 190c 193f b1e3 723f
00000080: 3e57 bf3e 4f3b 3ebf fbf7 5dbe ac49 14bf
00000090: 9be7 4fbf 34be 5b3f 7273 70bf 674d 4abd
000000a0: 386c 55bf f98b ad3e ae5f 1c3f 3962 49bf
000000b0: 9046 983e 79c2 413f 19b7 843f 2f82 093f
000000c0: d08e abbd 6395 153e
0.82249945 -0.68585247 0.52523196 -0.8985217 0.087584116 -0.6552414 0.96462244 0.8391571
-0.5087077 0.86221117 0.7484112 0.21439317 0.5916175 -0.15001439 -0.9277469 0.29503158
-0.045545086 0.9173532 -0.5623019 0.49664006 -0.02408656 -0.56842786 0.30086115 0.3052903
-0.5048567 -0.6336428 -0.106999435 -0.70020705 -0.71112394 -0.85141677 0.59784085 0.9487868
0.37371248 -0.7430925 -0.21676628 -0.57924914 -0.81212777 0.858371 -0.93926156 -0.049390223
-0.83368254 0.33895853 0.61083496 -0.786655 0.29741335 0.75687367 1.0368377 0.5371427
-0.08376849 0.14607768

components.0.net.rnn.rnn_cells.0.lin_hidden.weight f4 [50, 50]
00000000: 6cdd a2bc 116d 72bd bcef ae3d 8b7f 0fbc
00000010: 7b64 44bd 68e9 823d e78d 94ba 6681 39bd
00000020: fb45 74bb bd37 4d3d 4bd1 dcbd af00 74bd
00000030: 9908 d1bd ea50 febc 14ae fe3d c94d 093e
00000040: ed30 b33d 807a b43b 8352 80bd 1f02 0fbd
00000050: 2228 a83d cd2e 38bd 295a 733c 998f 5fbd
00000060: 3a69 a2bd 767c 8bbd 522f 0e3e 7480 033e
00000070: 6886 ecbc 28e0 9f3d d719 9e3c 5396 0e3e
00000080: 1c0d c0bd b7bd 8d3d 3d97 7ebc 7478 a33c
00000090: aabe 003e 34ae 833d 7fd9 5b3d e4a0 2f3c
000000a0: a941 05bb 9b76 0e3e 51e5 c23c 98ec f2bd
000000b0: a303 92bd a75e b23d 45c5 dc3d 8c6d e5bd
000000c0: 2031 dcbd 1131 a0bd 4cde 44bd 0c1a f8bd
000000d0: e18c 9cbd f96d d8bd 8690 09be 966f 883d
000000e0: 2d3e fe3d 8ea2 a4bd f194 8dbd aad1 7abd
000000f0: 8f3b df3d 3b54 e9bd dfa2 2f3c ddf9 d03b
00000100: 3bd5 8b3d a614 08be 8b1a 8fbd a838 4dbd
00000110: b710 efbd f4e5 c1bd b880 813d e26f 6e3d
00000120: be65 e6bd 5d95 b33d 5bee dbbd 9725 4ebd
00000130: 7496 0fbc dbdb 0fbe 5953 913d c7e4 15bd
00000140: d5bf 3f3d 6c61 703d 06ee 03be 72c9 173d
00000150: eca4 fa3c bbec ab3d 5a16 bcbd ddd8 57bd
00000160: 59da ebbd 192a 1bbd 1e4b 003e fc9c 6f3d
00000170: 6ecb 0fbe a8d0 e43c ca9e bb3d 2d93 c1bd
00000180: da55 ed3d 5d4d dbbd bfd0 fcbc 27ac e63d
00000190: cb7f 8d3d ddbd 0c3e 5cb4 0a3d 7ef9 90bd
000001a0: d554 27bd 40f4 4fbd 05ea bf3d e67a c13d
000001b0: ef51 0c3e 79ee b8bd 68b3 c6bd 0508 bf3d
000001c0: b002 e3bd 1db7 223d 0f1b a9bb 7cc5 a4bd
000001d0: fc6b ee3d c16f 0bbe 5224 c0bd c9eb 4dbd
000001e0: 9c44 813d 94a0 ca3c 9418 913d 41bf fcbd
000001f0: 5c5c de3b 9f78 febd 9847 3939 e227 6c3d
00000200: 6227 ba3d dd45 02be c69a 05be d175 86bd
00000210: 6a1f 443d fccf d1bd 1c60 7dbd e7a8 ad3c
00000220: 2fff 45bc ac17 77bd f616 0fbe a9c7 623c
00000230: ed6e 86bd 2901 c13c 033a 013d 2447 0c3e
00000240: 638f 1d3d d764 92bd 95ae 833d 18b9 f8bd
00000250: e862 0e3e a36b 30bd c2f4 8abd 483b fa3c
00000260: b6bd 20bd a09c 0cbe 8c2e edbd 7c63 10be
00000270: c0dc 0cbc 9ccf a9bd 5a70 8abd 3a48 f2bd
00000280: e24f 03be 2fe1 c7bd f962 063d f4f8 d9bd
00000290: 7073 283d 3fcd dbbd 80ac b63d 4799 483c
000002a0: 49dc c0bd 6f67 4d3c 03a9 0fbe 479b d03d
000002b0: 7eed bfbc ee4d 5d3d e18f 023e 9ec7 97bd
000002c0: b467 10be 9624 e0bc e80d 763d 75cb 0cbe
000002d0: b0f7 9dbc bf8f 4cbd 24d1 de3c cf41 60bd
000002e0: 4175 ba3d a290 4a3d 714e 0d3e e239 03bd
000002f0: 91f2 17bd cbe4 433d 0d17 063e ec52 74bc
00000300: a0d1 bfbd abba 983d 24bc 673c 81fc 853d
00000310: b38c 02be 33f4 9abc 7724 51bd ccd7 d23d
00000320: 89de 80bd 6d38 08be b5a2 42ba cf5c 8d3d
00000330: cdd3 c63d 76f2 953c 4754 8c3c d7bf 633d
00000340: af72 823d 8fe2 eebb ce8f fdbc 92e6 6cbd
00000350: f5e9 13bd d3c2 5cbd c5ae d9bd 2715 78bd
00000360: 0cae 04be 6eea 903c f033 a0bd e3e0 8d3d
00000370: ab1a 8d3d 3e69 2f3b bd61 303d cb6c 26bd
00000380: 3981 0c3e 4d48 f93d d7e0 723d a441 e8bd
00000390: ae01 edbd 68c8 0a3e f1b5 abbd 485c 9ebd
000003a0: b3a1 5fbd b0bb 953d 46ac a73d 4dfd 513c
000003b0: 4838 bd3c 542f 68bc ad9a bb3d 7694 ea3b
000003c0: 3154 4e3d 7dd6 263d 642e fcbd a001 02be
000003d0: a1cf e6bd b64b d3bd f224 f9bd e378 0a3e
000003e0: 370c 0fb8 afc6 eabd 854e b13d e147 0cbe
000003f0: 737c fbbd 79c9 6e3d c645 8bbd 1d9c f7bd
-0.019880973 -0.059186045 0.085418195 -0.008758436 -0.04794739 0.06392175 -0.0011333794 -0.04528942
-0.0037273157 0.050101984 -0.10782107 -0.059570964 -0.10206718 -0.031044442 0.124355465 0.13408579
0.08749566 0.005507767 -0.06265738 -0.034914132 0.0821078 -0.044966508 0.014853039 -0.054580305
-0.079302266 -0.068108484 0.13885239 0.1284197 -0.028872684 0.07806426 0.01929943 0.13924532
-0.093775004 0.06920951 -0.015538988 0.019954897 0.12572733 0.06429711 0.053674217 0.010719512
-0.0020333326 0.13912432 0.023790987 -0.11861533 -0.071296 0.0870946 0.10779814 -0.11202535
-0.10751557 -0.07821859 -0.04806356 -0.12114343 -0.07644058 -0.105678506 -0.13434038 0.06661908
0.12414203 -0.08038817 -0.06913174 -0.061235107 0.10900032 -0.11393019 0.010719984 0.0063774423
0.0682778 -0.13289127 -0.069874845 -0.05010286 -0.1167311 -0.09467688 0.06323379 0.05821217
-0.112498745 0.08768723 -0.10738822 -0.050328817 -0.008763898 -0.14048712 0.070959754 -0.036595132
0.046813805 0.05868666 -0.12883767 0.037057348 0.030596219 0.08394762 -0.09183951 -0.05269705
-0.11516256 -0.037881944 0.12528655 0.05849932 -0.14042446 0.027931526 0.09161146 -0.094519
0.115886405 -0.10708115 -0.030861257 0.11263304 0.0690914 0.13744302 0.03386341 -0.07078837
-0.040852387 -0.050770044 0.093708076 0.09447269 0.1370313 -0.0902986 -0.09702188 0.093277015
-0.11084497 0.03972541 -0.0051606963 -0.0804548 0.1164169 -0.1361685 -0.093819275 -0.05027369
0.06311914 0.024734773 0.07084766 -0.12341166 0.0067859124 -0.124253504 0.00017669646 0.057655223
0.09089543 -0.12721963 -0.13047323 -0.065654404 0.04788152 -0.10244748 -0.061859235 0.021198703
-0.012084766 -0.06032531 -0.13973603 0.013841548 -0.06564126 0.023560124 0.031549465 0.13699013
0.038466822 -0.0714814 0.06429783 -0.12144679 0.13904917 -0.0430714 -0.06784965 0.030545846
-0.039243422 -0.13731623 -0.11581144 -0.1410045 -0.008597553 -0.082915515 -0.067597106 -0.118301824
-0.12823442 -0.09759747 0.03280923 -0.10643187 0.041125715 -0.10732507 0.089196205 0.012243575
-0.09417016 0.0125368675 -0.14029317 0.10185867 -0.023428675 0.054029398 0.12750198 -0.07411121
-0.1410206 -0.027361196 0.060071856 -0.13749488 -0.019283146 -0.049941774 0.027199335 -0.05475026
0.09104396 0.04945434 0.13799454 -0.032037623 -0.037096564 0.047825616 0.1309473 -0.014912348
-0.09366155 0.07457479 0.014143977 0.06542302 -0.12748985 -0.018915271 -0.051060166 0.10295066
-0.06292445 -0.13302775 -0.0007424758 0.069024675 0.097083665 0.018304091 0.01713003 0.055602875
0.063695304 -0.0072901915 -0.03095236 -0.057837076 -0.03611179 -0.053896736 -0.10629038 -0.060567047
-0.12957019 0.01768991 -0.07822406 0.06927659 0.06889852 0.002676561 0.04306196 -0.040631097
0.1372117 0.121719934 0.059296455 -0.11340645 -0.11572586 0.13553011 -0.08384312 -0.07732445
-0.054597568 0.07311189 0.081871554 0.012816739 0.023098126 -0.01417144 0.091603614 0.007158811
0.05037326 0.040731896 -0.12313536 -0.12695932 -0.11270071 -0.10317175 -0.1216525 0.13522677
-3.4105233e-05 -0.11463677 0.086575545 -0.13699295 -0.12279596 0.058297608 -0.068004176 -0.12090323

components.0.net.rnn.rnn_cells.0.lin_hidden.bias f4 [1, 50]
00000000: 0000 0000 0000 0000 0000 0000 0000 0000
00000010: 0000 0000 0000 0000 0000 0000 0000 0000
00000020: 0000 0000 0000 0000 0000 0000 0000 0000
00000030: 0000 0000 0000 0000 0000 0000 0000 0000
00000040: 0000 0000 0000 0000 0000 0000 0000 0000
00000050: 0000 0000 0000 0000 0000 0000 0000 0000
00000060: 0000 0000 0000 0000 0000 0000 0000 0000
00000070: 0000 0000 0000 0000 0000 0000 0000 0000
00000080: 0000 0000 0000 0000 0000 0000 0000 0000
00000090: 0000 0000 0000 0000 0000 0000 0000 0000
000000a0: 0000 0000 0000 0000 0000 0000 0000 0000
000000b0: 0000 0000 0000 0000 0000 0000 0000 0000
000000c0: 0000 0000 0000 0000
0.0 0.0 0.0 0.0 0.0 0.0 0.0 0.0
0.0 0.0 0.0 0.0 0.0 0.0 0.0 0.0
0.0 0.0 0.0 0.0 0.0 0.0 0.0 0.0
0.0 0.0 0.0 0.0 0.0 0.0 0.0 0.0
0.0 0.0 0.0 0.0 0.0 0.0 0.0 0.0
0.0 0.0 0.0 0.0 0.0 0.0 0.0 0.0
0.0 0.0

components.0.net.rnn.rnn_cells.0.lin_hidden.linear.weight f4 [50, 50]
00000000: 8ba1 e53d 3a42 4abd a76c b6bb a736 25be
00000010: 24d5 b53d 28b4 613d dd41 4fbd 3f9d 313d
00000020: 7c69 f7bd 0445 243e 86b7 e63b 037b cb3c
00000030: d835 df3d d50a eebd 2b34 2abe 9ed7 f4bc
00000040: 924a 44bc 7430 f73c 2f48 1bbe 07cd 263c
00000050: 6e14 b9bd 9d89 483d 17fb abbd be50 913d
00000060: ab72 29be 933b cf3d 9476 b23d 1f57 e1bd
00000070: 63b0 c5bd 3111 b73d 413a d3bd 34bc 543b
00000080: 38b6 1c3e 49a2 6abc 5b95 19be efee 023d
00000090: 9c4d e63a f274 bc3d 0922 eebc b609 debd
000000a0: 8851 0abe 8bc3 e43d d77a 093e e24e 03be
000000b0: 2553 103e c479 afbd 8a23 a0bd 8579 fc3d
000000c0: b184 2ebd 6cd3 94bd 3e0f f23d 00e0 d33d
000000d0: 3067 22be 7d60 103e 9546 c9bd f018 153e
000000e0: 162c 6a38 fcc3 dabd 12fc a3bc eb63 963d
000000f0: aa4a fbbd 7627 d73c 8a62 0abe 8c80 a93d
00000100: 13ae b33d c846 febd 4bd3 343d 5306 c3bd
00000110: 2a3e c2bd 94fa 1fbd bf11 05bd b365 d93c
00000120: 02ec 063e 0bb5 b63d b366 e63d fff9 9abd
00000130: 4123 98bd 19ab b8bc f059 0cbd 2489 e33d
00000140: 4669 a3bd abbb 07bd 6465 b63d c6a8 5e3d
00000150: 9be6 0fbd a487 453c 0d73 7fbd 7c9d 05be
00000160: 26f6 823d 192b 3c3d a288 01ba e202 873d
00000170: 5798 62bd 9a35 aa3d 495c 9f3d 4863 a53d
00000180: 130c 9dbd 422a 16bd f078 c7bd 2a15 b7bd
00000190: 1e67 fcbb f7b8 bf3d 91b6 a13d 0cc4 91bc
000001a0: cbd0 b13c a672 a33d c6c8 c3bd ea96 b3bd
000001b0: 2793 ba3d c13c 953d b697 e1bd d603 123e
000001c0: 7645 343d 7304 213d a5cb 0ebe 3ed8 853c
000001d0: 6379 ddbd a5ba c7bd 8579 2ebe 4620 3cbc
000001e0: 7978 d93d 6b27 23be 64ff 93bd 7947 d4bd
000001f0: 7601 5abe c872 f43d 9c74 1bbd 08ff 7c3c
00000200: fa86 91bd 5926 a23d 6fd3 6ebd aa7f 743d
00000210: 9ae7 1e3e 692f 313d 0a7a 293d 235a de3d
00000220: 94b1 8ebd 6723 93bd 71a3 913d 2712 6a3b
00000230: e877 14be dfbe d23d 0ec1 c7bc cd45 053b
00000240: cc54 313d 42bc 443d a93f 02be 0244 c93b
00000250: cce5 babd 3bc0 7d3d 1955 9d3c 9d04 e8bd
00000260: 6a90 b4bc 0148 0b3e 0d61 bebd bfbd 113e
00000270: 1348 173d 89bc d1bc 81c1 993d c3e8 8b3c
00000280: 5ae8 e43d 9e4a 92bd b3dc 58bc 3990 b53c
00000290: 3b46 6d3d ed82 0b3e c1a6 eb3d 9bd0 88bd
000002a0: 5a94 babd 6bef 8d3d e7d5 0bbe 91cc 7d3c
000002b0: ad91 903d 786e 013e 908f bf3c 9eb4 3a3d
000002c0: ce53 063e b4df 713d 8cef 2bbd c2c2 c53d
000002d0: 65fb 063e f5b4 ca3c d5b0 d0bd 78b6 c03b
000002e0: 7240 b7bd 7e9d ecbd d176 3abd ad9f a83d
000002f0: 9760 a73d b6b8 50bb 8d4d e03d 1349 95bd
00000300: 655d e83d 9c5a 01be d824 0abe f649 653d
00000310: 2ef8 ca3d c71d d7bd 0f50 bb3d 48d4 243d
00000320: b6f7 013e 3ddf f03d 864a 693d b6a3 033e
00000330: 488f cb3d e230 f6bd 6212 8b3d ac31 83bd
00000340: 3532 83bd 8e82 f53d 5bd1 a73d 2e52 8c3d
00000350: abc6 4b3c f288 80bd dccf 753d 214a a13d
00000360: 61a6 e33d d5a6 553d 539c b23c 051e 3abd
00000370: 964e 053e 7e67 043e 4eba d13d 385e a4bd
00000380: 6eec 76bd 8634 403d 8086 a0bd 64b8 89bd
00000390: 7508 093e d1b5 e4bd df4a b33d 8e20 cdbd
000003a0: 7f5f 303d 6e17 c63c 033d 08be 881f df3d
000003b0: 477a ddbd 4569 a73d 7253 f93d dd97 aabd
000003c0: bb8b bbbd 3282 013d 0fe6 6d3d d287 d73d
000003d0: dd54 64bd 242a 98bd 4cbc 40bd 3129 0ebe
000003e0: 491e 0e3d ee6b 103e 7e72 fb3d ecfd a6bd
000003f0: bb4e 0fbe 33d2 b3bd 1c40 6a3d d9f8 b93d
0.112124525 -0.049379565 -0.0055671516 -0.1613413 0.08878544 0.05510345 -0.05059992 0.043362852
-0.120806664 0.16041952 0.0070409207 0.02483893 0.10898942 -0.1162316 -0.16621463 -0.02988797
-0.01198067 0.030174471 -0.15164255 0.010180718 -0.090371 0.048959363 -0.08397501 0.070954785
-0.16547649 0.10118785 0.08714023 -0.11002945 -0.09652784 0.08938826 -0.103138454 0.003246081
0.15303886 -0.014320918 -0.14998381 0.031966146 0.0017570737 0.09201993 -0.029068964 -0.10841696
-0.13507664 0.11170109 0.13425766 -0.1282306 0.14094217 -0.08568147 -0.078192785 0.123278655
-0.042607013 -0.07266888 0.118193135 0.10345459 -0.15859675 0.14099307 -0.098279156 0.14560294
5.5831006e-05 -0.10681912 -0.020017657 0.073432766 -0.122701004 0.026263934 -0.13514152 0.082764715
0.087734364 -0.12415844 0.044146817 -0.095226906 -0.09484513 -0.03905733 -0.032487627 0.026537752
0.13175967 0.0892125 0.11250057 -0.07567214 -0.07428599 -0.022542523 -0.03426546 0.11110142
-0.07979064 -0.03313796 0.089060575 0.054360174 -0.035132032 0.012056265 -0.06236558 -0.13048357
0.06394605 0.04593954 -0.00049413193 0.06592347 -0.055321064 0.08311005 0.07781274 0.08075577
-0.076683186 -0.036661394 -0.09739864 -0.089395836 -0.007702722 0.09361451 0.0789615 -0.017793678
0.021706006 0.07980852 -0.09559779 -0.08769019 0.09110098 0.072869785 -0.11015265 0.14259276
0.044011556 0.039310884 -0.13944872 0.016338464 -0.10814168 -0.097523965 -0.17038544 -0.011482304
0.106186815 -0.15933006 -0.07226446 -0.10365195 -0.2128962 0.11935955 -0.037953004 0.015441664
-0.07105823 0.079174705 -0.058307108 0.059692062 0.15518036 0.043258104 0.04137615 0.10857036
-0.06967464 -0.07184487 0.07111252 0.0035716386 -0.14498866 0.10290312 -0.024384048 0.0020335794
0.04329376 0.0480311 -0.12719597 0.0061421404 -0.091258615 0.061950903 0.019205617 -0.11329005
-0.022041518 0.13601686 -0.09295855 0.14232539 0.03693397 -0.025602596 0.07507611 0.017078763
0.1117713 -0.07143138 -0.013236213 0.022163497 0.057928305 0.13624163 0.11506415 -0.06680413
-0.09110327 0.06930431 -0.13655816 0.015490667 0.070590355 0.12639797 0.023383886 0.045582406
0.13117906 0.05905123 -0.041976497 0.09656288 0.13181837 0.02474449 -0.10189978 0.005881127
-0.08947839 -0.11553477 -0.04552347 0.08233581 0.0817272 -0.0031848378 0.10952292 -0.072893284
0.113459386 -0.12632221 -0.13490617 0.055978738 0.09910618 -0.105037265 0.09146129 0.04024151
0.1269215 0.11761329 0.056955837 0.1285542 0.09939438 -0.120210424 0.067906156 -0.064059585
-0.064060606 0.11987792 0.08194228 0.06851612 0.012437503 -0.0627612 0.060012683 0.07875467
0.11115719 0.052161057 0.021803057 -0.045438785 0.1301826 0.12930104 0.10240613 -0.08025783
-0.06028407 0.04692509 -0.07838154 -0.06724623 0.13382132 -0.11167491 0.08754515 -0.10015975
0.043059822 0.024181094 -0.13304524 0.10894686 -0.10814338 0.081743754 0.12174119 -0.08329747
-0.09157511 0.031618305 0.05808073 0.105239525 -0.055744994 -0.07429913 -0.047054574 -0.13882901
0.03469685 0.14103672 0.12277697 -0.081539005 -0.13994877 -0.08780327 0.057190046 0.09080667

components.0.net.rnn.rnn_cells.1.lin_in.weight f4 [50, 50]
00000000: 2fa1 babd 3e75 b5bd d35f f43d c9ff 993c
00000010: a3ed e83d b070 173b d1de e5bd e988 07be
00000020: f99b dfbd c39d 663d c5aa 4b3d 28c7 cebd
00000030: a3a3 133c 4a81 003e 084b 663c 66d6 a83c
00000040: baaa ffbd f14f 0ebe 46ef 0e3e 6fbb f13d
00000050: 9e29 c73c 182e 573c a9dd ac3d 4ef9 253d
00000060: 28a0 30bd 342e 95bc 6e7c 01be dc8f f2bc
00000070: 67e3 b0bd e506 e33d 4b7b adbd ac7c a03c
00000080: 8d94 7c3d 556a 63bd 101b dd3d f40f 903d
00000090: b844 d1bd 7d03 fc3d d204 6b3d b5eb ed3d
000000a0: 6ee3 733d e45e e9bb a83a ea3a efec 023c
000000b0: 8237 af3d 6182 033e 26ae 0a3e 6724 35bd
000000c0: 3a91 6a3d 427b 22bd 1bbe 7b3d f48c 013e
000000d0: 9f82 0f3e 6774 d23d 645e 193c b434 24bd
000000e0: 0db4 c9bd fcce 113d 3942 c2bd 372a 23bd
000000f0: abfb efbc 512f ffbd 1579 0ebd 7b13 8cbd
00000100: 255d 8d3d 8d7c 623d 3265 ae3d 6bd9 5a3c
00000110: db57 f0bd 7b9e 61bd 3cf5 c43d 83da 093e
00000120: a210 8ebd 20b4 0bbe df22 03be 171a 7dbd
00000130: b11f a63d 89c7 fbbd cd3b af3d 60ff 613d
00000140: b08e 88bc 36b3 ff3c 6452 4a3d f2c7 f73d
00000150: 798a f3bd 15e7 ac3d f5b8 113d 7f72 b03d
00000160: 48ee d53d a227 9a3c 82f7 a03d 1d49 18bd
00000170: 211b e0bd 4eed cdbd b69a 0a3e 0c71 113d
00000180: 289c 0a3d b55d 86bd c3a4 663c 7fc4 573d
00000190: d660 b1bd 22a0 f7bd c2e7 cb3a d120 d93c
000001a0: 62c3 cbbd 66c5 603d 9427 033e 1666 673d
000001b0: cf88 ecbc 3187 a2bc 8040 debb cc84 e13d
000001c0: ad32 8a3c a9da 753c 083f b83d 2d3f cabc
000001d0: 5263 983d 773a 33bd 30d0 b9bd ea23 623d
000001e0: 57e2 b1bd 85d9 a9bc dbeb e5bc 85bf d03d
000001f0: bd3d 783d c10c d0bd 5807 903c ac9f d0bd
00000200: e27d c13d 251d d33d 34ec 60bc c249 ce3d
00000210: 67c5 933d 07a4 74bd 5243 923c 6c8e cc3d
00000220: 2064 5c3c 1336 103e 6810 ca3d 9750 c63d
00000230: c16a 2e3d ca0a a43d 53f2 c6bc 9413 00be
00000240: fc80 593c e777 a8bd 6c26 8dbd 8833 0bbe
00000250: fa67 d1bd d6be b33c 785e cf3d dc7e a83d
00000260: 22a6 03be 2954 863b f611 07be b718 b43d
00000270: c86a 033e 4008 933c 0d12 96bd a8b3 05be
00000280: ad96 62bd 6718 bb3d f008 cabd 49ac 0abe
00000290: 2840 d53d d861 c63d 656d 473b b723 073d
000002a0: 0a7b d73d f0d9 193d bf39 8c3d 53b0 d0bd
000002b0: 74f8 363b a70b 103e 8aa7 2fbd 1806 893d
000002c0: 5fda a53d d93b 593d a9e4 b7bd 5906 963d
000002d0: f073 efbd 3b6d b7bc e74c f2bd df2a f4bd
000002e0: b23e 76bd 2c0d 56bc 5755 10be 56f1 ee3c
000002f0: 6e9b 003e de7d 2c3d ad3d 63bd 662d 813d
00000300: c782 2e3d 47f3 3dbd 1068 923d c370 083e
00000310: cdd1 953d 6fc0 e0bc 4c94 703d a9ed ec3d
00000320: 722a 21bd cd5e 03be 4aa5 333d 70b1 afbd
00000330: e31e 9d3d ef53 023e 9896 d93d 89ea 853d
00000340: 5a08 173d d88f ee3d 0486 f5bb fb03 0abe
00000350: 793b 9e3d 059f 0cbd 3fa2 cfbd cb66 c4bd
00000360: 5ae6 053e 591c 763c e125 343d 85dc c53d
00000370: 2530 24bd ef23 11bd 6259 f33d 7c4f 1dbd
00000380: dc70 b4bd f0a0 703d 5304 08be f985 08bd
00000390: 07a2 6dbc a54c e93c a53a 453d acad ba3d
000003a0: db93 8dbc 2668 013d e68b c4bd bbb7 e83c
000003b0: 422f e8bc 0d54 553d aad1 0ebd c623 d3bd
000003c0: 3416 043c 9999 53bd 9341 82bd c6b4 003e
000003d0: e1f9 92bd 7084 06bd 358f fabd fc11 dabd
000003e0: e8e7 c13d 029a 06be ef28 78bd 33f1 71bd
000003f0: 139b a43d 7470 93bd 82b9 a43d b938 913d
-0.091127746 -0.08860253 0.119323395 0.018798726 0.113734506 0.0023107938 -0.112241395 -0.13235821
-0.10918421 0.056302797 0.049723405 -0.1009658 0.009011182 0.1254932 0.014055975 0.020610046
-0.124837354 -0.13897683 0.13958463 0.11803328 0.024311837 0.013133548 0.08440716 0.04052096
-0.043121487 -0.018210508 -0.12645122 -0.029609613 -0.086371236 0.110852994 -0.08470782 0.019590698
0.061665107 -0.055521328 0.107961774 0.07034293 -0.10218185 0.12305353 0.057377644 0.11617223
0.059543066 -0.0071219075 0.0017870264 0.00799106 0.08555509 0.12842704 0.13542995 -0.04422417
0.057267405 -0.03966833 0.061460596 0.12651426 0.14014672 0.10276108 0.009360883 -0.040089324
-0.09848795 0.035597786 -0.09485287 -0.03983518 -0.02929481 -0.12460197 -0.03478344 -0.06839653
0.069025315 0.055294562 0.08515395 0.013357501 -0.11735507 -0.05508278 0.09617087 0.13462262
-0.06936766 -0.13642931 -0.12806271 -0.06179246 0.081115134 -0.12293918 0.08556328 0.055175185
-0.016669601 0.031213384 0.04939498 0.120986834 -0.11891646 0.08442513 0.03557678 0.086155884
0.10445839 0.018817727 0.07859708 -0.0371791 -0.109426744 -0.10055028 0.1353558 0.0355082
0.03384033 -0.06560842 0.014077368 0.052677628 -0.08661048 -0.1209109 0.001555674 0.026504906
-0.09949376 0.054875754 0.12808067 0.05649384 -0.02887383 -0.019839855 -0.0067825913 0.11011657
0.016869867 0.015005746 0.08996397 -0.024688328 0.07440819 -0.04375693 -0.09072912 0.05521003
-0.08685749 -0.020733604 -0.028066566 0.101927795 0.060605753 -0.101586826 0.017581627 -0.10186705
0.09447838 0.10308293 -0.01372819 0.10072662 0.07215386 -0.05972674 0.017854366 0.09988102
0.013451606 0.14083128 0.098664105 0.0968334 0.042582277 0.0800987 -0.024285471 -0.12507468
0.013275381 -0.082259946 -0.06892094 -0.13593876 -0.1022491 0.021941584 0.1012544 0.082273215
-0.12856343 0.004099388 -0.13190445 0.087937765 0.12833703 0.01794827 -0.07327662 -0.13056815
-0.055319477 0.09135514 -0.09864986 -0.13542284 0.104126275 0.09686631 0.0030430194 0.032993045
0.10521515 0.037561357 0.06846952 -0.10189881 0.0027919086 0.14066945 -0.042884387 0.066906154
0.080982916 0.05303559 -0.0897916 0.073254295 -0.11692035 -0.022390952 -0.11831074 -0.119222395
-0.060118385 -0.013064664 -0.14095055 0.029167812 0.12559292 0.042112224 -0.05547874 0.06307487
0.042605188 -0.046374585 0.071487546 0.13324265 0.07315407 -0.02743551 0.058735177 0.115687676
-0.03934712 -0.12829132 0.043858804 -0.085787654 0.07671907 0.1272733 0.106244266 0.06538875
0.0368732 0.1164853 -0.0074927825 -0.13478081 0.07726187 -0.03433134 -0.10138368 -0.09589919
0.13076153 0.015021407 0.043981437 0.096612014 -0.040084977 -0.03543466 0.11882283 -0.03840588
-0.08810589 0.058747232 -0.132829 -0.03333089 -0.014503962 0.02847893 0.04815163 0.091151565
-0.017282417 0.031593464 -0.09596996 0.028407922 -0.028342847 0.05208211 -0.03486792 -0.103095576
0.008061934 -0.051660154 -0.063601635 0.1256896 -0.07176567 -0.032841146 -0.12234346 -0.106479615
0.09468061 -0.13144687 -0.060585912 -0.059067916 0.080373906 -0.07199183 0.08043195 0.07090897

components.0.net.rnn.rnn_cells.1.lin_in.bias f4 [1, 50]
00000000: 0000 0000 0000 0000 0000 0000 0000 0000
00000010: 0000 0000 0000 0000 0000 0000 0000 0000
00000020: 0000 0000 0000 0000 0000 0000 0000 0000
00000030: 0000 0000 0000 0000 0000 0000 0000 0000
00000040: 0000 0000 0000 0000 0000 0000 0000 0000
00000050: 0000 0000 0000 0000 0000 0000 0000 0000
00000060: 0000 0000 0000 0000 0000 0000 0000 0000
00000070: 0000 0000 0000 0000 0000 0000 0000 0000
00000080: 0000 0000 0000 0000 0000 0000 0000 0000
00000090: 0000 0000 0000 0000 0000 0000 0000 0000
000000a0: 0000 0000 0000 0000 0000 0000 0000 0000
000000b0: 0000 0000 0000 0000 0000 0000 0000 0000
000000c0: 0000 0000 0000 0000
0.0 0.0 0.0 0.0 0.0 0.0 0.0 0.0
0.0 0.0 0.0 0.0 0.0 0.0 0.0 0.0
0.0 0.0 0.0 0.0 0.0 0.0 0.0 0.0
0.0 0.0 0.0 0.0 0.0 0.0 0.0 0.0
0.0 0.0 0.0 0.0 0.0 0.0 0.0 0.0
0.0 0.0 0.0 0.0 0.0 0.0 0.0 0.0
0.0 0.0

components.0.net.rnn.rnn_cells.1.lin_in.linear.weight f4 [50, 50]
00000000: ea96 423e b2e7 643c 1d87 1c3e 98ff 303d
00000010: 99c3 273e 28c3 5bbd 8f50 033e 4150 95bd
00000020: cc93 56bd 3006 393e e5d4 3b3e 1f1f e73d
00000030: 87b2 a2bc 6fbd 08be 1dde 86bc 9f4f 38bc
00000040: 37d4 853d 1d89 6fbd bee9 e03a 5238 62bd
00000050: ddb4 0bbe b9ae abbd a08f 87bc 771c 213e
00000060: 0ed9 6bbd 87eb 39be 34c1 a43d 2f3e 98bc
00000070: 8184 35be 3399 f4bd 0a4c 073b 7bbc 953c
00000080: 1115 adbb d492 793c f454 343d c3cf ec3c
00000090: 95bb 91bd 4a7c 483d 4ea5 d83c 3009 05be
000000a0: ab86 bfbd 7b6d 143e 4bee 8c3b d70b 5d3d
000000b0: 7717 d2bc e256 f83c 4693 1d3e 1b96 3f3e
000000c0: fada 3cbe 596d c7bd d06e 843c 090f 0bbe
000000d0: 270f 123e be9c c8bd 7f07 a3bd 59e0 fdbd
000000e0: 65c4 783d 4bba e93d 9e52 a0bd 5101 743d
000000f0: 7470 a63c bc53 9ebd 68bd 0b3e 1cd7 ee3c
00000100: 8898 813c 148b eabd 73f5 e1bd b132 233e
00000110: afc7 64bd 63f7 22bd f5c0 04bd a88b f63d
00000120: 5843 033c 657f c1bd a888 a2bd 7a20 f8bc
00000130: 5038 383d c2e6 8e3d 691a b43d 313f 62bd
00000140: 8dd8 56bd c071 4abb a7fc 63bd b6cd 9cbc
00000150: 924d 44bd a022 9bbd 18c0 2f3d 16d7 8f3d
00000160: 7b1c fabd dc00 ebbc 6aa8 bf3c 88d1 26bd
00000170: 040b d6bd 4167 033e 89a8 c2bd 3853 203e
00000180: 1fe3 00bd 7285 8b3d 751b cb3d 2599 c33c
00000190: 9461 3ebc 7f4a c8bd 06e1 903d 798f dcbd
000001a0: 58c8 d7bd 36e1 9e3c 3879 b8bd fbd4 fcbd
000001b0: 302c e33d e722 a8bd f6af f7bd e656 593d
000001c0: dac9 59bd ee56 153e 72e1 3d3e a052 7e3d
000001d0: 7970 843d 3d51 16be 3f15 bdbc 38b1 be3c
000001e0: 6371 053b 94ab 2fba 01e5 9fbd 544b 4ebd
000001f0: 0434 b13c ea48 a23d 7b9d 15bd 5fb9 da3d
00000200: 3a25 34bd a911 f5bd 08c6 0e3e 13d0 adbd
00000210: 7f57 3c3d 76da fe3d d122 c0bd 4400 903d
00000220: 546b eb3c 01c2 eebc 99f1 8bbd 148a 15be
00000230: 580e c7bd ad94 80bb 2a8c 523d eca6 84bd
00000240: f944 58bc 65fc b7bd 5ddd f83d 73f0 f23c
00000250: cf34 d3bd 5f76 a6bc 44e8 703d 0d46 8a3d
00000260: 2a54 703d a3e3 43bc b7bb 46bd d803 c63d
00000270: 1a67 e83c 5a96 08be a36a 3ebd 79dd 11be
00000280: 7e13 773d d763 0abe 2d87 f13d 1d72 03bd
00000290: a8c5 d53d 8d33 5cbc fb8d 3d3d 9d61 b1bd
000002a0: f687 383e f1b5 05be 32cf 2ebd 22b6 823c
000002b0: 1d01 d1bd e6c2 29bd e913 113e 1fdf be3d
000002c0: 9533 a1bd a92a fb3d 8a5f f33d b98e dd3d
000002d0: 19c7 2a3c 9588 7bbd c282 02be 5a6f afbd
000002e0: 0123 8cbd 99b5 8ebd 9e38 093e 8b09 00be
000002f0: 01d0 09ba f843 e23d 8c32 4f3d c63c 0dbe
00000300: 2d25 a9bd bacd ecbb 6709 80bc 1c6b ebbd
00000310: 73c0 a8bd b4b4 afbd 0b58 1e3c bca9 59bd
00000320: 3801 c03d 5716 163e c074 32be dd98 8fbd
00000330: ea57 9bbc d82a 0fbd 0bd6 21be 5603 593c
00000340: beec bebc d4da b4bd fd06 8c3d e2fa 84bd
00000350: 5660 db3c 1bb3 acbd 70d8 473e 6ed5 71bd
00000360: 7467 e3bd 1ae0 21be 6c7d 0d3e f8d7 50bd
00000370: 02f7 613d a1d4 cfbc 9bb5 c9bc 9cc2 a53d
00000380: 023d 6a3d 22ed 783d b8a7 efbd 4c88 b9bd
00000390: 82b1 b93c b616 2a3e 1c7d 27be f176 c33d
000003a0: cf3e efbd c796 f73c 5f21 a7bd a111 463b
000003b0: 8598 edbc 4309 783d d37a df3d cc1c e3bd
000003c0: e0ba 263b ebc9 103d 7b8c c7bd aaa9 8cbd
000003d0: 9357 533d 4b2e 01be 6156 11be 21d6 d5bd
000003e0: d3c3 8c3d 5ee3 9e3d 12c0 843d 3de2 2dbe
000003f0: c68f 453e 6b73 f8bd 47d4 763a 3d7c 22be
0.19002882 0.013971256 0.15285917 0.043212503 0.16383208 -0.053652912 0.128237 -0.07290698
-0.052387044 0.18068767 0.18342932 0.11285233 -0.01986052 -0.13353513 -0.016463334 -0.011249452
0.065346174 -0.05848037 0.0017159504 -0.055229492 -0.13643213 -0.08382935 -0.016547978 0.15733515
-0.057580046 -0.18156253 0.08044663 -0.018584339 -0.17726327 -0.11943283 0.0020644688 0.018278351
-0.0052820523 0.01523276 0.04402633 0.028907662 -0.071158566 0.048946656 0.02644601 -0.12991786
-0.09351858 0.14494888 0.0043008677 0.05396637 -0.025645955 0.030314866 0.15388212 0.18709604
-0.18442908 -0.09737653 0.01616612 -0.13579954 0.14263593 -0.09795521 -0.07960414 -0.123963065
0.06073417 0.11412486 -0.07828258 0.059571568 0.020317294 -0.07730815 0.13646472 0.029155307
0.015819803 -0.11452308 -0.11033144 0.15937306 -0.055854496 -0.039786708 -0.03241058 0.12038356
0.0080116615 -0.09448127 -0.07936221 -0.030288924 0.04497558 0.06977607 0.087941 -0.055236045
-0.052452613 -0.0030890554 -0.05566087 -0.01914106 -0.04792554 -0.075749636 0.042907804 0.07023446
-0.122124635 -0.028686933 0.023395736 -0.04072717 -0.1045132 0.12832357 -0.09504802 0.15656745
-0.0314666 0.06812562 0.099173464 0.023876736 -0.011619944 -0.09779834 0.0707417 -0.10769553
-0.105362594 0.019394498 -0.09007496 -0.1234531 0.110924125 -0.08209782 -0.12094109 0.05306139
-0.053171016 0.14583942 0.18543032 0.062090516 0.06466765 -0.14679427 -0.02308142 0.023277864
0.0020361773 -0.00067012873 -0.07807351 -0.050364807 0.021631248 0.079240635 -0.03652714 0.10679888
-0.043980815 -0.11966259 0.1394273 -0.08486953 0.04598188 0.12444012 -0.09381641 0.07031301
0.028737701 -0.029145243 -0.068331905 -0.14603454 -0.09719533 -0.0039239735 0.051403202 -0.0647715
-0.013200038 -0.08983687 0.12151597 0.02965567 -0.10312807 -0.020320116 0.058815256 0.067516424
0.058674015 -0.011956128 -0.048518863 0.09668702 0.028369475 -0.13338605 -0.046488415 -0.14244641
0.060321324 -0.13514648 0.11793361 -0.03209125 0.104380906 -0.013440025 0.04627798 -0.086611964
0.18020615 -0.13057686 -0.042678066 0.015955988 -0.102052905 -0.041445635 0.14167751 0.09319901
-0.078711666 0.12263996 0.11883457 0.10818238 0.010423445 -0.06140955 -0.12745193 -0.085661605
-0.06842614 -0.06968231 0.13400504 -0.1250364 -0.000525713 0.1104812 0.050585315 -0.13792714
-0.08259044 -0.007226673 -0.015629483 -0.11495039 -0.08239832 -0.08579388 0.009664546 -0.053140387
0.093752325 0.1465696 -0.17427349 -0.07011578 -0.01896282 -0.03495297 -0.15804307 0.013245424
-0.023306247 -0.08830801 0.068372704 -0.064931646 0.026779335 -0.08432599 0.19516158 -0.059041433
-0.111037165 -0.15808144 0.13817376 -0.050987214 0.055167206 -0.025369944 -0.024622729 0.080937594
0.057187088 0.060773022 -0.11701912 -0.090592 0.02266765 0.16610226 -0.16356319 0.09544171
-0.11681902 0.030223263 -0.08160662 0.003022291 -0.029003391 0.060555708 0.10912099 -0.11089477
0.0025440976 0.035348814 -0.097435914 -0.06868298 0.05159719 -0.12615316 -0.14193107 -0.104412325
0.06873288 0.077582106 0.06481947 -0.16980834 0.19293126 -0.12131389 0.0009415787 -0.15867706

components.0.net.rnn.rnn_cells.1.lin_hidden.weight f4 [50, 50]
00000000: 74c3 823d f4b3 87bd fab9 a53d 89a6 a0bd
00000010: 089b 0d3d 609a 343d 1a91 8a3d bc1d c1bd
00000020: e565 b6bd 7e40 e9bd 5811 b7bd 8ca5 f43d
00000030: 43f0 7ebd 562d 4ebd 9625 0c3e 40ef a43d
00000040: 5562 973c edb2 edbb 22e7 9a3d b16f 353d
00000050: dc4d 103d 50ba ce3c cc90 8fbd 2615 c73c
00000060: 4526 44bc 3af7 e8bb fccb 143c 6c20 4d3d
00000070: 20f5 c83d 11ff d43d b7d7 eb3d c2c3 e73d
00000080: 4a1f e5bc d12a 02be 240d 013e 5ea0 113c
00000090: da7c e0bd 0b6e eebd c332 623d 170a de3d
000000a0: 5857 4f3d 2b01 ebbd aca2 d8bc 61c4 99bd
000000b0: 713a b8bd 4d11 ea3d e42a d1bd 57b8 863d
000000c0: c55f f83d bef4 7fbd f295 ff3d 4602 22bd
000000d0: c36a 04be faf1 933d 0d94 443d cfe0 56bc
000000e0: d497 e9bd 9164 d13c a265 9c3d bad7 7ebd
000000f0: 016a 8e3c aa4f 8e3c 264c f63b df62 063e
00000100: 4285 92bd 0e7d 93bd c8ab c5bd bdf5 b7bb
00000110: 0692 263d 382f f9b8 4440 f23d 2b48 02be
00000120: 6ee9 bb3d 324c 1f3c 85c7 243c f7c8 9abd
00000130: 81c2 e73b 9324 82bd 628f 46bd a331 d13d
00000140: 46f8 c4bd 2903 74bd 8c43 653d 560d 45bd
00000150: 36d9 45b9 91db d93c 4f85 01be d028 f5bd
00000160: 4284 bfbd 1048 efbc 27dd e63d ed2e edbd
00000170: b8ff 033e 1167 503d 5138 87bd c046 febd
00000180: 20f7 0b3e d31e b4bc 8b24 f7bd 3ca3 b9bc
00000190: a77b 02be c6fb 82bd 2433 8fbc f099 ac3d
000001a0: 2f56 313d ff20 fabd b4fe e03d 2cf1 29bd
000001b0: 5fdf 693c 5bdf 043e a59e f4bd 3ce2 933d
000001c0: 4c85 99bd c95f 7c3c 02a3 0cbe 6423 0e3e
000001d0: 28b2 6ebd 36b2 003e 1d54 093e f0a7 fabd
000001e0: 2abb a1bd 01cf f93d cfb9 afbd 838e 933d
000001f0: e5a2 c7bd 6bad f73b da80 dabc fcc5 4abc
00000200: 2bea a03c 61df 6abd a809 9fbb d8c9 583d
00000210: 98b5 c43d d899 e8bd e023 9bbd ad78 ad3c
00000220: 0dd1 d43d 51f0 1dbd cedf f1bd b5e9 07be
00000230: d06c 1bbd fc97 8abd 9bc8 3bbd 129e 083a
00000240: 0375 e8bc 222f 3c3d c51c b83d df10 dc3d
00000250: 459e b5bd de90 98bc 5227 0bbe 9455 443c
00000260: 1439 04be d453 b73d 89c1 6cbd 7b11 db3d
00000270: f39b 84bc b93f 083e 1ac1 83bc 43cd 9c3d
00000280: f320 1abd 3315 1dbd 6db1 aa3d 9a1b 9b3d
00000290: 5a3b e73d 2f63 b2bc 358f c23d 6d51 9ebd
000002a0: 5c3a b33c 6fff 953d 506c c23d 1e82 0e3d
000002b0: 0e6e b43b 1b1e 213c 9e52 8c3c ee73 af3d
000002c0: ea02 70bc 53d6 373d 7270 253c 5b30 713c
000002d0: e6e5 cdbd d210 e23d d663 b4bc f242 6ebd
000002e0: 6f28 febc 8d2a cfbd 5a61 e3bc 96b1 083c
000002f0: a96b 92bc a083 3bbd a080 6c3d 8920 e63d
00000300: 919e af3d d2bd 273c 5c76 fcbd 82e2 df3c
00000310: 5d13 db3d a838 4d3d 0b99 da3d dd4a 86bd
00000320: d93a c4bb 6100 5b3c c729 d43d 16e0 03be
00000330: 687e f43c 9b77 72bd 75a8 8f3d e7b8 1e3c
00000340: 21bd eabd b7a5 933d 838f 913d 0e0a 01be
00000350: 801e 1dbb fa42 023e ecc0 10bc bcee 7b3d
00000360: d675 11bd 7ef5 0abe cbe4 c13d d627 d83d
00000370: 8f0f 163c 1c85 11bd f481 5fba 163e 8abd
00000380: f05f 4d3b bb35 8c3c 4576 99bd 6cd4 a33d
00000390: 683c 80bd 8465 d53b a0f9 23bd a398 97bc
000003a0: 73a7 dbbd f8c7 9abd 9954 b73d 207e 913d
000003b0: c424 303c 6edc fc3d 9d60 93bd 9b00 d4bc
000003c0: ae77 ac3d e067 ebbd 8a2a 6fbd 7f2e 5d3d
000003d0: 4cad b33b 9cbb a53c 3d62 8a3d e87b 49bd
000003e0: ba30 0fbe f51b 973d bf2f a2bd ed86 0bbe
000003f0: 8b79 0cbd b104 643d 5861 0a3d ba41 6cbd
0.06384936 -0.0662612 0.08092113 -0.07844264 0.034571677 0.044092536 0.06765957 -0.094294995
-0.089061536 -0.11389254 -0.08938855 0.11945638 -0.06224085 -0.050336204 0.13686213 0.08053446
0.018479506 -0.0072539956 0.07563616 0.04429597 0.035230502 0.025235325 -0.0701004 0.024302077
-0.011972015 -0.00710955 0.009081837 0.050079748 0.09812379 0.104002126 0.11515754 0.11316635
-0.027969021 -0.12711646 0.12602669 0.008888332 -0.109613135 -0.11642083 0.05522419 0.10841768
0.050620407 -0.11474832 -0.026444755 -0.075081594 -0.08995522 0.11429081 -0.10213259 0.06578129
0.121276416 -0.062489264 0.12479772 -0.03955295 -0.12931351 0.07223888 0.047992755 -0.013115122
-0.11405912 0.02556065 0.076365724 -0.06221745 0.017384531 0.017371971 0.007516402 0.13123654
-0.07154323 -0.07201587 -0.09651905 -0.005614011 0.040666603 -0.000118820404 0.11828664 -0.12722842
0.091753826 0.009722756 0.010057335 -0.07557862 0.007072747 -0.06354632 -0.048476584 0.102145456
-0.09617667 -0.059573326 0.05597262 -0.04810842 -0.00018868301 0.026593955 -0.1264851 -0.11970675
-0.09351398 -0.029209167 0.1127265 -0.11581216 0.12890518 0.05087954 -0.066025384 -0.12415838
0.1366849 -0.021987354 -0.12067517 -0.022660844 -0.12742482 -0.06395678 -0.01748044 0.08427799
0.04329508 -0.12213325 0.10986081 -0.041489765 0.014274447 0.12975828 -0.119443215 0.07220885
-0.074961275 0.015403696 -0.13734058 0.13880688 -0.05827537 0.12567982 0.13410993 -0.12239063
-0.07897027 0.12197686 -0.08580362 0.07204916 -0.097478665 0.007558515 -0.02667277 -0.012376305
0.01964291 -0.057341937 -0.004853446 0.05292687 0.09604949 -0.11357468 -0.07575202 0.021175707
0.10391436 -0.03855926 -0.118102655 -0.13272746 -0.03794557 -0.0676727 -0.04584561 0.00052115426
-0.028376108 0.045943387 0.08989862 0.107454054 -0.08868078 -0.018623766 -0.13589218 0.011983294
-0.12912399 0.08951536 -0.057801757 0.106966935 -0.016187644 0.13305558 -0.016083289 0.07656338
-0.03762908 -0.038350295 0.083346225 0.07573624 0.11290617 -0.02177581 0.09499971 -0.077303745
0.021878414 0.07324111 0.09493315 0.03479206 0.0055062836 0.009833838 0.017129239 0.08567034
-0.014649132 0.04488213 0.01009761 0.0147210015 -0.10053615 0.110383645 -0.022020262 -0.058169313
-0.03102514 -0.10115538 -0.027756382 0.008343121 -0.017873602 -0.045779824 0.057739854 0.11236674
0.08575166 0.010238128 -0.12327263 0.027329687 0.10697053 0.05010286 0.10673722 -0.06557248
-0.0059884605 0.01336679 0.10359531 -0.12878451 0.029845431 -0.059196096 0.070145525 0.009687639
-0.11461855 0.07209342 0.07107451 -0.12601492 -0.0023974478 0.12720862 -0.008835059 0.06150697
-0.035512768 -0.1357021 0.09467467 0.10554473 0.009158983 -0.035527334 -0.00085261394 -0.06750123
0.00313377 0.017115464 -0.07493261 0.07999501 -0.062615216 0.0065123457 -0.040032983 -0.0185054
-0.10725298 -0.07557672 0.089516826 0.071041346 0.010750953 0.12346731 -0.07196162 -0.025879195
0.084212646 -0.11494422 -0.058390178 0.05399942 0.005483305 0.02023106 0.06757019 -0.04919043
-0.13983431 0.07378379 -0.07919263 -0.13625689 -0.0342956 0.055668537 0.03378424 -0.05767987

components.0.net.rnn.rnn_cells.1.lin_hidden.bias f4 [1, 50]
00000000: 0000 0000 0000 0000 0000 0000 0000 0000
00000010: 0000 0000 0000 0000 0000 0000 0000 0000
00000020: 0000 0000 0000 0000 0000 0000 0000 0000
00000030: 0000 0000 0000 0000 0000 0000 0000 0000
00000040: 0000 0000 0000 0000 0000 0000 0000 0000
00000050: 0000 0000 0000 0000 0000 0000 0000 0000
00000060: 0000 0000 0000 0000 0000 0000 0000 0000
00000070: 0000 0000 0000 0000 0000 0000 0000 0000
00000080: 0000 0000 0000 0000 0000 0000 0000 0000
00000090: 0000 0000 0000 0000 0000 0000 0000 0000
000000a0: 0000 0000 0000 0000 0000 0000 0000 0000
000000b0: 0000 0000 0000 0000 0000 0000 0000 0000
000000c0: 0000 0000 0000 0000
0.0 0.0 0.0 0.0 0.0 0.0 0.0 0.0
0.0 0.0 0.0 0.0 0.0 0.0 0.0 0.0
0.0 0.0 0.0 0.0 0.0 0.0 0.0 0.0
0.0 0.0 0.0 0.0 0.0 0.0 0.0 0.0
0.0 0.0 0.0 0.0 0.0 0.0 0.0 0.0
0.0 0.0 0.0 0.0 0.0 0.0 0.0 0.0
0.0 0.0

components.0.net.rnn.rnn_cells.1.lin_hidden.linear.weight f4 [50, 50]
00000000: e7b8 023e acfd 53bd ab80 d1bd 0c92 1b3d
00000010: 0cda 2dbe 91a4 913d 45ae 493d a5c9 a7bc
00000020: 6681 c9bd f191 00be 1519 1fbe e7c3 e63d
00000030: 4a69 193e b612 213d 7265 f0bd fb80 2e3d
00000040: 1c75 32be 5741 293e 0843 833d 2093 73bd
00000050: b4fd e93c 4af4 6b3c 8bea 783d fdcb 07be
00000060: 66a4 053d 0792 6dbd 4c1d 363d a3ee d13c
00000070: 6757 c83c ad81 0e3d d224 95bd 5af5 cc3d
00000080: 864e 88bd b5d0 f73d a2fa 0abd 8ba5 78bd
00000090: 3bfa 5a3d 81d3 8bba 04ad 803d f3e3 cabc
000000a0: 8252 abbd c172 afbd d20f d23d 9fa9 d03c
000000b0: 1424 a63a 04e0 92bb 369d d0bc 7125 8f3d
000000c0: 0d54 03be a979 cebd 2154 a0bd 3175 7fbd
000000d0: 4dca 03be f97e 54bd 405e 94bc 0ab1 2fbc
000000e0: 07ef fa3d 4347 9dbd 9a0b ad3d 258a e8bc
000000f0: 45d0 9dbb 0c07 56bd f842 223c dc3e 9f3d
00000100: 78b3 d9bd 0540 aebd 1f41 febc 40df 00be
00000110: cfab 603c 9249 143c 2131 5a3d 84e2 9e3c
00000120: 8ce5 2c3d b601 ad3d c05b ff3d e01d 50bd
00000130: 6849 fc3d 4998 a9bd 583e 143d 3236 7cbd
00000140: 5a96 263e 0ada babc 08de 173e 793c 293d
00000150: f1bc 2abd 1178 14be 486d 173e 26b4 e6bd
00000160: 6565 263c 1b54 bbbd 4a9a 46bc 2456 21bd
00000170: ac9b 49bd c7ff fc3d b5a1 f23d 73b4 d53d
00000180: 731a 54bd 4882 b4bd e3c0 76bd dca9 c43d
00000190: 7213 9cbd 301b b8bb 3216 be3c 681a 0a3e
000001a0: 123b 5e3a 8183 45bd 042d 603d a189 f1bb
000001b0: 2bc1 b93d 591b faba 9b59 033e 05ff 9c3d
000001c0: a05a c13d baf2 123e 8b6f 8b3c 45b3 fabd
000001d0: c1e7 f63d 003d e7bd 7a7b 02be 77a6 eebd
000001e0: d7a9 823d 3116 8f3c 4b3e c83d 2d0d 113e
000001f0: c0fa 6e3d a872 8d3d fe7e 82bd 221f 23be
00000200: 4667 4e3b 3af1 103d 3fe8 f7bc f2b1 df3b
00000210: 9079 c1bd e967 d23c 3895 5b3d 5e86 393d
00000220: a9d3 4ebd c9d7 c33d 1046 f2bc ab25 03bd
00000230: 4e57 c03c 3b5b bc3d 1c2f 703d c88d 70bd
00000240: 2f49 963d 3657 48bd fb51 ab3d bec3 02be
00000250: d97e f6bd 50c0 813d 7b21 833d 9594 673d
00000260: 8413 bc3d 6804 4dbd 3b41 f03d 432d fa3c
00000270: 3758 5f3c d112 d13d 4c35 ef3d 0d03 0abd
00000280: de6a 753d ad6e f23d 3d92 de3d 0633 5d3d
00000290: 2f24 af3d c946 1f3d 0b9f 073e 4204 ed3d
000002a0: 3cb0 903c c29c 17bd 7953 8a3d 299e 153d
000002b0: b3ff 123d 1926 c73c 7fbf f23c b275 a53a
000002c0: 8c25 833d ce8b 59bd 3a05 afbb c2f2 08be
000002d0: 00a8 d63d 97bd 333d 8715 e7bd ef58 74bd
000002e0: 4e97 ce3c b9aa 05be 273a fabd 86eb 023e
000002f0: 3f71 07be d769 a0bd 4512 963d dddd 163c
00000300: 002a b93d 71c2 b63d 6229 1c3d c5ed 033d
00000310: c56f 7ebc 8cb4 8f3d 1068 e7bd 8cbc ba3c
00000320: aa88 5f3c aaa1 e73d 873d 933b 9c07 db3a
00000330: b263 72bc 6f54 18be 335e 19bd d9c8 68bc
00000340: d1c9 01bd 8bbf eb3d 4b23 a43d 40e5 963c
00000350: a3f7 8ebd ff92 4dbd 9f21 903c 2211 1bbe
00000360: 082c 1abc 5580 41bd c4ae d03c 9bc5 49bd
00000370: 36a6 dbbd 2b17 48bb 8ecd dc3d d316 003e
00000380: 71cd 673d 0fea 523d d913 cf3d dab5 ac3d
00000390: 4fde d2bd dae1 dbbd 1632 f3bd d4ab c53b
000003a0: f5f5 d23d 6e50 fe3d 46d1 723d bc5a be3d
000003b0: ab65 8a3d 37a7 4e3c 6efe e9bc 13e6 a03d
000003c0: f9e7 233d a4eb 0abe ede4 fabc 7b56 52ba
000003d0: 59fa 9bbd ad41 3b3e 7820 763c f86e 813d
000003e0: 14ca aebd a75f a33d ed1c 63bd d50d b53d
000003f0: 4916 e7bc eb4d c43d 30bb 08be 8572 f3bc
0.12765847 -0.051755592 -0.102296196 0.037981078 -0.1697771 0.07111467 0.049238462 -0.020481894
-0.09839134 -0.12555672 -0.15536912 0.11267834 0.14981571 0.039324485 -0.11738099 0.042603474
-0.17427486 0.16528831 0.064092696 -0.05946648 0.028563358 0.014401505 0.060770553 -0.13261409
0.032627486 -0.05800059 0.044461533 0.025626486 0.02445574 0.034791637 -0.072824135 0.100077346
-0.06655602 0.121003546 -0.03393043 -0.06070475 0.053461295 -0.0010667891 0.06283 -0.024766898
-0.083653465 -0.085668094 0.10256924 0.025471507 0.0012675547 -0.004482271 -0.025465589 0.06989563
-0.12825032 -0.100817986 -0.07828546 -0.06236762 -0.1287014 -0.051878903 -0.018111348 -0.010723362
0.12252622 -0.07679608 0.084494784 -0.028386185 -0.0048160874 -0.052252814 0.009903662 0.07775661
-0.10629934 -0.085083045 -0.031036912 -0.12585163 0.013712837 0.009050744 0.05326951 0.01939512
0.0422111 0.08447592 0.12468672 -0.05080974 0.12318689 -0.08280999 0.036192268 -0.061575122
0.16268292 -0.022809047 0.14830792 0.041317437 -0.041684095 -0.14498927 0.14787781 -0.11264829
0.01015601 -0.09146901 -0.012121746 -0.03938879 -0.049220726 0.12353473 0.118472494 0.104348086
-0.051783036 -0.08813912 -0.060242545 0.096027106 -0.076208964 -0.0056184754 0.023203943 0.13486636
0.000847743 -0.048221115 0.05473043 -0.007371143 0.09070047 -0.0019081637 0.1282715 0.076658286
0.094411135 0.14350405 0.017020961 -0.12241224 0.12055922 -0.11290932 -0.12742415 -0.116528444
0.06380051 0.017466636 0.097775064 0.14165182 0.058344603 0.069066346 -0.06371878 -0.15929845
0.0031494661 0.0353863 -0.03026211 0.0068266327 -0.09447014 0.025684314 0.053609103 0.04529416
-0.050494824 0.09562642 -0.029574424 -0.032018345 0.02347913 0.09197088 0.058638677 -0.058728963
0.073381774 -0.048911296 0.08365246 -0.12769982 -0.12035913 0.06335509 0.0640287 0.056538183
0.0918341 -0.05005303 0.11731192 0.03053916 0.013631872 0.10208667 0.116800874 -0.033694316
0.05991637 0.11837516 0.108677365 0.054003738 0.08551823 0.038885865 0.13244264 0.11573078
0.01766216 -0.03701473 0.067542024 0.036527786 0.035888385 0.024310159 0.029632328 0.0012623577
0.06403646 -0.053111844 -0.005341199 -0.13373855 0.10481262 0.04388198 -0.11283403 -0.059655126
0.025218632 -0.13053407 -0.12218123 0.12785158 -0.13226794 -0.07832687 0.073277034 0.00920817
0.09041214 0.089238055 0.038125403 0.032209177 -0.015529578 0.070168585 -0.11299145 0.022794984
0.013643423 0.11310132 0.0044934186 0.0016710642 -0.014794277 -0.14875959 -0.03744335 -0.014208042
-0.031686608 0.11511143 0.08014544 0.018419862 -0.06980827 -0.050189015 0.017594157 -0.15143254
-0.009409912 -0.047241528 0.02547396 -0.049260717 -0.107250616 -0.0030531387 0.10781394 0.12508707
0.05659241 0.051492747 0.101112075 0.08433123 -0.10296308 -0.10736437 -0.118747875 0.0060324464
0.10300819 0.124176845 0.05928161 0.0929465 0.06757673 0.012613109 -0.028563704 0.07856383
0.04001615 -0.13566452 -0.030626738 -0.0008023751 -0.076161094 0.18286772 0.01502239 0.06319994
-0.08534637 0.079772286 -0.055447508 0.08840529 -0.028208869 0.09585174 -0.13352656 -0.029717693

components.0.net.rnn.rnn_cells.2.lin_in.weight f4 [50, 50]
00000000: 7252 b2bd f33c 25bd b2c8 f7bd be72 e73c
00000010: 9517 8d3b 242a 91bc a190 f1bd 9d48 063e
00000020: 6184 8e3c 0b5a 803d 049f d2bd 8f78 90bd
00000030: 3248 b8bd ba99 353d 96c0 c73d 11a2 b9bd
00000040: d20f 903d e334 febd d2b8 cd3d 9947 f73b
00000050: d06e a03d b5e5 a8bc 0975 ad3b f058 023d
00000060: a8c6 023e 8498 0a3e 5106 50bd 17fc 3abc
00000070: 836e 0f3e 15c8 92bc f30e e2bd 2232 b73d
00000080: e46f ec3d 65e7 d33d 1ef1 0f3e c7bf 0c3d
00000090: 220e fabd dbec ebbd 474b fc3d 7a05 f0bd
000000a0: f5b1 a53d 5e46 383d 6ad4 6e3d e770 bf3c
000000b0: 6c3e 08be b6fb 0fbc aa6c 44bd 1a62 0c3e
000000c0: 7451 483d c9d8 c73d 86e1 033b 3459 bf3d
000000d0: 4825 51bb ad02 00be 3350 533d f01f a0bd
000000e0: a461 c73d ca5c fbbd 9880 8e3c 2ca8 90bc
000000f0: d93c 00bc e91b 043d 6c98 a9bd 2735 27bd
00000100: 43e3 d23d f1d7 08be 9ea0 463c d82f c53d
00000110: fc69 03bd a8c0 b13d 10de b43d 4fd6 cd3b
00000120: 43a5 8abd d004 1bbd 2a74 e83d 7c00 043e
00000130: 3976 083d 4b60 e2bd dd66 fdbd d98a f2bd
00000140: f54a 5f3d dcad c23d 5618 05be 3c22 363d
00000150: 6adc cd3d 8372 533d e8ae ffbd 5020 0f3e
00000160: 7a9a d9bd efb4 ec3d 8742 9bbd 62c5 2bbd
00000170: ccc6 cbbd eb57 8d3d 2fc9 ea3d 4eb6 d3bd
00000180: c8ac 4d3d 604c 3a3d 58f2 b53d bf2a 0ebe
00000190: fc50 d7bd 2aa3 8cbd 5372 6abd 95df 5e3d
000001a0: 2b89 d2bd 71c7 04be 5305 8b3d 0bc8 f4bd
000001b0: d510 803d ad77 183d e07f 063d fe19 923b
000001c0: c685 f2bd b75b e1bc ea98 0b3e b59e e7bd
000001d0: f798 cebd a95f f03d bd9e a9bd 5ec6 f1bc
000001e0: 3a88 00bc 083d 713d 5861 0abc dff6 0c3e
000001f0: 2f49 c53d 33a0 e8bd a13f 52bd 5558 ddbd
00000200: 4193 ce3d 6b6d b6bd 50dc 86bd 356a ac3c
00000210: 0798 84bd 1055 91bc 413b 9a3c dba6 253d
00000220: 30f0 39bd 0ba5 f53d 73f2 813d 9461 1abd
00000230: 7d81 d83d a7a0 5c3c 106c 25bb 95e8 fdbc
00000240: 4ea0 f4bd d1ac 07be 772d 183d 59b3 2f3b
00000250: c86c f9bd a4be 9dbd 2ff5 e03c 634c cd3c
00000260: 0f7c 0f3e 967a ed3d 3293 8a3d 7a79 dd3d
00000270: 6292 3dbd 162c a33d e8a6 88bd c399 423d
00000280: 5412 b03d c232 3ebd 0476 02bd 9d21 f8bd
00000290: 4734 103c 8d30 fbbd 8279 0c3e bd76 443d
000002a0: cae7 2c3d aeff 2d3d a9fb 773d 4bde 86bd
000002b0: 400e edbd 710e 0ebe d833 c03d 8922 293d
000002c0: 245a ec3c 3040 6c3d 0522 afbd 39fe b6bd
000002d0: 7a86 dfba 4ad9 0fbe 072c b7bd d173 43bd
000002e0: 75f4 b83d f97d 9ebd c3d2 813c 326f f5bd
000002f0: 077e be3d 80f6 353b 6bd2 aabc cb81 dd3d
00000300: b3b9 1cbd b46b d53d d3b2 013e 0a09 263b
00000310: 56f5 a53d 278a a33d e30c e33b 4ece fa3d
00000320: f8fb 83bb 4218 9dbd cc86 bc3c f055 10bd
00000330: 1676 043e d8c1 823d fce0 83bd 8bc0 013e
00000340: 4d39 8d3d ccd5 073e af18 c73d 7534 003e
00000350: 7a6c 47bc 8e11 ed3d 42ea a93d 16f4 00be
00000360: 53fa 033d 0520 3cbd d5e3 f5bd 85fa eebd
00000370: a039 003e 9551 2c3d 6d4e 8e3c 2b1e edbd
00000380: cbfe a6bd feab e5bd 1101 f0bd b843 c73d
00000390: 3b60 05be 08c1 983d a8c0 f5bd efbe f0bc
000003a0: ce0b 093e 3675 8c3d 8475 0cbe 106f d73d
000003b0: 1ef6 97bc c28d f7bd 8a0f c23d 7f68 d23c
000003c0: 7505 d53c f300 ff3c 3b99 f7bd 8763 00be
000003d0: 46d1 f23d 562f ff3c 4f75 233c 35f8 7fbd
000003e0: 4fa5 5dbd bc45 9cbc ae85 9f3d d65f 933d
000003f0: 809f a03c 213a be3c 0d8e 573b 1266 b0bc
-0.087071314 -0.04034133 -0.120988265 0.028252956 0.0043057897 -0.01772029 -0.11795164 0.13113637
0.017397108 0.06267174 -0.10284236 -0.07054245 -0.08998145 0.04433606 0.0975353 -0.09064115
0.070342675 -0.12412431 0.10045017 0.007546377 0.07833636 -0.020617345 0.0052934927 0.0318231
0.12771094 0.13534743 -0.050787274 -0.011412642 0.14007 -0.017917672 -0.110380076 0.08945109
0.11544779 0.103468694 0.14056823 0.03436258 -0.12209727 -0.11519786 0.123190455 -0.117197946
0.08090583 0.044988982 0.058308043 0.023369266 -0.13305062 -0.00878804 -0.047955193 0.13709298
0.048905805 0.09758145 0.0020123436 0.09343186 -0.003191309 -0.1250102 0.051590156 -0.078185916
0.0973542 -0.122735575 0.017395303 -0.017658316 -0.007827007 0.03225318 -0.08281025 -0.040822174
0.10297253 -0.13363625 0.012123255 0.09628266 -0.032083496 0.086793244 0.088314176 0.006281651
-0.067698024 -0.037846386 0.113502815 0.1289081 0.03331587 -0.11053523 -0.12373135 -0.11842889
0.054514844 0.09505817 -0.12997565 0.044466242 0.10051806 0.05162288 -0.124845326 0.1397717
-0.10625167 0.11557948 -0.075810485 -0.041936286 -0.09950027 0.06901535 0.11464154 -0.10337506
0.050213605 0.045482993 0.08884114 -0.13883494 -0.105134934 -0.068670586 -0.057237934 0.054412443
-0.10280069 -0.12966706 0.06788125 -0.11952218 0.062532105 0.037223507 0.032836795 0.004458665
-0.118419215 -0.027509553 0.13632551 -0.11309568 -0.100877695 0.11736996 -0.0828223 -0.029513534
-0.007844979 0.058896095 -0.00844606 0.13766049 0.09633099 -0.113586806 -0.051330213 -0.108078636
0.1008668 -0.089075886 -0.0658499 0.021046737 -0.064743094 -0.017740756 0.018827083 0.04044233
-0.045395076 0.1199437 0.06345072 -0.037690714 0.10571573 0.013466037 -0.0025241412 -0.030994693
-0.11944638 -0.13249518 0.037152734 0.002680978 -0.121789515 -0.077023774 0.027460663 0.025060838
0.14012168 0.11595647 0.067663565 0.108141854 -0.04628218 0.07967393 -0.0667246 0.04750992
0.08597246 -0.046435125 -0.03185083 -0.12115786 0.008801526 -0.1226512 0.13718227 0.0479648
0.04221324 0.042480163 0.060542736 -0.06585368 -0.115749836 -0.13872696 0.093848884 0.0412927
0.028851576 0.0576784 -0.085514106 -0.08935208 -0.0017053627 -0.14047733 -0.089439444 -0.047717873
0.090310015 -0.07738871 0.01584757 -0.119840994 0.093013816 0.0027765334 -0.020852288 0.10815772
-0.038263034 0.10420933 0.12665872 0.0025334978 0.08103435 0.07985335 0.0069290265 0.12246381
-0.0040278398 -0.076706424 0.023013495 -0.035238206 0.12935671 0.06384629 -0.06439397 0.12671106
0.06895695 0.13265151 0.09721505 0.12520011 -0.012171859 0.11575614 0.08296634 -0.12593111
0.03222115 -0.045928974 -0.12006346 -0.116688766 0.12521982 0.04206999 0.01737138 -0.1157802
-0.08154067 -0.112144455 -0.117189534 0.09729713 -0.1302499 0.07458693 -0.11999637 -0.02938792
0.1338341 0.06858294 -0.13716704 0.1051923 -0.018549975 -0.12087585 0.0947562 0.025684593
0.026003579 0.031128382 -0.12089773 -0.12537967 0.11856322 0.031150501 0.009976699 -0.062492568
-0.05411273 -0.01907622 0.07789169 0.07196014 0.019607306 0.023221077 0.0032891065 -0.021533046
