neuromancer/train_scripts/papers/flexy/ape_models/best_model.pth (torch, 672355 bytes, 113 tensors)

weight f4 [1, 50]
-0.037784904 0.027609996 0.14129908 0.13193598 -0.093225546 -0.058170695 0.104156114 -0.010980216
-0.004703251 0.026316106 -0.064726956 0.06301342 -0.02151504 0.10720893 0.1265 0.08402994
0.12239246 0.11422287 0.056073856 -0.099595755 -0.07548128 0.04206013 -0.09169181 -0.12411661
-0.0086719 -0.11793215 -0.12716143 0.052127697 0.10663602 0.057692967 0.091287024 -0.11981094
0.10754635 -0.12322792 -0.062217653 -0.061360486 0.12300339 0.0064420113 0.06164938 -0.075562306
-0.11119093 -0.055539113 0.030989366 0.08119242 0.055545166 -0.10209921 0.005467947 -0.121402904
0.10428844 -0.03901121
00000000: 58c4 1abd 5c2e e23c b5b0 103e 3a1a 073e
00000010: 09ed bebd 6544 6ebd cd4f d53d 5de6 33bc
00000020: bb1d 9abb e094 d73c 918f 84bd 2e0d 813d
00000030: 4f40 b0bc 5b90 db3d 3789 013e e417 ac3d
00000040: e6a8 fa3d aeed e93d b3ad 653d dcf8 cbbd
00000050: ee95 9abd 3e47 2c3d eac8 bbbd d930 febd
00000060: 9614 0ebc 6986 f1bd 9b36 02be da83 553d
00000070: fc63 da3d 764f 6c3d b1f4 ba3d 705f f5bd
00000080: 4341 dc3d eb5e fcbd f0d7 7ebd 2255 7bbd
00000090: 34e9 fb3d 8217 d33b 0f84 7c3d 69c0 9abd
000000a0: 12b8 e3bd fb7c 63bd 69dd fd3c 3648 a63d
000000b0: 5483 633d 6419 d1bd 772c b33b 16a2 f8bd
000000c0: 2d95 d53d 38ca 1fbd

bias f4 [1, 50]
0.0 0.0 0.0 0.0 0.0 0.0 0.0 0.0
0.0 0.0 0.0 0.0 0.0 0.0 0.0 0.0
0.0 0.0 0.0 0.0 0.0 0.0 0.0 0.0
0.0 0.0 0.0 0.0 0.0 0.0 0.0 0.0
0.0 0.0 0.0 0.0 0.0 0.0 0.0 0.0
0.0 0.0 0.0 0.0 0.0 0.0 0.0 0.0
0.0 0.0
00000000: 0000 0000 0000 0000 0000 0000 0000 0000
00000010: 0000 0000 0000 0000 0000 0000 0000 0000
00000020: 0000 0000 0000 0000 0000 0000 0000 0000
00000030: 0000 0000 0000 0000 0000 0000 0000 0000
00000040: 0000 0000 0000 0000 0000 0000 0000 0000
00000050: 0000 0000 0000 0000 0000 0000 0000 0000
00000060: 0000 0000 0000 0000 0000 0000 0000 0000
00000070: 0000 0000 0000 0000 0000 0000 0000 0000
00000080: 0000 0000 0000 0000 0000 0000 0000 0000
00000090: 0000 0000 0000 0000 0000 0000 0000 0000
000000a0: 0000 0000 0000 0000 0000 0000 0000 0000
000000b0: 0000 0000 0000 0000 0000 0000 0000 0000
000000c0: 0000 0000 0000 0000

weight f4 [50, 1]
0.82295406 -0.7047275 0.5255774 -0.8993295 0.08831392 -0.65593195 0.9655108 0.8392101
-0.5116099 0.86253196 0.748963 0.21543244 0.5917283 -0.15173009 -0.92858505 0.29496723
-0.046010356 0.9177114 -0.5635089 0.496605 -0.024056807 -0.56964785 0.30154634 0.3054163
-0.5055585 -0.6363855 -0.107502766 -0.7088928 -0.71214515 -0.8520548 0.5979584 0.94912314
0.37391245 -0.7500175 -0.21963648 -0.5796983 -0.81265146 0.85850316 -0.9431055 -0.050227225
-0.83497137 0.34231165 0.61081463 -0.78721255 0.29761973 0.7575406 1.039339 0.537318
-0.08448686 0.14232285
00000000: 1ead 523f 0569 34bf 3e8c 063f 753a 66bf
00000010: eedd b43d 28eb 27bf b72b 773f 79d6 563f
00000020: def8 02bf e5ce 5c3f 0abc 3f3f 529a 5c3e
00000030: 827b 173f 225f 1bbe c0b7 6dbf f205 973e
00000040: 5b75 3cbd 22ef 6a3f 1f42 10bf 0343 fe3e
00000050: c812 c5bc 71d4 11bf 4864 9a3e 865f 9c3e
00000060: 486c 01bf 29ea 22bf 692a dcbd 007a 35bf
00000070: 254f 36bf 4320 5abf cd13 193f bcf9 723f
00000080: 7471 bf3e 2601 40bf 63e8 60be 1c67 14bf
00000090: ed09 50bf ddc6 5b3f 5d6f 71bf 10bb 4dbd
000000a0: afc0 55bf 7943 af3e 595e 1c3f c386 49bf
000000b0: 9d61 983e 2eee 413f 0f09 853f ac8d 093f
000000c0: 7207 adbd 15bd 113e

weight f4 [50, 50]
-0.019880973 -0.059186045 0.085418195 -0.008758436 -0.04794739 0.06392175 -0.0011333794 -0.04528942
-0.0037273157 0.050101984 -0.10782107 -0.059570964 -0.10206718 -0.031044442 0.124355465 0.13408579
0.08749566 0.005507767 -0.06265738 -0.034914132 0.0821078 -0.044966508 0.014853039 -0.054580305
-0.079302266 -0.068108484 0.13885239 0.1284197 -0.028872684 0.07806426 0.01929943 0.13924532
-0.093775004 0.06920951 -0.015538988 0.019954897 0.12572733 0.06429711 0.053674217 0.010719512
-0.0020333326 0.13912432 0.023790987 -0.11861533 -0.071296 0.0870946 0.10779814 -0.11202535
-0.10751557 -0.07821859 -0.04806356 -0.12114343 -0.07644058 -0.105678506 -0.13434038 0.06661908
0.12414203 -0.08038817 -0.06913174 -0.061235107 0.10900032 -0.11393019 0.010719984 0.0063774423
0.0682778 -0.13289127 -0.069874845 -0.05010286 -0.1167311 -0.09467688 0.06323379 0.05821217
-0.112498745 0.08768723 -0.10738822 -0.050328817 -0.008763898 -0.14048712 0.070959754 -0.036595132
0.046813805 0.05868666 -0.12883767 0.037057348 0.030596219 0.08394762 -0.09183951 -0.05269705
-0.11516256 -0.037881944 0.12528655 0.05849932 -0.14042446 0.027931526 0.09161146 -0.094519
0.115886405 -0.10708115 -0.030861257 0.11263304 0.0690914 0.13744302 0.03386341 -0.07078837
-0.040852387 -0.050770044 0.093708076 0.09447269 0.1370313 -0.0902986 -0.09702188 0.093277015
-0.11084497 0.03972541 -0.0051606963 -0.0804548 0.1164169 -0.1361685 -0.093819275 -0.05027369
0.06311914 0.024734773 0.07084766 -0.12341166 0.0067859124 -0.124253504 0.00017669646 0.057655223
0.09089543 -0.12721963 -0.13047323 -0.065654404 0.04788152 -0.10244748 -0.061859235 0.021198703
-0.012084766 -0.06032531 -0.13973603 0.013841548 -0.06564126 0.023560124 0.031549465 0.13699013
0.038466822 -0.0714814 0.06429783 -0.12144679 0.13904917 -0.0430714 -0.06784965 0.030545846
-0.039243422 -0.13731623 -0.11581144 -0.1410045 -0.008597553 -0.082915515 -0.067597106 -0.118301824
-0.12823442 -0.09759747 0.03280923 -0.10643187 0.041125715 -0.10732507 0.089196205 0.012243575
-0.09417016 0.0125368675 -0.14029317 0.10185867 -0.023428675 0.054029398 0.12750198 -0.07411121
-0.1410206 -0.027361196 0.060071856 -0.13749488 -0.019283146 -0.049941774 0.027199335 -0.05475026
0.09104396 0.04945434 0.13799454 -0.032037623 -0.037096564 0.047825616 0.1309473 -0.014912348
-0.09366155 0.07457479 0.014143977 0.06542302 -0.12748985 -0.018915271 -0.051060166 0.10295066
-0.06292445 -0.13302775 -0.0007424758 0.069024675 0.097083665 0.018304091 0.01713003 0.055602875
0.063695304 -0.0072901915 -0.03095236 -0.057837076 -0.03611179 -0.053896736 -0.10629038 -0.060567047
-0.12957019 0.01768991 -0.07822406 0.06927659 0.06889852 0.002676561 0.04306196 -0.040631097
0.1372117 0.121719934 0.059296455 -0.11340645 -0.11572586 0.13553011 -0.08384312 -0.07732445
-0.054597568 0.07311189 0.081871554 0.012816739 0.023098126 -0.01417144 0.091603614 0.007158811
0.05037326 0.040731896 -0.12313536 -0.12695932 -0.11270071 -0.10317175 -0.1216525 0.13522677
-3.4105233e-05 -0.11463677 0.086575545 -0.13699295 -0.12279596 0.058297608 -0.068004176 -0.12090323
00000000: 6cdd a2bc 116d 72bd bcef ae3d 8b7f 0fbc
00000010: 7b64 44bd 68e9 823d e78d 94ba 6681 39bd
00000020: fb45 74bb bd37 4d3d 4bd1 dcbd af00 74bd
00000030: 9908 d1bd ea50 febc 14ae fe3d c94d 093e
00000040: ed30 b33d 807a b43b 8352 80bd 1f02 0fbd
00000050: 2228 a83d cd2e 38bd 295a 733c 998f 5fbd
00000060: 3a69 a2bd 767c 8bbd 522f 0e3e 7480 033e
00000070: 6886 ecbc 28e0 9f3d d719 9e3c 5396 0e3e
00000080: 1c0d c0bd b7bd 8d3d 3d97 7ebc 7478 a33c
00000090: aabe 003e 34ae 833d 7fd9 5b3d e4a0 2f3c
000000a0: a941 05bb 9b76 0e3e 51e5 c23c 98ec f2bd
000000b0: a303 92bd a75e b23d 45c5 dc3d 8c6d e5bd
000000c0: 2031 dcbd 1131 a0bd 4cde 44bd 0c1a f8bd
000000d0: e18c 9cbd f96d d8bd 8690 09be 966f 883d
000000e0: 2d3e fe3d 8ea2 a4bd f194 8dbd aad1 7abd
000000f0: 8f3b df3d 3b54 e9bd dfa2 2f3c ddf9 d03b
00000100: 3bd5 8b3d a614 08be 8b1a 8fbd a838 4dbd
00000110: b710 efbd f4e5 c1bd b880 813d e26f 6e3d
00000120: be65 e6bd 5d95 b33d 5bee dbbd 9725 4ebd
00000130: 7496 0fbc dbdb 0fbe 5953 913d c7e4 15bd
00000140: d5bf 3f3d 6c61 703d 06ee 03be 72c9 173d
00000150: eca4 fa3c bbec ab3d 5a16 bcbd ddd8 57bd
00000160: 59da ebbd 192a 1bbd 1e4b 003e fc9c 6f3d
00000170: 6ecb 0fbe a8d0 e43c ca9e bb3d 2d93 c1bd
00000180: da55 ed3d 5d4d dbbd bfd0 fcbc 27ac e63d
00000190: cb7f 8d3d ddbd 0c3e 5cb4 0a3d 7ef9 90bd
000001a0: d554 27bd 40f4 4fbd 05ea bf3d e67a c13d
000001b0: ef51 0c3e 79ee b8bd 68b3 c6bd 0508 bf3d
000001c0: b002 e3bd 1db7 223d 0f1b a9bb 7cc5 a4bd
000001d0: fc6b ee3d c16f 0bbe 5224 c0bd c9eb 4dbd
000001e0: 9c44 813d 94a0 ca3c 9418 913d 41bf fcbd
000001f0: 5c5c de3b 9f78 febd 9847 3939 e227 6c3d
00000200: 6227 ba3d dd45 02be c69a 05be d175 86bd
00000210: 6a1f 443d fccf d1bd 1c60 7dbd e7a8 ad3c
00000220: 2fff 45bc ac17 77bd f616 0fbe a9c7 623c
00000230: ed6e 86bd 2901 c13c 033a 013d 2447 0c3e
00000240: 638f 1d3d d764 92bd 95ae 833d 18b9 f8bd
00000250: e862 0e3e a36b 30bd c2f4 8abd 483b fa3c
00000260: b6bd 20bd a09c 0cbe 8c2e edbd 7c63 10be
00000270: c0dc 0cbc 9ccf a9bd 5a70 8abd 3a48 f2bd
00000280: e24f 03be 2fe1 c7bd f962 063d f4f8 d9bd
00000290: 7073 283d 3fcd dbbd 80ac b63d 4799 483c
000002a0: 49dc c0bd 6f67 4d3c 03a9 0fbe 479b d03d
000002b0: 7eed bfbc ee4d 5d3d e18f 023e 9ec7 97bd
000002c0: b467 10be 9624 e0bc e80d 763d 75cb 0cbe
000002d0: b0f7 9dbc bf8f 4cbd 24d1 de3c cf41 60bd
000002e0: 4175 ba3d a290 4a3d 714e 0d3e e239 03bd
000002f0: 91f2 17bd cbe4 433d 0d17 063e ec52 74bc
00000300: a0d1 bfbd abba 983d 24bc 673c 81fc 853d
00000310: b38c 02be 33f4 9abc 7724 51bd ccd7 d23d
00000320: 89de 80bd 6d38 08be b5a2 42ba cf5c 8d3d
00000330: cdd3 c63d 76f2 953c 4754 8c3c d7bf 633d
00000340: af72 823d 8fe2 eebb ce8f fdbc 92e6 6cbd
00000350: f5e9 13bd d3c2 5cbd c5ae d9bd 2715 78bd
00000360: 0cae 04be 6eea 903c f033 a0bd e3e0 8d3d
00000370: ab1a 8d3d 3e69 2f3b bd61 303d cb6c 26bd
00000380: 3981 0c3e 4d48 f93d d7e0 723d a441 e8bd
00000390: ae01 edbd 68c8 0a3e f1b5 abbd 485c 9ebd
000003a0: b3a1 5fbd b0bb 953d 46ac a73d 4dfd 513c
000003b0: 4838 bd3c 542f 68bc ad9a bb3d 7694 ea3b
000003c0: 3154 4e3d 7dd6 263d 642e fcbd a001 02be
000003d0: a1cf e6bd b64b d3bd f224 f9bd e378 0a3e
000003e0: 370c 0fb8 afc6 eabd 854e b13d e147 0cbe
000003f0: 737c fbbd 79c9 6e3d c645 8bbd 1d9c f7bd

bias f4 [1, 50]
0.0 0.0 0.0 0.0 0.0 0.0 0.0 0.0
0.0 0.0 0.0 0.0 0.0 0.0 0.0 0.0
0.0 0.0 0.0 0.0 0.0 0.0 0.0 0.0
0.0 0.0 0.0 0.0 0.0 0.0 0.0 0.0
0.0 0.0 0.0 0.0 0.0 0.0 0.0 0.0
0.0 0.0 0.0 0.0 0.0 0.0 0.0 0.0
0.0 0.0
00000000: 0000 0000 0000 0000 0000 0000 0000 0000
00000010: 0000 0000 0000 0000 0000 0000 0000 0000
00000020: 0000 0000 0000 0000 0000 0000 0000 0000
00000030: 0000 0000 0000 0000 0000 0000 0000 0000
00000040: 0000 0000 0000 0000 0000 0000 0000 0000
00000050: 0000 0000 0000 0000 0000 0000 0000 0000
00000060: 0000 0000 0000 0000 0000 0000 0000 0000
00000070: 0000 0000 0000 0000 0000 0000 0000 0000
00000080: 0000 0000 0000 0000 0000 0000 0000 0000
00000090: 0000 0000 0000 0000 0000 0000 0000 0000
000000a0: 0000 0000 0000 0000 0000 0000 0000 0000
000000b0: 0000 0000 0000 0000 0000 0000 0000 0000
000000c0: 0000 0000 0000 0000

weight f4 [50, 50]
0.1115367 -0.049635407 -0.006139256 -0.16125552 0.08796953 0.056304254 -0.05043364 0.043059498
-0.119826846 0.16020797 0.007383638 0.02486324 0.10797741 -0.11563828 -0.16609685 -0.030223232
-0.010175151 0.02944489 -0.15133929 0.010696764 -0.09031037 0.04860816 -0.08347767 0.0706894
-0.16434917 0.100854814 0.086781435 -0.11034072 -0.09718517 0.088872075 -0.103037216 0.0033685965
0.15255369 -0.014931593 -0.14986917 0.031746723 0.0011483 0.09168875 -0.02971036 -0.1085418
-0.13554488 0.111636706 0.13392442 -0.12881249 0.14005722 -0.0854891 -0.07849381 0.12331268
-0.041732803 -0.07161692 0.11399966 0.10222531 -0.16629942 0.15709871 -0.10499073 0.15320137
-0.005098725 -0.111656874 -0.01984546 0.06799544 -0.12725492 0.02296502 -0.1408158 0.082119144
0.09697891 -0.12973256 0.045309294 -0.10035934 -0.084601395 -0.04257218 -0.03356329 0.028128231
0.12715344 0.086355016 0.12668751 -0.073000334 -0.07346623 -0.02177086 -0.031482648 0.120607056
-0.08449061 -0.03675425 0.081950784 0.058196843 -0.035566367 0.028837834 -0.056955975 -0.13554306
0.07020987 0.04603667 0.0060285153 0.0555567 -0.06383323 0.0885594 0.07285988 0.077305414
-0.08009136 -0.042852864 -0.09645995 -0.09447749 -0.0074606007 0.09384573 0.07798959 -0.015065337
0.022175638 0.08046324 -0.09525666 -0.08764607 0.09159801 0.07330279 -0.109776594 0.14283508
0.042870004 0.039694127 -0.13864362 0.01656584 -0.107615896 -0.0978418 -0.1648865 -0.0110362
0.105925545 -0.15925658 -0.0718608 -0.10318478 -0.21234408 0.1193461 -0.037657022 0.015573841
-0.07113195 0.07920626 -0.057994574 0.05997283 0.15444256 0.04314848 0.041388314 0.108918905
-0.06971153 -0.07150686 0.070907004 0.0032748666 -0.14505844 0.1017181 -0.026203124 0.0019867192
0.04229551 0.04834083 -0.1270081 0.0066599236 -0.0899778 0.062280282 0.018630367 -0.11344158
-0.021203965 0.13263474 -0.093540564 0.14140777 0.03623055 -0.02599004 0.07481188 0.016248422
0.11108533 -0.071985446 -0.01303392 0.021819172 0.056922514 0.13576233 0.11431661 -0.06700972
-0.093950555 0.068551324 -0.13608909 0.01550298 0.06994618 0.12572011 0.022661077 0.04568076
0.13083532 0.059032872 -0.041806195 0.09662725 0.13120262 0.024109185 -0.10068009 0.0060524973
-0.08931688 -0.11491428 -0.045380745 0.081669405 0.081956215 -0.0027341295 0.1097109 -0.073221214
0.11388883 -0.12614399 -0.13391525 0.055327166 0.098590754 -0.10585926 0.09039286 0.03997062
0.12802139 0.11785963 0.056269575 0.13003477 0.10006311 -0.119270034 0.06872715 -0.06354737
-0.06347218 0.121203884 0.082745634 0.069313936 0.011425434 -0.06268249 0.061252926 0.079717375
0.111885674 0.052698243 0.024066793 -0.0444316 0.1298318 0.12914594 0.103146866 -0.07905848
-0.059641916 0.046796143 -0.07757055 -0.06715255 0.133444 -0.1117988 0.08836598 -0.099284165
0.042287823 0.023869352 -0.13321896 0.109317094 -0.108373426 0.08282055 0.12136986 -0.08404537
-0.0918311 0.030313522 0.05662468 0.10494985 -0.05605869 -0.073393494 -0.04629985 -0.13756797
0.03582925 0.14118594 0.12170677 -0.08173357 -0.13906418 -0.093143 0.055506043 0.089726724
00000000: 5a6d e43d 7f4e 4bbd d02b c9bb 2b20 25be
00000010: 5e29 b43d 4a9f 663d 8193 4ebd 285f 303d
00000020: c767 f5bd 8f0d 243e 72f2 f13b fead cb3c
00000030: 4323 dd3d c3d3 ecbd 4b15 2abe b696 f7bc
00000040: adb5 26bc 6936 f13c b0f8 1abe 7b41 2f3c
00000050: a5f4 b8bd 5a19 473d 57f6 aabd 9bc5 903d
00000060: 264b 28be f88c ce3d 77ba b13d 51fa e1bd
00000070: 0509 c7bd 9002 b63d 2d05 d3bd acc3 5c3b
00000080: 0937 1c3e a4a3 74bc 4e77 19be da08 023d
00000090: 8e82 963a 50c7 bb3d 2463 f3bc 2a4b debd
000000a0: 47cc 0abe c9a1 e43d 7c23 093e 6ce7 03be
000000b0: 296b 0f3e e914 afbd 5dc1 a0bd 5c8b fc3d
000000c0: 04f0 2abd e4ab 92bd a778 e93d 815b d13d
000000d0: 654a 2abe 7cde 203e 6105 d7bd d2e0 1c3e
000000e0: 3513 a7bb 5cac e4bd f292 a2bc 3141 8b3d
000000f0: 1d4f 02be 2321 bc3c 0432 10be 152e a83d
00000100: e19c c63d 9dd8 04be 3d96 393d 3389 cdbd
00000110: 7f43 adbd 2b60 2ebd a979 09bd 2d6d e63c
00000120: 8334 023e e6da b03d 5fba 013e 3381 95bd
00000130: 7675 96bd cd58 b2bc f3f3 00bd d500 f73d
00000140: 6a09 adbd a08b 16bd d0d5 a73d d05f 6e3d
00000150: 0aae 11bd 523d ec3c ab4a 69bd cdcb 0abe
00000160: 31ca 8f3d f390 3c3d da8a c53b 6c8f 633d
00000170: ffba 82bd a15e b53d 9037 953d 4d52 9e3d
00000180: f006 a4bd 7c86 2fbd cb8c c5bd 6a7d c1bd
00000190: 0e78 f4bb 3132 c03d 02b9 9f3d 9ad4 76bc
000001a0: afa9 b53c e9c9 a43d ec15 c3bd c87f b3bd
000001b0: bd97 bb3d c61f 963d 8dd2 e0bd 5c43 123e
000001c0: 7598 2f3d 4f96 223d 98f8 0dbe 16b5 873c
000001d0: b965 dcbd 4861 c8bd 02d8 28be 2ed1 34bc
000001e0: 7eef d83d 2814 23be c12b 93bd 8b52 d3bd
000001f0: ba70 59be ba6b f43d 403e 1abd 6c29 7f3c
00000200: a1ad 91bd e436 a23d b88b 6dbd 12a6 753d
00000210: 3126 1e3e 76bc 303d cb86 293d e010 df3d
00000220: ebc4 8ebd 3072 92bd b137 913d 259f 563b
00000230: 338a 14be 9451 d03d efa7 d6bc 9e33 023b
00000240: 0f3e 2d3d 0901 463d 690e 02be 7d3b da3b
00000250: 4846 b8bd 9c19 7f3d b69e 983c 0f54 e8bd
00000260: f0b3 adbc 67d1 073e 3292 bfbd 33cd 103e
00000270: 7c66 143d 10e9 d4bc f936 993d 691b 853c
00000280: b580 e33d 1b6d 93bd 398c 55bc 1fbe b23c
00000290: 9527 693d 4805 0b3e d41e ea3d 643c 89bd
000002a0: 2669 c0bd a364 8c3d f05a 0bbe 3600 7e3c
000002b0: f13f 8f3d c6bc 003e b9a3 b93c c01b 3b3d
000002c0: b2f9 053e 74cc 713d f93c 2bbd 82e4 c53d
000002d0: fb59 063e a080 c53c 5d31 cebd 0754 c63b
000002e0: c5eb b6bd 2e58 ebbd 29e1 39bd 4a42 a73d
000002f0: a9d8 a73d 152f 33bb 1cb0 e03d 01f5 95bd
00000300: 8c3e e93d e42b 01be 1421 09be bd9e 623d
00000310: f3e9 c93d bdcc d8bd e41f b93d 3cb8 233d
00000320: 0a18 033e 6460 f13d ed7a 663d d627 053e
00000330: e3ed cc3d d943 f4bd d2c0 8c3d 2025 82bd
00000340: b4fd 81bd be39 f83d 8b76 a93d 77f4 8d3d
00000350: be31 3b3c ad5f 80bd 59e4 7a3d dd42 a33d
00000360: 5124 e53d 1dda 573d b927 c53c e9fd 35bd
00000370: a1f2 043e d53e 043e aa3e d33d 6ae9 a1bd
00000380: 154b 74bd 50ad 3f3d 4fdd 9ebd 4787 89bd
00000390: 8ba5 083e c5f6 e4bd 39f9 b43d 7f55 cbbd
000003a0: ff35 2d3d a989 c33c 8d6a 08be a4e1 df3d
000003b0: e3f2 ddbd d29d a93d c390 f83d fb1f acbd
000003c0: f211 bcbd 1054 f83c 48ef 673d f2ef d63d
000003d0: cc9d 65bd 544f 96bd e9a4 3dbd 9ede 0cbe
000003e0: b1c1 123d 0c93 103e 6641 f93d ee63 a7bd
000003f0: d766 0ebe c2c1 bebd 4e5a 633d a5c2 b73d

weight f4 [50, 50]
-0.091127746 -0.08860253 0.119323395 0.018798726 0.113734506 0.0023107938 -0.112241395 -0.13235821
-0.10918421 0.056302797 0.049723405 -0.1009658 0.009011182 0.1254932 0.014055975 0.020610046
-0.124837354 -0.13897683 0.13958463 0.11803328 0.024311837 0.013133548 0.08440716 0.04052096
-0.043121487 -0.018210508 -0.12645122 -0.029609613 -0.086371236 0.110852994 -0.08470782 0.019590698
0.061665107 -0.055521328 0.107961774 0.07034293 -0.10218185 0.12305353 0.057377644 0.11617223
0.059543066 -0.0071219075 0.0017870264 0.00799106 0.08555509 0.12842704 0.13542995 -0.04422417
0.057267405 -0.03966833 0.061460596 0.12651426 0.14014672 0.10276108 0.009360883 -0.040089324
-0.09848795 0.035597786 -0.09485287 -0.03983518 -0.02929481 -0.12460197 -0.03478344 -0.06839653
0.069025315 0.055294562 0.08515395 0.013357501 -0.11735507 -0.05508278 0.09617087 0.13462262
-0.06936766 -0.13642931 -0.12806271 -0.06179246 0.081115134 -0.12293918 0.08556328 0.055175185
-0.016669601 0.031213384 0.04939498 0.120986834 -0.11891646 0.08442513 0.03557678 0.086155884
0.10445839 0.018817727 0.07859708 -0.0371791 -0.109426744 -0.10055028 0.1353558 0.0355082
0.03384033 -0.06560842 0.014077368 0.052677628 -0.08661048 -0.1209109 0.001555674 0.026504906
-0.09949376 0.054875754 0.12808067 0.05649384 -0.02887383 -0.019839855 -0.0067825913 0.11011657
0.016869867 0.015005746 0.08996397 -0.024688328 0.07440819 -0.04375693 -0.09072912 0.05521003
-0.08685749 -0.020733604 -0.028066566 0.101927795 0.060605753 -0.101586826 0.017581627 -0.10186705
0.09447838 0.10308293 -0.01372819 0.10072662 0.07215386 -0.05972674 0.017854366 0.09988102
0.013451606 0.14083128 0.098664105 0.0968334 0.042582277 0.0800987 -0.024285471 -0.12507468
0.013275381 -0.082259946 -0.06892094 -0.13593876 -0.1022491 0.021941584 0.1012544 0.082273215
-0.12856343 0.004099388 -0.13190445 0.087937765 0.12833703 0.01794827 -0.07327662 -0.13056815
-0.055319477 0.09135514 -0.09864986 -0.13542284 0.104126275 0.09686631 0.0030430194 0.032993045
0.10521515 0.037561357 0.06846952 -0.10189881 0.0027919086 0.14066945 -0.042884387 0.066906154
0.080982916 0.05303559 -0.0897916 0.073254295 -0.11692035 -0.022390952 -0.11831074 -0.119222395
-0.060118385 -0.013064664 -0.14095055 0.029167812 0.12559292 0.042112224 -0.05547874 0.06307487
0.042605188 -0.046374585 0.071487546 0.13324265 0.07315407 -0.02743551 0.058735177 0.115687676
-0.03934712 -0.12829132 0.043858804 -0.085787654 0.07671907 0.1272733 0.106244266 0.06538875
0.0368732 0.1164853 -0.0074927825 -0.13478081 0.07726187 -0.03433134 -0.10138368 -0.09589919
0.13076153 0.015021407 0.043981437 0.096612014 -0.040084977 -0.03543466 0.11882283 -0.03840588
-0.08810589 0.058747232 -0.132829 -0.03333089 -0.014503962 0.02847893 0.04815163 0.091151565
-0.017282417 0.031593464 -0.09596996 0.028407922 -0.028342847 0.05208211 -0.03486792 -0.103095576
0.008061934 -0.051660154 -0.063601635 0.1256896 -0.07176567 -0.032841146 -0.12234346 -0.106479615
0.09468061 -0.13144687 -0.060585912 -0.059067916 0.080373906 -0.07199183 0.08043195 0.07090897
00000000: 2fa1 babd 3e75 b5bd d35f f43d c9ff 993c
00000010: a3ed e83d b070 173b d1de e5bd e988 07be
00000020: f99b dfbd c39d 663d c5aa 4b3d 28c7 cebd
00000030: a3a3 133c 4a81 003e 084b 663c 66d6 a83c
00000040: baaa ffbd f14f 0ebe 46ef 0e3e 6fbb f13d
00000050: 9e29 c73c 182e 573c a9dd ac3d 4ef9 253d
00000060: 28a0 30bd 342e 95bc 6e7c 01be dc8f f2bc
00000070: 67e3 b0bd e506 e33d 4b7b adbd ac7c a03c
00000080: 8d94 7c3d 556a 63bd 101b dd3d f40f 903d
00000090: b844 d1bd 7d03 fc3d d204 6b3d b5eb ed3d
000000a0: 6ee3 733d e45e e9bb a83a ea3a efec 023c
000000b0: 8237 af3d 6182 033e 26ae 0a3e 6724 35bd
000000c0: 3a91 6a3d 427b 22bd 1bbe 7b3d f48c 013e
000000d0: 9f82 0f3e 6774 d23d 645e 193c b434 24bd
000000e0: 0db4 c9bd fcce 113d 3942 c2bd 372a 23bd
000000f0: abfb efbc 512f ffbd 1579 0ebd 7b13 8cbd
00000100: 255d 8d3d 8d7c 623d 3265 ae3d 6bd9 5a3c
00000110: db57 f0bd 7b9e 61bd 3cf5 c43d 83da 093e
00000120: a210 8ebd 20b4 0bbe df22 03be 171a 7dbd
00000130: b11f a63d 89c7 fbbd cd3b af3d 60ff 613d
00000140: b08e 88bc 36b3 ff3c 6452 4a3d f2c7 f73d
00000150: 798a f3bd 15e7 ac3d f5b8 113d 7f72 b03d
00000160: 48ee d53d a227 9a3c 82f7 a03d 1d49 18bd
00000170: 211b e0bd 4eed cdbd b69a 0a3e 0c71 113d
00000180: 289c 0a3d b55d 86bd c3a4 663c 7fc4 573d
00000190: d660 b1bd 22a0 f7bd c2e7 cb3a d120 d93c
000001a0: 62c3 cbbd 66c5 603d 9427 033e 1666 673d
000001b0: cf88 ecbc 3187 a2bc 8040 debb cc84 e13d
000001c0: ad32 8a3c a9da 753c 083f b83d 2d3f cabc
000001d0: 5263 983d 773a 33bd 30d0 b9bd ea23 623d
000001e0: 57e2 b1bd 85d9 a9bc dbeb e5bc 85bf d03d
000001f0: bd3d 783d c10c d0bd 5807 903c ac9f d0bd
00000200: e27d c13d 251d d33d 34ec 60bc c249 ce3d
00000210: 67c5 933d 07a4 74bd 5243 923c 6c8e cc3d
00000220: 2064 5c3c 1336 103e 6810 ca3d 9750 c63d
00000230: c16a 2e3d ca0a a43d 53f2 c6bc 9413 00be
00000240: fc80 593c e777 a8bd 6c26 8dbd 8833 0bbe
00000250: fa67 d1bd d6be b33c 785e cf3d dc7e a83d
00000260: 22a6 03be 2954 863b f611 07be b718 b43d
00000270: c86a 033e 4008 933c 0d12 96bd a8b3 05be
00000280: ad96 62bd 6718 bb3d f008 cabd 49ac 0abe
00000290: 2840 d53d d861 c63d 656d 473b b723 073d
000002a0: 0a7b d73d f0d9 193d bf39 8c3d 53b0 d0bd
000002b0: 74f8 363b a70b 103e 8aa7 2fbd 1806 893d
000002c0: 5fda a53d d93b 593d a9e4 b7bd 5906 963d
000002d0: f073 efbd 3b6d b7bc e74c f2bd df2a f4bd
000002e0: b23e 76bd 2c0d 56bc 5755 10be 56f1 ee3c
000002f0: 6e9b 003e de7d 2c3d ad3d 63bd 662d 813d
00000300: c782 2e3d 47f3 3dbd 1068 923d c370 083e
00000310: cdd1 953d 6fc0 e0bc 4c94 703d a9ed ec3d
00000320: 722a 21bd cd5e 03be 4aa5 333d 70b1 afbd
00000330: e31e 9d3d ef53 023e 9896 d93d 89ea 853d
00000340: 5a08 173d d88f ee3d 0486 f5bb fb03 0abe
00000350: 793b 9e3d 059f 0cbd 3fa2 cfbd cb66 c4bd
00000360: 5ae6 053e 591c 763c e125 343d 85dc c53d
00000370: 2530 24bd ef23 11bd 6259 f33d 7c4f 1dbd
00000380: dc70 b4bd f0a0 703d 5304 08be f985 08bd
00000390: 07a2 6dbc a54c e93c a53a 453d acad ba3d
000003a0: db93 8dbc 2668 013d e68b c4bd bbb7 e83c
000003b0: 422f e8bc 0d54 553d aad1 0ebd c623 d3bd
000003c0: 3416 043c 9999 53bd 9341 82bd c6b4 003e
000003d0: e1f9 92bd 7084 06bd 358f fabd fc11 dabd
000003e0: e8e7 c13d 029a 06be ef28 78bd 33f1 71bd
000003f0: 139b a43d 7470 93bd 82b9 a43d b938 913d

bias f4 [1, 50]
0.0 0.0 0.0 0.0 0.0 0.0 0.0 0.0
0.0 0.0 0.0 0.0 0.0 0.0 0.0 0.0
0.0 0.0 0.0 0.0 0.0 0.0 0.0 0.0
0.0 0.0 0.0 0.0 0.0 0.0 0.0 0.0
0.0 0.0 0.0 0.0 0.0 0.0 0.0 0.0
0.0 0.0 0.0 0.0 0.0 0.0 0.0 0.0
0.0 0.0
00000000: 0000 0000 0000 0000 0000 0000 0000 0000
00000010: 0000 0000 0000 0000 0000 0000 0000 0000
00000020: 0000 0000 0000 0000 0000 0000 0000 0000
00000030: 0000 0000 0000 0000 0000 0000 0000 0000
00000040: 0000 0000 0000 0000 0000 0000 0000 0000
00000050: 0000 0000 0000 0000 0000 0000 0000 0000
00000060: 0000 0000 0000 0000 0000 0000 0000 0000
00000070: 0000 0000 0000 0000 0000 0000 0000 0000
00000080: 0000 0000 0000 0000 0000 0000 0000 0000
00000090: 0000 0000 0000 0000 0000 0000 0000 0000
000000a0: 0000 0000 0000 0000 0000 0000 0000 0000
000000b0: 0000 0000 0000 0000 0000 0000 0000 0000
000000c0: 0000 0000 0000 0000

weight f4 [50, 50]
0.19114286 0.009106865 0.15599637 0.039505042 0.16429806 -0.05660225 0.13043086 -0.070563994
-0.055500194 0.18176755 0.18564847 0.113986224 -0.017952839 -0.1352836 -0.023312798 -0.009982348
0.064246856 -0.056644216 -0.0014650783 -0.05464262 -0.1358374 -0.087356545 -0.01160633 0.15777504
-0.060115676 -0.18570763 0.08019599 -0.023065982 -0.18086502 -0.12369889 0.0035567316 0.019376423
-0.0025549436 0.011209791 0.04113699 0.023835447 -0.07525381 0.050204895 0.021724315 -0.13140847
-0.098046325 0.14694032 0.007966433 0.049736258 -0.023698851 0.031339433 0.15542229 0.1882618
-0.1862008 -0.09900667 0.016886486 -0.13691223 0.14477053 -0.09969579 -0.07861599 -0.12349913
0.061631426 0.114979565 -0.07859664 0.060370985 0.021201221 -0.0765313 0.13728143 0.028280137
0.015547257 -0.11371749 -0.109452926 0.16021612 -0.057365686 -0.03901845 -0.032776035 0.119242124
0.009215329 -0.09377986 -0.07967107 -0.031284638 0.045438476 0.06866525 0.08672313 -0.056421865
-0.051655464 -0.0023622056 -0.05245458 -0.020231314 -0.048729993 -0.08006175 0.041621998 0.0709945
-0.12329308 -0.029435396 0.022187462 -0.04114795 -0.10200206 0.12708469 -0.094009325 0.1572615
-0.030719891 0.06895718 0.09832754 0.023290653 -0.012377358 -0.097280845 0.06880877 -0.10628335
-0.10683866 0.019011548 -0.09100043 -0.12417771 0.11099154 -0.083043665 -0.1218333 0.052304298
-0.053816177 0.1461299 0.18722293 0.061357163 0.06384332 -0.14749019 -0.02219768 0.022404512
0.002276502 -3.3769447e-05 -0.07905829 -0.051047098 0.022099612 0.0798677 -0.03671707 0.107376926
-0.04313793 -0.11867472 0.1385912 -0.085645445 0.0447234 0.12521607 -0.093396135 0.07320339
0.029667009 -0.029971637 -0.067387566 -0.14552808 -0.0962292 -0.007763235 0.05007947 -0.063839234
-0.0140813235 -0.09061381 0.12076663 0.028635345 -0.10277835 -0.020445298 0.058181696 0.067921616
0.054832436 -0.009441493 -0.05033899 0.09849674 0.027527912 -0.13420343 -0.04646492 -0.14326929
0.059532937 -0.13555525 0.11697424 -0.031994753 0.11200368 -0.014193816 0.046133704 -0.08748404
0.18179828 -0.13108881 -0.042960998 0.016578868 -0.10310004 -0.041837282 0.14567214 0.09384006
-0.07832486 0.12315837 0.11973147 0.10938955 0.009767073 -0.061958373 -0.13061726 -0.084683016
-0.0682928 -0.06407481 0.13507892 -0.12575315 0.0005991442 0.11052634 0.051730476 -0.14370897
-0.08557638 -0.006114821 -0.016947508 -0.1154648 -0.08294203 -0.086680666 0.010008317 -0.05383948
0.093162514 0.14706825 -0.17782722 -0.06753509 -0.020649767 -0.033665843 -0.15872201 0.012458137
-0.023096578 -0.08901653 0.067706525 -0.0653246 0.025796 -0.08409566 0.20005827 -0.059720736
-0.111132294 -0.15890223 0.13985069 -0.05141545 0.055118162 -0.024682561 -0.025588801 0.08054516
0.059883326 0.061473947 -0.11676681 -0.08992581 0.023569984 0.16724095 -0.16409144 0.09497309
-0.12043968 0.031128244 -0.0813504 0.007929216 -0.027908577 0.05987963 0.110245995 -0.110735424
0.0036989427 0.030048262 -0.10012233 -0.06760415 0.050323855 -0.12656063 -0.14239481 -0.10518436
0.06902704 0.077057436 0.065266415 -0.1713828 0.1950028 -0.12362388 0.0011163803 -0.16254047
00000000: f4ba 433e f634 153c 83bd 1f3e 0ad0 213d
00000010: c03d 283e c3d7 67bd ab8f 053e db83 90bd
00000020: 2c54 63bd 4621 3a3e a21a 3e3e 9c71 e93d
00000030: d511 93bc c987 0abe 7bfa bebc 018d 23bc
00000040: db93 833d c403 68bd df07 c0ba f1d0 5fbd
00000050: f618 0bbe fde7 b2bd 7a28 3ebc c88f 213e
00000060: db3b 76bd 242a 3ebe cc3d a43d dff4 bcbc
00000070: ae34 39be d855 fdbd 0e18 693b 4ebb 9e3c
00000080: d770 27bb 45a9 373c 437f 283d 8e42 c33c
00000090: ab1e 9abd a6a3 4d3d 31f7 b13c f18f 06be
000000a0: 83cc c8bd 8677 163e a485 023c 3fb8 4b3d
000000b0: 1824 c2bc c75d 003d 0527 1f3e b4c7 403e
000000c0: 6cab 3ebe 02c4 cabd 8755 8a3c b832 0cbe
000000d0: ba3e 143e 4e2d ccbd 6c01 a1bd 1ded fcbd
000000e0: 3c71 7c3d 687a eb3d 46f7 a0bd 9147 773d
000000f0: 2fae ad3c 71bc 9cbd 8193 0c3e bfab e73c
00000100: ecb9 7e3c b7e4 e8bd db28 e0bd b20f 243e
00000110: 48f8 6abd cfd1 1fbd 2a40 06bd 3735 f43d
00000120: e4fb 163c a80f c0bd 962a a3bd 5224 00bd
00000130: b21d 3a3d 5ea0 8c3d e59b b13d 9d1a 67bd
00000140: ae94 53bd 3ccf 1abb 9dda 56bd 24bc a5bc
00000150: 1a99 47bd 6af7 a3bd d47b 2a3d 9065 913d
00000160: 1581 fcbd 8022 f1bc 7bc2 b53c c18a 28bd
00000170: 75e6 d0bd 7d22 023e f687 c0bd 2909 213e
00000180: 48a8 fbbc 6c39 8d3d f35f c93d 0acc be3c
00000190: 67ca 4abc 2e3b c7bd 9deb 8c3d 16ab d9bd
000001a0: 3ace dabd 1bbe 9b3c 6f5e babd e250 febd
000001b0: 884f e33d cc12 aabd bd83 f9bd 083d 563d
000001c0: 5a6e 5cbd 14a3 153e 5eb7 3f3e a651 7b3d
000001d0: 49c0 823d ab07 17be e9d7 b5bc ab89 b73c
000001e0: 5e31 153b aba3 0db8 50e9 a1bd c316 51bd
000001f0: 3f0a b53c ad91 a33d a364 16bd 6fe8 db3d
00000200: 66b1 30bd bb0b f3bd daea 0d3e e166 afbd
00000210: e22f 373d a438 003e 7946 bfbd a9eb 953d
00000220: 3a08 f33c 1487 f5bc 7e02 8abd 5005 15be
00000230: d113 c5bd bc62 febb 2120 4d3d 25be 82bd
00000240: 5ab5 66bc bc93 b9bd 7f54 f73d ac94 ea3c
00000250: 757d d2bd e67c a7bc ee4f 6e3d 7d1a 8b3d
00000260: fa97 603d 7eb0 1abc 4230 4ebd a9b8 c93d
00000270: 3782 e13c a06c 09be 0052 3ebd 2fb5 12be
00000280: cfd8 733d ffce 0abe 3190 ef3d ee0c 03bd
00000290: 2f62 e53d 2e8d 68bc b2f6 3c3d d52a b3bd
000002a0: 5429 3a3e 253c 06be dff7 2fbd 68d0 873c
000002b0: 1d26 d3bd 925d 2bbd 142b 153e 382f c03d
000002c0: c968 a0bd 753a fc3d c635 f53d a107 e03d
000002d0: 1306 203c 10c8 7dbd 88c0 05be 4a6e adbd
000002e0: 18dd 8bbd a739 83bd 2152 0a3e 6fc5 00be
000002f0: e30f 1d3a a25b e23d 56e3 533d 7228 13be
00000300: ab42 afbd d65e c8bb 80d5 8abc cf78 ecbd
00000310: 83dd a9bd a285 b1bd edf9 233c c986 5cbd
00000320: fdcb be3d 0f99 163e 5718 36be d64f 8abd
00000330: b329 a9bc 32e5 09bd 0688 22be 371d 4c3c
00000340: 0935 bdbc 4c4e b6bd b8a9 8a3d e7c8 85bd
00000350: 2252 d33c 583a acbd 13dc 4c3e bb9d 74bd
00000360: 5499 e3bd 44b7 22be 0535 0f3e 0299 52bd
00000370: 95c3 613d 1533 cabc 9b9f d1bc dcf4 a43d
00000380: 3848 753d 1bcc 7b3d 7023 efbd 062b b8bd
00000390: d715 c13c 3641 2b3e 9607 28be 4081 c23d
000003a0: 14a9 f6bd a900 ff3c 0a9b a6bd 8be9 013c
000003b0: 87a0 e4bc 5844 753d a7c8 e13d 41c9 e2bd
000003c0: f669 723b c627 f63c f00c cdbd 0b74 8abd
000003d0: 6320 4e3d 1c99 01be f2cf 11be e66a d7bd
000003e0: 0c5e 8d3d 4ad0 9d3d 66aa 853d f97e 2fbe
000003f0: d0ae 473e 842e fdbd 8253 923a 0271 26be

weight f4 [50, 50]
0.06384936 -0.0662612 0.08092113 -0.07844264 0.034571677 0.044092536 0.06765957 -0.094294995
-0.089061536 -0.11389254 -0.08938855 0.11945638 -0.06224085 -0.050336204 0.13686213 0.08053446
0.018479506 -0.0072539956 0.07563616 0.04429597 0.035230502 0.025235325 -0.0701004 0.024302077
-0.011972015 -0.00710955 0.009081837 0.050079748 0.09812379 0.104002126 0.11515754 0.11316635
-0.027969021 -0.12711646 0.12602669 0.008888332 -0.109613135 -0.11642083 0.05522419 0.10841768
0.050620407 -0.11474832 -0.026444755 -0.075081594 -0.08995522 0.11429081 -0.10213259 0.06578129
0.121276416 -0.062489264 0.12479772 -0.03955295 -0.12931351 0.07223888 0.047992755 -0.013115122
-0.11405912 0.02556065 0.076365724 -0.06221745 0.017384531 0.017371971 0.007516402 0.13123654
-0.07154323 -0.07201587 -0.09651905 -0.005614011 0.040666603 -0.000118820404 0.11828664 -0.12722842
0.091753826 0.009722756 0.010057335 -0.07557862 0.007072747 -0.06354632 -0.048476584 0.102145456
-0.09617667 -0.059573326 0.05597262 -0.04810842 -0.00018868301 0.026593955 -0.1264851 -0.11970675
-0.09351398 -0.029209167 0.1127265 -0.11581216 0.12890518 0.05087954 -0.066025384 -0.12415838
0.1366849 -0.021987354 -0.12067517 -0.022660844 -0.12742482 -0.06395678 -0.01748044 0.08427799
0.04329508 -0.12213325 0.10986081 -0.041489765 0.014274447 0.12975828 -0.119443215 0.07220885
-0.074961275 0.015403696 -0.13734058 0.13880688 -0.05827537 0.12567982 0.13410993 -0.12239063
-0.07897027 0.12197686 -0.08580362 0.07204916 -0.097478665 0.007558515 -0.02667277 -0.012376305
0.01964291 -0.057341937 -0.004853446 0.05292687 0.09604949 -0.11357468 -0.07575202 0.021175707
0.10391436 -0.03855926 -0.118102655 -0.13272746 -0.03794557 -0.0676727 -0.04584561 0.00052115426
-0.028376108 0.045943387 0.08989862 0.107454054 -0.08868078 -0.018623766 -0.13589218 0.011983294
-0.12912399 0.08951536 -0.057801757 0.106966935 -0.016187644 0.13305558 -0.016083289 0.07656338
-0.03762908 -0.038350295 0.083346225 0.07573624 0.11290617 -0.02177581 0.09499971 -0.077303745
0.021878414 0.07324111 0.09493315 0.03479206 0.0055062836 0.009833838 0.017129239 0.08567034
-0.014649132 0.04488213 0.01009761 0.0147210015 -0.10053615 0.110383645 -0.022020262 -0.058169313
-0.03102514 -0.10115538 -0.027756382 0.008343121 -0.017873602 -0.045779824 0.057739854 0.11236674
0.08575166 0.010238128 -0.12327263 0.027329687 0.10697053 0.05010286 0.10673722 -0.06557248
-0.0059884605 0.01336679 0.10359531 -0.12878451 0.029845431 -0.059196096 0.070145525 0.009687639
-0.11461855 0.07209342 0.07107451 -0.12601492 -0.0023974478 0.12720862 -0.008835059 0.06150697
-0.035512768 -0.1357021 0.09467467 0.10554473 0.009158983 -0.035527334 -0.00085261394 -0.06750123
0.00313377 0.017115464 -0.07493261 0.07999501 -0.062615216 0.0065123457 -0.040032983 -0.0185054
-0.10725298 -0.07557672 0.089516826 0.071041346 0.010750953 0.12346731 -0.07196162 -0.025879195
0.084212646 -0.11494422 -0.058390178 0.05399942 0.005483305 0.02023106 0.06757019 -0.04919043
-0.13983431 0.07378379 -0.07919263 -0.13625689 -0.0342956 0.055668537 0.03378424 -0.05767987
00000000: 74c3 823d f4b3 87bd fab9 a53d 89a6 a0bd
00000010: 089b 0d3d 609a 343d 1a91 8a3d bc1d c1bd
00000020: e565 b6bd 7e40 e9bd 5811 b7bd 8ca5 f43d
00000030: 43f0 7ebd 562d 4ebd 9625 0c3e 40ef a43d
00000040: 5562 973c edb2 edbb 22e7 9a3d b16f 353d
00000050: dc4d 103d 50ba ce3c cc90 8fbd 2615 c73c
00000060: 4526 44bc 3af7 e8bb fccb 143c 6c20 4d3d
00000070: 20f5 c83d 11ff d43d b7d7 eb3d c2c3 e73d
00000080: 4a1f e5bc d12a 02be 240d 013e 5ea0 113c
00000090: da7c e0bd 0b6e eebd c332 623d 170a de3d
000000a0: 5857 4f3d 2b01 ebbd aca2 d8bc 61c4 99bd
000000b0: 713a b8bd 4d11 ea3d e42a d1bd 57b8 863d
000000c0: c55f f83d bef4 7fbd f295 ff3d 4602 22bd
000000d0: c36a 04be faf1 933d 0d94 443d cfe0 56bc
000000e0: d497 e9bd 9164 d13c a265 9c3d bad7 7ebd
000000f0: 016a 8e3c aa4f 8e3c 264c f63b df62 063e
00000100: 4285 92bd 0e7d 93bd c8ab c5bd bdf5 b7bb
00000110: 0692 263d 382f f9b8 4440 f23d 2b48 02be
00000120: 6ee9 bb3d 324c 1f3c 85c7 243c f7c8 9abd
00000130: 81c2 e73b 9324 82bd 628f 46bd a331 d13d
00000140: 46f8 c4bd 2903 74bd 8c43 653d 560d 45bd
00000150: 36d9 45b9 91db d93c 4f85 01be d028 f5bd
00000160: 4284 bfbd 1048 efbc 27dd e63d ed2e edbd
00000170: b8ff 033e 1167 503d 5138 87bd c046 febd
00000180: 20f7 0b3e d31e b4bc 8b24 f7bd 3ca3 b9bc
00000190: a77b 02be c6fb 82bd 2433 8fbc f099 ac3d
000001a0: 2f56 313d ff20 fabd b4fe e03d 2cf1 29bd
000001b0: 5fdf 693c 5bdf 043e a59e f4bd 3ce2 933d
000001c0: 4c85 99bd c95f 7c3c 02a3 0cbe 6423 0e3e
000001d0: 28b2 6ebd 36b2 003e 1d54 093e f0a7 fabd
000001e0: 2abb a1bd 01cf f93d cfb9 afbd 838e 933d
000001f0: e5a2 c7bd 6bad f73b da80 dabc fcc5 4abc
00000200: 2bea a03c 61df 6abd a809 9fbb d8c9 583d
00000210: 98b5 c43d d899 e8bd e023 9bbd ad78 ad3c
00000220: 0dd1 d43d 51f0 1dbd cedf f1bd b5e9 07be
00000230: d06c 1bbd fc97 8abd 9bc8 3bbd 129e 083a
00000240: 0375 e8bc 222f 3c3d c51c b83d df10 dc3d
00000250: 459e b5bd de90 98bc 5227 0bbe 9455 443c
00000260: 1439 04be d453 b73d 89c1 6cbd 7b11 db3d
00000270: f39b 84bc b93f 083e 1ac1 83bc 43cd 9c3d
00000280: f320 1abd 3315 1dbd 6db1 aa3d 9a1b 9b3d
00000290: 5a3b e73d 2f63 b2bc 358f c23d 6d51 9ebd
000002a0: 5c3a b33c 6fff 953d 506c c23d 1e82 0e3d
000002b0: 0e6e b43b 1b1e 213c 9e52 8c3c ee73 af3d
000002c0: ea02 70bc 53d6 373d 7270 253c 5b30 713c
000002d0: e6e5 cdbd d210 e23d d663 b4bc f242 6ebd
000002e0: 6f28 febc 8d2a cfbd 5a61 e3bc 96b1 083c
000002f0: a96b 92bc a083 3bbd a080 6c3d 8920 e63d
00000300: 919e af3d d2bd 273c 5c76 fcbd 82e2 df3c
00000310: 5d13 db3d a838 4d3d 0b99 da3d dd4a 86bd
00000320: d93a c4bb 6100 5b3c c729 d43d 16e0 03be
00000330: 687e f43c 9b77 72bd 75a8 8f3d e7b8 1e3c
00000340: 21bd eabd b7a5 933d 838f 913d 0e0a 01be
00000350: 801e 1dbb fa42 023e ecc0 10bc bcee 7b3d
00000360: d675 11bd 7ef5 0abe cbe4 c13d d627 d83d
00000370: 8f0f 163c 1c85 11bd f481 5fba 163e 8abd
00000380: f05f 4d3b bb35 8c3c 4576 99bd 6cd4 a33d
00000390: 683c 80bd 8465 d53b a0f9 23bd a398 97bc
000003a0: 73a7 dbbd f8c7 9abd 9954 b73d 207e 913d
000003b0: c424 303c 6edc fc3d 9d60 93bd 9b00 d4bc
000003c0: ae77 ac3d e067 ebbd 8a2a 6fbd 7f2e 5d3d
000003d0: 4cad b33b 9cbb a53c 3d62 8a3d e87b 49bd
000003e0: ba30 0fbe f51b 973d bf2f a2bd ed86 0bbe
000003f0: 8b79 0cbd b104 643d 5861 0a3d ba41 6cbd

bias f4 [1, 50]
0.0 0.0 0.0 0.0 0.0 0.0 0.0 0.0
0.0 0.0 0.0 0.0 0.0 0.0 0.0 0.0
0.0 0.0 0.0 0.0 0.0 0.0 0.0 0.0
0.0 0.0 0.0 0.0 0.0 0.0 0.0 0.0
0.0 0.0 0.0 0.0 0.0 0.0 0.0 0.0
0.0 0.0 0.0 0.0 0.0 0.0 0.0 0.0
0.0 0.0
00000000: 0000 0000 0000 0000 0000 0000 0000 0000
00000010: 0000 0000 0000 0000 0000 0000 0000 0000
00000020: 0000 0000 0000 0000 0000 0000 0000 0000
00000030: 0000 0000 0000 0000 0000 0000 0000 0000
00000040: 0000 0000 0000 0000 0000 0000 0000 0000
00000050: 0000 0000 0000 0000 0000 0000 0000 0000
00000060: 0000 0000 0000 0000 0000 0000 0000 0000
00000070: 0000 0000 0000 0000 0000 0000 0000 0000
00000080: 0000 0000 0000 0000 0000 0000 0000 0000
00000090: 0000 0000 0000 0000 0000 0000 0000 0000
000000a0: 0000 0000 0000 0000 0000 0000 0000 0000
000000b0: 0000 0000 0000 0000 0000 0000 0000 0000
000000c0: 0000 0000 0000 0000

weight f4 [50, 50]
0.1265881 -0.052344933 -0.102737494 0.036779914 -0.17176798 0.070389315 0.047364075 -0.022354724
-0.09879911 -0.12589729 -0.15653841 0.111325234 0.148557 0.038796756 -0.118805006 0.04401047
-0.17612894 0.16481371 0.06493809 -0.05930762 0.027865443 0.011921881 0.058230113 -0.13288192
0.03188991 -0.060154222 0.044179227 0.02599677 0.024243906 0.032730833 -0.07282737 0.09966638
-0.065902784 0.12102036 -0.033675205 -0.06168889 0.052997597 -0.0014404377 0.06285062 -0.022901136
-0.085124254 -0.0840852 0.10177349 0.024239738 0.00084874546 -0.0049266163 -0.02641775 0.06738758
-0.12967156 -0.10137008 -0.07754432 -0.06146939 -0.12969704 -0.0527208 -0.019152863 -0.010119725
0.1188399 -0.077718 0.085645504 -0.028286528 -0.0056121536 -0.05236611 0.010744524 0.078936785
-0.10723136 -0.08405296 -0.03210836 -0.12497597 0.020162415 0.010102211 0.055073593 0.018416606
0.037010495 0.08570265 0.12528563 -0.052034065 0.124180146 -0.08248669 0.03717576 -0.06264024
0.1633961 -0.021791322 0.14960176 0.042180274 -0.04046935 -0.14653811 0.14885855 -0.11179393
0.01108075 -0.091164485 -0.011464798 -0.03403756 -0.04847446 0.12260772 0.11923895 0.10507401
-0.050910693 -0.08941928 -0.061292395 0.09714677 -0.07698095 -0.0065326095 0.022805948 0.13459797
0.0008060199 -0.048923817 0.05578722 -0.0073530893 0.08921617 -0.0027479124 0.1282117 0.07609141
0.093676575 0.14213778 0.016864553 -0.1229704 0.120629855 -0.11383866 -0.12706235 -0.11767757
0.061774407 0.017617963 0.09935067 0.1408253 0.057761606 0.06925927 -0.06474796 -0.15998487
0.0006025228 0.03559449 -0.03125177 0.00586449 -0.093901075 0.024757516 0.05377467 0.04498555
-0.051603157 0.094810754 -0.030596493 -0.032547645 0.022923462 0.09239964 0.057555463 -0.059480093
0.07262008 -0.049503893 0.0825433 -0.12806961 -0.120528996 0.061769553 0.06395468 0.056271516
0.09046436 -0.050592273 0.11641466 0.03071236 0.013727671 0.10152077 0.11653186 -0.034949966
0.059375174 0.11732962 0.108617276 0.0536815 0.08425775 0.03904846 0.13187863 0.11571082
0.017676545 -0.037501972 0.06717486 0.036244556 0.036351796 0.02378489 0.029674739 0.0008188463
0.063729025 -0.054258447 -0.005488105 -0.13416597 0.10425505 0.043468107 -0.11264993 -0.05981192
0.0267792 -0.13055624 -0.12246973 0.12795053 -0.13238394 -0.07965379 0.07332689 0.009490307
0.09070116 0.087831855 0.038191143 0.03179554 -0.015945317 0.06879354 -0.11354211 0.022561623
0.013656781 0.11294193 0.0026039348 0.0010410822 -0.015468017 -0.14859846 -0.03648665 -0.0147061525
-0.031761695 0.11437929 0.07950522 0.017827898 -0.069877386 -0.050380096 0.016593251 -0.15131272
-0.0098795425 -0.047213096 0.025656763 -0.049527116 -0.10788239 -0.0032678312 0.10917216 0.12444333
0.05662981 0.05096573 0.10094474 0.0838833 -0.102987446 -0.10791928 -0.1192279 0.0057443962
0.10316635 0.123997726 0.060245816 0.091852665 0.06739237 0.012720524 -0.028671235 0.07770936
0.03999721 -0.13590002 -0.030476574 -0.0019369337 -0.07600417 0.18225545 0.0147812255 0.06184054
-0.08607326 0.079746895 -0.055502724 0.088667974 -0.028192353 0.09537036 -0.13424592 -0.030983215
00000000: 50a0 013e a467 56bd 0968 d2bd 89a6 163d
00000010: f2e3 2fbe 4628 903d d500 423d 4121 b7bc
00000020: 3057 cabd 38eb 00be 9b4b 20be 7cfe e33d
00000030: 541f 183e 59e9 1e3d 0a50 f3bd 5344 343d
00000040: 255b 34be edc4 283e 43fe 843d 8cec 72bd
00000050: 1246 e43c fe53 433c b382 6e3d 3312 08be
00000060: ff9e 023d 4664 76bd 47f5 343d 2ef7 d43c
00000070: 289b c63c c410 063d 8426 95bd e31d cc3d
00000080: 0af8 86bd 86d9 f73d 03ef 09bd 7dad 7cbd
00000090: 0214 593d 12cd bcba d3b7 803d 2a9b bbbc
000000a0: a055 aebd dd34 acbd 9f6e d03d 6a92 c63c
000000b0: 587e 5e3a 746f a1bb 0a6a d8bc 8002 8a3d
000000c0: 9fc8 04be 1e9b cfbd 8ecf 9ebd 54c7 7bbd
000000d0: 4dcf 04be c4f1 57bd 77e6 9cbc 34cd 25bc
000000e0: 5562 f33d 9d2a 9fbd e966 af3d 26b9 e7bc
000000f0: 28e6 b7bb d97d 56bd cd09 303c 9ca9 a13d
00000100: 1e9c dbbd f523 acbd 0e84 03bd 67f3 ffbd
00000110: a62b a53c be83 253c d994 613d 6cde 963c
00000120: 5198 173d df84 af3d e04a 003e ac21 55bd
00000130: 2952 fe3d c8ee a8bd 9c45 183d 8749 80bd
00000140: 4f51 273e b783 b2bc 3431 193e 39c5 2c3d
00000150: 30c3 25bd 160e 16be 606e 183e 37f4 e4bd
00000160: 098c 353c 72b4 babd d9d6 3bbc f86a 0bbd
00000170: 288d 46bd c219 fb3d 8d33 f43d 0b31 d73d
00000180: bb87 50bd 7521 b7bd bc0d 7bbd e3f4 c63d
00000190: 30a8 9dbd 800f d6bb 8ad3 ba3c 0dd4 093e
000001a0: 144b 533a 5764 48bd 2481 643d 2ff2 f0bb
000001b0: f8b6 b63d 5216 34bb ee49 033e d0d5 9b3d
000001c0: 81d9 bf3d 918c 113e 8827 8a3c e8d7 fbbd
000001d0: c90c f73d 3e24 e9bd a21c 02be f000 f1bd
000001e0: 2907 7d3d 8c53 903c 5d78 cb3d 8234 103e
000001f0: 6f97 6c3d ced7 8d3d 949a 84bd 13d3 23be
00000200: 9ff2 1d3a 87cb 113d db01 00bd e82a c03b
00000210: 354f c0bd 46d0 ca3c d442 5c3d c542 383d
00000220: d55d 53bd 242c c23d 7fa5 fabc ae50 05bd
00000230: fcc9 bb3c 063c bd3d 47bf 6b3d 66a1 73bd
00000240: d6b9 943d 98c4 4abd 760c a93d ae24 03be
00000250: e8d7 f6bd 1202 7d3d acfa 823d f67c 663d
00000260: 6145 b93d d839 4fbd cf6a ee3d 7d98 fb3c
00000270: 06ea 603c 1fea cf3d 41a8 ee3d b227 0fbd
00000280: 6233 733d 834a f03d bc72 de3d 22e1 5b3d
00000290: 548f ac3d 47f1 1f3d 310b 073e cbf9 ec3d
000002a0: 67ce 903c ab9b 19bd f992 893d 2c75 143d
000002b0: 9fe5 143d 88d8 c23c 7018 f33c d8a7 563a
000002c0: 5d84 823d 1b3e 5ebd 90d5 b3bb ce62 09be
000002d0: ac83 d53d 9d0b 323d 02b5 e6bd 58fd 74bd
000002e0: 0e60 db3c 89b0 05be 69d1 fabd 7705 033e
000002f0: a88f 07be 8721 a3bd 692c 963d 3c7d 1b3c
00000300: 88c1 b93d 30e1 b33d 516e 1c3d 0a3c 023d
00000310: c19f 82bc a1e3 8c3d c488 e8bd 27d3 b83c
00000320: b1c0 5f3c 194e e73d c7a6 2a3b ec74 883a
00000330: 916d 7dbc 322a 18be 0773 15bd 13f2 70bc
00000340: 8d18 02bd b03f ea3d a2d3 a23d d00b 923c
00000350: e01b 8fbd 5c5b 4ebd 92ee 873c b9f1 1abe
00000360: cedd 21bc 8562 41bd 222e d23c f2dc 4abd
00000370: 71f1 dcbd 1c29 56bb a795 df3d 25dc fe3d
00000380: a9f4 673d 71c1 503d 1ebc ce3d 02cb ab3d
00000390: 15eb d2bd c904 ddbd c22d f4bd 7d3b bc3b
000003a0: e148 d33d 85f2 fd3d 51c4 763d 401d bc3d
000003b0: 0305 8a3d bf69 503c f0df eabc 1626 9f3d
000003c0: 1dd4 233d 6029 0bbe 02aa f9bc b6e0 fdba
000003d0: 13a8 9bbd 2ca1 3a3e f42c 723c 824c 7d3d
000003e0: 2d47 b0bd 5752 a33d d356 63bd 8e97 b53d
000003f0: a6f3 e6bc 8951 c33d c377 09be 83d0 fdbc

weight f4 [50, 50]
-0.087071314 -0.04034133 -0.120988265 0.028252956 0.0043057897 -0.01772029 -0.11795164 0.13113637
0.017397108 0.06267174 -0.10284236 -0.07054245 -0.08998145 0.04433606 0.0975353 -0.09064115
0.070342675 -0.12412431 0.10045017 0.007546377 0.07833636 -0.020617345 0.0052934927 0.0318231
0.12771094 0.13534743 -0.050787274 -0.011412642 0.14007 -0.017917672 -0.110380076 0.08945109
0.11544779 0.103468694 0.14056823 0.03436258 -0.12209727 -0.11519786 0.123190455 -0.117197946
0.08090583 0.044988982 0.058308043 0.023369266 -0.13305062 -0.00878804 -0.047955193 0.13709298
0.048905805 0.09758145 0.0020123436 0.09343186 -0.003191309 -0.1250102 0.051590156 -0.078185916
0.0973542 -0.122735575 0.017395303 -0.017658316 -0.007827007 0.03225318 -0.08281025 -0.040822174
0.10297253 -0.13363625 0.012123255 0.09628266 -0.032083496 0.086793244 0.088314176 0.006281651
-0.067698024 -0.037846386 0.113502815 0.1289081 0.03331587 -0.11053523 -0.12373135 -0.11842889
0.054514844 0.09505817 -0.12997565 0.044466242 0.10051806 0.05162288 -0.124845326 0.1397717
-0.10625167 0.11557948 -0.075810485 -0.041936286 -0.09950027 0.06901535 0.11464154 -0.10337506
0.050213605 0.045482993 0.08884114 -0.13883494 -0.105134934 -0.068670586 -0.057237934 0.054412443
-0.10280069 -0.12966706 0.06788125 -0.11952218 0.062532105 0.037223507 0.032836795 0.004458665
-0.118419215 -0.027509553 0.13632551 -0.11309568 -0.100877695 0.11736996 -0.0828223 -0.029513534
-0.007844979 0.058896095 -0.00844606 0.13766049 0.09633099 -0.113586806 -0.051330213 -0.108078636
0.1008668 -0.089075886 -0.0658499 0.021046737 -0.064743094 -0.017740756 0.018827083 0.04044233
-0.045395076 0.1199437 0.06345072 -0.037690714 0.10571573 0.013466037 -0.0025241412 -0.030994693
-0.11944638 -0.13249518 0.037152734 0.002680978 -0.121789515 -0.077023774 0.027460663 0.025060838
0.14012168 0.11595647 0.067663565 0.108141854 -0.04628218 0.07967393 -0.0667246 0.04750992
0.08597246 -0.046435125 -0.03185083 -0.12115786 0.008801526 -0.1226512 0.13718227 0.0479648
0.04221324 0.042480163 0.060542736 -0.06585368 -0.115749836 -0.13872696 0.093848884 0.0412927
0.028851576 0.0576784 -0.085514106 -0.08935208 -0.0017053627 -0.14047733 -0.089439444 -0.047717873
0.090310015 -0.07738871 0.01584757 -0.119840994 0.093013816 0.0027765334 -0.020852288 0.10815772
-0.038263034 0.10420933 0.12665872 0.0025334978 0.08103435 0.07985335 0.0069290265 0.12246381
-0.0040278398 -0.076706424 0.023013495 -0.035238206 0.12935671 0.06384629 -0.06439397 0.12671106
0.06895695 0.13265151 0.09721505 0.12520011 -0.012171859 0.11575614 0.08296634 -0.12593111
0.03222115 -0.045928974 -0.12006346 -0.116688766 0.12521982 0.04206999 0.01737138 -0.1157802
-0.08154067 -0.112144455 -0.117189534 0.09729713 -0.1302499 0.07458693 -0.11999637 -0.02938792
0.1338341 0.06858294 -0.13716704 0.1051923 -0.018549975 -0.12087585 0.0947562 0.025684593
0.026003579 0.031128382 -0.12089773 -0.12537967 0.11856322 0.031150501 0.009976699 -0.062492568
-0.05411273 -0.01907622 0.07789169 0.07196014 0.019607306 0.023221077 0.0032891065 -0.021533046
00000000: 7252 b2bd f33c 25bd b2c8 f7bd be72 e73c
00000010: 9517 8d3b 242a 91bc a190 f1bd 9d48 063e
00000020: 6184 8e3c 0b5a 803d 049f d2bd 8f78 90bd
00000030: 3248 b8bd ba99 353d 96c0 c73d 11a2 b9bd
00000040: d20f 903d e334 febd d2b8 cd3d 9947 f73b
00000050: d06e a03d b5e5 a8bc 0975 ad3b f058 023d
00000060: a8c6 023e 8498 0a3e 5106 50bd 17fc 3abc
00000070: 836e 0f3e 15c8 92bc f30e e2bd 2232 b73d
00000080: e46f ec3d 65e7 d33d 1ef1 0f3e c7bf 0c3d
00000090: 220e fabd dbec ebbd 474b fc3d 7a05 f0bd
000000a0: f5b1 a53d 5e46 383d 6ad4 6e3d e770 bf3c
000000b0: 6c3e 08be b6fb 0fbc aa6c 44bd 1a62 0c3e
000000c0: 7451 483d c9d8 c73d 86e1 033b 3459 bf3d
000000d0: 4825 51bb ad02 00be 3350 533d f01f a0bd
000000e0: a461 c73d ca5c fbbd 9880 8e3c 2ca8 90bc
000000f0: d93c 00bc e91b 043d 6c98 a9bd 2735 27bd
00000100: 43e3 d23d f1d7 08be 9ea0 463c d82f c53d
00000110: fc69 03bd a8c0 b13d 10de b43d 4fd6 cd3b
00000120: 43a5 8abd d004 1bbd 2a74 e83d 7c00 043e
00000130: 3976 083d 4b60 e2bd dd66 fdbd d98a f2bd
00000140: f54a 5f3d dcad c23d 5618 05be 3c22 363d
00000150: 6adc cd3d 8372 533d e8ae ffbd 5020 0f3e
00000160: 7a9a d9bd efb4 ec3d 8742 9bbd 62c5 2bbd
00000170: ccc6 cbbd eb57 8d3d 2fc9 ea3d 4eb6 d3bd
00000180: c8ac 4d3d 604c 3a3d 58f2 b53d bf2a 0ebe
00000190: fc50 d7bd 2aa3 8cbd 5372 6abd 95df 5e3d
000001a0: 2b89 d2bd 71c7 04be 5305 8b3d 0bc8 f4bd
000001b0: d510 803d ad77 183d e07f 063d fe19 923b
000001c0: c685 f2bd b75b e1bc ea98 0b3e b59e e7bd
000001d0: f798 cebd a95f f03d bd9e a9bd 5ec6 f1bc
000001e0: 3a88 00bc 083d 713d 5861 0abc dff6 0c3e
000001f0: 2f49 c53d 33a0 e8bd a13f 52bd 5558 ddbd
00000200: 4193 ce3d 6b6d b6bd 50dc 86bd 356a ac3c
00000210: 0798 84bd 1055 91bc 413b 9a3c dba6 253d
00000220: 30f0 39bd 0ba5 f53d 73f2 813d 9461 1abd
00000230: 7d81 d83d a7a0 5c3c 106c 25bb 95e8 fdbc
00000240: 4ea0 f4bd d1ac 07be 772d 183d 59b3 2f3b
00000250: c86c f9bd a4be 9dbd 2ff5 e03c 634c cd3c
00000260: 0f7c 0f3e 967a ed3d 3293 8a3d 7a79 dd3d
00000270: 6292 3dbd 162c a33d e8a6 88bd c399 423d
00000280: 5412 b03d c232 3ebd 0476 02bd 9d21 f8bd
00000290: 4734 103c 8d30 fbbd 8279 0c3e bd76 443d
000002a0: cae7 2c3d aeff 2d3d a9fb 773d 4bde 86bd
000002b0: 400e edbd 710e 0ebe d833 c03d 8922 293d
000002c0: 245a ec3c 3040 6c3d 0522 afbd 39fe b6bd
000002d0: 7a86 dfba 4ad9 0fbe 072c b7bd d173 43bd
000002e0: 75f4 b83d f97d 9ebd c3d2 813c 326f f5bd
000002f0: 077e be3d 80f6 353b 6bd2 aabc cb81 dd3d
00000300: b3b9 1cbd b46b d53d d3b2 013e 0a09 263b
00000310: 56f5 a53d 278a a33d e30c e33b 4ece fa3d
00000320: f8fb 83bb 4218 9dbd cc86 bc3c f055 10bd
00000330: 1676 043e d8c1 823d fce0 83bd 8bc0 013e
00000340: 4d39 8d3d ccd5 073e af18 c73d 7534 003e
00000350: 7a6c 47bc 8e11 ed3d 42ea a93d 16f4 00be
00000360: 53fa 033d 0520 3cbd d5e3 f5bd 85fa eebd
00000370: a039 003e 9551 2c3d 6d4e 8e3c 2b1e edbd
00000380: cbfe a6bd feab e5bd 1101 f0bd b843 c73d
00000390: 3b60 05be 08c1 983d a8c0 f5bd efbe f0bc
000003a0: ce0b 093e 3675 8c3d 8475 0cbe 106f d73d
000003b0: 1ef6 97bc c28d f7bd 8a0f c23d 7f68 d23c
000003c0: 7505 d53c f300 ff3c 3b99 f7bd 8763 00be
000003d0: 46d1 f23d 562f ff3c 4f75 233c 35f8 7fbd
000003e0: 4fa5 5dbd bc45 9cbc ae85 9f3d d65f 933d
000003f0: 809f a03c 213a be3c 0d8e 573b 1266 b0bc
