neuromancer/datasets/Flexy_air/device_test_models/model3/best_dynamics_flexy.pth (torch, 441031 bytes, 74 tensors)

weight f4 [50, 50]
00000000: d08c c1bc 5161 40bd 3191 cabd 7fd4 763d
00000010: b21f 0a3e c2c4 9bbc cc4d a53b 2106 3d3d
00000020: 0a0a 513d fa0e 683d f3f3 a73c 1031 ddbd
00000030: ffb4 043e 158a cc3d f65a cb3d 3be3 77bc
00000040: 8da0 f6bd 4793 d2bc feb4 8ebd 118a 9cbd
00000050: e4ef b43d b8c8 0bbe 8428 8438 aeb5 0ebe
00000060: b53b 003e c878 b1bd d90f 3aba 1e50 093e
00000070: 7fd4 363d 7e85 84bd 1b01 953d d3f1 ffbc
00000080: 15b8 01be 6823 ddbd 3015 ec3d 9bf2 833d
00000090: b888 acb7 dbaa 1f3d e48a f03c 9c29 10be
000000a0: 1809 24ba 36ef a73c be29 053e 21c2 f73d
000000b0: 8a53 76bd a43d 8fbd ba3d bb3d 21fd 0bbd
000000c0: 5aaf 243d 10c7 6bbd 8098 e83d 47f5 843d
000000d0: b7a4 c13c e929 85bd 1d00 8d3d 39a1 c03d
000000e0: 0e93 963d af9b f33d f40d f3bd 122c 793d
000000f0: 2482 10be ea32 b43d e6ca 693d db96 55bd
00000100: fa99 dd3c e8d0 a2bc 4c08 283d c5a9 57ba
00000110: 7f16 36bd 52f9 d53d 1da0 c53c f992 823d
00000120: ed69 2abd a118 02be 79ef 9ebd b194 a9bd
00000130: dae6 ef3d 72ce 523d c944 abbd 025b 8a3d
00000140: bd58 bd3b f29f 183d 12e3 823d ac9d b33c
00000150: 13ef 613d d915 4fbc ae1d 83bd 4736 31bb
00000160: a9be fe3d 26c7 7a3c 8b97 0c3d 7c5c 3d3d
00000170: c57d cd3d 5be0 a33d eedb 2a3c 4cbe f03c
00000180: b57f e8bd 58be c3bd a989 f5bd 4f42 dabb
00000190: 5e0c aabd 33e2 bd3d 6ea9 66bd 154f a33d
000001a0: 2f70 023e c2a0 72bd a11a c6bd b341 ccbc
000001b0: aac6 ccbd 5905 95bd 9f6d f63d 9630 4e3d
000001c0: c1d9 803c d677 cd3b baf3 fe3d 78e7 723d
000001d0: 3279 70bd 1b62 a8bd 7d11 87bd 423a 01bd
000001e0: cc4e a63c deaf fabd 0218 d7bd 0ed3 003d
000001f0: df03 16bd 67ed f0bd b686 ae3d e37d 0b3e
00000200: c832 f8bc 786b c5bb 1bf8 06be faf7 74bd
00000210: f660 c63d 9426 06be 110a f0bd bb67 c7bd
00000220: 7476 be3d 1bef 4fbd da13 44bd bcd8 9cbd
00000230: 02db a4bd b7d6 95bd ae3e b4bb 2c22 ccbd
00000240: af84 f23b 2783 dfbd 4f67 c4bd 9b2e 03bd
00000250: bb5f 28bd 2fcc fa3d eb53 8bbc 1d36 ca3d
00000260: 1620 833d 62e2 4bbb 5969 263d 3b48 ad3d
00000270: 35cb ab3d 8e84 b0bd ac4d bbbd 6168 d5bc
00000280: 6669 c9bd 9959 10bd 5674 073e 87d5 adbd
00000290: c1a3 7cbd 3152 043e 8228 a13d 177e 083e
000002a0: b66b 633c 47b2 4fbd c080 5fbc 6b63 adbd
000002b0: 8abc 7abd 5f00 803d fa3e 64bd 9a0d db3c
000002c0: 7169 55bd 1b14 523d f50e 583c abbf bc3d
000002d0: 0759 a13d 8266 7fbd af06 813d 163e ab3d
000002e0: 2354 4c3d 5d65 65bd caef 433d a248 86bc
000002f0: f4b4 103e f4b2 0bbe e768 05be 95e5 803d
00000300: 1362 04bc 6af5 bf3c ae12 93bd 9e46 f6bd
00000310: 6332 f2bd 75d0 d83c 6837 b43d 99e4 ef3d
00000320: 3813 87bd 954d ca3d d5ea 353d d194 e73d
00000330: 2a51 9d3c 5e67 d2bc 8105 193c 0232 70ba
00000340: ebb6 cf3d 9867 14bd 81f6 bdbd 7b11 f3bd
00000350: 630a 94bd 0e53 d43d 80b3 18bd aebc fe3c
00000360: 9308 083e d721 b13c e518 eabd 768e 67bb
00000370: 5eb1 dc3d 1378 dc3d b4b3 0e3d 0dee 1d3d
00000380: d9a4 aa3d 2495 a83d 0929 3a3d baf9 b33d
00000390: 6ad8 4b3c 9d7b 2bbd 78ab d3bc cae1 adbd
000003a0: faf3 dbbc 09c6 07be 391f d4bd 196b da3d
000003b0: 247a bcba 36f7 1bbb ae3c ed3d 24e0 bc3d
000003c0: 1acf 0bbe 0bb9 8cbc 848e afbd c664 81bd
000003d0: dbaa 563c 20cf 94bd 3552 243d 035d 4e3d
000003e0: 312d 59bd 11fe d5bd e310 52bb 6b3b 09be
000003f0: 4e9b 3cbc bc78 88b7 5ddb aa3b 1f3e cabd
-0.023626715 -0.04696781 -0.09890974 0.060261246 0.13488653 -0.01901472 0.0050446745 0.046148423
0.051034965 0.056654908 0.020502066 -0.108003736 0.1295967 0.099872746 0.09929459 -0.01512986
-0.120423414 -0.025704993 -0.06968115 -0.076435216 0.08834818 -0.13650787 6.301797e-05 -0.13936493
0.12522776 -0.08665615 -0.00070976984 0.13409469 0.044636246 -0.06470774 0.072756015 -0.03124324
-0.12667878 -0.10797769 0.11527479 0.06442758 -2.0567662e-05 0.0389813 0.029363103 -0.14078373
-0.00062574586 0.020499807 0.13004205 0.12097574 -0.060138263 -0.06994179 0.09142633 -0.03417695
0.04020629 -0.057562888 0.11357212 0.064920954 0.023638112 -0.06502134 0.06884787 0.09405751
0.07352267 0.11894929 -0.11867896 0.060833044 -0.14112145 0.087987736 0.057078265 -0.05214582
0.02705096 -0.019875005 0.041023538 -0.0008226897 -0.044455048 0.10447945 0.0241242 0.06375689
-0.041604925 -0.12704708 -0.077605195 -0.08280314 0.11713953 0.051466413 -0.08362729 0.067556396
0.0057784007 0.03726191 0.063909665 0.02192577 0.05515964 -0.012639486 -0.06402145 -0.0027040408
0.12438709 0.01530627 0.03432421 0.046230778 0.10033754 0.08001777 0.010428412 0.029387616
-0.11352483 -0.095577896 -0.11989147 -0.0066607366 -0.0830314 0.0927166 -0.056313924 0.07974068
0.12738107 -0.05923534 -0.09673048 -0.024933672 -0.0999883 -0.072764106 0.12032627 0.050339304
0.015728833 0.006270389 0.12448831 0.059302777 -0.05870933 -0.08221837 -0.065951325 -0.0315497
0.020301245 -0.12240575 -0.10502626 0.031451277 -0.036624786 -0.11764031 0.08521788 0.1362224
-0.030297652 -0.006024774 -0.13180582 -0.0598068 0.096864626 -0.13100654 -0.1172067 -0.09736582
0.09299937 -0.050765138 -0.047870494 -0.07658526 -0.08049585 -0.07316344 -0.005500636 -0.09967455
0.007401071 -0.10913687 -0.09590017 -0.03202687 -0.04110692 0.12245976 -0.017007789 0.098736025
0.06402604 -0.0031110276 0.04062781 0.084610425 0.08388368 -0.08619033 -0.09145674 -0.026050748
-0.09834556 -0.035241697 0.13227972 -0.08487993 -0.061679605 0.12921979 0.078690544 0.1332935
0.013880661 -0.050707128 -0.013641536 -0.08466228 -0.06121496 0.06250071 -0.05572412 0.026739884
-0.05210251 0.051288705 0.01318716 0.09216245 0.07878309 -0.06235362 0.06300103 0.08361451
0.049884927 -0.05600487 0.047836103 -0.016392056 0.14131528 -0.13642484 -0.13028298 0.06293789
-0.008080023 0.023432452 -0.07181297 -0.12025188 -0.11826017 0.026466588 0.087996304 0.117135234
-0.065954626 0.09878079 0.044413406 0.11307681 0.019203741 -0.025684055 0.009339691 -0.0009162725
0.10142311 -0.036231607 -0.092755325 -0.118685685 -0.072285436 0.10367404 -0.03728056 0.031095829
0.13284521 0.021622581 -0.114305295 -0.0035332716 0.107760176 0.1076509 0.034839347 0.0385571
0.083322234 0.08231571 0.04544929 0.08787866 0.012441734 -0.041865934 -0.025838599 -0.084903315
-0.026849736 -0.13259138 -0.10357518 0.106649585 -0.0014379662 -0.0023798472 0.11583839 0.09222439
-0.13653222 -0.01717808 -0.085721046 -0.06318049 0.013102259 -0.072660685 0.04011746 0.05038167
-0.053021614 -0.1044885 -0.0032053522 -0.13401572 -0.011511637 -1.6268685e-05 0.0052141384 -0.0987513

bias f4 [1, 50]
00000000: 0000 0000 0000 0000 0000 0000 0000 0000
00000010: 0000 0000 0000 0000 0000 0000 0000 0000
00000020: 0000 0000 0000 0000 0000 0000 0000 0000
00000030: 0000 0000 0000 0000 0000 0000 0000 0000
00000040: 0000 0000 0000 0000 0000 0000 0000 0000
00000050: 0000 0000 0000 0000 0000 0000 0000 0000
00000060: 0000 0000 0000 0000 0000 0000 0000 0000
00000070: 0000 0000 0000 0000 0000 0000 0000 0000
00000080: 0000 0000 0000 0000 0000 0000 0000 0000
00000090: 0000 0000 0000 0000 0000 0000 0000 0000
000000a0: 0000 0000 0000 0000 0000 0000 0000 0000
000000b0: 0000 0000 0000 0000 0000 0000 0000 0000
000000c0: 0000 0000 0000 0000
0.0 0.0 0.0 0.0 0.0 0.0 0.0 0.0
0.0 0.0 0.0 0.0 0.0 0.0 0.0 0.0
0.0 0.0 0.0 0.0 0.0 0.0 0.0 0.0
0.0 0.0 0.0 0.0 0.0 0.0 0.0 0.0
0.0 0.0 0.0 0.0 0.0 0.0 0.0 0.0
0.0 0.0 0.0 0.0 0.0 0.0 0.0 0.0
0.0 0.0

weight f4 [50, 50]
00000000: bc10 113d 85d4 91bc ba50 0e3e ce7d 5cbd
00000010: 56d6 e2bd 5a0e da3d 9fe1 f03d 4c6c 75bd
00000020: fecc 61bd 8548 aebd e097 913d fd98 c43d
00000030: 6472 74bd 7ef1 093c ac18 173e 4a1b eebd
00000040: 043b cc3d 2fa7 b3bd c1d2 94bd b1a9 b8bd
00000050: 4700 93ba b25c 22bc 8811 eabd 5051 783d
00000060: 09a0 0ebe 99af bf3c 7987 4fbd d29c e23d
00000070: 1d8d 9ebd 4c18 1dbd b92e b53c 9ad3 8bbd
00000080: 159a bfbd 8383 4d3d 431e 9a3d 5531 fdbd
00000090: 4562 8fbd b5fa 5abc e92e 1e3d 3ed6 6b3d
000000a0: 4f08 7cbc 7a7a bebd 78de fd3d d0f6 87bd
000000b0: 3c53 36bd 2ea7 213d 5bea 0d3e 919a dfbd
000000c0: 7d7d dabd 7205 5a3d 852d dabd 1d44 bcbd
000000d0: 5563 bd3d ff77 edbd cf4c 133d 5d78 5b3d
000000e0: e0bd 0b3e cf7e 77bd 18c4 b03d b99c 7d3d
000000f0: b427 b1bd 9f87 0bbd 5854 6fbd ec4a c13d
00000100: 709d cabc 0671 ddbd 6584 cf3d 2b96 1d3d
00000110: 7de9 73bd 3b5c b13d e656 f6bc ee3f fd3d
00000120: 7d1a b7bd df7a 06be 6891 f7bc 2288 82bd
00000130: f859 033c cffc f4bd 9609 fbbb dbca 153c
00000140: b7c4 10bb 58dc c83d 16ac c2bc 1b3c 01be
00000150: ffb7 febd ff76 673a a9a1 003e 5fdc b1bd
00000160: aa15 b7bd 7613 0e3e d203 823d 7aa3 ec3c
00000170: 9e20 f13d b4b0 1f3d 43f3 bcbd 5136 833d
00000180: 36ad 13be 2b42 a5bc 608a 1d3d 982b b53d
00000190: 44b4 c43c 4e5a 9d3d d6a8 3fbd 46bb 84bd
000001a0: 2e2b 133e 1ad8 debd b9c6 90bd 4079 08bd
000001b0: 0b54 c4bd e795 d6bd 12e7 e1bd eae1 13be
000001c0: 76c8 adbd 05bc febd 8dfc b83d 082d cbbb
000001d0: aa82 923d c203 c6bd 9643 ff3d 15f1 5cbc
000001e0: d866 ae3a b566 08be 543f a3bb 67e1 74bc
000001f0: cd73 0f3d 40e6 c1bd 8034 11bc d4d4 ffbd
00000200: 763b 063e e76b 83bd 91c6 043e 3eea b0bc
00000210: 15fc 493d c6ef 5d3d ed4c bf3d c25a 98bd
00000220: bd05 a13d f03c c03d 2852 593d f692 243d
00000230: 3883 43bc 7c80 b83d baa4 5e3d 1040 f4bc
00000240: 86c3 ecbc 07ad 01be 334f 6a3b 518c c23c
00000250: 7513 983d 148d afbd 432f 283d c1e2 a83d
00000260: cb2c 90bd 7a19 3a3d 55f6 89bc 8397 33bc
00000270: 9356 5e3c 1365 2d3d 8c4d c5bd fef7 0bbe
00000280: 47a5 44bd bc9a 5fbd 53f5 4a3c 1ba2 15bc
00000290: 9468 003e 3d78 00be 65c5 503d a8e4 c9bd
000002a0: fa3b 99bc 65ad 7bbd 6ad2 94bd 4eb7 46bd
000002b0: ac36 173c 7c7e aebd 5513 ac3d 4888 843d
000002c0: 57f9 2e3d d746 0ebd 144e ca3c 56c9 813c
000002d0: e5ce e6bd 11c0 db3d 57c1 293c 931a b2bd
000002e0: a09a 333d 5fda 03be 88ac 2bbc c5a9 1cbd
000002f0: a8b7 e8bd 0771 ffbd 4737 9cbd f597 163c
00000300: 8fd2 8e3d 593d 27bc 4cb3 d63c a84f 5abd
00000310: 508f e2bd d60e fd3d 91c4 b0bb f18a 363d
00000320: 29ce 04bc f0cb 1cbd cb4d 0f3e 5cf4 b53d
00000330: 8302 83bd c747 e53d 1c8d bf3d d631 b53b
00000340: e33a bbbd 87c1 cf3d 66be d03c 1e55 8d3d
00000350: 2b77 55bd ab09 393d 12d4 f93d 0042 743d
00000360: 5095 8b3c 669c fb3d c855 0dbe 1704 0bbe
00000370: 2bc2 243d 153f 2e3d 0117 d1bd a0cf 053e
00000380: 0e3b 823d 32e8 f63d 9bad 0d3e 2530 bebd
00000390: 2843 8a3d a758 2abd bea7 a43d c5d7 44bd
000003a0: 56b6 bebd 83ff 733d d382 7b3d c7fd 37bd
000003b0: a4e9 1c3d 69cf eb3c 0af6 373d b285 173e
000003c0: 246a 23bc 6a97 55ba b527 a43d 2b6a 6b3d
000003d0: 274f 893d 7c4d dcbd 5ce7 8d3a a3eb 803d
000003e0: 32f1 353d d775 aa3b 5b08 b7bd b1e9 923d
000003f0: 61d0 bcbd 8dd2 81bd 61aa 15bd af73 95bc
0.03541635 -0.017801533 0.13897982 -0.053830914 -0.110760376 0.106472686 0.11761784 -0.059917733
-0.055127136 -0.08509926 0.07109046 0.09599493 -0.059679404 0.008419393 0.14755505 -0.11626299
0.09972194 -0.08772122 -0.072667606 -0.09016741 -0.0011215293 -0.009909796 -0.11429125 0.06062442
-0.13928236 0.023399161 -0.050666306 0.11065067 -0.07741759 -0.03835325 0.022117006 -0.06827469
-0.09355561 0.050174247 0.07525303 -0.12362925 -0.07001165 -0.013365437 0.038618956 0.057577364
-0.01538284 -0.09300704 0.12395948 -0.066388726 -0.044512972 0.039466076 0.13858931 -0.10918153
-0.10668466 0.05322785 -0.106532134 -0.09192679 0.09247462 -0.11595153 0.035961922 0.053581584
0.1364665 -0.06042367 0.08631152 0.06191704 -0.08650151 -0.034064885 -0.058430046 0.09438118
-0.024733275 -0.10812573 0.10132674 0.03847329 -0.059548844 0.0866017 -0.030070733 0.12365709
-0.08940599 -0.13132809 -0.030220702 -0.063736215 0.008017056 -0.11962282 -0.007661055 0.009142603
-0.0022089907 0.09807652 -0.023763698 -0.12620585 -0.12437438 0.00088296825 0.12561668 -0.086846106
-0.08939679 0.13874611 0.06348385 0.028886545 0.11773799 0.038986877 -0.09226086 0.064068444
-0.14421543 -0.020173153 0.038462043 0.088462055 0.024011739 0.0768324 -0.046791874 -0.06481032
0.1437194 -0.10881062 -0.07069153 -0.033318758 -0.095863424 -0.1047781 -0.11030401 -0.14441648
-0.084855005 -0.12438206 0.09032545 -0.0062004365 0.071538284 -0.096686855 0.12464063 -0.013485213
0.0013305796 -0.1332043 -0.0049819145 -0.014946318 0.035022546 -0.09467745 -0.008862615 -0.124917656
0.1310862 -0.06417065 0.12966372 -0.02159607 0.04931267 0.054183744 0.09340844 -0.07439186
0.078624226 0.09386623 0.053056866 0.040179215 -0.01193314 0.090088814 0.054356314 -0.029815704
-0.028901827 -0.12663661 0.0035752773 0.023748549 0.07425586 -0.085718304 0.041060697 0.08246375
-0.070397936 0.045434453 -0.016841093 -0.010961416 0.013570446 0.04233272 -0.096339315 -0.1366882
-0.048009183 -0.054590926 0.012387591 -0.009132887 0.12539893 -0.12545867 0.0509695 -0.09858066
-0.018705357 -0.06144466 -0.07266696 -0.048514657 0.009229343 -0.08520219 0.08402125 0.06471306
0.042718258 -0.034735527 0.024695434 0.015843075 -0.11269931 0.10729993 0.010361037 -0.08696475
0.043848634 -0.1287627 -0.010478146 -0.038247842 -0.11363155 -0.1247273 -0.07627731 0.009191503
0.069737546 -0.0102074975 0.026208542 -0.053298622 -0.11062491 0.12356345 -0.0053945263 0.0445661
-0.008105793 -0.038280427 0.1399452 0.088844985 -0.063969634 0.11195331 0.09353086 0.0055296225
-0.09142091 0.10144334 0.025481414 0.069010004 -0.0521156 0.045175236 0.12198652 0.059633255
0.017038971 0.1228569 -0.13802254 -0.13575779 0.040224236 0.04254063 -0.10209466 0.13067484
0.0635892 0.120560065 0.13835756 -0.092865266 0.0675109 -0.04158845 0.08039807 -0.048057336
-0.093121216 0.059569847 0.06140406 -0.044919755 0.038308755 0.028785424 0.044912376 0.14797094
-0.009974036 -0.00081478676 0.08015386 0.057474297 0.0670455 -0.107569665 0.0010826397 0.06294944
0.044419475 0.005202036 -0.089371406 0.07173479 -0.092194326 -0.063389875 -0.03653944 -0.018243639

weight f4 [50, 50]
00000000: ed0b 74bd 3146 623c a92a aabc da03 703d
00000010: ea8f 563c b604 fabd 2529 413d 077c 423d
00000020: 5e3d 07be fa7a f73d 0cea 803d 082a 15b9
00000030: c653 e3bd 5743 9d3d a1a9 8b3d fa65 48bd
00000040: 4c31 fe3d b0d8 ff3c 7774 df3d 105b 003e
00000050: e6ad d53d a88b 373d a262 78bd 179d b0bd
00000060: bbc1 8a3d c888 cdbd 4dc8 9cbd 9c3c 6b39
00000070: cba0 e5bd 2d62 9d3d 8b81 9f3c bf39 97bd
00000080: 809d 4e3c d462 093e 6672 06be 4c8f eebc
00000090: 26d5 d93d eb33 8fbd 76b5 f7bd fea8 d6bd
000000a0: b91c 863b 01c2 a3bd 5a63 16bd bb24 9a3d
000000b0: c389 8fbd 4061 a73d 20bc cf3d 03f6 363d
000000c0: 51d1 913d 3bdb 6d3c fc5a ae3b fba6 db3d
000000d0: 51e6 343d c27a de3d 85fb 423d 67ac 0abd
000000e0: 0b3a 053d 919c 32bd 1d60 e53d 153c 063e
000000f0: 4163 963d 76c6 b53d f1ba c2bd ca49 cb3b
00000100: d33a c1bc 21a4 8abd 3eb2 183d d0e8 05be
00000110: 1056 a3bd c224 fcbd f13c fa3c bcb0 eabd
00000120: 375c f8bc 20f5 a4bb 3ecf c5bd aad0 3dbd
00000130: d615 e83d 4a60 b9bd 676b ccbd 72c6 273d
00000140: 9f45 85b9 12c1 55bd 5388 1ebc 712c 1a3d
00000150: f9b8 02be 55ff 923d 0fb7 a73d d7c3 7a3d
00000160: 1e34 92bd 0a2f b83d d093 013e ca02 d1bd
00000170: 2214 3bbc 4638 71bd 2017 923c bd0a e5bd
00000180: 87fa 37bd 664a 9f3d 6258 013e 5382 733c
00000190: e3a1 603d 04a2 073e 881f 893d 5016 c8bd
000001a0: 40fe 803d e63c 003e 0d5b ec3d 3eb0 d43d
000001b0: 769c e73d bd1c d33d 4a6a d8bd 32e0 2d3d
000001c0: 306d 413d 2fa0 e6bd ff76 c23d 9969 243d
000001d0: b449 5bbc 9c7c 18bc 9341 5b39 0ce9 dfbb
000001e0: 9c85 ee3d 2bd8 05bd 3405 d23d df4d e4bd
000001f0: 76de d0bc 32b2 9b3b b9dd 953d 0c93 753d
00000200: acb2 0ebe 0ff6 a73d 3362 80bd d8a0 07be
00000210: 209f 0e3d 0eb6 e23d a894 54bd 7f9e 093e
00000220: 83ef a5bd d37a ac3c 1fdf 9d3d 73fd 94bc
00000230: bdee ecbc 1abf 8f3d e632 093e 96d1 0abe
00000240: 01f1 04be 9eb1 c4bd 6b8b b4bd 9e7d c13d
00000250: b32e d43d 76bb 3a3d 1689 29bc 7138 133c
00000260: dee0 053d 78a0 b8bc 0def b3bd aee1 dd3c
00000270: bd8f 08be 07af 2cbd 816b 0a3e e629 a83c
00000280: 39dc ea3d 6675 cb3d 70e2 dcbd b65a 01be
00000290: 699d fabd 80f4 b83d ae7f b7bd a985 963d
000002a0: b1c8 febd 6f08 013e 401e 73bd 49a5 b0bc
000002b0: 3889 c93d 0dac d43d 4f41 04be 7180 693d
000002c0: a067 ce3d 95d2 bc3d f740 ad3d 82dd efbd
000002d0: 3522 01be a1d2 423d 8ff0 e1bc 1cfe 013e
000002e0: 0c0a 7e3d 6273 0ebe 21e2 3dbd fcb4 653b
000002f0: 1850 34bd 7fee d03d fe52 dfbd bdfc 2a3c
00000300: 9bc3 56bc e5fc b2bd b2a8 c8bd 7b4d a33d
00000310: d845 b0bd 111d f3bd 39ab e53c e828 98bd
00000320: 4b45 0bbe 0b2f 003e f853 99bd a089 0fbe
00000330: 810f 0bbc 7d0b 1cbd e4d6 d93d 96da cbbd
00000340: fde4 ccbd f9ce c23d fb20 2bbd 135b 443d
00000350: 5d56 783d cbe0 87bd 44b0 cd3d d67f 2dbd
00000360: bf61 f23d b96a 0b3d effa a53c 2a47 34bc
00000370: 35ed a23d 60ff 0abe ecf5 223d b3d2 993d
00000380: 4f00 ae3d 3ae0 953d 24a8 66bd cdb3 003d
00000390: ebbe 0f3e 668b 82bd 0ca8 d4bd 527a 8bbd
000003a0: 9edb d0bd 5663 5fbd 2047 10bd 366e 07be
000003b0: aaf1 0d3e 8514 febd 9788 103e 5331 d4bd
000003c0: 22d2 c5bd 3f79 b33d 1359 02be 5593 e4bd
000003d0: 2020 6839 7300 fa3d 1dd8 be3d 1616 fe3c
000003e0: 7243 b2bd 81f6 f03d 0edb 4a3b fad9 1e3d
000003f0: ec02 0d3e e28b 79bd 0cb7 cb3d 2cfc 0bbc
-0.059581686 0.01381068 -0.020772295 0.058597423 0.013095835 -0.1220793 0.04715838 0.047481563
-0.13207003 0.12084003 0.06294641 -0.00014225405 -0.11099963 0.0767886 0.068194635 -0.048925377
0.124117464 0.031231254 0.10910886 0.12534738 0.10433559 0.04481092 -0.06064094 -0.086237125
0.067752324 -0.100358546 -0.07655392 0.00022433925 -0.112123094 0.07684741 0.01947095 -0.07384061
0.012610793 0.13416606 -0.13129577 -0.029121064 0.10636358 -0.069923244 -0.12095158 -0.104814515
0.0040927795 -0.07995988 -0.036715843 0.07526537 -0.07008698 0.08172846 0.10143304 0.04466821
0.07120002 0.014517601 0.005320905 0.10725208 0.04416496 0.10863258 0.04760315 -0.033855822
0.032526057 -0.043606345 0.11199973 0.13108857 0.0734315 0.08875744 -0.095083125 0.0062038647
-0.02358762 -0.06769586 0.03727936 -0.13077092 -0.079753995 -0.123116985 0.030546637 -0.11459491
-0.030317409 -0.005034104 -0.09658669 -0.046341576 0.1133229 -0.09051569 -0.09981423 0.040960737
-0.0002541961 -0.05218608 -0.009676057 0.03764004 -0.12765874 0.07177607 0.081892125 0.061221924
-0.07138847 0.08993347 0.12654042 -0.1020561 -0.011418374 -0.058891557 0.017833292 -0.11183689
-0.044916656 0.07777862 0.12631372 0.014862615 0.054841887 0.13245398 0.06695467 -0.09769881
0.06298494 0.12523231 0.11540804 0.10385178 0.113091394 0.10308216 -0.10567148 0.042450137
0.04722327 -0.11261021 0.09495353 0.04013977 -0.013384271 -0.009307053 0.00020909896 -0.0068332013
0.11646578 -0.032676857 0.10254899 -0.11147665 -0.025496703 0.004751467 0.07317681 0.059954688
-0.13935345 0.08201229 -0.0626873 -0.13244951 0.034819722 0.110698804 -0.051899582 0.13439368
-0.08102324 0.02105466 0.077085726 -0.01818726 -0.028922433 0.070188716 0.13398322 -0.13556513
-0.1298256 -0.0960419 -0.08815654 0.09447788 0.1036047 0.045588933 -0.010347625 0.008985625
0.032685153 -0.022537455 -0.0878583 0.027085152 -0.13336082 -0.042159107 0.13517572 0.020527791
0.114677854 0.09934501 -0.10785377 -0.1263226 -0.12237055 0.0903101 -0.089599 0.073497124
-0.124406226 0.12600873 -0.05935502 -0.02156319 0.098406255 0.103843786 -0.12915538 0.057007257
0.10078359 0.09219853 0.08459657 -0.11712171 -0.12610705 0.047564153 -0.027580528 0.12694591
0.0620213 -0.13911203 -0.04635823 0.0035050502 -0.044021696 0.102017395 -0.109045014 0.010436234
-0.013108159 -0.08739642 -0.09797801 0.079737626 -0.08607072 -0.11870778 0.028035747 -0.07429677
-0.13600652 0.12517945 -0.07486719 -0.14017344 -0.008487583 -0.038096894 0.1063669 -0.09953801
-0.100046135 0.09512133 -0.0417795 0.047938418 0.060629237 -0.06634673 0.100433856 -0.042358242
0.1183505 0.034037326 0.020261256 -0.011003295 0.079554 -0.1357398 0.03978531 0.07510891
0.084961526 0.073181584 -0.056312695 0.03142147 0.14037673 -0.063742444 -0.10383615 -0.0681044
-0.10198139 -0.054538094 -0.03522408 -0.13225636 0.13861719 -0.124062575 0.14114605 -0.1036097
-0.0965922 0.0876336 -0.12729292 -0.11160914 0.00022137212 0.12207117 0.09318564 0.03101639
-0.087042704 0.11765767 0.003095332 0.038782097 0.13770646 -0.06092442 0.09947023 -0.008544009

bias f4 [1, 50]
00000000: 0000 0000 0000 0000 0000 0000 0000 0000
00000010: 0000 0000 0000 0000 0000 0000 0000 0000
00000020: 0000 0000 0000 0000 0000 0000 0000 0000
00000030: 0000 0000 0000 0000 0000 0000 0000 0000
00000040: 0000 0000 0000 0000 0000 0000 0000 0000
00000050: 0000 0000 0000 0000 0000 0000 0000 0000
00000060: 0000 0000 0000 0000 0000 0000 0000 0000
00000070: 0000 0000 0000 0000 0000 0000 0000 0000
00000080: 0000 0000 0000 0000 0000 0000 0000 0000
00000090: 0000 0000 0000 0000 0000 0000 0000 0000
000000a0: 0000 0000 0000 0000 0000 0000 0000 0000
000000b0: 0000 0000 0000 0000 0000 0000 0000 0000
000000c0: 0000 0000 0000 0000
0.0 0.0 0.0 0.0 0.0 0.0 0.0 0.0
0.0 0.0 0.0 0.0 0.0 0.0 0.0 0.0
0.0 0.0 0.0 0.0 0.0 0.0 0.0 0.0
0.0 0.0 0.0 0.0 0.0 0.0 0.0 0.0
0.0 0.0 0.0 0.0 0.0 0.0 0.0 0.0
0.0 0.0 0.0 0.0 0.0 0.0 0.0 0.0
0.0 0.0

weight f4 [50, 50]
00000000: 1fbe 71bd 6e2b efbd 6b4d b7bc 51bd 703d
00000010: c426 1f3d 4d43 99bd 5d77 773d 8dfd 8b3d
00000020: 05e4 093e b69d 07be 270e 92bd b45a a3bd
00000030: 723d 63b9 c7b0 613d c923 4d3d f5d5 8cbc
00000040: e63f edbd 2613 be3a 0f5a 15bd 0878 dd3c
00000050: 3bec bfbd 2c5d 783d d918 fc3d 42aa 003e
00000060: ad7c 043e 2053 f53d f458 f53d 8c85 2abc
00000070: 4397 0abe fdf8 ab3d a993 e5bd 4102 c73d
00000080: 00f9 66bd bf3a 223d f7fd 9f3c 6c60 4cbd
00000090: 6710 fe3d 5189 a1bc 22d2 393d 5ee6 2d3c
000000a0: 02ec b8bc 1d77 063d 8e53 13be 2324 fa3d
000000b0: 3a1a f93d 4faf d53d c24f 10bd b6ad 22bd
000000c0: 51c1 cc3d 3089 debd 1933 9d3d a6e9 bc3d
000000d0: 91a2 00be 4693 b8bd 8d47 ce3d f897 a63c
000000e0: f78c 763c 3d9b 67bd 35fe e83d f0d3 d6bd
000000f0: e42d f1bd 8718 f3bd 304f 863d 997d d2bd
00000100: 6f3b dc3d 6d5d f0bd d6ff 0e3e a028 48bd
00000110: 4bb5 1abd f784 de3c 4b6d 5c3d 29c2 dd3d
00000120: 1715 d63d 988a 4ebc 9e71 123d d07d d93d
00000130: b5f0 83bd a722 8bbc e486 9cbd ec09 e73d
00000140: 9d74 f6bd bb01 a9bd c65e 473d 448f 22bd
00000150: 4937 8bbd e912 b4bd 35c4 623d b925 683d
00000160: 7df2 0dbe 2fd6 0d3e 6b43 dbbd e7c1 d4bd
00000170: 9537 453d 68fb b63d cc45 e73d 3cdf 64bd
00000180: fddf 83bd 8d65 753d d780 d63d b377 edbd
00000190: dd41 80ba 9d2a 183d adaf f2bd 17ab e83a
000001a0: 4381 e53d 515a ddbd 1338 26bd 375f 963d
000001b0: 9665 0f3e 03e5 f7bd 0419 b5bd e609 d3bd
000001c0: 567e 743c d7e1 dbbd 6490 2f3d d82b 72bd
000001d0: 2a3d e13d 50d3 e23c 940f d0bc a419 d3bd
000001e0: fc6b db3d a370 fe3d 2403 31bd 85fb 093e
000001f0: e222 8e3d 5fbd e03d aee0 a73d 13be 203d
00000200: a0fd afbc f17f dabd b581 873d 9943 e73c
00000210: 4c13 e23c 4027 3a3d 5951 6dbc 76c8 f83d
00000220: a9ec 623d f5f4 c93d a143 3cbd 0b10 713d
00000230: 447f 62bc d935 b3bd 0b52 943a 11c8 023e
00000240: 306d 073e 76e9 af3d a7bc 06be 3e82 c13d
00000250: 2c3c 413d 8f8d 1e3c 74ec 79bb a4f0 823d
00000260: c983 cabd df21 643d fe85 18bd 2287 18bd
00000270: 2939 623d c2c2 ae3d 4da0 54bd 0420 0e3e
00000280: ff15 323d 11d4 e8bd b356 833d 4b3f 96bd
00000290: c498 d5bd e931 883d acdf 03be 3367 d13d
000002a0: b563 303c 2ad4 5fbd 2ae4 e63c 29f3 7e3d
000002b0: ff7d 073d bb82 b1bd 27d3 07bd acd0 bd3d
000002c0: 685a 5c3d d5b5 043e 2f09 923c 0c6b d9bd
000002d0: 3c84 443d 0839 d0bc 91cc cfbd aa23 9bbd
000002e0: 2eb1 cabd 17b1 fbbd 0390 5c3d 26e0 d43d
000002f0: 8ed1 7ebc f529 563d 7227 a03d eeeb 95bd
00000300: 8cb3 aebd 5d59 a13d 0232 5a3c 6120 17ba
00000310: 1b6b f6bd 0dd4 6b3d 22ca 693d 5f26 92bd
00000320: ef5e b5bd f775 1ebc cd87 913d 7273 853c
00000330: a1cf 2f3d c3cf b73d a8a6 76bd 5673 94bd
00000340: 7cef aabd 0948 abbd 1c3f 963d da53 093d
00000350: 7d47 f1bd 7846 df3d cbea 91bd d9f4 d63c
00000360: 19db 45bd d08a 88bd 4180 0bbe b4ab 16bd
00000370: dad3 9bbd 41b6 b93d 6849 a6bc 72ca cc3d
00000380: cdb7 11be f57e 703d db5f f13c 20af 493d
00000390: 0fbb 393d de56 b7bd 0ff5 26be f7b0 493b
000003a0: 2e9d 07be a9fc 023c cd7f 173e 93fc 153e
000003b0: c502 03be 32d8 5fbd 1387 f3bc c0b9 5d3d
000003c0: f44b cc3d e8d1 04be 86c7 88bd 9d95 4f3d
000003d0: d44b d13d 4fbe 2d3d 43fc bbbd 5375 b73d
000003e0: b524 40bd 559a f5bd b8d9 02be 7e77 debd
000003f0: aee9 01be a26c 0dbe e4ba 423d f806 84bd
-0.059019204 -0.116782054 -0.022375783 0.058774296 0.03885533 -0.0748354 0.060416568 0.0683547
0.13465889 -0.13243756 -0.071316056 -0.079762846 -0.00021671297 0.05510023 0.050082956 -0.017191866
-0.11584453 0.0014501556 -0.03646284 0.027034774 -0.09371229 0.06063573 0.12309427 0.12564948
0.12938185 0.119787455 0.11979857 -0.010407817 -0.13534264 0.083971 -0.112098046 0.09717227
-0.05638981 0.039606806 0.01953028 -0.049896643 0.12405472 -0.019718798 0.045366414 0.010614006
-0.022573475 0.03282844 -0.14387342 0.12213924 0.121632054 0.10433828 -0.035232313 -0.039716445
0.0999781 -0.1086601 0.07675762 0.092242524 -0.12562014 -0.09012465 0.10072241 0.020336136
0.015048257 -0.05654453 0.11376611 -0.104896426 -0.11776331 -0.118699126 0.065580726 -0.10277862
0.107535236 -0.117365696 0.13964781 -0.048866868 -0.03777055 0.027163012 0.053815167 0.10828049
0.10453241 -0.0126062855 0.035752885 0.106197 -0.064423956 -0.016984297 -0.07642916 0.11281189
-0.12033961 -0.08252283 0.048674367 -0.03968741 -0.06797654 -0.08792669 0.0553629 0.0566766
-0.13862033 0.13851236 -0.10706218 -0.103885464 0.04814871 0.08934671 0.112926096 -0.055876955
-0.06439207 0.0599113 0.10473793 -0.115950964 -0.0009785254 0.037150014 -0.11849914 0.0017751184
0.11206295 -0.10808242 -0.04058082 0.073423795 0.14003596 -0.121042274 -0.08842662 -0.10304622
0.014922699 -0.10736435 0.04286231 -0.059123844 0.10997994 0.027688652 -0.025398053 -0.10307625
0.10713956 0.124238275 -0.043215886 0.13474853 0.06940247 0.1097362 0.08197151 0.03924377
-0.021483243 -0.10668934 0.066165365 0.028230475 0.027597092 0.045447588 -0.014484727 0.1214761
0.055401478 0.09861175 -0.045962933 0.05885319 -0.013824288 -0.08750505 0.0011315955 0.12771632
0.13225245 0.08589451 -0.13157903 0.0944867 0.047176525 0.009677305 -0.0038135322 0.06393555
-0.09888417 0.055696364 -0.03723716 -0.037238248 0.055230293 0.08533241 -0.051910687 0.138794
0.04347801 -0.113685735 0.06413021 -0.07336291 -0.10429528 0.066501446 -0.12878293 0.10224762
0.0107659595 -0.054645695 0.028184969 0.062243614 0.033079144 -0.08667513 -0.033160355 0.092683166
0.053797156 0.12959988 0.017826645 -0.10616121 0.04797767 -0.02541782 -0.1014644 -0.07575162
-0.098970756 -0.122896366 0.053848278 0.103943154 -0.015552891 0.052286107 0.078200236 -0.07320391
-0.085303396 0.07878373 0.013317587 -0.00057650177 -0.120321475 0.057575274 0.057077534 -0.07136225
-0.08855998 -0.00967168 0.0710598 0.0162904 0.04292262 0.08975174 -0.06021753 -0.07248561
-0.08346459 -0.08363349 0.07336256 0.033527233 -0.117812134 0.10902113 -0.07124861 0.0262398
-0.04830465 -0.066671014 -0.13623144 -0.036784843 -0.07608767 0.09067965 -0.020298675 0.09999551
-0.1423027 0.058714826 0.029464653 0.049239278 0.04534441 -0.089521155 -0.1630442 0.0030775645
-0.13243553 0.007994809 0.14794846 0.1464713 -0.12794025 -0.05464954 -0.029727494 0.054132223
0.099754244 -0.12970698 -0.06678681 0.05067979 0.10219541 0.04241782 -0.091789745 0.08957925
-0.046910007 -0.11992327 -0.12778366 -0.10862635 -0.12686798 -0.13810971 0.047541514 -0.06446642

weight f4 [50, 50]
00000000: 3f60 98bd 63d2 013e f31b 0b3d 7d7d 15bd
00000010: a351 1fbb 60e5 04be 6934 d4bd e2d3 443d
00000020: 9f0b a6bc 580e f2bd 1c85 86bd e595 92bd
00000030: 5cd6 793d cdf0 b3bd bce5 b43c f902 f7bd
00000040: 08bc 553d 550f a53d 2e6f a7bd 3c18 0dbd
00000050: 4e40 f6bc 63e3 efbd a200 dcbc 689c 023e
00000060: 24ee a7bd 824d 01bd 8f5b 87bc e41a cc3d
00000070: 867d b2bd 5369 a33d 9439 14bd eda7 05bd
00000080: 3230 0ebd 9d56 0a3d eaf3 46bc eda4 e03c
00000090: 1651 023d 42cd 8a3d 51c9 92bc 076e 63bd
000000a0: 316f dabd a6ff b6bd 044f 7d3d e2a3 d5bc
000000b0: a5f9 42bd e8bb 04be 156c 02bd 9070 7abd
000000c0: db13 073c 756e 083e f303 bc3c 788c ee3c
000000d0: de78 d3bd 75b5 003e fbe7 85bd 92b5 07bc
000000e0: 3779 c43d 70ce 1abd f78e a63c bbc5 1dbc
000000f0: f6d5 e6bd d8ff d63d 144e d13d 2e14 a23d
00000100: 53a1 d9bd 0303 0f3e 6bec a8bd dc3d a63c
00000110: 79ab b03c 2ed0 fcbc 319e 74bd 5f36 b53d
00000120: 855b cb3d a23b 52bd 99e9 d0ba 53f9 083e
00000130: 059d 843d 9e35 c13d f20d 90bd a14a e0bd
00000140: 7e42 af3c 8157 a2bd ad1b 06be b90e 27bd
00000150: e551 55bd 612f 28bc 5589 08bd c091 7dbc
00000160: b1b5 183d 0ecc a0bd 7f2f 293d 7e59 0dbe
00000170: f881 1fbd 0827 4f3c c31a 053e c1f2 1d3d
00000180: 9ebf f8bd 0314 f73c 4314 f7bd ce8f 113d
00000190: f59a 20bd eb32 01be e4a3 143d 592e 06be
000001a0: 38c3 04be 04fd b2bd d0ca fd3b 066e 673d
000001b0: 1cd0 19bd c10a 663d f395 033e a373 243d
000001c0: 24f8 213d feb3 65bc 47f4 b03d f284 78bc
000001d0: 477e f0bd 2893 fabd a994 da3d 0b28 2a3c
000001e0: dd67 eebd 64c0 14bd 48ba d33c deaf 59bc
000001f0: 855c 1ebd 23c8 cebb 3197 aabd 4f46 e8bb
00000200: 806a 81bc e28c 0abe 2336 c4bd f0ff e1bd
00000210: 5dc8 6a3c d9c7 f73d f27d 08be 45e8 353d
00000220: a291 e9bd 61a5 10bd 8a6e f6bd 2d3c 77bd
00000230: 0970 08bd 6925 1bbc 7758 3e3d f98b 82bd
00000240: e9cf 753d bf4e 0bbe 99e4 a3bd 83b9 893d
00000250: 4dda 01be 2211 003e dc1d b43d e770 7d3d
00000260: d6cc a73d efe0 40bd 1058 223d 99ac 29bd
00000270: d4c5 dabd 9809 74bc aa29 32bd 2b86 7f3d
00000280: da4c efbd be68 353d 0026 15bc 1cb7 b4bd
00000290: 4961 28bd bf21 acbd 2f83 f13d 0eb7 4b3d
000002a0: da9c 863d 9a44 87bd 4a7d e43c efbc c0bd
000002b0: 4762 59bd 71d5 8dbd 084e 963d 41fb f93c
000002c0: 49e1 4bbd d980 bf3b 98d6 f1bd 6f8b 833d
000002d0: 3416 053e 4b1a cf3d 33ab 173d cdb3 f8bd
000002e0: 0df9 05bd 1eec d13d 08a5 ea3d 3fed 553d
000002f0: 855a 01bc 9dfe 03be 8676 893d 8e4b 70bd
00000300: 8639 b8bd eb71 f5bd 4c23 d4bd 3dcc e4bd
00000310: e8fa bcbc 2839 a83d 6c89 08be 2fe6 9f3d
00000320: 1d5f 05bd 765e c2bd 30a9 8abd f371 e5bc
00000330: 0095 e8bd e10d 9ebd f17a 62bd b27a a9bd
00000340: 5345 07be d81e 9c3d a7e7 543d 63be 0f3d
00000350: 98f8 d5bb abb6 7e3d 38c7 22bc b75d 68bc
00000360: 4a8f 043e 0427 c03b c4c4 f4bc 5115 fa3d
00000370: 14f6 663d 939b 20bc 4901 113d 1826 043e
00000380: ba76 bfbd 2f88 bf3d 2423 dc3d a664 173d
00000390: 95a4 09be 2372 d53c 43da 48bc c8d8 b73d
000003a0: f75c 10be 8305 dc3d 7e8c c2bd 1332 603d
000003b0: 0474 febd 76b3 fc3d 4aaa 8e3d cefa c0bd
000003c0: 9792 47bd 19ca 0ebe 1147 b5bc f867 0ebd
000003d0: 5ca0 dbbc 7859 ec3d 61ba 033e 06b2 b6bd
000003e0: 725a c43d 64a9 ab3d aeee 5e3d ecd8 8f3c
000003f0: bc93 f4bd 3aab b8bd e3ff edbd beaf e63d
-0.074402325 0.12677912 0.0339622 -0.036496628 -0.0024310134 -0.12978125 -0.10361559 0.04805363
-0.020269213 -0.11819142 -0.06568357 -0.07157496 0.060995445 -0.087861635 0.022082202 -0.12061114
0.052181274 0.08059565 -0.08175503 -0.03444694 -0.03005996 -0.117132924 -0.02685577 0.12754977
-0.081997186 -0.031568058 -0.01652315 0.099660665 -0.08715348 0.079790734 -0.036187723 -0.03263085
-0.03471393 0.033774007 -0.012143115 0.027422393 0.03181561 0.06777431 -0.01791826 -0.055524852
-0.10665739 -0.0893548 0.061842933 -0.026079122 -0.04760136 -0.12962306 -0.031841356 -0.061142504
0.00824448 0.13323386 0.022951102 0.029119715 -0.10325788 0.1256922 -0.065383874 -0.008283036
0.095934324 -0.03779453 0.020331843 -0.009629662 -0.112712786 0.10498017 0.1021997 0.07914005
-0.10626473 0.13965993 -0.08248218 0.020293169 0.02156614 -0.030860987 -0.059721176 0.08848261
0.09929565 -0.0513264 -0.0015938758 0.1337636 0.064752616 0.09434055 -0.0703391 -0.10951734
0.02139401 -0.07926846 -0.13096495 -0.040785525 -0.052080054 -0.010265202 -0.033334095 -0.015476644
0.03728265 -0.0785142 0.04130506 -0.1380367 -0.038942307 0.012643583 0.1299849 0.038561586
-0.12145923 0.03016091 -0.120644115 0.035537533 -0.03921028 -0.1261708 0.03628911 -0.13103618
-0.12965095 -0.08739665 0.0077451244 0.05650141 -0.037551984 0.0561626 0.1285017 0.040149342
0.039543286 -0.014019964 0.08640342 -0.015168415 -0.117428355 -0.12235099 0.10672886 0.010385524
-0.11640904 -0.03631629 0.025845662 -0.013286559 -0.038662452 -0.0063104792 -0.08329619 -0.0070884596
-0.015797853 -0.13530305 -0.09580638 -0.11035144 0.014329997 0.12098665 -0.13329294 0.044410963
-0.114047304 -0.035313968 -0.120328024 -0.060360122 -0.03330997 -0.0094693685 0.046471085 -0.06374354
0.06001273 -0.13604258 -0.08002586 0.06724837 -0.12680931 0.12506536 0.08794758 0.06187525
0.08193366 -0.047089513 0.039634764 -0.041424368 -0.10682264 -0.014894865 -0.043496765 0.062383812
-0.1168458 0.044289343 -0.009103298 -0.08823988 -0.041108403 -0.08404874 0.117925994 0.04973512
0.06572886 -0.066048816 0.027891774 -0.09411036 -0.05307224 -0.06925476 0.07339102 0.030515315
-0.049775396 0.0058442173 -0.11808509 0.06423079 0.12996751 0.10112437 0.037028503 -0.12143669
-0.032708216 0.10250114 0.114572585 0.05222821 -0.007895117 -0.12890096 0.0671206 -0.058665805
-0.08995347 -0.11984619 -0.10358295 -0.11171768 -0.02306886 0.08214027 -0.13333672 0.07807576
-0.03256141 -0.09490673 -0.06770551 -0.028008437 -0.113565445 -0.07717491 -0.055293027 -0.082753554
-0.13210039 0.076230705 0.051978733 0.035093676 -0.006529879 0.062185925 -0.009935193 -0.0141825
0.12945285 0.005864026 -0.029878981 0.12211097 0.056387022 -0.009802717 0.035401616 0.12905157
-0.09348817 0.09352147 0.1074889 0.03696122 -0.1344169 0.026055401 -0.012259069 0.089768946
-0.14097963 0.10743239 -0.09499453 0.054735254 -0.12424472 0.12338917 0.06966074 -0.09422837
-0.048723783 -0.13944282 -0.022128614 -0.03476712 -0.026809864 0.11540502 0.12864067 -0.08920674
0.095875636 0.08381918 0.05442684 0.017559491 -0.119422406 -0.09017034 -0.11621072 0.11263989

bias f4 [1, 50]
00000000: 0000 0000 0000 0000 0000 0000 0000 0000
00000010: 0000 0000 0000 0000 0000 0000 0000 0000
00000020: 0000 0000 0000 0000 0000 0000 0000 0000
00000030: 0000 0000 0000 0000 0000 0000 0000 0000
00000040: 0000 0000 0000 0000 0000 0000 0000 0000
00000050: 0000 0000 0000 0000 0000 0000 0000 0000
00000060: 0000 0000 0000 0000 0000 0000 0000 0000
00000070: 0000 0000 0000 0000 0000 0000 0000 0000
00000080: 0000 0000 0000 0000 0000 0000 0000 0000
00000090: 0000 0000 0000 0000 0000 0000 0000 0000
000000a0: 0000 0000 0000 0000 0000 0000 0000 0000
000000b0: 0000 0000 0000 0000 0000 0000 0000 0000
000000c0: 0000 0000 0000 0000
0.0 0.0 0.0 0.0 0.0 0.0 0.0 0.0
0.0 0.0 0.0 0.0 0.0 0.0 0.0 0.0
0.0 0.0 0.0 0.0 0.0 0.0 0.0 0.0
0.0 0.0 0.0 0.0 0.0 0.0 0.0 0.0
0.0 0.0 0.0 0.0 0.0 0.0 0.0 0.0
0.0 0.0 0.0 0.0 0.0 0.0 0.0 0.0
0.0 0.0

weight f4 [50, 50]
00000000: e515 a0bd adda 03be 6fe1 d1bd 8d7b d7bd
00000010: 1011 d03d 2ea2 903d 5002 eb3c a24d cebd
00000020: fe1c db3d e39d 32bc 9330 b53d 4918 dd3d
00000030: e3a3 d3bd 1b95 ff3d 11db 033e 4b15 2e3d
00000040: 6fa4 9ebd b4a9 943d f789 16bc 7bf7 dc3d
00000050: 3efe a8bd be37 a53d 96bd 71bc 5ff4 e03d
00000060: 31bc d0bc 837d dbbd be14 e2bd 5c35 31bd
00000070: a4d5 793d aa09 f2bc 3725 31bc 7fbb 8bbd
00000080: 8aeb 04be 73b1 9bbd 8c73 04bd 84b6 27bb
00000090: ee7b 153d 7814 8a3d f4dc 953d 60d9 2bbb
000000a0: f69e b1bd bf56 3a3d c472 15be 5ca7 bb3c
000000b0: 5420 e4bd 2df9 ee3b 38ff 98bb f3b6 82bb
000000c0: 0af2 f83d 92b7 9c3d 44c9 febd 3176 2a3d
000000d0: e760 d3bd 66b0 cf3d 5260 073e 4770 ec3d
000000e0: d7c4 da3d 9c1b 873d 5bc5 c43c f5c1 b3bd
000000f0: fa90 f03d 5e41 85bd 8bba c43b dc13 6cbd
00000100: 7a17 ff3d 30de 71bc cf57 bd3b 14f4 18bd
00000110: 3157 073e bb76 07be a7f9 e1bc d595 eabd
00000120: d419 683c c8e7 c73d 4d54 0abe 8547 8c3d
00000130: 729b a0bd 2873 7c3c 15ed b73d 1021 423d
00000140: 56b3 eebd e318 a93d cfc5 04bb 5b5a babd
00000150: e9ee dfbd 4d97 8b3a 2239 5bbd df69 a13c
00000160: 4219 88bd 87d5 1d3d 6b2f 95bd e037 87bd
00000170: d7ec 5bbd b613 a6bd 435f f6bb 5fb5 17be
00000180: 4ea2 cabd c968 dabd 1cf5 983d 106b a2bd
00000190: 638a 003e cd48 be3c a1c6 c53c a439 be3d
000001a0: 4551 653d 30c6 e3bd 85ac 8e3d 16b6 b5bd
000001b0: 1776 013e 0f6a 683d 28b6 e63d 052f e53d
000001c0: 398f 92b6 8797 dabd cb34 ee3d 1016 f9bd
000001d0: 2b33 973d 164b cc3d 4bc5 0c3e fd1e 05be
000001e0: 8fda fcbd 2e6c 883a de1d b1bd d3ed f23d
000001f0: 6353 0abe ddb1 f93d a422 2bbd 63e5 4a3d
00000200: ebf4 9dbc 9a88 3c3d 8f8d e5bd aee2 ce3d
00000210: 2787 95bd 27b7 82bd eef6 be3d 16b3 dabc
00000220: c576 113e dc2e ff3d ba00 133e 68bc 573d
00000230: dc62 293d 254c b1bd 58cb e63d db15 313c
00000240: 38cd 35bd 25b3 d3bc 5c2a d93d 6b4c a33d
00000250: f462 873d 0d53 f83d b1d6 b43d 40bf d83d
00000260: 77b8 c5bd 947b 843d cd0c b4bd ae0c f73d
00000270: 451c d4bc 19db ba3d 4545 fc3d 2a6e d73b
00000280: 877c d4bd 3aff 1bbd e6b2 07be 7a3c 253d
00000290: 5586 a7bc 7b1d c7bd 4533 de3d 0416 e0bd
000002a0: f47a 0ebd d1d8 a63d 99e7 02be 39ca 2cbd
000002b0: e418 8c3d 2056 1d3c 5729 0cbe 689b 00bc
000002c0: d218 08be 29ba 0abd f8d0 8ebd c299 11be
000002d0: d6d2 97bd 0554 dabd 7627 283c 9201 0fbe
000002e0: 36b2 763c fe6f 27bd 201f c93c 6a75 0c3e
000002f0: 98af 443d 93d6 bc3d b52b e4bd 6c72 bc3d
00000300: 7403 983d c40b d1bd 4ced fa3a cf3b 08bc
00000310: b8b7 953c 53b6 febd 4a87 ae3d 7617 e1bd
00000320: bc4a 623d db01 0d3e c4ff 493c d308 bd3d
00000330: e011 5b3c b267 0cbd 9f15 02be dfac f7bb
00000340: 1c1f 95bc 0936 a7bc ea39 a3bd db19 06bd
00000350: e63e 343d 94af 803d c48d c2bb 74f6 53bd
00000360: 2feb 89bd 5551 0ebe f51e 57bd 86cc b33d
00000370: 2051 813d 7337 a83c 51e6 a1bd 5427 e8bd
00000380: 40d2 d3bc 428e d33d 5241 41bc 65a6 f63d
00000390: bd9e dc3c 443d a3b9 b653 d7bc f3fc 1a3d
000003a0: e70f 07be e4b6 eebd 4562 7cbd f5ab 8f3d
000003b0: 44f4 eb3c b548 06be c641 0e3e 1133 f73d
000003c0: ffa9 003e da39 b63c 8dd7 aabd c40b 5dbd
000003d0: cf6b 0a3e 59ae 163e d1d1 213d e10b 663b
000003e0: 459a 063e 650c 82bd 79f9 513d f15d 1dbd
000003f0: b5f2 123d 4a69 2abd eda8 fc3c 87b7 babd
-0.07816676 -0.12876387 -0.10248076 -0.10521612 0.101595044 0.07062183 0.028687626 -0.10073401
0.10698889 -0.010901901 0.088471554 0.10795648 -0.10333993 0.124796115 0.12876536 0.042500775
-0.07746207 0.07258931 -0.009188167 0.10789391 -0.08251618 0.080672726 -0.0147546735 0.1098411
-0.025480362 -0.10717299 -0.110391125 -0.043263778 0.06099476 -0.029545624 -0.010812095 -0.068228714
-0.12980476 -0.07602205 -0.032336757 -0.0025590966 0.03649514 0.06742185 0.07317534 -0.0026222095
-0.086728975 0.045492884 -0.14594561 0.022906952 -0.111389786 0.0072928877 -0.0046690963 -0.0039890944
0.1215554 0.07652201 -0.12440732 0.041616622 -0.10321217 0.10141067 0.13220337 0.11544853
0.106820755 0.06597063 0.024019888 -0.08777229 0.11746402 -0.065066084 0.006003683 -0.057636127
0.1245565 -0.014762446 0.00577829 -0.037342146 0.13216855 -0.13228886 -0.027584864 -0.114543594
0.014166314 0.09761006 -0.1350872 0.06849579 -0.07842149 0.015408315 0.08980767 0.047394812
-0.11655299 0.082567 -0.0020259505 -0.09099265 -0.1093424 0.001064995 -0.053521283 0.019703804
-0.066454425 0.038533714 -0.07284435 -0.06602454 -0.053692665 -0.08109228 -0.0075186803 -0.14815281
-0.098942384 -0.106645174 0.07468626 -0.07930577 0.1255279 0.023228073 0.024142565 0.09288338
0.055985708 -0.11121786 0.06966499 -0.08872621 0.12642704 0.05674177 0.11265212 0.11190609
-4.3678124e-06 -0.10673433 0.11631163 -0.12162411 0.073828064 0.09975259 0.13747136 -0.13000102
-0.12346374 0.0010408217 -0.08648275 0.118617676 -0.13508372 0.12192128 -0.041781083 0.049535166
-0.019281825 0.04602871 -0.11208641 0.101018295 -0.07301169 -0.0638259 0.09324442 -0.026696723
0.14205463 0.124601096 0.14355746 0.052669913 0.041354045 -0.086571015 0.112692535 0.010808433
-0.044385165 -0.025842259 0.106037825 0.0797356 0.06610671 0.12125216 0.08830012 0.10583353
-0.096543245 0.06468883 -0.08791504 0.12062965 -0.025892386 0.09123821 0.123178996 0.006574412
-0.10375314 -0.0380852 -0.13251838 0.040340878 -0.020449797 -0.0972242 0.10849623 -0.10941699
-0.034785226 0.08146823 -0.1278366 -0.042185042 0.06840685 0.009603053 -0.13687645 -0.007849552
-0.13290718 -0.033868942 -0.069734514 -0.1421881 -0.07413261 -0.10660557 0.0102633145 -0.13965443
0.015057137 -0.04087829 0.024550974 0.13716665 0.04801902 0.09220614 -0.11141149 0.09201512
0.07422534 -0.10207322 0.0019144206 -0.008315041 0.01827608 -0.12437119 0.08521898 -0.10990803
0.055247054 0.13770239 0.012329046 0.09230199 0.013370961 -0.03427858 -0.1270356 -0.0075584496
-0.01820331 -0.020411508 -0.079700306 -0.0327395 0.044005297 0.06283489 -0.00593731 -0.051748708
-0.06734311 -0.13898213 -0.052519757 0.08779244 0.063143015 0.020534253 -0.079052575 -0.11335626
-0.025857091 0.10329868 -0.011795359 0.12043456 0.026931161 -0.0003113543 -0.026285034 0.037838887
-0.1318966 -0.11655977 -0.061617155 0.0701522 0.028802998 -0.13113673 0.13892278 0.12070287
0.12564848 0.022244383 -0.08341894 -0.0539663 0.13517688 0.14714946 0.039506737 0.0035102295
0.13144787 -0.0635002 0.051263306 -0.038419668 0.035875995 -0.041604318 0.030842269 -0.09117036

weight f4 [50, 50]
00000000: acab febd c118 73bb 43d0 ed3d 60d0 c5bd
00000010: c64b ddbd 4d3f 44bc cdd4 a53d c6d8 ccbc
00000020: 7190 5abd 1113 adbc 08c9 c4bd 6d80 903d
00000030: cdc1 c4bc a7e5 cdbd 1fa2 4dbb e735 c9bb
00000040: 9a95 4abd d9dc 013e b467 e6bc 8ca3 083e
00000050: a017 0c3d da1e e73d 0861 fdbb c283 bcb7
00000060: 258e 843d cb35 b73c f68a f03d 1a46 43bd
00000070: 2bbf 96bd 2f50 fb3c 9296 833c 22d3 ac3d
00000080: 3c36 23bc b410 033e 673b 91bd 8bef f6bd
00000090: a4a8 a73c f44b 4ebd 36c5 fbbc 7df4 1d3d
000000a0: a1ec b43d 5b3e 843d 0267 a2bd 54b2 fcbd
000000b0: 8fba e8bc f9d2 fcbd 01d9 8cbc 45c9 803d
000000c0: ffea 0e3e 683b 36bd c43a 033e 4357 c9bd
000000d0: d9cc 093e 61c0 c33b e0d5 413d d46e 7c3d
000000e0: 620c 0a3e 3500 c7bd 6422 f1bc 7adb 663d
000000f0: 4a84 da3d b42e 0abe 95c9 a73d 95f4 9ebd
00000100: 93a9 97bd 8d86 713d 34da eebd a4f9 033e
00000110: 0af5 41bb 44ee e7bd 200e cd3d feec 063e
00000120: fbe1 c5bb e368 f23d 71cd ec3d cdf0 083c
00000130: b190 703d 3e28 223d 4404 50bd 3015 623c
00000140: 6eaf a8bd 4ce6 eebd 86f4 dcbd 8265 6cbd
00000150: 079f 8dbc 3e96 8f3c 958f 89bc f5d8 25ba
00000160: ed6c ff3c 4e5a fd3d 95af e5bd ff72 023e
00000170: 6808 c03d bdbb 4dbd 51bf 243c b72d 803a
00000180: 013d 393d dc45 5cbd 5c1e ce3d 81b8 a93d
00000190: 469c 0dbe c6cd db3d 32b7 a2bd f717 b5bd
000001a0: c556 adbd b08b 3bbd f20e d93d a559 f6bd
000001b0: f089 f03d 4d55 9b3d 6ef8 bcbc af52 f23d
000001c0: 81f8 22bc 4c10 06be 2082 81bd b13c f23d
000001d0: f4bb 26bd 0db0 ee3d 1a95 503c 6f72 913d
000001e0: 277f dabc dd29 0b3e a935 cfbd 31cc 1abd
000001f0: dd40 68bd 7cb6 ddbd 8a0e 973c 4e5e 36bd
00000200: edca 33bc 12df ddbd 1737 1b3d 2b95 93bd
00000210: 61c4 043e 4207 ec3d a3b2 493c 4345 efbd
00000220: f447 92bc 4905 073e c895 0d3e 1c2a 0f3e
00000230: cd37 ecbd 243d 0a3e 0297 c73c 2630 f6ba
00000240: b0fe 523d d9e5 b73d ad83 93bc 9ad8 9abd
00000250: 18b4 013e 783a cf3d fc20 983d 6071 2f3d
00000260: ad64 d63d a1d5 5ebc c835 87bd bc22 05be
00000270: 918d 92bd 2df0 9b3d 061e 90bd 21fa eebd
00000280: b704 eb3d db1e 0c3e 80c3 6cbb a23e e33c
00000290: 0a1c 8bbd a996 083e 6ae6 b5bc 34a7 ef3d
000002a0: c2cc 013e 836c fc3d ad01 74bd ff54 df3d
000002b0: db2d a53d d336 bc3c f8d3 0cbe fa4b 393d
000002c0: 9e86 f5bd 470d 063e 17c8 b03d 7591 663c
000002d0: 1e5d c5bc de46 a63d 2c32 773c 1ec8 bc3d
000002e0: 4eef a2bd df60 afbd d6a2 bbbd 374f ec3c
000002f0: 1132 77bd 5f28 ffbd 8ab2 debd abc7 d83d
00000300: 844d 37bc c3de a83d cc6a 3c3d 090d 5bbd
00000310: 5550 a53d 35b7 5c3d b399 00be f1fd 0dbe
00000320: c2df 34bc 0489 1c3c c7e3 b73c 8733 a83d
00000330: 5bc9 da3d 93ec d63d 7de4 07be ca32 0cbe
00000340: db40 48bd 0cf2 c8bd 82ec 8ebd e6e5 4b3d
00000350: 2833 1cbd 440e 063e 1b42 b6bd 20ca ae3d
00000360: d38b bfbd 1de7 c6bc 540d 0fbd f439 503b
00000370: e085 b6bd b460 3cbd 26ce 073e a6e7 ee3c
00000380: bc7a 91bd 8945 2d3d 9ce6 263d f30f ea3b
00000390: 5fbd 823d cab7 b5bd 2de7 063e 93ce 0c3e
000003a0: 45dc 8fbd 83a2 423d 0c9f e2bd 8126 54bd
000003b0: 11d7 8bbd ca49 ea3b 19d0 1a3d e3bd edbc
000003c0: caaf 89bc 0c95 3a3d 4c26 9abd 9c64 c83d
000003d0: 2201 35bc c01f 0bbe f267 583d c22a fe3d
000003e0: 8b67 05be 5720 85bd d1a2 c7bc 1982 433d
000003f0: cf20 2e3d 170f f73d 2a44 4fbd 59cc 4abb
-0.124350876 -0.0037093612 0.116119884 -0.09658885 -0.10805468 -0.011977983 0.08097229 -0.02500571
-0.053360406 -0.021127256 -0.09608656 0.07055745 -0.024018193 -0.10053568 -0.003137715 -0.006140459
-0.049459077 0.12681903 -0.028125621 0.13343638 0.034202218 0.11285181 -0.0077325143 -2.2472701e-05
0.064724244 0.022364518 0.11745255 -0.047674276 -0.07360681 0.030677883 0.016063008 0.08438708
-0.009961661 0.1279934 -0.07091408 -0.12057408 0.020466156 -0.050365403 -0.030733686 0.03856324
0.08834196 0.06457206 -0.079298034 -0.12338701 -0.02840927 -0.12344927 -0.01719332 0.06288389
0.13956831 -0.044490248 0.12815386 -0.09831097 0.1345705 0.005973861 0.047323108 0.06162913
0.13481286 -0.09716836 -0.029435344 0.056361653 0.106697634 -0.13494378 0.081927456 -0.07761494
-0.074053906 0.05896621 -0.11662713 0.12888199 -0.0029595518 -0.113247424 0.1001246 0.13176343
-0.006038902 0.11836412 0.11562622 0.008358193 0.05873174 0.03958916 -0.050785318 0.013798997
-0.082365856 -0.116650194 -0.10788827 -0.057713993 -0.017287744 0.017527696 -0.016792098 -0.00063265796
0.03117987 0.1237074 -0.1121513 0.1273918 0.09376603 -0.05022787 0.010055379 0.0009779249
0.045224193 -0.05377756 0.10064384 0.082871445 -0.13829145 0.107326075 -0.07945098 -0.088424616
-0.084638156 -0.045787513 0.10598554 -0.12028817 0.117450595 0.07584629 -0.02306768 0.11832177
-0.009946943 -0.13092154 -0.063236475 0.11827982 -0.04070659 0.11654673 0.012730861 0.071019046
-0.02667196 0.13590188 -0.10117657 -0.03779239 -0.056702483 -0.10825822 0.01843955 -0.04452353
-0.010973674 -0.10833563 0.037894335 -0.07206186 0.12965538 0.11524822 0.012310657 -0.116831325
-0.017856576 0.1318561 0.13826668 0.13980907 -0.11534081 0.13499886 0.024363998 -0.001878266
0.05151242 0.08979387 -0.018007124 -0.07560845 0.12666357 0.10118574 0.07428166 0.042832732
0.10468421 -0.013600738 -0.06602055 -0.13001531 -0.07155908 0.07614169 -0.070369765 -0.11668802
0.11475509 0.13683645 -0.003612727 0.027739827 -0.067924574 0.13338722 -0.022204597 0.11701813
0.12675765 0.123253845 -0.05957191 0.109048836 0.08065387 0.022975361 -0.13752735 0.045238473
-0.11988567 0.13091002 0.08631914 0.014072766 -0.024092253 0.081189856 0.0150876455 0.09217857
-0.079558 -0.085633986 -0.09161918 0.028846366 -0.06035048 -0.12458872 -0.108738974 0.10584959
-0.011187915 0.082456134 0.046000287 -0.05347923 0.08071963 0.053885657 -0.12558632 -0.13866402
-0.011039676 0.009554151 0.02244748 0.08212953 0.10682937 0.10494342 -0.13270755 -0.1369125
-0.048889976 -0.09811792 -0.06978704 0.049779795 -0.038134724 0.1309138 -0.08899327 0.08534646
-0.09352841 -0.024280125 -0.03492482 0.0031772824 -0.089122534 -0.04599066 0.13262233 0.029163193
-0.07103488 0.042302642 0.04074727 0.0071430146 0.06383776 -0.088729456 0.13174124 0.13750677
-0.07024435 0.047518265 -0.11065492 -0.051794533 -0.0682813 0.0071499096 0.037796114 -0.02902121
-0.016807456 0.0455523 -0.07526836 0.09784815 -0.011047633 -0.1358633 0.052833505 0.12410499
-0.1302778 -0.06500309 -0.02436963 0.047731493 0.042511757 0.12063425 -0.050602116 -0.0030944555

bias f4 [1, 50]
00000000: 0000 0000 0000 0000 0000 0000 0000 0000
00000010: 0000 0000 0000 0000 0000 0000 0000 0000
00000020: 0000 0000 0000 0000 0000 0000 0000 0000
00000030: 0000 0000 0000 0000 0000 0000 0000 0000
00000040: 0000 0000 0000 0000 0000 0000 0000 0000
00000050: 0000 0000 0000 0000 0000 0000 0000 0000
00000060: 0000 0000 0000 0000 0000 0000 0000 0000
00000070: 0000 0000 0000 0000 0000 0000 0000 0000
00000080: 0000 0000 0000 0000 0000 0000 0000 0000
00000090: 0000 0000 0000 0000 0000 0000 0000 0000
000000a0: 0000 0000 0000 0000 0000 0000 0000 0000
000000b0: 0000 0000 0000 0000 0000 0000 0000 0000
000000c0: 0000 0000 0000 0000
0.0 0.0 0.0 0.0 0.0 0.0 0.0 0.0
0.0 0.0 0.0 0.0 0.0 0.0 0.0 0.0
0.0 0.0 0.0 0.0 0.0 0.0 0.0 0.0
0.0 0.0 0.0 0.0 0.0 0.0 0.0 0.0
0.0 0.0 0.0 0.0 0.0 0.0 0.0 0.0
0.0 0.0 0.0 0.0 0.0 0.0 0.0 0.0
0.0 0.0
