neuromancer/datasets/Flexy_air/device_test_models/model3/best_policy_flexy2.pth (torch, 7927 bytes, 9 tensors)

weight f4 [32, 5]
0.10395974 -0.04641494 0.3385331 -0.24259114 0.19477218 0.22386712 0.34809583 0.20960188
0.053689837 0.35850298 -0.04955405 0.3422165 0.09518623 0.06450558 0.25578237 0.39519095
0.42809534 0.23731208 0.29784977 -0.3872571 -0.17837411 0.12685186 -0.10723159 0.16682804
0.2720939 -0.3135444 -0.29393834 0.26528418 0.20085853 0.26306248 0.17108 0.1684789
-0.4273693 -0.2877599 -0.17508763 0.37569338 -0.017447472 0.28941435 0.18889523 -0.006100923
0.27652 -0.06121087 0.27921355 0.12300897 0.09645933 0.08821195 -0.22051176 0.18638372
-0.42284057 -0.38163674 -0.40081662 -0.12325525 -0.21373107 -0.015168607 0.41745293 -0.40498862
0.29790676 0.021783143 0.43472135 -0.06268358 -0.43269816 0.12614518 -0.24392763 0.15651715
0.2151373 0.23357958 -0.36804926 -0.06945425 -0.3990102 -0.16212067 -0.17025831 0.060359538
-0.15563366 0.38648313 -0.14829552 -0.22269042 -0.24497744 0.3096441 -0.4386922 -0.22026782
-0.091091424 -0.33460093 -0.25304 -0.42833027 0.3655576 0.44132864 0.36230206 0.18633384
-0.36675495 0.026753128 -0.43956268 -0.15493494 -0.35413706 0.4222867 -0.4139613 -0.24008149
0.16625482 -0.049784422 0.11740261 -0.047990024 -0.30104107 -0.33699793 0.025167108 -0.27104926
0.3736487 0.10965198 -0.27286398 -0.4179247 -0.2511648 0.27048242 0.37851322 -0.24478601
-0.3529179 -0.14616624 -0.34718537 0.3811792 0.2853349 -0.27269804 -0.10905123 0.1813764
-0.3355214 0.23272282 -0.01075086 -0.12774506 -0.38675815 -0.06733456 0.042099208 -0.12804821
-0.000682652 -0.20975302 0.008011937 -0.11425522 -0.2906876 0.36119014 0.35351133 -0.038104296
-0.36934274 -0.33966854 -0.26357013 0.0119122565 0.02695936 -0.4056412 0.2518472 -0.30118805
0.4375748 -0.2528447 0.14927292 -0.110227644 0.21208096 0.105772555 0.060731173 0.39883882
-0.21147858 0.31087065 -0.07457486 -0.06910479 -0.2124697 0.32665324 0.12257397 -0.35457042
00000000: d8e8 d43d 981d 3ebd 3654 ad3e d069 78be
00000010: 5c72 473e 6c3d 653e 9e39 b23e e0a1 563e
00000020: e0e9 5b3d b48d b73e 30f9 4abd 0037 af3e
00000030: 00f1 c23d 801b 843d e8f5 823e 7856 ca3e
00000040: 502f db3e f001 733e c47f 983e 9046 c6be
00000050: b4a7 36be 74e5 013e 3c9c dbbd f8d4 2a3e
00000060: e44f 8b3e e488 a0be 167f 96be 54d3 873e
00000070: dcad 4d3e 20b0 863e 982f 2f3e bc85 2c3e
00000080: 26d0 dabe 4455 93be 2c4a 33be e25a c03e
00000090: 00ee 8ebc 1e2e 943e c06d 413e 40ea c7bb
000000a0: 0894 8d3e 40b8 7abd 14f5 8e3e 20ec fb3d
000000b0: 788c c53d 78a8 b43d d6cd 61be 60db 3e3e
000000c0: 8f7e d8be e465 c3be d637 cdbe 406d fcbd
000000d0: 51dc 5abe c085 78bc 64bc d53e ab5a cfbe
000000e0: 3c87 983e 9072 b23c cc93 de3e 4060 80bd
000000f0: 9d8a ddbe 342c 013e 2ac8 79be 0846 203e
00000100: f44c 5c3e 7c2f 6f3e f470 bcbe 083e 8ebd
00000110: 114b ccbe f602 26be 3258 2ebe 903b 773d
00000120: 6e5e 1fbe 1ee1 c53e c8da 17be f508 64be
00000130: 5edb 7abe ac89 9e3e 449c e0be e38d 61be
00000140: 248e babd d050 abbe 758e 81be 1b4e dbbe
00000150: 5e2a bb3e d4f5 e13e a87f b93e 4cce 3e3e
00000160: 4ec7 bbbe 6029 db3c 5c0e e1be 44a7 1ebe
00000170: 7451 b5be f635 d83e bcf2 d3be ecd7 75be
00000180: b43e 2a3e c0ea 4bbd c870 f03d 3091 44bd
00000190: 0e22 9abe fe8a acbe 402b ce3c f8c6 8abe
000001a0: e24e bf3e 3891 e03d d4b4 8bbe 3afa d5be
000001b0: ac98 80be ac7c 8a3e 7ccc c13e 2fa9 7abe
000001c0: a8b1 b4be 9aac 15be 48c2 b1be ec29 c33e
000001d0: 6a17 923e 149f 8bbe 4056 dfbd bcba 393e
000001e0: 76c9 abbe e44e 6e3e 6024 30bc 9acf 02be
000001f0: 2a05 c6be b4e6 89bd 3870 2c3d 121f 03be
00000200: 00f4 32ba 7fc9 56be 8044 033c a4fe e9bd
00000210: 01d5 94be eaed b83e 70ff b43e 4013 1cbd
00000220: 7e1a bdbe 09e9 adbe aaf2 86be a02b 433c
00000230: e0d9 dc3c 34b0 cfbe 1ef2 803e 5235 9abe
00000240: ce09 e03e dc74 81be 00db 183e 08bf e1bd
00000250: c02b 593e 489f d83d 40c1 783d 9a34 cc3e
00000260: d78d 58be 702a 9f3e b4ba 98bd d086 8dbd
00000270: a891 59be 183f a73e 1008 fb3d 418a b5be

bias f4 [1, 5]
0.0 0.0 0.0 0.0 0.0
00000000: 0000 0000 0000 0000 0000 0000 0000 0000
00000010: 0000 0000

weight f4 [5, 32]
0.19245324 -0.045260403 -0.12818666 0.06536709 0.1819207 -0.027408635 -0.09829922 -0.13989927
-0.04363566 -0.10168115 0.013656615 -0.1855582 0.018696308 -0.14751402 0.095993936 -0.06438941
-0.1659661 -0.09414921 -0.27901593 -0.19647159 -0.34861356 -0.17334357 -0.20677759 -0.33123478
-0.12938884 -0.19808248 -0.28253224 -0.33270344 -0.285091 -0.30286637 -0.048444066 -0.3477346
-0.1276642 0.11885419 -0.067059524 -0.10869741 0.05138318 0.0010178149 -0.09968712 0.12957868
-0.07957155 0.12954229 0.056767464 -0.041887745 -0.055702284 0.13493875 0.12080072 0.03858798
-0.0707247 0.05363444 -0.030828837 0.14979379 0.14495808 -0.0913441 -0.09807952 -0.058443777
-0.039398737 -0.07336029 0.120864466 -0.12298192 0.13338551 0.11730211 -0.07475043 -0.15952423
0.09616283 -0.0039622053 0.054459076 0.015542687 0.07474351 -0.038468834 -0.031497605 -0.07907132
0.023076748 0.13413331 -0.10271507 0.0899079 -0.2173371 0.038757432 -0.13868088 -0.14019696
0.23399095 0.3496867 0.30766353 0.3150614 0.38706845 0.21126878 0.257281 0.10654637
0.28165758 0.35790825 0.19679102 0.28937906 0.35475183 0.16094272 0.4205477 0.1931384
-0.1664154 -0.023833415 -0.1976893 0.049116872 0.014656199 0.031605825 0.013486106 0.02582582
-0.17803371 -0.06665473 0.1089768 -0.09848312 -0.020994557 0.016989013 0.011984431 -0.08187301
-0.14530294 -0.20367886 0.009037313 -0.01711359 -0.022180017 0.023446763 -0.16078489 0.034837738
0.049685847 -0.15782946 -0.07962769 -0.016711595 0.017476203 -0.084068105 0.024467327 0.112914234
0.028353095 -0.103249 0.07499881 0.12675011 0.16821396 0.16076937 0.17823288 -0.056428898
0.065788075 0.034448758 0.01695475 0.1328066 -0.054041144 0.053300444 0.113364935 -0.056730226
0.10471483 0.1428061 -0.017454382 0.0099563515 0.05923075 -0.0018927312 0.21484074 -0.072043635
-0.07571453 0.20620291 0.19850563 -0.10916647 -0.08681634 0.02880144 0.044525478 0.07661702
00000000: 7612 453e f962 39bd 5d43 03be 2edf 853d
00000010: 6c49 3a3e 1388 e0bc 1a51 c9bd c141 0fbe
00000020: 4ebb 32bd 353e d0bd ffbf 5f3c f802 3ebe
00000030: 0029 993c ea0d 17be 7898 c43d 98de 83bd
00000040: 04f3 29be 4dd1 c0bd 2ddb 8ebe d92f 49be
00000050: 7a7d b2be fa80 31be 81bd 53be 9b97 a9be
00000060: 827e 04be 22d6 4abe 11a8 90be 1b58 aabe
00000070: 73f7 91be 4d11 9bbe 496d 46bd 450a b2be
00000080: 67ba 02be d369 f33d 8156 89bd bf9c debd
00000090: 2b77 523d 3368 853a c328 ccbd 46b0 043e
000000a0: 69f6 a2bd bca6 043e 0085 683d 7c92 2bbd
000000b0: 1428 64bd 622d 0a3e 5e66 f73d 6e0e 1e3d
000000c0: 1dd8 90bd c9af 5b3d c28c fcbc 8b63 193e
000000d0: e46f 143e 9e12 bbbd eadd c8bd be62 6fbd
000000e0: 9260 21bd eb3d 96bd ca87 f73d f2dd fbbd
000000f0: 3696 083e 173c f03d c116 99bd 525a 23be
00000100: 05f1 c43d 63d5 81bb 7b10 5f3d c1a6 7e3c
00000110: 2013 993d 7f91 1dbd a203 01bd 25f0 a1bd
00000120: 730b bd3c 3e5a 093e 475c d2bd a221 b83d
00000130: 9e8d 5ebe 1dc0 1e3d 5c02 0ebe cb8f 0fbe
00000140: 539b 6f3e 230a b33e 1386 9d3e ba4f a13e
00000150: d62d c63e d856 583e 56ba 833e fc34 da3d
00000160: 6c35 903e c03f b73e 9683 493e 7e29 943e
00000170: 08a2 b53e 2bce 243e 0752 d73e 13c6 453e
00000180: cc68 2abe 4b3e c3bc 106f 4abe c62e 493d
00000190: 8e20 703c 1c75 013d d4f4 5c3c ac90 d33c
000001a0: 784e 36be 4682 88bd 3b2f df3d 85b1 c9bd
000001b0: c7fc abbc 8b2c 8b3c 595a 443c 09ad a7bd
000001c0: 4bca 14be 3191 50be 3d11 143c cd31 8cbc
000001d0: deb2 b5bc 6d13 c03c cba4 24be 04b2 0e3d
000001e0: 6383 4b3d 0c9e 21be d813 a3bd c1e6 88bc
000001f0: 412a 8f3c e62b acbd b46f c83c 943f e73d
00000200: c044 e83c 3674 d3bd fa98 993d c8ca 013e
00000210: 4840 2c3e baa0 243e ae82 363e fd21 67bd
00000220: e6bb 863d 241a 0d3d b0e4 8a3c 74fe 073e
00000230: 3f5a 5dbd 9151 5a3d e02b e83d f45d 68bd
00000240: bb74 d63d c33b 123e 7efc 8ebc f71f 233c
00000250: f19b 723d 8515 f8ba 36ff 5b3e 9d8b 93bd
00000260: 3810 9bbd db26 533e 0f45 4b3e ac92 dfbd
00000270: c4cc b1bd fff0 eb3c 5960 363d 62e9 9c3d

weight f4 [5, 5]
-0.21047817 -0.3462475 0.046700686 0.28276265 0.13377798 0.3881663 -0.3188339 0.4468614
-0.15896949 0.20372415 0.102847815 0.30087048 -0.32863408 0.32669556 -0.4372491 0.39004958
-0.32087526 0.41981065 -0.26483858 -0.1655601 -0.30564615 -0.17276436 -0.14143145 -0.3313449
-0.3389991
00000000: 9787 57be 5a47 b1be 3849 3f3d 44c6 903e
00000010: 18fd 083e bcbd c63e 323e a3be 04cb e43e
00000020: e6c8 22be 109d 503e e0a1 d23d b20b 9a3e
00000030: ba42 a8be a444 a73e 1ddf dfbe 94b4 c73e
00000040: c349 a4be 6cf1 d63e ec98 87be 9688 29be
00000050: a77d 9cbe 24e9 30be 68d3 10be 0aa6 a9be
00000060: 4a91 adbe

bias f4 [1, 5]
0.0 0.0 0.0 0.0 0.0
00000000: 0000 0000 0000 0000 0000 0000 0000 0000
00000010: 0000 0000

weight f4 [5, 5]
0.41433114 0.32226366 0.052547686 0.47955 0.52049357 0.93480974 -0.04367601 -0.55443716
0.3469218 -0.13292572 0.5706032 0.26084304 -0.42025238 -0.22227642 0.39615336 0.45115313
0.3473397 -0.5393962 -0.31439987 0.38280138 -0.5862514 0.37269956 -0.3106546 -0.19806513
0.29269618
00000000: 3623 d43e beff a43e 3e3c 573d 9487 f53e
00000010: 113f 053f b14f 6f3f 9ee5 32bd 98ef 0dbf
00000020: bc9f b13e ae1d 08be 0d13 123f 388d 853e
00000030: 522b d7be 6e9c 63be 9dd4 ca3e 8bfd e63e
00000040: 82d6 b13e df15 0abf 05f9 a0be 8bfe c33e
00000050: 9214 16bf 7ad2 be3e 1f0e 9fbe 96d1 4abe
00000060: 46dc 953e

weight f4 [5, 16]
-0.014992297 -0.034356296 -0.095018744 0.018069148 0.1870684 0.12471217 -0.1374225 0.1365428
0.092898846 -0.07179859 0.06278163 -0.12834382 0.18289012 0.19340527 -0.0035121143 0.16914359
-0.13778746 0.06453204 -0.12079173 0.03455594 0.18990946 -0.13272488 -0.1859388 -0.05376661
-0.19345328 0.24423474 0.14954239 -0.09185812 0.05757174 -0.08746371 -0.1878525 0.22925523
0.1652526 -0.17008913 -0.16685575 0.048190027 0.24204928 0.18261975 0.03768909 0.17506686
-0.23425868 -0.17987248 0.08895728 0.09607658 0.08366048 0.17452353 -0.19187322 -0.13712561
0.00658828 0.20969191 -0.15615404 0.18960577 0.024328053 -0.068838656 0.09701994 0.052563757
0.18377945 -0.17254156 -0.05391863 -0.1703811 -0.096045256 0.037760854 0.16918784 0.19243625
-0.09219065 -0.12630865 -0.19847777 -0.24257344 -0.11711785 0.008103281 -0.11883867 -0.10231447
-0.24104545 -0.069821686 0.10334021 0.1560489 -0.08083314 0.07945901 -0.16480365 0.054651648
00000000: 40a2 75bc 30b9 0cbd 3099 c2bd c005 943c
00000010: dc8e 3f3e 1869 ff3d 7cb8 0cbe e0d1 0b3e
00000020: c041 be3d 240b 93bd a893 803d 906c 03be
00000030: 8c47 3b3e 080c 463e 802b 66bb fa33 2d3e
00000040: 2818 0dbe 6029 843d a861 f7bd 888a 0d3d
00000050: a077 423e 08e9 07be be66 3ebe 603a 5cbd
00000060: 9e18 46be ac18 7a3e a421 193e 1c20 bcbd
00000070: 58d0 6b3d 2c20 b3bd 685c 40be e2c1 6a3e
00000080: fa37 293e d82b 2ebe 3cdc 2abe e862 453d
00000090: c4db 773e ac00 3b3e e05f 1a3d ba44 333e
000000a0: 82e1 6fbe 7e30 38be 3c2f b63d ccc3 c43d
000000b0: 3056 ab3d 4cb6 323e 6a7a 44be a86a 0cbe
000000c0: 80e2 d73b 7ab9 563e d8e6 1fbe 0428 423e
000000d0: a04b c73c 48fb 8cbd 64b2 c63d 184d 573d
000000e0: ae30 3c3e bcae 30be c8d9 5cbd 6278 2ebe
000000f0: 60b3 c4bd 20ab 1a3d 943f 2d3e 020e 453e
00000100: 74ce bcbd 0e57 01be c23d 4bbe 2c65 78be
00000110: 7cdb efbd a0c3 043c b061 f3bd 408a d1bd
00000120: 9ed4 76be acfe 8ebd 08a4 d33d 48cb 1f3e
00000130: d88b a5bd 68bb a23d 4ac2 28be 68da 5f3d

bias f4 [1, 16]
0.0 0.0 0.0 0.0 0.0 0.0 0.0 0.0
0.0 0.0 0.0 0.0 0.0 0.0 0.0 0.0
00000000: 0000 0000 0000 0000 0000 0000 0000 0000
00000010: 0000 0000 0000 0000 0000 0000 0000 0000
00000020: 0000 0000 0000 0000 0000 0000 0000 0000
00000030: 0000 0000 0000 0000 0000 0000 0000 0000

weight f4 [16, 5]
-1.0195149 -0.3744407 -0.44377667 -0.46759883 0.43395078 -0.38255963 -0.19787562 -0.32226574
-0.45542872 0.020219386 -0.042131312 -0.4523727 -0.51184464 0.13368341 -0.017443843 -0.48312408
-0.6409019 -0.0017872412 -0.15727673 0.27913234 0.038429704 -0.05866989 -0.45546243 -0.39992893
0.049652323 0.15739799 -0.52554965 0.041155677 -0.028330486 0.023350438 -0.40228206 -0.5053667
-0.63057345 0.15015317 0.3291145 0.3028181 -0.43814188 -0.3176885 0.21615821 -0.085979156
-0.016021559 -0.40726158 -0.3510159 -0.3833059 1.0044259 -0.08889245 -0.6608332 0.02538454
-0.21197921 0.8251334 -0.05738006 -0.39239737 -0.008030908 -0.5116877 0.66333634 -0.3950323
-0.77730364 0.28052896 -0.053338178 0.22447446 -0.05103142 -0.7378394 0.177227 -0.085044704
0.5751168 -0.21938829 -0.23726393 -0.16799611 -0.3183721 -0.121512085 -0.10546765 -0.6116825
-0.39223468 0.24748972 0.30128774 0.2667559 -0.3953366 -0.043326125 -0.44921756 0.7851541
00000000: 777f 82bf b1b6 bfbe b236 e3be 1d69 efbe
00000010: cc2e de3e dbde c3be e89f 4abe 0400 a5be
00000020: f42d e9be 20a3 a53c e291 2cbd 659d e7be
00000030: 4008 03bf 4ee4 083e 64e6 8ebc 0a5c f7be
00000040: 2612 24bf dd41 eaba 270d 21be 6fea 8e3e
00000050: 7768 1d3d d74f 70bd 5f32 e9be 7cc3 ccbe
00000060: 3c60 4b3d f02c 213e 6c8a 06bf db92 283d
00000070: 5615 e8bc 6b49 bf3c eaf7 cdbe b65f 01bf
00000080: 436d 21bf c1c1 193e b281 a83e f90a 9b3e
00000090: 2254 e0be 11a8 a2be 9458 5d3e d715 b0bd
000000a0: a53f 83bc 9784 d0be 5bb8 b3be ac40 c4be
000000b0: 0791 803f 3f0d b6bd 5d2c 29bf 3df3 cf3c
000000c0: 1411 59be f13b 533f 5b07 6bbd 4fe8 c8be
000000d0: 1294 03bc f7fd 02bf 69d0 293f ac41 cabe
000000e0: 5ffd 46bf 7ea1 8f3e 2279 5abd a2dc 653e
000000f0: 5206 51bd 0be3 3cbf ff7a 353e eb2b aebd
00000100: db3a 133f 53a7 60be 51f5 72be 2c07 2cbe
00000110: ab01 a3be 54db f8bd 6cff d7bd 3997 1cbf
00000120: fcd2 c8be f26d 7d3e 6342 9a3e 3b94 883e
00000130: 8f69 cabe bc76 31bd d8ff e5be dcff 483f
