neuromancer/datasets/Flexy_air/device_test_models/model3/best_policy_flexy.pth (torch, 36407 bytes, 9 tensors)

weight f4 [64, 30]
000000 a8 91 98 3d 1b 69 8d bd 12 14 2e be 70 f6 1b 3e
       0.07449657 -0.06904813 -0.16999844 0.15230727
000010 18 b4 d7 3d ae b5 80 3d 37 62 bb bd 04 e8 1f 3e
       0.10532397 0.06284653 -0.09149592 0.1561585
000020 d8 32 39 bd 58 e8 bd 3d c8 c7 86 bd ea aa fe bd
       -0.045214504 0.09272832 -0.06581074 -0.12434943
000030 10 83 e3 3d 20 b5 d5 3b d7 ac ef bd 00 5e fa 3d
       0.111089826 0.006521836 -0.117028885 0.1222496
000040 a0 b5 c3 bb 40 db 5d 3b 00 31 20 3c e0 c9 e9 bb
       -0.005972579 0.0033852607 0.0097773075 -0.007134661
000050 20 d0 40 bc ae ea 34 3e 7e 42 14 3e 2a 47 ff bd
       -0.011768371 0.17667648 0.1447849 -0.12464745
000060 0a ce 20 be a4 fe 68 3d 63 fb 16 be ba 7a 18 be
       -0.15703598 0.05688347 -0.14744334 -0.14890566
000070 f8 2e f0 bd f8 c0 92 3c c0 0c df 3c 70 cd 04 bd
       -0.117277086 0.01791428 0.02722776 -0.032422483
000080 65 6b a4 bd dc 56 25 3e ac 51 36 3e ba ed fc bd
       -0.080282964 0.16146415 0.17804593 -0.1235003
000090 08 ac 93 3d f0 39 4d 3d ec 4a 25 3d 58 23 f3 3d
       0.07210547 0.05010408 0.040354654 0.11871976
0000a0 90 9a 09 3c 80 2c 71 bc 68 d6 57 bd a8 9a 5b bd
       0.008398667 -0.014720082 -0.052694708 -0.05361429
0000b0 13 89 06 be 00 44 03 ba 9b ca 39 be 67 18 28 be
       -0.13138227 -0.0005007386 -0.18143694 -0.16415559
0000c0 e0 1e cf bd 2b a2 97 bd f8 a8 b2 bc 17 b9 8b bd
       -0.10113311 -0.07403978 -0.021809086 -0.068224125
0000d0 0c 13 28 3d f4 14 07 3e 40 a2 f5 bc d1 c1 c6 bd
       0.04103379 0.13191587 -0.029984593 -0.09704936
0000e0 80 56 f9 3b d0 4c 24 bc f0 e7 1c 3d fc 67 17 be
       0.0076091886 -0.010028079 0.03830713 -0.1478576
0000f0 00 6e ee 39 88 96 f6 bc a0 42 aa bb f4 72 d7 bd
       0.00045476854 -0.030101076 -0.0051959306 -0.105199724
000100 54 33 a5 3d ad af 1b be 98 8c 1b be 48 77 9f 3c
       0.08066431 -0.15203734 -0.15190351 0.019466057
000110 0e 8f 1b 3e b8 c5 80 3c 9c ee 17 be c8 e6 f3 3c
       0.1519129 0.01571928 -0.14837116 0.029773131
000120 87 1e ed bd d8 1c 1c 3e 8e c2 1e 3e 0c b1 2d bd
       -0.11578088 0.15245378 0.15503904 -0.042405173
000130 20 59 fc bd 95 a0 9e bd b0 ac 58 bc c4 7a ed 3d
       -0.12321687 -0.07745472 -0.013224766 0.11595681
000140 bc 6c f2 3d 80 18 b9 3d cb 27 e6 bd 04 b9 76 3d
       0.11837146 0.09037876 -0.11238059 0.06023504
000150 c8 a3 60 3d cc af a4 3d 68 15 55 3d e0 28 a1 bb
       0.054843694 0.08041343 0.052022368 -0.0049182028
000160 12 89 36 be 38 f5 20 3d 80 62 0f bd ad 39 e3 bd
       -0.17825726 0.03929636 -0.035006046 -0.11094985
000170 fa 36 0b 3e 8c 49 ae 3d 36 31 8f bd 88 aa c8 3c
       0.1359519 0.08510122 -0.06991808 0.024495378
000180 bf 34 b9 bd 58 c2 a7 3c d8 fc de bc c4 1e 8e bd
       -0.09043264 0.020478413 -0.027220175 -0.06939462
000190 40 e2 c2 3b 00 9a 10 3c 98 2c ff bc 8a 18 7b bd
       0.0059473813 0.008825779 -0.031149194 -0.0613027
0001a0 ac b4 90 3d 00 c8 27 39 f3 da cf bd 00 62 2d 3e
       0.070657104 0.00016000867 -0.10149183 0.16931915
0001b0 73 d1 f4 bd 48 08 db bc 0e 7e d3 bd 70 da c6 bc
       -0.11954012 -0.026737347 -0.103267774 -0.024274081
0001c0 c8 0c 86 3d a0 f9 04 3c b0 d4 f9 3d be 99 1a 3e
       0.065454066 0.008116156 0.1219877 0.1509771
0001d0 78 69 97 3d 90 20 4a 3c 4b 49 b8 bd a8 32 1c 3e
       0.073931634 0.012336865 -0.089983545 0.15253699
0001e0 58 a5 ea 3d 78 82 8b 3c 3d 32 a8 bd e0 67 9a bb
       0.11457318 0.017029986 -0.08212707 -0.00471209
0001f0 40 fc 8d 3c a0 30 91 3d 98 12 b1 3d 74 eb 40 bd
       0.017332196 0.070893526 0.086461246 -0.047099546
000200 70 8e 33 3e b8 9f 2d 3e 52 3c 80 3d cc 93 91 3d
       0.17534804 0.16955459 0.06261505 0.07108268
000210 7e eb 83 3d 1e 10 0b be a0 c6 33 be 8e c3 36 be
       0.06441401 -0.13580367 -0.17556238 -0.17848036
000220 46 72 16 3e c8 8a 59 3d 20 53 ac bc d0 31 c8 3c
       0.1469203 0.053110868 -0.02103573 0.024437815
000230 d8 f1 e0 3d 09 c4 36 be 9c 85 6a bd ee a0 16 be
       0.10983628 -0.17848219 -0.057256326 -0.14709827
000240 20 32 c4 3d bc 10 0e 3e da d4 71 bd 82 e2 d8 bd
       0.09579873 0.13873571 -0.05904088 -0.10590078
000250 bc 7f 2b bd 2c fe 02 be d8 e2 66 3d 63 3d 03 be
       -0.041869864 -0.12792271 0.05636868 -0.12816386
000260 10 4a 21 bd 82 c3 10 be 38 ac 7d 3d 94 e8 ab 3d
       -0.039377272 -0.1413708 0.06193182 0.0839397
000270 58 dc 88 bc a9 6b 93 bd de dd 36 3e f8 08 aa 3c
       -0.01670663 -0.07198269 0.17858073 0.02075623
000280 14 ff 97 3d 94 92 04 bd 1a 2b 15 be d8 2f 18 bd
       0.07421699 -0.03236635 -0.14567223 -0.037155002
000290 20 d0 ea 3b e4 fb c6 3d 72 4d e9 bd 19 cc 26 be
       0.0071659237 0.09716013 -0.11391725 -0.16288795
0002a0 f8 1b 3d bd fe 18 26 3e e0 d2 3f bc f8 09 0e 3d
       -0.04616925 0.16220471 -0.011707991 0.034677476
0002b0 0c 21 24 bd 00 2a 24 3b 10 1d 24 3c 70 48 7c 3d
       -0.04007058 0.0025049448 0.010016695 0.06159252
0002c0 fe f2 31 be a8 15 97 3d 6c c8 0e 3e c0 0d f6 bc
       -0.1737785 0.073771775 0.13943642 -0.030035853
0002d0 30 46 a2 3d 85 64 23 be f8 a4 d8 3c 10 85 2b bd
       0.079235435 -0.15956314 0.02644585 -0.041874945
0002e0 aa 37 aa bd 70 4a 27 be c0 7b 34 bc 30 58 1a 3d
       -0.08311398 -0.1633699 -0.011015832 0.03768176
0002f0 d8 78 fe bd 62 25 04 be 06 9a 15 3e d8 89 89 bd
       -0.12425393 -0.12904885 0.14609537 -0.06715745
000300 ce b2 8c bd 3c a2 54 3d 50 fc 0d bc e8 29 e3 3d
       -0.06870042 0.05191253 -0.008666113 0.11091977
000310 ba 71 34 be 5c d7 4d bd 9c b5 2c bd 18 ac 10 be
       -0.17621508 -0.05025421 -0.042165384 -0.14128149
000320 28 49 10 3e 46 dc 1b be 00 5c fd 3b 2c aa 8a 3d
       0.14090407 -0.15220746 0.0077319145 0.06770739
000330 e0 f2 f9 bd f8 6e c2 3d 39 c9 ce bd 5c fd 1b 3e
       -0.12204528 0.09493822 -0.10096974 0.15233368
000340 93 36 39 be 98 d5 a3 3d 80 5d bc ba 68 6a cc 3c
       -0.18087225 0.07999724 -0.0014371127 0.024953082
000350 73 a4 b2 bd d4 c5 0c be e0 e5 d2 bc 8c 3e b8 bd
       -0.087227724 -0.1374734 -0.025744379 -0.08996305
000360 84 97 18 be 0c c1 57 3d e0 fc 69 3d 5c 0f 12 bd
       -0.14901549 0.05267434 0.057125926 -0.03565918
000370 14 45 01 bd 42 e3 14 3e 2f 6f bd bd ac c7 1e bd
       -0.03156002 0.14539817 -0.09249722 -0.03876464
000380 f8 1f b4 3d cc 3c af 3d 8c 3c cb 3d b9 5e 86 bd
       0.0879516 0.08556518 0.09923658 -0.06561036
000390 9a 41 0c be 38 a4 28 3e 00 a5 13 3e 70 3c f7 3d
       -0.136969 0.16468894 0.14418411 0.120720744
0003a0 46 a7 d8 bd 56 9a d5 bd 90 4e f1 3d fa ee 1a 3e
       -0.1057878 -0.10429828 0.11782563 0.15130225
0003b0 7a 57 18 be c0 41 24 3b d8 56 8e bc c0 e5 79 3b
       -0.1487712 0.0025063604 -0.017375395 0.0038131326
0003c0 c0 4f 1d 3e a4 dc 00 be 40 1f d5 bc 8c 58 2e 3e
       0.15362453 -0.12584168 -0.026015878 0.17025965
0003d0 0a c8 0d 3e 00 00 a2 3a 00 a5 71 bc d2 31 c2 bd
       0.1384584 0.0012359619 -0.014748812 -0.09482159
0003e0 50 89 10 3e 20 f9 46 bc 68 88 aa bc c4 47 eb 3d
       0.1411488 -0.012144357 -0.020816997 0.114882976
0003f0 c3 e5 b8 bd fd 6e 0a be b4 08 15 be b8 41 44 bd
       -0.090281986 -0.13518901 -0.14554101 -0.047914237

bias f4 [1, 30]
000000 00 00 00 00 00 00 00 00 00 00 00 00 00 00 00 00
       0.0 0.0 0.0 0.0
000010 00 00 00 00 00 00 00 00 00 00 00 00 00 00 00 00
       0.0 0.0 0.0 0.0
000020 00 00 00 00 00 00 00 00 00 00 00 00 00 00 00 00
       0.0 0.0 0.0 0.0
000030 00 00 00 00 00 00 00 00 00 00 00 00 00 00 00 00
       0.0 0.0 0.0 0.0
000040 00 00 00 00 00 00 00 00 00 00 00 00 00 00 00 00
       0.0 0.0 0.0 0.0
000050 00 00 00 00 00 00 00 00 00 00 00 00 00 00 00 00
       0.0 0.0 0.0 0.0
000060 00 00 00 00 00 00 00 00 00 00 00 00 00 00 00 00
       0.0 0.0 0.0 0.0
000070 00 00 00 00 00 00 00 00
       0.0 0.0

weight f4 [30, 64]
000000 3e 46 99 bc 40 53 31 3d 82 f8 bd bd 96 e7 08 3d
       -0.018710252 0.043292284 -0.09275915 0.033423983
000010 cc bf 97 3d 1d f9 0d be 2d 85 7d bc ef 81 89 3d
       0.07409629 -0.1386456 -0.015473646 0.06714236
000020 97 cc f7 bd 42 4f 82 bd 70 79 c3 bd 56 dc bd bc
       -0.12099569 -0.063627735 -0.09544647 -0.023176353
000030 0d 0f a9 bd bf 6d d2 3b e1 fc 0f be 4a 0e d2 bd
       -0.08254824 0.006421774 -0.1406131 -0.10256632
000040 ef 0e 78 3d 8f 28 3a 3d ff ce 4b bd e7 aa 92 bd
       0.060561117 0.045448836 -0.049757954 -0.07161503
000050 92 1e df bc 05 46 57 bc f0 7c 39 bd cd 53 28 be
       -0.027236257 -0.013139253 -0.045285165 -0.16438217
000060 96 b7 2f be ad 1b 1e be aa b4 2a be c3 e9 2a be
       -0.17159876 -0.15440245 -0.1667048 -0.16690736
000070 94 f9 16 be b0 eb bd 3c 5d ba 22 be 15 11 f6 bd
       -0.14743644 0.023183674 -0.15891404 -0.12014977
000080 67 e0 91 3c 33 84 8d 3c 98 c1 a5 bd df 71 39 bc
       0.017807199 0.017274952 -0.08093566 -0.011318653
000090 ad 2c 42 3d 69 0c 11 3c 3a 59 10 be 75 37 65 bd
       0.047405887 0.0088530565 -0.14096537 -0.05596109
0000a0 55 dc 30 be 26 0c 95 3b e2 93 a7 bd 31 84 dd bd
       -0.1727155 0.0045485673 -0.08182503 -0.10816229
0000b0 83 1e 1f be 84 85 67 bd 87 8d 12 3c 41 7f 8b 3d
       -0.15538983 -0.056523815 0.008944876 0.06811381
0000c0 18 a6 93 3d 5d fc 9b bd e6 8b 8f 3c 0f 19 bb bd
       0.07209414 -0.07616494 0.017522763 -0.09135639
0000d0 89 ca 10 be 3f f9 30 3d ea 27 46 3c 31 2a 6d 3d
       -0.14139761 0.04320645 0.012094477 0.057901565
0000e0 f6 13 4e bc 64 c1 9d bc 16 37 07 be f0 34 b7 bd
       -0.012578001 -0.019257255 -0.13204607 -0.08945644
0000f0 9b 93 90 bc 45 4a 2e bd b1 83 cb 3b 61 18 5b bd
       -0.017648509 -0.042551298 0.006210767 -0.053490046
000100 e7 33 4f 3d c7 cc 2b 3d 35 1d 44 bd 90 fd 99 bd
       0.050586607 0.041943338 -0.047879416 -0.07519066
000110 46 8f 97 bd bc 1e 9a 3d a1 6a 82 bb 09 52 45 bc
       -0.07400374 0.07525393 -0.0039799963 -0.0120434845
000120 7d 8f 67 bd 2d c0 87 3d 8c 9b 08 3e 74 47 21 bc
       -0.056533325 0.066284515 0.13340586 -0.009843696
000130 8f 83 d3 3d a3 4a e4 bc 65 6c 42 3d dd 9b ca bd
       0.10327827 -0.02786762 0.047466654 -0.0989301
000140 bb 48 0b 3d 5c ca db bd f7 54 7f bc 41 e0 e2 bd
       0.034004908 -0.10731956 -0.015584222 -0.11077929
000150 61 75 34 bc a4 22 c0 bd 28 1d ab 3d a9 7f 88 3d
       -0.011014313 -0.09381607 0.083551705 0.06664974
000160 99 b3 7e bd 82 b6 1c bc ba ef 82 3c 45 e9 02 bd
       -0.062182996 -0.009564998 0.015983451 -0.031960744
000170 50 a5 27 3d 00 59 da bc 29 03 9f 3d 01 38 e2 bd
       0.04092914 -0.026653767 0.077642746 -0.11045838
000180 8a dd f2 3d 44 fe a3 3d a9 3a 58 bd 17 50 8e 3d
       0.118586615 0.08007482 -0.052790318 0.0694887
000190 1a f0 74 3d ee 45 2d 3e 78 fb db 3d a4 fd 7b 3d
       0.05979929 0.16921207 0.10741323 0.061521187
0001a0 ce 46 48 bd 48 79 04 bc ea 59 e2 3c ca 2a d5 3d
       -0.04889565 -0.008085556 0.027630765 0.10408552
0001b0 f7 e5 2e 3e e5 b7 8c bc d8 e6 bb bc 11 94 0a 3e
       0.17079912 -0.017177531 -0.022937223 0.13533045
0001c0 1c 5b 90 bc bf 0d 74 bd ae 8b b2 3d 8a 95 c2 bc
       -0.01762157 -0.05958342 0.08718048 -0.023752946
0001d0 1b 3c 92 3d fb 45 22 3e 4f 09 6b 3d 50 1b 89 3b
       0.071403705 0.15847008 0.057381924 0.004184164
0001e0 b4 fc ad 3d fd 78 21 3e c0 68 7c 3d 50 67 59 3d
       0.08495465 0.1576881 0.061623335 0.053077042
0001f0 63 f8 3d 3d ae fd c1 3d 42 bd ab 3d 72 6c 26 3e
       0.04637946 0.09472214 0.083857074 0.16252306
000200 a4 b5 cd 3d 5d f1 bc bd c1 f5 c7 bd a3 31 ec 3d
       0.10044411 -0.09225724 -0.09763671 0.11532905
000210 9c d8 cc 3d 1a a1 0f 3e de 0a dd 3c f0 3a f7 bc
       0.100022525 0.14026299 0.026982721 -0.03017947
000220 4f f1 15 bd 05 e5 89 3d 1c 45 cf 3d 94 03 cc bd
       -0.036607083 0.06733135 0.101206034 -0.0996162
000230 4a 8e ae bd 3d f5 6e 3d ec 28 9b 3d 77 de c7 3b
       -0.08523233 0.058339346 0.075761646 0.006099518
000240 97 ac f8 3c 86 9d 04 3e ac 4f 2d 3d ed 2c a8 bd
       0.030355735 0.12950715 0.04231231 -0.08211694
000250 46 d5 b7 bd 8a 55 f0 bc 22 26 4b 3c b9 18 24 3d
       -0.089762256 -0.029337663 0.012399228 0.04006264
000260 6f 64 96 bc f4 97 80 3d 69 93 dc 3c 63 c3 46 3d
       -0.018358437 0.06278983 0.02692576 0.04852618
000270 b2 07 08 be 94 f7 63 bd cc a6 b9 bd 64 e2 05 be
       -0.13284186 -0.05565603 -0.09065017 -0.13074642
000280 b2 af dd bb d6 79 e2 bc 37 76 94 3c f0 69 2d 3e
       -0.0067653293 -0.027645987 0.018122775 0.16934943
000290 5d 75 5b 3d 6e 5f 10 bd 29 2f f5 3d 1a ff 3c bc
       0.053578723 -0.03524726 0.11971886 -0.01153543
0002a0 c1 2e 14 3e f2 5c 91 bd 6f a5 d0 bb ce db 24 3d
       0.1447096 -0.07097806 -0.0063673775 0.040248685
0002b0 e6 c7 16 bd c8 e6 c7 3d f1 f0 0c bb 29 ca 0e 3e
       -0.03681173 0.09760815 -0.0021505917 0.13944305
0002c0 43 6c b4 3d 57 c0 2b bc 1f 34 54 bd 68 fa 58 3b
       0.08809712 -0.010482869 -0.05180752 0.0033108238
0002d0 e3 4f ef 3d 43 11 92 bd 95 f7 e1 3d a6 90 15 3e
       0.11685159 -0.07132199 0.11033551 0.1460596
0002e0 c1 e8 0f 3e d9 d0 d9 3d 56 8d 2b 3e ed d7 ef 3d
       0.14053632 0.10635538 0.16753134 0.117111064
0002f0 68 40 06 3e 2c a0 9f 3d 8a 7f 0a bd eb 28 98 3c
       0.13110507 0.07794222 -0.033813037 0.018574199
000300 75 b6 e2 3d b0 95 a7 bd f7 d7 12 3e ec 9a 84 bd
       0.11069957 -0.081828475 0.14340197 -0.064748615
000310 3b 80 e7 3c fa 2b d0 3b fc 89 d2 3c 89 13 94 bd
       0.028259387 0.0063528987 0.025700562 -0.072302885
000320 22 7b ab bd b4 d7 1d bd 20 9e 83 3d 61 dc dd 3d
       -0.08373095 -0.03853579 0.06426644 0.108330496
000330 fa b9 df 3d 17 14 9f bd d6 5a b9 bd 8c 5d 7b bc
       0.10924144 -0.07767504 -0.09050529 -0.0153421275
000340 cc 9d b1 bc 8b dc 24 3d 1a 4d bd 3d 6f c2 1a 3d
       -0.021681689 0.04024939 0.092432216 0.037783083
000350 fe c4 cb bd f6 48 fe 3d 35 8f df bd 0b b9 ec bb
       -0.09949683 0.1241626 -0.109159864 -0.0072242073
000360 39 22 8c 3c c3 b3 97 bc c1 ca a0 3d 98 87 91 3c
       0.017106162 -0.018518334 0.07851172 0.017764851
000370 6a cd d6 3b 4e 0e df 3c f5 fa 70 bd 0a d6 9b 3d
       0.006555249 0.0272285 -0.05883308 0.07609184
000380 d9 78 29 3d 4c 88 29 3e 62 f3 c9 3d 11 0c 20 ba
       0.041375015 0.165559 0.09860875 -0.00061053137
000390 20 f9 14 3d 05 40 74 3a d8 b4 59 3d 9d f6 e2 3d
       0.036370397 0.0009317401 0.05315098 0.11082194
0003a0 79 d6 19 bd b1 bb 27 3e be f8 24 3d 82 78 f9 3d
       -0.037558053 0.16380192 0.04027628 0.12181188
0003b0 a3 c2 76 3d ee 84 c4 3d bb a7 08 3e 51 5a 3f bd
       0.060244214 0.09595667 0.13345234 -0.04671699
0003c0 c7 37 05 bd 30 e3 16 3e b0 f2 24 bc 61 47 14 3e
       -0.032523897 0.14735103 -0.010067627 0.14480354
0003d0 6d 27 09 bd 66 24 bd 3d 5d bb 34 3e 15 37 26 3e
       -0.033484865 0.09235458 0.17649598 0.1623195
0003e0 e4 e5 70 bb 07 2b 6a bd c8 f6 1b 3e 94 c2 85 3d
       -0.003675812 -0.05716994 0.15230858 0.065312535
0003f0 06 45 07 3d 2f e6 84 3d 3c 63 69 bd 65 24 c3 3d
       0.03302481 0.064892165 -0.056979403 0.09528426

weight f4 [30, 30]
000000 24 f7 2d 3d 80 09 8f bd d7 20 ad bd c0 6f ee 3d
       0.04247202 -0.06984234 -0.08453529 0.11642408
000010 ae 5d e0 bd 29 7d 36 be 3c c9 99 bd 28 e0 bc 3d
       -0.10955368 -0.17821182 -0.075090855 0.09222442
000020 44 f0 b0 bd 90 c7 f0 3c 9e b3 34 3e 18 6c 8e 3d
       -0.08639577 0.029392034 0.17646644 0.06954211
000030 79 24 99 bd 95 ac e6 bd 7c 0b dd 3d 38 85 b6 3d
       -0.0747766 -0.11263386 0.10793206 0.08912128
000040 c8 a5 0d 3d 61 b5 1f be fa 77 a6 bd 80 50 d3 bc
       0.03458193 -0.15596534 -0.081283525 -0.025795221
000050 ff fb 31 be a5 0c cd bd 10 5a 1d bc 68 c3 bf 3d
       -0.17381285 -0.100121774 -0.009603992 0.09363443
000060 a8 38 1e 3e 7d 5a c2 bd 76 c0 12 3e 64 41 05 bd
       0.154513 -0.094899155 0.1433123 -0.032533064
000070 40 12 c9 3d 83 05 94 bd d8 e0 2c 3e 00 bd 0f bd
       0.09817934 -0.07227614 0.16882646 -0.035092354
000080 94 10 89 3d a0 c6 31 3d 74 56 f6 3d 1b 29 02 be
       0.06692615 0.043402314 0.120282084 -0.12710993
000090 e4 94 27 3d 7f ab 03 be 68 3e e4 bc 90 6f 94 bc
       0.040913478 -0.1285839 -0.027861789 -0.018119603
0000a0 f8 91 65 bd 9e 63 70 bd 54 99 cd 3d ca b2 ca bd
       -0.05604741 -0.058688752 0.10039011 -0.098973826
0000b0 44 c6 17 3e 78 3f 20 3e dd 61 d5 bd 34 b0 f8 3d
       0.14821726 0.15649211 -0.104190566 0.12142983
0000c0 c3 ef 8f bd fc d4 1a 3e 37 49 36 be b8 2a fd bc
       -0.07028153 0.1512031 -0.17801367 -0.030904159
0000d0 54 48 04 3e 28 dd 0c bd 28 ea 1f be 7c 7c 24 3e
       0.12918216 -0.0343906 -0.15616667 0.16063112
0000e0 ad 39 27 be bc ee 27 3e 3c 98 63 bd c8 a8 c5 3d
       -0.16330595 0.16399664 -0.055565104 0.09651333
0000f0 50 db f3 3d ce 0f 25 3e 8b 68 25 be 54 9f 6a 3d
       0.11907065 0.1611931 -0.16153161 0.057280853
000100 8e 23 26 3e 54 0c 03 3e a2 1b 35 3e 4c 9b 63 3d
       0.162245 0.12797672 0.17686322 0.055568025
000110 98 31 d9 3c c0 6a af 3d 6d aa ce bd 9a 3e 36 be
       0.026512906 0.08565283 -0.100911 -0.17797318
000120 84 27 2f be 78 79 16 bd b4 06 1c 3e 1e 3e e0 bd
       -0.17104918 -0.036736935 0.15236932 -0.10949348
000130 c1 e0 39 be aa 0a 25 3e 58 2e 9d 3c 5c d4 46 3d
       -0.18152143 0.1611735 0.019187137 0.048542365
000140 f4 13 e4 bd 3e cd ab bd 50 64 9b bc a8 27 05 bd
       -0.11136618 -0.08388756 -0.018968731 -0.032508522
000150 74 35 c1 3d 9d f0 aa bd 4a 21 84 bd 58 ad 4d 3d
       0.094340235 -0.083466746 -0.06451662 0.05021414
000160 ae 78 21 be 20 45 83 3b 3e 31 e3 bd 26 c4 15 be
       -0.15768692 0.004006043 -0.110933766 -0.14625606
000170 04 39 bb 3d 84 3b 36 be 98 da ff 3d a6 db 98 bd
       0.09141734 -0.17796141 0.12492865 -0.074637696
000180 e9 9e 23 be 9c 0b e0 bd 50 76 0c bd f4 80 5c bd
       -0.15978588 -0.10939714 -0.03429252 -0.053833917
000190 78 48 82 3d 8e 6a 6d bd 72 50 f6 bd f8 2d f1 bd
       0.063614786 -0.057962947 -0.120270625 -0.11776346
0001a0 d4 b4 2b 3e d5 2f 89 bd c4 5e f0 3d 60 3b c5 3d
       0.16768199 -0.06698576 0.11736825 0.096304655
0001b0 60 4a a4 3b de de 0c be 70 3a cc 3c 41 f3 9d bd
       0.005013749 -0.13756892 0.024930209 -0.077124126
0001c0 68 d2 2d 3e f8 4c 3d bd f6 06 2e 3e 78 f4 4e bd
       0.16974795 -0.04621598 0.16994843 -0.050526112
0001d0 d0 e3 61 3c e8 a8 2f 3e fc 95 16 3e 40 89 27 3d
       0.013787225 0.17154276 0.14705652 0.040902376
0001e0 91 20 82 bd a0 0d fa bd 14 d7 7d bd 16 a5 30 be
       -0.06353868 -0.1220963 -0.061972693 -0.17250475
0001f0 cf ac cd bd ac 08 27 bd 74 f0 22 3e f3 1a f9 bd
       -0.10042726 -0.040779755 0.15912038 -0.12163343
000200 a8 8b 78 3d 40 54 0b 3e db b3 8c bd ba f4 30 3e
       0.06068006 0.13606358 -0.06870242 0.17280856
000210 6c d3 ce 3d 89 d7 af bd e8 fa d4 3c 00 ae 21 3c
       0.10098919 -0.08586032 0.025998548 0.009868145
000220 04 0e e0 3d 38 1f f4 3d e8 bf ca 3d d7 d8 37 be
       0.10940173 0.11920017 0.098998845 -0.17953812
000230 f5 e2 1d be 68 d0 a2 3c f4 dc 1c 3e e2 6f 88 3d
       -0.15418608 0.019874766 0.15318662 0.06661965
000240 60 98 b9 3c b4 c2 7d bd 2c 81 73 3d 4c ba 0e bd
       0.022655666 -0.06195326 0.05944936 -0.034845635
000250 22 64 18 be 0e ec 9a bd ee 9f 14 be eb 8c f8 bd
       -0.14881948 -0.07564555 -0.14514133 -0.12136253
000260 e3 84 a8 bd 26 b0 c5 bd b0 9b 53 bc 04 a1 d3 bd
       -0.08228471 -0.09652738 -0.012915537 -0.10333446
000270 18 21 fc 3d 9c 72 f4 3d b4 54 9c 3d 40 fd 00 be
       0.12311 0.119359225 0.07633343 -0.12596607
000280 d3 43 23 be 00 2b 74 bc 8c 85 55 3d 67 d5 88 bd
       -0.15943842 -0.01490283 0.052129313 -0.06681328
000290 88 d9 90 bc 3e e7 3a 3e 78 86 ac bc d0 1f c2 3d
       -0.017681852 0.18252274 -0.021060213 0.09478724
0002a0 c4 5a 1d 3e fe fa 81 3d e0 e1 0f 3e a7 5c 8f bd
       0.15366656 0.06346701 0.14051008 -0.07000094
0002b0 90 77 82 bc 06 9e 30 3e ec ae 74 bd 34 4b e3 bd
       -0.015926152 0.17247781 -0.05973713 -0.11098328
0002c0 72 fb 07 3e 6e 79 fc bd c0 43 87 bb e2 12 29 be
       0.13279513 -0.123278484 -0.0041279495 -0.1651111
0002d0 d4 aa 1f 3d 20 85 95 3d 07 90 be bd 38 54 c6 3d
       0.038981274 0.07300782 -0.09304815 0.09684032
0002e0 08 41 5d 3d 10 f7 da bc 18 79 a0 bc e8 22 39 bd
       0.054017097 -0.026729137 -0.019588992 -0.045199305
0002f0 d8 dc 9c 3d e7 48 15 be 18 d0 30 bd d1 dc c0 bd
       0.0765931 -0.14578591 -0.043167204 -0.094171174
000300 88 48 be bc f8 80 e4 3d 98 6f 90 bc e8 df e5 3c
       -0.023227945 0.11157411 -0.017631337 0.028060868
000310 95 73 98 bd 00 5f 5d 3b 35 0a c4 bd df e2 cd bd
       -0.074439205 0.0033778548 -0.09572259 -0.10053038
000320 69 c5 c2 bd a4 62 38 3d d6 14 2e be 78 1e 18 be
       -0.09510309 0.045015946 -0.17000136 -0.14855373
000330 16 6c 0c be e0 83 c7 3d 68 09 f7 bc e8 f6 7c 3d
       -0.13713107 0.0974195 -0.030155852 0.061758906
000340 84 0d 12 3e 91 b7 e9 bd 26 1c 88 3d 1f d4 dc bd
       0.14262968 -0.11411966 0.06645994 -0.107826464
000350 1a 8f 0c 3e 68 94 e2 3d 50 d6 6b bd fc 1a ff 3d
       0.13726464 0.110634625 -0.05757743 0.12456319
000360 00 25 73 ba 3e 87 2d be 89 34 a9 bd 62 ba fa bd
       -0.0009275228 -0.16946122 -0.082619734 -0.12242581
000370 1e 65 14 3e 00 de b1 3b f8 24 d0 bc e8 4e dc 3d
       0.14491698 0.005428076 -0.025408253 0.10757238
000380 4e cf 3a be 10 80 30 be 27 6f be bd 80 99 83 bc
       -0.18243143 -0.17236352 -0.092985444 -0.016064405
000390 69 51 30 be 31 36 11 be a4 c1 33 be 77 29 8c bd
       -0.17218556 -0.14180829 -0.17554337 -0.06843846
0003a0 58 65 23 3d 80 0a 17 3d 9b 53 19 be 00 b6 8c b9
       0.03989157 0.036875248 -0.14973299 -0.0002683848
0003b0 a2 9e a2 bd aa f4 01 3e 5d fa d6 bd 14 4e 13 3d
       -0.07940413 0.12690988 -0.10496972 0.035963133
0003c0 2d 8d b7 bd 98 81 ea 3d 0a 7c 08 3e 3c c2 52 3d
       -0.08962474 0.11450499 0.13328567 0.051454768
0003d0 e0 38 30 be 9c 3f da 3d a8 40 6b bd fc d4 04 be
       -0.17209196 0.10656664 -0.057434708 -0.12971872
0003e0 7c c2 09 bd 41 9d b4 bd b0 5a a2 bc e0 18 28 3e
       -0.03363274 -0.08819056 -0.019818634 0.16415739
0003f0 9c f1 58 bd dc 05 0a 3d d7 89 23 be ac 35 36 bd
       -0.05296479 0.033696994 -0.1597055 -0.04448478

bias f4 [1, 30]
000000 00 00 00 00 00 00 00 00 00 00 00 00 00 00 00 00
       0.0 0.0 0.0 0.0
000010 00 00 00 00 00 00 00 00 00 00 00 00 00 00 00 00
       0.0 0.0 0.0 0.0
000020 00 00 00 00 00 00 00 00 00 00 00 00 00 00 00 00
       0.0 0.0 0.0 0.0
000030 00 00 00 00 00 00 00 00 00 00 00 00 00 00 00 00
       0.0 0.0 0.0 0.0
000040 00 00 00 00 00 00 00 00 00 00 00 00 00 00 00 00
       0.0 0.0 0.0 0.0
000050 00 00 00 00 00 00 00 00 00 00 00 00 00 00 00 00
       0.0 0.0 0.0 0.0
000060 00 00 00 00 00 00 00 00 00 00 00 00 00 00 00 00
       0.0 0.0 0.0 0.0
000070 00 00 00 00 00 00 00 00
       0.0 0.0

weight f4 [30, 30]
000000 07 eb 73 bd cc 74 73 3c cf 2e 05 be 57 18 1b be
       -0.05955031 0.0148593895 -0.13006137 -0.15146004
000010 8c 46 9f 3d 74 40 ba bd 83 82 5a 3e c4 ef 8e bc
       0.077771276 -0.09094325 0.21338849 -0.017448314
000020 af 4b 3f 3e 3d 22 af bd 84 19 63 3e d2 c7 bc 3d
       0.18681215 -0.08551452 0.22177702 0.092178
000030 ef 90 05 3e b6 9c d6 bd 82 e1 ab 3d 49 90 6e 3d
       0.13043569 -0.10479109 0.083926216 0.05824307
000040 60 e6 66 bd b7 ed 9c 3c f0 77 21 be 3e 96 30 be
       -0.056372046 0.01915632 -0.15768409 -0.17244813
000050 e2 50 f9 3d 34 20 e1 bc 3a f4 88 3d 30 2b 0f 3e
       0.1217363 -0.027481176 0.066872075 0.13981318
000060 da 06 23 be 10 65 35 3e 81 d0 db 3d fa f8 42 3c
       -0.15920582 0.17714334 0.10733128 0.011900181
000070 bc 83 5d 3d 11 fe 4e 3e 4b 6e fe 3d 11 ad 8f 3d
       0.05408071 0.20214106 0.124233805 0.07015432
000080 05 30 22 bc 6d 08 ea 3d 84 da cf 3d 27 f4 ca bd
       -0.009899144 0.11427388 0.101491004 -0.099098496
000090 f5 9a 4b be 6f 46 fe bd 15 37 b9 3d bc 1b b6 bd
       -0.1988333 -0.12415778 0.09043709 -0.08892009
0000a0 cf 90 8c bc 68 66 68 3d ea ce 1f bc 05 1f 52 be
       -0.017158894 0.056738287 -0.009753922 -0.20519646
0000b0 a5 7a 3e be bb 71 a2 bc 0f 2f 8e bd ca 64 15 bb
       -0.18601473 -0.019829622 -0.069425695 -0.002279567
0000c0 5a dd 43 be 6a d1 72 3e b4 5b c2 bd 16 f5 8e 3d
       -0.19127408 0.23712698 -0.09490147 0.0698034
0000d0 f9 bb 0b 3e 53 29 ff bd a5 43 4a 3e b9 a4 6a be
       0.13645925 -0.12459054 0.19752367 -0.22914399
0000e0 11 c8 3e be c6 fc 2c bd 4e 85 46 3e 28 e6 f9 bd
       -0.18631007 -0.04223325 0.19386789 -0.12202102
0000f0 bd 53 cf 3d ae de f2 bd 27 94 ba 3d f7 0f 33 bd
       0.10123394 -0.11858879 0.09110289 -0.043716397
000100 55 fc 9e 3d 8a 03 34 3e 88 73 c6 3c af ef f3 3d
       0.07762972 0.17579475 0.024225011 0.119109504
000110 6c 7c f2 3d 84 8b 1d 3e 01 51 71 3e 7a 4a 25 3e
       0.11840138 0.15385252 0.23566057 0.16141692
000120 92 7c 8b bd 35 4b fa 3d 8e 2c c3 bd 1a d6 1b 3d
       -0.06810869 0.12221376 -0.095299825 0.03804598
000130 0a f9 59 3e 52 5a bf 3d 86 32 a5 3d ca 10 01 be
       0.21286407 0.09343399 0.08066277 -0.12604061
000140 01 23 82 bc 13 5f 04 3d 51 3f 75 bd 80 9f d7 3d
       -0.015885832 0.032317232 -0.059874836 0.10528469
000150 5e ed 26 3e 8c eb fc bd cd b0 23 3e 0b 0d 40 be
       0.16301486 -0.123496145 0.15985413 -0.18754975
000160 fb 32 49 bb a8 aa 92 3b 53 9a 54 3e f5 79 48 be
       -0.0030700553 0.00447591 0.20761995 -0.19577773
000170 af 25 d2 bd 5b e3 2f be 46 89 a7 3d f8 b8 8b bc
       -0.10261094 -0.17176573 0.0818048 -0.017055973
000180 31 27 32 3e c2 e4 03 3d 19 2b f5 3d b4 3d af 3d
       0.17397763 0.032200582 0.11971111 0.08556691
000190 95 ef 4b 3d 56 42 b1 bd 24 e2 98 bd 80 55 80 3d
       0.04978903 -0.08655231 -0.07465008 0.06266308
0001a0 27 a6 8b bd c3 d6 3d bc 9d 04 64 3e 8d 10 50 be
       -0.068188004 -0.011586848 0.22267385 -0.20318814
0001b0 89 1c 08 3e 53 c2 5d be 3f 94 20 be 86 73 a5 bd
       0.13292135 -0.2165616 -0.15681551 -0.08078675
0001c0 49 93 a3 3d 15 03 f3 bd a4 0e 88 bd be ff 2b 3e
       0.07987077 -0.11865822 -0.066434175 0.16796777
0001d0 ad e4 8a 3c 7f bd 17 3e 94 a6 04 3d b7 4c 32 bd
       0.016954744 0.14818381 0.032385424 -0.043530192
0001e0 d9 10 17 3e 4a d3 a2 bd 17 a4 45 bd 93 b3 93 bc
       0.1475252 -0.079504564 -0.04825219 -0.018029964
0001f0 9a 99 ef bd 5a ff 81 3d 3f 8e 1d 3e d1 51 ae ba
       -0.11699219 0.063475326 0.15386294 -0.001329953
000200 5f c3 6a 3e f4 84 a8 3d 27 29 4f 3e 22 49 2f 3e
       0.2292609 0.08228484 0.20230542 0.17117742
000210 7b 8b 07 3e 03 86 ab bd 89 34 a4 bc ce 26 39 3e
       0.13236801 -0.0837517 -0.020044582 0.18081209
000220 ba f1 70 3e b6 4f 50 be 92 a5 b6 3d 3f 93 f7 3d
       0.23529711 -0.20342907 0.08918299 0.12088632
000230 50 a0 02 be 51 cf 20 3e 5b 46 39 3e 60 bc 0c be
       -0.12756467 0.15704085 0.18093245 -0.13743734
000240 e5 0f a1 3b 9f b8 c3 3d 79 f4 db bc 38 ae c5 3d
       0.004915225 0.09556698 -0.026849972 0.0965237
000250 aa 9f 09 be db e0 85 3d 34 25 0e be 17 67 c4 3d
       -0.13439813 0.065370284 -0.1388138 0.09589975
000260 e2 1a 99 3b c0 03 c5 3c 89 9a da 3d 95 79 14 bd
       0.004672394 0.02404964 0.106740065 -0.036248762
000270 55 02 cc 3d 42 0a 09 be 4e 8e c0 3d 10 4a d1 bd
       0.09961382 -0.1338282 0.094021425 -0.102192044
000280 a6 77 cd bd 98 38 75 3d e4 cc 7e bd a5 6e 34 be
       -0.10032587 0.059868425 -0.062207118 -0.17620333
000290 7e 79 1b be 13 c2 52 3d e5 7d 46 bd e8 15 b8 3d
       -0.15183064 0.051454615 -0.048459906 0.08988553
0002a0 96 ed de 3c e4 6d c4 bd 6c 91 b9 bd 7d 02 11 3d
       0.0272129 -0.095912725 -0.0906094 0.035402764
0002b0 c1 a4 0b 3e 17 52 20 3e bd c5 7d 3c 19 6d 94 bd
       0.13637067 0.15656315 0.015489039 -0.07247371
0002c0 9b d5 28 be a7 45 0c bd 6e 82 04 3d 9b e7 64 3c
       -0.16487734 -0.034246113 0.03235095 0.013971235
0002d0 03 c6 11 3e 28 0e 2d bc 35 fe a2 bc 56 75 46 be
       0.14235692 -0.010562457 -0.019896606 -0.19380698
0002e0 1d b5 2a 3e fa 9f 94 3a 46 36 0f bd b0 61 25 3e
       0.16670652 0.0011339181 -0.03496387 0.16150546
0002f0 c4 49 f9 3d 0e ec a1 3c 6b 60 43 3e c1 2a 3d 3e
       0.12172273 0.01976588 0.1907975 0.1847334
000300 4d 07 b6 3d 09 30 42 3e fe d3 c9 3d e4 27 14 3d
       0.08888111 0.18963636 0.098548874 0.036170855
000310 5a 12 47 bd 68 80 ec 3d 8d 92 4a 3e da 66 06 3e
       -0.048601486 0.11547929 0.19782467 0.13125172
000320 08 c2 21 bd 82 df b7 bd 44 9b d0 3d b8 ab 8a bd
       -0.039491683 -0.089781776 0.101858646 -0.06771034
000330 69 b1 83 bd e2 1d 7f 3d 1a 9f e1 bc f3 73 9e 3c
       -0.06430323 0.062284358 -0.027541686 0.019342398
000340 b0 32 c9 bd bc ef 62 bd 4d 8e 1e 3e 34 d3 44 be
       -0.09824121 -0.05540441 0.15483971 -0.19221193
000350 86 3e 26 be 9b 5c fb bd 52 93 df bd ea 42 1b 3e
       -0.16234788 -0.122735225 -0.10916771 0.15162244
000360 66 6c 4c 3e f1 e4 52 3d 77 db 57 3d 1d 68 17 bd
       0.19963226 0.051487867 0.052699532 -0.036964525
000370 fa b0 ec bd 31 d6 01 bd ac 77 0c 3d 34 c5 cc 3d
       -0.11557193 -0.03169841 0.034293815 0.09998551
000380 03 51 50 3e 52 5c d8 bd 89 85 bd 3d f9 a3 46 be
       0.20343404 -0.10564484 0.092539854 -0.19398488
000390 51 a5 13 3e 27 21 cc bd ee 92 b8 3d 5d bf 54 3e
       0.14418532 -0.09967261 0.090123996 0.20776124
0003a0 37 03 02 be 53 7a 30 bd bc ca 2e be 99 a4 a8 bc
       -0.12696539 -0.043085407 -0.17069525 -0.020586299
0003b0 7a 6a 5a 3d 24 f5 09 be 8b 21 06 3e ba e2 61 3e
       0.0533242 -0.1347242 0.13098733 0.22059146
0003c0 f3 32 0e bc 52 1d 2f 3e 3b 40 84 bd c7 60 28 3e
       -0.008679139 0.17101029 -0.064575635 0.16443168
0003d0 c6 33 51 be 49 c4 1f be 86 d1 23 3d c3 b5 84 bd
       -0.20429906 -0.1560222 0.03999474 -0.06479981
0003e0 c2 60 94 3d 1d f8 86 3b f7 fb 74 bd 55 b5 d4 3d
       0.072450176 0.004118933 -0.059810605 0.10386149
0003f0 2b 67 16 be a3 03 0f be 98 ee 08 3e 8d 41 11 be
       -0.14687793 -0.13966231 0.13372266 -0.14185162

weight f4 [30, 32]
000000 3f 98 32 be 98 cc 0f 3d e0 60 6a 3d b0 83 ff bd
       -0.1744089 0.035107225 0.057221293 -0.12476289
000010 02 09 db 3d 8a 6d b5 3d 1c d2 33 be 60 b0 9b bb
       0.106950775 0.088587835 -0.17560619 -0.00475125
000020 2b d3 1b 3e 87 bf 04 3e e8 f0 10 be c6 ee 9d 3d
       0.15217273 0.12963687 -0.14154398 0.07711558
000030 32 ab 23 be d5 17 04 3e 5e af 1b be 57 20 95 bd
       -0.15983275 0.12899716 -0.15203616 -0.07281559
000040 88 ae 30 3d ba 7c e1 bd 57 b3 2c 3e 28 7b be 3c
       0.043135196 -0.11010118 0.16865288 0.023252085
000050 9e 8f b2 3d 78 01 94 bc 88 d5 8c 3d 60 7f 41 3c
       0.08718799 -0.018067107 0.06876665 0.011810154
000060 a5 0d 10 3e a6 c2 21 be 84 86 69 3d e5 b3 00 be
       0.14067705 -0.15796909 0.05701305 -0.12568624
000070 38 ef 43 bd 2b b7 16 3e d0 bb 26 3c 94 04 67 bd
       -0.04783556 0.1471831 0.010176614 -0.05640085
000080 77 82 09 be 78 5a fc bd 5e c3 2d be 1a ba d1 3d
       -0.13428675 -0.12321943 -0.16969058 0.10240574
000090 13 7c c2 bd de 20 c4 bd b9 c7 87 bd 30 f9 fb bc
       -0.094963215 -0.095765814 -0.06629891 -0.03075847
0000a0 6d fe 25 3e a0 b8 0d 3d 55 31 d2 bd 08 fb 93 bc
       0.16210337 0.0345999 -0.102633156 -0.018064037
0000b0 94 c5 50 bd 04 5d 28 be 7c 15 34 be 4a 6e 09 be
       -0.050969675 -0.16441733 -0.1758632 -0.13420978
0000c0 30 73 21 bd 40 7d 86 bc b8 be 8f 3c 20 05 2c be
       -0.039416492 -0.016417146 0.017546996 -0.1679883
0000d0 c0 be 62 3b 30 3e c0 3c b3 6a 06 3e 22 cd fa 3d
       0.003459856 0.023467153 0.1312664 0.12246157
0000e0 d1 96 07 3e 4a e6 b8 bd 00 44 27 be a0 54 1b be
       0.13241126 -0.09028299 -0.16334534 -0.15169
0000f0 f0 91 5b bc a2 2c d5 bd 40 4d 9d bc e6 26 2e be
       -0.013401493 -0.10408904 -0.019201875 -0.17007026
000100 0b 5b 30 be 0c e4 e4 bd 40 bf df bd 43 8c 18 3e
       -0.1722223 -0.11176309 -0.1092515 0.14897256
000110 72 ca a9 3d f2 96 b0 3d 26 93 67 bd 56 20 ed 3d
       0.082905665 0.086225405 -0.056536816 0.11578433
000120 10 e5 98 bc d0 5b fe bc 61 3d 24 3e d8 d7 e3 bd
       -0.018663913 -0.031049639 0.16039039 -0.11125153
000130 07 eb 33 3e d0 1d 0d 3c 88 1f 82 bc a8 62 1c bd
       0.17570125 0.008613065 -0.015884176 -0.038180023
000140 80 24 0f 3b b2 f3 fb bd 0d aa 2d be a2 ec f4 3d
       0.0021841824 -0.123023406 -0.169594 0.119591966
000150 52 54 f2 3d 18 82 8c 3c 14 7b 15 3d 40 16 bc bc
       0.11832489 0.017151877 0.03649433 -0.022959828
000160 f3 eb 32 3e 20 db e7 bc 30 40 74 bc a3 2a a8 bd
       0.1747282 -0.02830273 -0.014907882 -0.08211257
000170 9a a2 e3 bd c1 e0 02 3e be 53 f2 3d 88 19 36 3d
       -0.11114998 0.1278105 0.11832379 0.044457942
000180 3f d7 e8 bd f7 70 9d bd 05 40 02 3e 08 0c 26 be
       -0.1136918 -0.07687562 0.12719734 -0.16215527
000190 c7 34 19 3e b7 8e 05 3e 00 81 bf bb 58 a4 10 be
       0.14961539 0.13042723 -0.0058442354 -0.14125192
0001a0 3f 9b 1a be 22 58 c1 3d d0 84 f7 3c 50 b7 bd bc
       -0.15098284 0.09440638 0.030214697 -0.0231587
0001b0 71 54 00 be 1a 1b a9 3d ec bc 22 bd 69 5d 22 be
       -0.12532212 0.08257122 -0.03973095 -0.15855946
0001c0 38 e9 d3 bd 7a d7 b3 3d b0 ac 38 3d 06 b5 ff 3d
       -0.10347217 0.08781333 0.045086563 0.12485699
0001d0 6c 88 4f bd 70 49 d5 bd b6 93 aa bd b8 ee 32 be
       -0.05066721 -0.10414398 -0.08328955 -0.17473876
0001e0 c2 be c5 3d ea 1f fb bd 20 dc 35 3d a8 91 81 bc
       0.09655525 -0.122619465 0.04439938 -0.015816525
0001f0 4f bd ae bd ac 02 02 be 87 63 30 3e 6a cb 2e be
       -0.085322015 -0.12696332 0.17225467 -0.17069784
000200 90 f1 bf bc 7f 8c d4 bd 36 ef 2e be 87 e6 20 be
       -0.023430616 -0.1037836 -0.17083439 -0.15712939
000210 d3 8c b3 bd 0f a0 f0 bd 1c 82 12 be eb 25 2d 3e
       -0.087670945 -0.11749279 -0.14307445 0.16908996
000220 70 13 90 bc 8a e5 b3 3d c0 e1 c2 bb 70 c9 28 bc
       -0.017587394 0.087840155 -0.0059473217 -0.010301933
000230 54 ad 83 bd f0 54 81 3d 3c 83 ce bd 05 b1 1e be
       -0.06429544 0.06315029 -0.10083625 -0.15497215
000240 59 2c 02 3e 4d 91 80 bd 5e e4 c3 3d 1a 1c d9 3d
       0.1271223 -0.06277714 0.09565042 0.10601063
000250 f4 8f 0d bd 0f 10 2e 3e 1e f1 25 be cb 73 09 be
       -0.034561113 0.16998313 -0.1620526 -0.13423078
000260 f7 9d 21 be b8 18 34 be 6d cd 0a 3e 73 62 1c 3e
       -0.15782915 -0.17587554 0.13554926 0.1527193
000270 94 16 84 3d 74 95 00 3d 46 b4 ce 3d da 52 2c be
       0.06449619 0.03139253 0.10092978 -0.1682848
000280 00 f0 e9 bc d6 45 c5 3d e0 58 78 bc 70 c6 89 3c
       -0.028556824 0.09632461 -0.015157908 0.016818255
000290 90 b1 20 be ec ea d5 bd 4c 3f 37 3d 62 11 a0 3d
       -0.15692735 -0.104451984 0.0447381 0.078158155
0002a0 09 96 25 3e f8 e9 f1 3c 09 7f 8d bd 2c 1e 51 3d
       0.16170515 0.02953051 -0.06908996 0.051054165
0002b0 68 28 f5 3c 02 59 df 3d 87 86 b5 bd df 75 10 be
       0.029926494 0.10905649 -0.0886355 -0.14107464
0002c0 bf 43 1c 3e a2 27 ad 3d 27 0d 13 3e 45 b6 8f bd
       0.15260218 0.08454825 0.14360486 -0.07017187
0002d0 f6 11 d6 3d a0 c2 e1 3b dd 84 12 3e 5f c5 df bd
       0.104526445 0.006889656 0.14308496 -0.109263174
0002e0 e3 17 ca bd b0 ec b9 3c 09 45 b0 bd 54 20 14 be
       -0.09867837 0.02269587 -0.086069174 -0.14465457
0002f0 e6 8f 91 bd 60 78 d7 3b f7 7d 1e 3e 98 40 85 3c
       -0.071075246 0.006575629 0.1547774 0.016266152
000300 5a f9 89 3d 0c 69 26 be 40 de db 3b d4 80 f1 bd
       0.06737013 -0.1625101 0.006709844 -0.1179215
000310 f8 03 12 3d 60 06 3e 3c 98 13 a6 3c c4 31 42 3d
       0.035648316 0.0115982 0.020273015 0.04741074
000320 06 fa 17 be 84 9f 1b bd bf 28 0b 3e 16 bb f8 bd
       -0.1484147 -0.037993923 0.13589762 -0.12145059
000330 be 51 30 be e8 f0 5b 3d 80 23 ea ba d8 2c aa bc
       -0.17218682 0.053696543 -0.0017863363 -0.020773336
000340 78 8a b0 bc bc bf 08 be e2 8f cd 3d 69 34 08 3e
       -0.021550402 -0.13354391 0.10037209 0.13301243
000350 f9 31 28 be 3c 7a 64 bd 70 a0 3b bc f8 a3 ad 3c
       -0.16425313 -0.055780634 -0.0114518255 0.02119635
000360 dc ec dd bd e2 89 27 be c0 80 9e 3c b5 e1 22 3e
       -0.10836193 -0.16361192 0.019348502 0.15906413
000370 ec d1 7c bd 6c 30 d1 bd 81 60 92 bd ac 97 10 bd
       -0.061723635 -0.10214314 -0.07147313 -0.035300896
000380 ba 81 f0 3d 2b 90 d3 bd d0 4a fe bd f8 85 91 3c
       0.117434934 -0.10330232 -0.12416613 0.017764077
000390 1e 3b b0 3d 3c c1 02 bd f2 56 c6 3d 8a a8 d2 3d
       0.08605026 -0.031922564 0.09684552 0.102860525
0003a0 bd 49 0d 3e 00 46 85 3d 12 1a ef 3d e6 0e cd 3d
       0.1379766 0.06507492 0.116748944 0.10012607
0003b0 92 89 ea 3d 48 a1 09 bd 8c 44 79 3d 88 ca 7b 3d
       0.11452021 -0.033601075 0.060856387 0.061472446
0003c0 4a a1 2c be 50 22 15 bd 88 c4 1b be 0a 5b a4 3d
       -0.16858402 -0.036409676 -0.1521169 0.08025177
0003d0 ad b4 9a bd 00 85 25 bd 52 be bf 3d c8 22 f2 bd
       -0.075539924 -0.04041004 0.093624726 -0.1182304
0003e0 c2 cd d4 3d 66 06 a8 3d 0c 9f b4 bd 7f d7 1e 3e
       0.10390808 0.082043454 -0.08819398 0.15511893
0003f0 9e 7c cd 3d 06 59 e6 bd d0 e2 76 3d 88 3b 5f 3d
       0.100335345 -0.112474486 0.0602749 0.054500133

bias f4 [1, 32]
000000 00 00 00 00 00 00 00 00 00 00 00 00 00 00 00 00
       0.0 0.0 0.0 0.0
000010 00 00 00 00 00 00 00 00 00 00 00 00 00 00 00 00
       0.0 0.0 0.0 0.0
000020 00 00 00 00 00 00 00 00 00 00 00 00 00 00 00 00
       0.0 0.0 0.0 0.0
000030 00 00 00 00 00 00 00 00 00 00 00 00 00 00 00 00
       0.0 0.0 0.0 0.0
000040 00 00 00 00 00 00 00 00 00 00 00 00 00 00 00 00
       0.0 0.0 0.0 0.0
000050 00 00 00 00 00 00 00 00 00 00 00 00 00 00 00 00
       0.0 0.0 0.0 0.0
000060 00 00 00 00 00 00 00 00 00 00 00 00 00 00 00 00
       0.0 0.0 0.0 0.0
000070 00 00 00 00 00 00 00 00 00 00 00 00 00 00 00 00
       0.0 0.0 0.0 0.0

weight f4 [32, 30]
000000 44 8b b8 bd 8f 73 b9 3d 27 e6 02 be ee 84 6a bc
       -0.09010938 0.09055244 -0.12783109 -0.0143139195
000010 07 84 21 be 84 8e 8d 3e b5 37 cd bd 9b ac 3a be
       -0.1577302 0.27647793 -0.10020391 -0.18229906
000020 bf 34 3e be 02 a8 a7 3d e8 51 58 be 94 5e 47 3d
       -0.18574809 0.08186342 -0.21124995 0.04867418
000030 bf a9 44 3e d0 4d 22 3e 6a 9b a7 bd 7c 4a 98 3d
       0.19205378 0.15849996 -0.0818394 0.07436082
000040 62 b4 15 bd 14 a7 62 3e 3d 60 94 3d 22 08 41 3e
       -0.03654898 0.22134048 0.072449185 0.18850759
000050 86 bb 85 3d f6 f1 71 3e f7 30 b4 bd 51 9a 29 be
       0.06529908 0.23627457 -0.08798402 -0.16562773
000060 15 b4 b5 3d 07 ca 7f 3e 1e c8 8e 3d a2 ad 72 3e
       0.088722385 0.24979411 0.06971763 0.23699048
000070 ca 79 5e bd 95 8c 53 3e aa 32 fe 3c 85 0b 62 bc
       -0.054315366 0.20659097 0.031030018 -0.013796692
000080 dc 44 08 be 6d 92 9f 3d 1a e3 a4 3b ad c2 e6 bc
       -0.13307518 0.077916004 0.0050319554 -0.028169
000090 3a 05 ab bd e3 f7 cd bd d5 8d c0 bd 96 77 12 3c
       -0.08350606 -0.10057046 -0.09402052 0.008939644
0000a0 a3 22 63 be 81 0b 8c bd dd f6 c1 3d 01 49 88 3d
       -0.22181182 -0.06838132 0.094709136 0.066545494
0000b0 97 ce 18 be 2f 5b 66 3e 62 d1 8f be 54 45 33 3e
       -0.14922558 0.22495721 -0.28089434 0.17506915
0000c0 09 b4 09 bd 91 ac d6 bc ee 6f a5 3e 24 f7 a3 bd
       -0.03361896 -0.026205333 0.32311958 -0.08006123
0000d0 7b 76 14 bd 39 38 00 bc 6b 6b 2a 3e 0f 52 70 bb
       -0.036245804 -0.0078259045 0.16642539 -0.0036670004
0000e0 9f 7b 43 3e a6 7c 70 3e bd 37 51 be b2 ef 85 3e
       0.19090126 0.2348505 -0.20431419 0.26159436
0000f0 48 4d ae 3d 1d b7 da bd bc 51 8d 3d 96 82 0b 3e
       0.08510834 -0.10679457 0.06900355 0.13624033
000100 02 d8 4e be 42 9c 8b bd eb c9 5f bd 48 fa 60 be
       -0.20199588 -0.06816913 -0.054635923 -0.21970475
000110 1d ef 63 3d 24 17 02 3e a6 7a e3 bb 95 bc 22 be
       0.055647958 0.1270414 -0.006942111 -0.15892251
000120 ff ee ae bd 9d 7c 31 3d 96 e4 46 be 4d de 53 3e
       -0.08541679 0.04333173 -0.19423136 0.2069027
000130 18 2c 49 be b9 16 48 3e 0a ab 9a 3d e6 17 93 3d
       -0.19645727 0.19539918 0.07552154 0.07182293
000140 7f 47 28 3e 9e a2 fe 3d b9 fa a6 bc 9a f0 28 3e
       0.16433524 0.124333605 -0.020383226 0.16498032
000150 4c 9d 54 3e ab 39 5d 3e 83 60 5a 3d 0e 9c 84 3d
       0.20763129 0.2160403 0.053314697 0.064750776
000160 77 1c 68 be d6 84 7a 3e 16 98 0f bb d8 83 8d bd
       -0.22667108 0.24464735 -0.0021910719 -0.06909913
000170 ed a0 3d be 00 ba 45 be 41 0a 98 bc f4 bb 6d 3e
       -0.1851842 -0.19309235 -0.018559577 0.2321623
000180 3d da 0f 3d c1 db 1c be 12 53 f3 bc b1 b9 0c bd
       0.035120238 -0.15318204 -0.029702697 -0.034356777
000190 74 b7 2a be a0 06 8a 3d df 01 82 3d b0 d6 36 be
       -0.16671544 0.06739545 0.06348013 -0.17855334
0001a0 06 f2 2e be 0a c5 02 bc 9d 41 12 3d 56 e6 03 bd
       -0.17084512 -0.007981548 0.035707105 -0.032202087
0001b0 84 a8 73 be df 56 80 bc b4 af e8 3d 62 19 36 3e
       -0.23794752 -0.015666423 0.11361638 0.1778312
0001c0 e9 3b 8d bd 5e c0 04 be ec b1 33 bd 4a df 4c 3d
       -0.068961926 -0.12964007 -0.04387085 0.050017633
0001d0 8c c6 86 3e d1 81 5a 3e b1 b2 75 3d 59 d4 b9 bd
       0.26323354 0.21338584 0.059984867 -0.09073705
0001e0 e5 fb 18 be c9 7f 8f 3d 08 1e 36 be e5 5d f9 bd
       -0.1493984 0.07006795 -0.17784894 -0.12176112
0001f0 04 df fe bc 74 47 c0 3c a1 18 fa bd 35 a1 2b 3c
       -0.031112202 0.023471572 -0.12211729 0.0104754465
000200 33 0e 1e 3e d8 a3 fd 3d 8b a9 20 be c3 32 40 3d
       0.15435104 0.12384766 -0.15689676 0.04692341
000210 0f 92 1b be e5 61 c8 bd 4a 75 4b be 30 ca 1a 3e
       -0.15192436 -0.09784297 -0.19868961 0.15116191
000220 02 fc a4 bd 7c cb e5 bc fd 9f ea 3d e9 f6 09 3c
       -0.08055879 -0.02805113 0.114562966 0.008420684
000230 7e 0e 31 3e 31 7b 88 3c 75 8b 27 be 58 72 aa bd
       0.17290685 0.016660305 -0.16361792 -0.083225906
000240 5a 5a 63 3e 8f 20 10 bd a3 c2 d3 bd 90 57 ad bd
       0.22202435 -0.0351873 -0.103398584 -0.08463967
000250 70 58 36 be a0 ae 23 3e 94 fc 40 be 53 c5 aa bd
       -0.17807174 0.15984583 -0.18846351 -0.08338418
000260 f4 98 b0 3d d3 d8 9b 3d 2c b1 19 3d 8b 47 98 3d
       0.086229235 0.07609715 0.03752248 0.07435521
000270 96 86 20 bd 64 d7 87 bd 70 1f 48 3e 73 c8 b4 3d
       -0.03919085 -0.066328794 0.19543242 0.08827295
000280 23 78 92 3d 74 22 41 be 50 f1 59 3b 2e 5c 24 be
       0.071518205 -0.18860799 0.0033255406 -0.16050789
000290 9a cd 39 bd 9a ac 2b 3e 69 38 8a bd 25 8d 57 3e
       -0.045362093 0.16765061 -0.06749041 0.21049936
0002a0 12 e3 f0 bc aa 9b 0b be a1 19 6e 3e eb 98 eb bd
       -0.02940515 -0.136336 0.23251964 -0.11503776
0002b0 12 e1 27 3e 67 58 72 3d b0 5c 5a 3e 81 35 c4 bd
       0.16394451 0.05916634 0.2132442 -0.095805176
0002c0 c2 23 7d bb 0f 4b 18 3e 72 99 c0 3c f1 67 1c 3e
       -0.003862605 0.14872383 0.023510668 0.15274025
0002d0 c9 e6 dd bd 4c ff 3b bd be 09 c9 3d b8 fb 57 3c
       -0.108350344 -0.045897767 0.09816311 0.013182573
0002e0 eb b4 aa 3d fd da 43 3d c3 64 2a 3e 76 24 d4 bc
       0.083352886 0.047816265 0.1664 -0.025896292
0002f0 7a fb 42 3c 04 c4 51 3d f5 f1 7c bd e0 52 4c bc
       0.011900777 0.051212326 -0.061754186 -0.012470931
000300 0f 1a 12 3e 7a f9 2d be 48 33 bf bc 40 a3 29 3e
       0.14267753 -0.16989699 -0.023339882 0.16566181
000310 6e 25 62 be 7f 85 1d bd f4 ad 2e be fa 69 2b 3c
       -0.22084591 -0.03845739 -0.17058545 0.0104622785
000320 02 5c 98 bd 06 6a 1c 3e a1 65 23 be db 9a e0 bd
       -0.07439424 0.1527482 -0.15956737 -0.10967036
000330 48 4d 3b 3e fd 44 36 be 8c 18 72 3d a8 10 43 3e
       0.18291199 -0.17799754 0.05910544 0.19049323
000340 76 02 e1 bc d4 bd 9a 3d 78 46 03 3e 3b f5 68 3b
       -0.027466994 0.07555738 0.1281985 0.003554656
000350 af 3f 46 be ce 0f e4 3d 54 e0 24 bc 35 09 4b bc
       -0.19360231 0.11135827 -0.01006325 -0.012392332
000360 7c 7f 9a bb ec 76 63 bd b3 e3 98 bd 0d 4f dc 3c
       -0.0047149044 -0.055533335 -0.07465305 0.026893163
000370 83 e1 9a bc 26 ab 86 bd 64 be 8c 3d 9d 5c e6 bd
       -0.01890636 -0.06575613 0.06872252 -0.11248133
000380 55 dd bb 3b f0 71 23 3e 27 da 94 3d 44 13 13 be
       0.005733172 0.15961432 0.07268172 -0.14362818
000390 8e 4e fb bd 0d d4 5a 3e 94 0e 4a bd 7d a1 9c bd
       -0.122708425 0.21369953 -0.04933031 -0.07647989
0003a0 f9 ce a1 bd bc 83 4e 3e de 19 12 3e bc 04 9b bd
       -0.07900805 0.2016744 0.1426768 -0.075692624
0003b0 c4 81 f7 3d aa 00 e0 3d fc 74 45 be 63 00 5d 3e
       0.12085298 0.10937627 -0.19282907 0.21582179
0003c0 e7 38 74 3c 5c 26 92 3d ee dd 92 ba 33 6e 11 be
       0.014906145 0.07136223 -0.0011205056 -0.14202194
0003d0 3a 8f d4 3c d7 8a 7c 3b fa 12 14 be fb f0 ce bc
       0.025947202 0.0038534903 -0.14460364 -0.025261393
0003e0 76 59 e0 bd 8e d3 b0 3d b9 a6 83 bd a8 46 e4 3d
       -0.10954563 0.08634101 -0.06428284 0.11146289
0003f0 32 e2 17 3d 0e df b1 bd 54 81 0a bd c6 95 68 3d
       0.03708095 -0.086851224 -0.033814743 0.05678346
