neuromancer/datasets/Flexy_air/device_test_models/model2/best_policy_flexy2.pth (torch, 13879 bytes, 9 tensors)

weight f4 [20, 20]
0.10030541 -0.12344983 0.00530833 -0.15963084 -0.17158669 0.13490212 -0.08408658 -0.15804538
-0.13584161 0.04448402 -0.1733312 0.0658319 0.024768546 -0.14504322 -0.13852808 0.12083393
-0.036727607 0.0887163 0.16409904 -0.074021354 -0.0019596964 0.15951231 0.13276285 0.11610687
-0.11738706 -0.17334855 -0.078778386 0.1184538 0.060281307 -0.08261469 -0.095415205 0.14442527
-0.22342548 0.0057144016 -0.2011315 0.1673725 0.13715893 -0.11419844 0.14770687 -0.18574747
-0.18638213 -0.21227418 -0.16095473 -0.026056707 0.15195146 0.10460746 -0.0867451 -0.073100135
0.14023826 -0.1708973 -0.17367946 0.10180783 -0.17519237 -0.008969501 0.1612995 0.15849027
0.06913316 0.14826581 -0.16820543 -0.17341489 0.006409064 -0.15081084 0.058317572 -0.11969779
0.20595142 0.043878376 0.21356717 -0.17839666 0.13452685 0.17796949 -0.07251449 0.07988918
0.05728203 0.03156185 -0.118190736 -0.13336879 -0.19265911 -0.12721182 0.022651315 0.05191621
-0.19438124 0.1436907 -0.17905861 0.19452447 -0.06203282 -0.18786506 0.03809455 -0.20642334
-0.17599541 0.023607463 0.20141286 -0.053129524 -0.1681127 0.15883121 0.021297514 -0.07584064
-0.2221554 0.09032181 -0.12965026 0.059957355 -0.15515062 0.20247325 0.19255686 0.18392816
-0.019634679 -0.1290964 0.1539568 -0.16313775 0.1329116 -0.066921964 -0.0006875843 0.16053888
0.13667855 -0.07706505 -0.18782625 0.10165244 0.13182542 -0.029966712 -0.1351039 -0.15425459
-0.10051956 0.16723868 0.02112785 0.11760995 -0.21479446 -0.12686662 -0.025053531 -0.009492844
0.09816751 -0.105884776 -0.16833298 0.039315015 -0.109683655 -0.13430451 0.15038633 -0.19819693
-0.19210958 -0.044709593 0.14256439 0.22306487 -0.058005527 -0.0025309324 -0.012619138 0.088514715
-0.054305643 0.07805094 -0.1005705 0.21525899 0.20748186 0.14003423 0.10813865 0.09048131
-0.17906928 -0.10777493 0.2226913 0.12230912 0.08302382 -0.14878762 -0.013308525 0.17331868
-0.049151897 -0.04120019 0.09287077 0.07277265 0.03342125 0.054997712 0.13452545 0.20731252
0.019376755 -0.08002995 -0.07865831 0.1465185 -0.032941207 -0.011026949 0.19874057 -0.047357142
-0.07390234 -0.1394914 0.07014072 -0.11378823 0.034404308 -0.12833132 0.2166301 -0.13187452
-0.07404484 0.19363585 -0.11702952 -0.11895035 0.07219547 0.047109842 -0.11714449 -0.0813939
0.04537654 -0.029824391 -0.122664176 0.16657239 0.21777806 0.03270337 0.1837765 0.120018005
0.056898594 0.12940824 0.20940024 -0.016937047 -0.14215347 -0.005159825 0.17536584 -0.15400493
0.188892 -0.07151434 -0.17824364 -0.13368145 -0.17247441 -0.1376335 0.09834516 -0.17416784
-0.15621811 0.11939865 0.19847402 0.103331834 -0.0015078485 -0.0609062 0.121934265 0.04984212
0.07209709 0.20837894 -0.16136485 -0.17416726 0.19411197 -0.09486066 0.09487814 0.010032997
0.004646197 -0.023829907 -0.074591264 0.06999129 0.10632202 0.056814253 -0.02207306 -0.08504543
-0.014218554 -0.09852882 -0.009172037 -0.09647374 -0.07203144 -0.13610512 0.033287257 0.04062751
0.020492315 -0.077320576 -0.009269223 0.21953326 -0.105668195 0.10538247 -0.0013579428 0.14544424
00000000: ec6c cd3d 44d3 fcbd 80f1 ad3b 4476 23be
00000010: 6cb4 2fbe c823 0a3e 9635 acbd a6d6 21be
00000020: 101a 0bbe e034 363d bc7d 31be e0d2 863d
00000030: 68e7 ca3c 3686 14be 4eda 0dbe c877 f73d
00000040: b06f 16bd e4b0 b53d 9409 283e 8298 97bd
00000050: 406e 00bb 3257 233e fcf2 073e 70c9 ed3d
00000060: a068 f0bd 4882 31be 9056 a1bd e897 f23d
00000070: 88e9 763d e431 a9bd 0c69 c3bd 38e4 133e
00000080: a6c9 64be e03f bb3b 6af5 4dbe b263 2b3e
00000090: 6473 0c3e dfe0 e9bd 7840 173e 9634 3ebe
000000a0: f5da 3ebe 675e 59be 51d1 24be e074 d5bc
000000b0: 2a99 1b3e 703c d63d 6aa7 b1bd 86b5 95bd
000000c0: 9e9a 0f3e b4ff 2ebe 07d9 31be a080 d03d
000000d0: a165 33be d0f4 12bc b22b 253e 464b 223e
000000e0: b095 8d3d fed2 173e 0b3e 2cbe ac93 31be
000000f0: 2003 d23b 286e 1abe 68de 6e3d 1d24 f5bd
00000100: eee4 523e d0b9 333d 5ab1 5a3e 9dad 36be
00000110: 68c1 093e a23d 363e 7a82 94bd f09c a33d
00000120: 90a0 6a3d 0047 013d fc0d f2bd d491 08be
00000130: 6e48 45be d143 02be 408f b93c 18a6 543d
00000140: e00b 47be a823 133e 245b 37be 6c31 473e
00000150: 2016 7ebd b35f 40be 0809 1c3d a460 53be
00000160: 2438 34be 7064 c13c 2c3f 4e3e 589e 59bd
00000170: bc25 2cbe a6a4 223e 2078 ae3c 5652 9bbd
00000180: b57c 63be a4fa b83d 0ac3 04be d895 753d
00000190: cedf 1ebe 2655 4f3e a02d 453e aa57 3c3e
000001a0: e8d8 a0bc d931 04be daa6 1d3e 950d 27be
000001b0: fa19 083e 620e 89bd 003f 34ba 4e64 243e
000001c0: 76f5 0b3e 48d4 9dbd 8655 40be 282f d03d
000001d0: 3efd 063e c07c f5bc ad58 0abe eaf4 1dbe
000001e0: 33dd cdbd 9e40 2b3e 5014 ad3c 7cdd f03d
000001f0: 14f3 5bbe 53e9 01be 103d cdbc e087 1bbc
00000200: 0c0c c93d 1eda d8bd 7b5f 2cbe c808 213d
00000210: d3a1 e0bd 1f87 09be e0fe 193e 23f4 4abe
00000220: 60b8 44be 6821 37bd 66fc 113e 1e6b 643e
00000230: 3497 6dbd 00de 25bb 80c0 4ebc 3447 b53d
00000240: 986f 5ebd 2cd9 9f3d e8f7 cdbd da6c 5c3e
00000250: 2076 543e 2265 0f3e cc77 dd3d 444e b93d
00000260: f05d 37be 1ab9 dcbd 3009 643e 347d fa3d
00000270: 6408 aa3d c85b 18be 000c 5abc 747a 313e
00000280: 8053 49bd 88c1 28bd 0833 be3d d409 953d
00000290: b8e4 083d 4845 613d 0ac1 093e bc49 543e
000002a0: 00bc 9e3c bee6 a3bd 9c17 a1bd f208 163e
000002b0: 5ced 06bd 60aa 34bc a682 4b3e 90f9 41bd
000002c0: 1c5a 97bd d5d6 0ebe f0a5 8f3d ce09 e9bd
000002d0: 88eb 0c3d 4969 03be 48d4 5d3e 1d0a 07be
000002e0: d2a4 97bd 7a48 463e 2cad efbd 3e9c f3bd
000002f0: 38db 933d 40f6 403d 73e9 efbd d8b1 a6bd
00000300: c0dc 393d 4852 f4bc 5b37 fbbd f491 2a3e
00000310: 3601 5f3e f8f3 053d e82f 3c3e 00cc f53d
00000320: 800e 693d 9883 043e 046d 563e 90bf 8abc
00000330: ae90 11be c013 a9bb 1a93 333e 78b3 1dbe
00000340: e86c 413e 1c76 92bd 8085 36be cae3 08be
00000350: 229d 30be ccef 0cbe 3069 c93d 0e59 32be
00000360: a4f7 1fbe 4887 f43d c63c 4b3e a49f d33d
00000370: 00a3 c5ba c878 79bd acb8 f93d 4027 4c3d
00000380: a4a7 933d 4a61 553e d43c 25be e758 32be
00000390: 4ac5 463e 4e46 c2bd 784f c23d 7061 243c
000003a0: 203f 983b f036 c3bc 4ec3 98bd 9857 8f3d
000003b0: 5cbf d93d 10b6 683d 90d2 b4bc 4c2c aebd
000003c0: f0f4 68bc 7ac9 c9bd 5046 16bc 0694 c5bd
000003d0: 3885 93bd 245f 0bbe 3858 083d 0869 263d
000003e0: 80df a73c 405a 9ebd f0dd 17bc 54cd 603e
000003f0: 9168 d8bd c4d2 d73d 00fd b1ba 56ef 143e

bias f4 [1, 20]
0.0 0.0 0.0 0.0 0.0 0.0 0.0 0.0
0.0 0.0 0.0 0.0 0.0 0.0 0.0 0.0
0.0 0.0 0.0 0.0
00000000: 0000 0000 0000 0000 0000 0000 0000 0000
00000010: 0000 0000 0000 0000 0000 0000 0000 0000
00000020: 0000 0000 0000 0000 0000 0000 0000 0000
00000030: 0000 0000 0000 0000 0000 0000 0000 0000
00000040: 0000 0000 0000 0000 0000 0000 0000 0000

weight f4 [20, 20]
0.12757261 -0.0030529443 0.13524976 0.025429746 0.06660976 -0.09995167 -0.017266385 -0.10023261
0.048565987 -0.17445251 0.041152887 -0.011266278 0.100529455 -0.15386273 0.06599871 0.12590002
0.13996291 -0.20216991 0.13832399 0.15941298 0.09436778 -0.17996961 0.15936132 0.00822566
0.16288196 0.11689995 0.041609466 -0.059115976 -0.093780875 -0.22942045 0.051658057 -0.009241447
-0.058710583 -0.2790949 -0.19284818 -0.22360322 -0.002931725 -0.19623157 -0.21182247 -0.1513219
0.057004444 -0.14966094 -0.12187283 0.034898587 -0.06454008 -0.054578982 0.17126447 -0.030969737
0.19890127 0.16882657 0.078826144 -0.3157468 -0.2886909 -0.11099102 -0.21126354 0.10718303
-0.18454152 0.068523146 -0.25021747 -0.33654875 -0.14085723 0.14400609 0.04307519 0.10627032
-0.087082945 -0.11436678 0.08547253 -0.014348004 0.1499272 -0.19511211 0.15450287 0.2922713
-0.09429515 0.044050593 0.20177251 -0.07943047 -0.020640459 0.30167535 -0.087094836 0.27412692
0.12838712 0.19181481 -0.06545096 -0.112244174 0.19688828 -0.14470942 0.09809774 -0.087690055
0.1492279 0.18528509 -0.117749825 0.07041204 0.15778162 0.18601693 -6.7678404e-05 0.007177402
-0.22153893 0.076401494 -0.061357368 -0.12293852 0.16973826 -0.010316014 0.13463461 -0.11044562
0.19089176 -0.007903317 0.26503992 0.28005493 0.23880573 0.3229099 0.19632742 0.02555678
0.09351795 0.052761998 0.012617473 0.018306209 -0.09911012 -0.05130919 -0.020586003 0.114727035
0.1690234 0.22428373 0.112231456 -0.065701105 0.14366984 -0.06579121 0.077951774 0.01930001
0.2565368 0.2011818 0.16189004 0.12502459 0.22211829 -0.011306293 0.16708852 -0.052703924
-0.016287852 -0.14700921 -0.004802563 -0.065574996 0.20769429 -0.1155092 -0.05822472 0.12103895
-0.031239573 0.0031616753 0.079533435 -0.03959504 0.01654835 -0.01869145 -0.02779859 0.27217457
0.22052337 -0.08944641 0.13598981 0.06193579 0.23495989 0.19836977 0.1444582 0.16835427
0.08355505 0.15806317 -0.15429336 0.03716578 -0.053308774 -0.0073853484 -0.25644165 -0.15418494
-0.30752578 -0.045632478 -0.11167309 -0.09358143 0.30963734 0.29643258 0.259775 -0.03240084
0.2842459 0.25783196 0.13813189 -0.1006979 -0.2315171 -0.054397725 -0.055620234 0.12555063
0.06492571 0.060691487 0.02623577 -0.17135791 0.00027561132 0.15346675 0.055387743 0.12307231
-0.30517194 -0.0113800755 0.105988964 -0.23344272 -0.21209404 -0.21637146 -0.08332412 -0.22647057
0.05779111 -0.18811879 -0.1593216 -0.2356114 0.10779293 -0.0500131 0.10687417 -0.20973556
-0.12683536 0.042028867 -0.34429556 -0.18746822 -0.32174543 -0.43877527 -0.36537042 -0.16040055
-0.13608515 -0.47014028 -0.37199268 -0.3640329 0.19763367 -0.17753701 -0.140162 0.12249287
0.08514814 -0.2398126 -0.10124081 -0.09922933 -0.24845421 -0.22478749 -0.061434217 0.24524623
-0.09302721 0.21002704 0.24016356 0.16162491 0.03791037 0.11163502 0.26775035 -0.0994957
-0.0045496933 -0.018482901 -0.020389669 0.17168102 -0.101113655 -0.1340213 -0.17426097 -0.10687327
0.06000974 0.15123993 -0.1591844 -0.08559142 -0.14447163 -0.08849487 0.07927511 -0.17061162
00000000: 65a2 023e e813 48bb ea7e 0a3e 0b52 d03c
00000010: b36a 883d 76b3 ccbd 3c72 8dbc c146 cdbd
00000020: 21ed 463d aea3 32be ee8f 283d 3296 38bc
00000030: 63e2 cd3d 318e 1dbe 552a 873d efeb 003e
00000040: 7052 0f3e a105 4fbe cea4 0d3e 283d 233e
00000050: e543 c13d f449 38be 9d2f 233e ebc4 063c
00000060: 87ca 263e 3e69 ef3d b06e 2a3d 9823 72bd
00000070: 3010 c0bd 32ed 6abe 6697 533d 7069 17bc
00000080: 827a 70bd 87e5 8ebe fe79 45be 3ef8 64be
00000090: 2f22 40bb eef0 48be fde7 58be 21f4 1abe
000000a0: 7e7d 693d b840 19be 7698 f9bd d2f1 0e3d
000000b0: 972d 84bd 368e 5fbd f45f 2f3e 3fb4 fdbc
000000c0: c6ac 4b3e dfe0 2c3e 9a6f a13d 91a9 a1be
000000d0: 4bcf 93be 434f e3bd 7855 58be c782 db3d
000000e0: 74f8 3cbe dd55 8c3d 811c 80be 1e50 acbe
000000f0: e13c 10be 5576 133e 9c6f 303d 41a4 d93d
00000100: 8b58 b2bd 2139 eabd 390c af3d e413 6bbc
00000110: 8486 193e 78cb 47be 0036 1e3e 95a4 953e
00000120: d11d c1bd 656e 343d 749d 4e3e 71ac a2bd
00000130: 2e16 a9bc 3175 9a3e c75e b2bd 5d5a 8c3e
00000140: ea77 033e 1a6b 443e 270b 86bd 46e0 e5bd
00000150: 159d 493e b52e 14be 78e7 c83d d896 b3bd
00000160: 33cf 183e 60bb 3d3e d226 f1bd 3034 903d
00000170: 8191 213e 397b 3e3e 91ee 8db8 6930 eb3b
00000180: 1adb 62be 6378 9c3d dd51 7bbd 31c7 fbbd
00000190: decf 2d3e 8004 29bc a8dd 093e 5031 e2bd
000001a0: 2179 433e ea7c 01bc 50b3 873e 5c63 8f3e
000001b0: 7d89 743e 7254 a53e 0e0a 493e 745c d13c
000001c0: 5786 bf3d f71c 583d 84b9 4e3c e7f6 953c
000001d0: 3ffa cabd 9629 52bd faa3 a8bc 02f6 ea3d
000001e0: 7814 2d3e a2aa 653e 9bd9 e53d 4d8e 86bd
000001f0: 301e 133e 8bbd 86bd 2ea5 9f3d 0e1b 9e3c
00000200: cb58 833e 9a02 4e3e 81c6 253e 7206 003e
00000210: fa72 633e 083e 39bc 4119 2b3e 12e0 57bd
00000220: 1a6e 85bc 9589 16be d25e 9dbb 2f4c 86bd
00000230: d0ad 543e 1690 ecbd 0b7d 6ebd 45e3 f73d
00000240: 22ea ffbc 1c34 4f3b 6de2 a23d 692e 22bd
00000250: 6890 873c d01e 99bc deb9 e3bc 775a 8b3e
00000260: e1d0 613e ae2f b7bd ea40 0b3e 62b0 7d3d
00000270: 5399 703e 7221 4b3e daec 133e 1065 2c3e
00000280: e91e ab3d 50db 213e 14ff 1dbe 253b 183d
00000290: 4d5a 5abd cb00 f2bb 524c 83be a8e2 1dbe
000002a0: 0574 9dbe 1fe9 3abd dcb4 e4bd 9fa7 bfbd
000002b0: c988 9e3e 03c6 973e 3b01 853e beb6 04bd
000002c0: ae88 913e 8d02 843e 7272 0d3e b33a cebd
000002d0: d212 6dbe 26d0 5ebd 0bd2 63bd 5890 003e
000002e0: c5f7 843d a397 783d 66ec d63c 7378 2fbe
000002f0: ed7f 9039 6326 1d3e 42de 623d 560d fc3d
00000300: 7f3f 9cbe 7f73 3abc be10 d93d 9c0b 6fbe
00000310: 2e2f 59be 7b90 5dbe d6a5 aabd e7e7 67be
00000320: 5fb6 6c3d 36a2 40be 3425 23be 1d44 71be
00000330: 8ac2 dc3d 89da 4cbd d8e0 da3d ebc4 56be
00000340: 21e1 01be 7626 2c3d 8247 b0be abf7 3fbe
00000350: d1bb a4be 27a7 e0be d511 bbbe 0b40 24be
00000360: e859 0bbe 3ab6 f0be d375 bebe 8562 babe
00000370: 7b60 4a3e 43cc 35be a186 0fbe 8bdd fa3d
00000380: 2662 ae3d 6f91 75be 5757 cfbd bf38 cbbd
00000390: c86a 7ebe b12e 66be 72a2 7bbd d421 7b3e
000003a0: 0d85 bebd 5411 573e 70ed 753e 0081 253e
000003b0: e747 1b3d e7a0 e43d 9316 893e 67c4 cbbd
000003c0: 9815 95bb 7469 97bc 3c08 a7bc 26cd 2f3e
000003d0: ad14 cfbd e13c 09be 7871 32be 5fe0 dabd
000003e0: c6cc 753d a4de 1a3e 3c01 23be 8e4a afbd
000003f0: 5ff0 13be cc3c b5bd fd5a a23d d0b4 2ebe

weight f4 [20, 20]
0.20343843 0.14060715 0.06548828 0.06739178 -0.12417672 -0.17028044 -0.18587135 0.052490413
-0.0588969 -0.004616365 -0.066900074 -0.1570178 0.021987736 -0.03264694 -0.15294564 0.075731695
0.15921515 -0.0322354 0.0540331 0.13599908 0.073863864 -0.1891652 -0.16390912 0.10752678
-0.025261685 0.14845163 -0.0524974 -0.17987385 -0.15760678 -0.13512322 -0.09538105 0.094590485
-0.16448513 0.16521317 0.14074495 0.12808937 -0.030254915 -0.15615943 0.097011596 0.05900672
-0.010306671 -0.056394488 0.01669684 0.039660037 0.17838189 -0.030133337 -0.063259795 0.0595181
-0.16617993 0.19315976 0.061549872 0.016557679 -0.15376249 -0.19357608 -0.120344326 0.033474565
-0.19315198 -0.13317329 0.10526404 0.19660842 -0.03214605 0.19201797 0.12484732 -0.21812026
-0.15793975 -0.0027178228 0.13877556 -0.08779737 0.21858239 -0.06129192 0.09941763 0.031257033
-0.057993904 0.19268236 0.03193733 0.13822252 -0.122151606 0.15883589 0.18888298 -0.11526468
0.107912004 0.08982545 -0.034475967 -0.08649248 -0.03879161 -0.17998126 -0.06152551 0.16797882
-0.03439115 0.15641564 0.038928002 0.04316944 0.12959936 0.20139581 -0.0172413 0.17922613
-0.08508995 -0.13252592 0.14073831 -0.10173996 0.0007382184 -0.00085248053 0.13604105 -0.17764089
-0.2050321 0.048031867 -0.15449888 0.0919168 -0.11716395 -0.05174586 -0.19054031 0.08322623
-0.050906762 0.03720215 0.14067695 -0.17693976 -0.10574486 -0.033487678 0.008348867 0.047243148
-0.15802446 -0.056475446 -0.029022232 -0.15655023 -0.17714375 -0.1389209 0.15117362 0.071237326
0.090629905 -0.13270688 0.17771783 -0.11432625 -0.089022905 -0.051703274 -0.025914043 0.1952635
-0.11678159 -0.07091269 -0.029082447 -0.029055417 -0.03562799 -0.13219127 0.19025451 0.007047534
0.10316554 0.057689875 0.17675519 0.22008121 0.023745298 0.07856014 -0.212608 0.15831372
-0.2082406 0.117346376 -0.11321982 0.03875798 0.09816873 -0.20295127 0.21745372 -0.06514697
-0.07971649 0.16947734 -0.105825365 0.04669276 -0.061692372 -0.18498293 -0.11575758 -0.16506504
0.18335634 0.048794687 -0.07422589 -0.022949517 -0.03463687 -0.19256814 0.13875625 0.06140095
0.01052022 -0.00055092573 -0.2203667 -0.16987546 0.1188975 0.19355479 0.11374241 -0.11854787
-0.08601144 0.08781743 -0.056366265 -0.069818005 0.2195316 0.11647254 0.08077997 0.09863067
0.0775038 0.059628516 -0.18137491 0.19669288 -0.0754416 -0.15180226 -0.03726667 -0.021515876
0.1881806 0.04086885 -0.22199933 -0.18351102 -0.20080683 -0.0371556 -0.17769235 -0.17729172
-0.17575374 -0.038609177 0.022157937 0.21323317 -0.11166783 0.21435234 -0.10171722 0.20797554
0.15829793 0.21101314 0.106470525 -0.15919349 -0.008799449 -0.078609765 -0.056269735 0.11613497
-0.017190322 -0.13198237 0.18703443 0.15210015 0.08949041 -0.10923861 0.15982467 0.054989934
0.18131134 -0.12040766 -0.050339818 -0.020396397 0.08476636 0.083436936 0.14634106 -0.042325795
-0.15924543 -0.15179516 -0.04786569 0.2225681 0.07064074 0.18316436 -0.11228328 -0.033917233
-0.09228398 0.047567844 0.150655 0.22184277 0.16403714 -0.15987986 0.12958497 0.15968618
00000000: 2a52 503e 52fb 0f3e b81e 863d b404 8a3d
00000010: 5d50 febd ff5d 2ebe 0f55 3ebe 3000 573d
00000020: e03d 71bd e044 97bb e802 89bd 46c9 20be
00000030: a01f b43c ccb8 05bd c89d 1cbe 3819 9b3d
00000040: 4c09 233e 4409 04bd d051 5d3d 5843 0b3e
00000050: f045 973d 86b4 41be cbd7 27be 0037 dc3d
00000060: 98f1 cebc b403 183e 8407 57bd da30 38be
00000070: ac63 21be be5d 0abe 2457 c3bd a8b8 c13d
00000080: ca6e 28be a42d 293e 721f 103e dc29 033e
00000090: 28d9 f7bc 42e8 1fbe 04ae c63d 08b1 713d
000000a0: 50dd 28bc e8fd 66bd d0c7 883c 9072 223d
000000b0: bea9 363e 30da f6bc 5a8e 81bd 40c9 733d
000000c0: 122b 2abe accb 453e b81b 7c3d f8a3 873c
000000d0: ea73 1dbe cf38 46be 1677 f6bd a01c 093d
000000e0: a2c9 45be 945e 08be ac94 d73d b853 493e
000000f0: 94ab 03bd 5ca0 443e f4af ff3d eb5a 5fbe
00000100: f5ba 21be 801d 32bb 2e1b 0e3e 1ccf b3bd
00000110: 10d4 5f3e 3c0d 7bbd 789b cb3d 6007 003d
00000120: 048b 6dbd 864e 453e b8d0 023d 348a 0d3e
00000130: 9f2a fabd e0a5 223e 8a6a 413e e30f ecbd
00000140: f800 dd3d 68f6 b73d ac36 0dbd f822 b1bd
00000150: f4e3 1ebd 024d 38be 2c02 7cbd a402 2c3e
00000160: bcdd 0cbd 6c2b 203e f872 1f3d 70d2 303d
00000170: b2b5 043e b43a 4e3e a03d 8dbc 0e87 373e
00000180: a443 aebd e0b4 07be b41d 103e 0a5d d0bd
00000190: 0085 413a 0079 5fba 584e 0b3e 7ee7 35be
000001a0: eff3 51be 10bd 443d f434 1ebe e03e bc3d
000001b0: a7f3 efbd 78f3 53bd 001d 43be 8472 aa3d
000001c0: 9c83 50bd 4861 183d 9e0d 103e b22f 35be
000001d0: c390 d8bd 602a 09bd b0c9 083c 0882 413d
000001e0: 2ad1 21be cc52 67bd 08c0 edbc b44e 20be
000001f0: 2c65 35be 4841 0ebe 42cd 1a3e e0e4 913d
00000200: 2c9c b93d 50e4 07be aafb 353e e223 eabd
00000210: a451 b6bd d0c6 53bd b049 d4bc 28f3 473e
00000220: 302b efbd ac3a 91bd 503e eebc a005 eebc
00000230: a8ee 11bd 265d 07be 14d2 423e 00ef e63b
00000240: 7448 d33d 384c 6c3d 50ff 343e f85c 613e
00000250: 8085 c23c 24e4 a03d e9b5 59be fe1c 223e
00000260: 063d 55be 4c53 f03d cbdf e7bd b0c0 1e3d
00000270: b00c c93d 75d2 4fbe 30ac 5e3e c66b 85bd
00000280: 6642 a3bd 788b 2d3e f8ba d8bd e840 3f3d
00000290: 24b1 7cbd 2a6c 3dbe 4f12 edbd cf06 29be
000002a0: c4c1 3b3e f0dc 473d be03 98bd a000 bcbc
000002b0: 64df 0dbd 9530 45be 1e16 0e3e 907f 7b3d
000002c0: 005d 2c3c 006c 10ba cfa7 61be d5f3 2dbe
000002d0: 8880 f33d 3a33 463e c8f1 e83d 3ac9 f2bd
000002e0: c426 b0bd a0d9 b33d 50e0 66bd befc 8ebd
000002f0: e4cc 603e 2889 ee3d f86f a53d e0fe c93d
00000300: 50ba 9e3d 083d 743d 58ba 39be dc69 493e
00000310: 2081 9abd 0d72 1bbe f0a4 18bd 1042 b0bc
00000320: 6ab2 403e 1866 273d cb53 63be 50ea 3bbe
00000330: 4ea0 4dbe 7830 18bd fcf4 35be f68b 35be
00000340: caf8 33be a824 1ebd 9084 b53c cc59 5a3e
00000350: 1ab2 e4bd 2e7f 5b3e 1e51 d0bd 8af7 543e
00000360: da18 223e d413 583e 380d da3d 9e03 23be
00000370: 902b 10bc 28fe a0bd 187b 66bd 2cd8 ed3d
00000380: b8d2 8cbc 6326 07be f485 3f3e 24c0 1b3e
00000390: c046 b73d 7eb8 dfbd 14a9 233e 203d 613d
000003a0: aea9 393e 4b98 f6bd 2031 4ebd 5816 a7bc
000003b0: fc99 ad3d fce0 aa3d 6eda 153e d05d 2dbd
000003c0: 3c11 23be 3170 1bbe d00e 44bd e4e8 633e
000003d0: 18ac 903d 708f 3b3e c7f4 e5bd ccec 0abd
000003e0: 62ff bcbd 80d6 423d 4e45 1a3e c02a 633e
000003f0: 5af9 273e 8cb7 23be ecb1 043e c684 233e

bias f4 [1, 20]
0.0 0.0 0.0 0.0 0.0 0.0 0.0 0.0
0.0 0.0 0.0 0.0 0.0 0.0 0.0 0.0
0.0 0.0 0.0 0.0
00000000: 0000 0000 0000 0000 0000 0000 0000 0000
00000010: 0000 0000 0000 0000 0000 0000 0000 0000
00000020: 0000 0000 0000 0000 0000 0000 0000 0000
00000030: 0000 0000 0000 0000 0000 0000 0000 0000
00000040: 0000 0000 0000 0000 0000 0000 0000 0000

weight f4 [20, 20]
-0.2516761 0.28689152 0.42850173 -0.16201717 -0.08070146 0.26030934 0.19522958 -0.31713566
-0.31458962 0.06022002 0.22838159 -0.12366301 -0.09448535 0.19168289 -0.035410836 -0.051649258
0.0608226 -0.040992822 -0.09285911 -0.1674885 0.1506854 0.08569552 0.09138206 0.12665643
0.16984357 0.002799558 0.036219083 -0.088346645 -0.15107222 0.23663248 0.4042011 -0.16255961
0.030525101 0.17067106 0.09393607 0.17471223 -0.16793571 -0.21398969 -0.23501252 -0.055248078
-0.025574472 0.017189886 -0.053925365 -0.01252816 0.17001021 0.045740433 -0.21559353 -0.15487589
0.056997165 -0.022004686 -0.09631811 -0.08953097 -0.17242496 0.21601364 -0.06132122 0.057306927
0.10208959 -0.072900645 0.016523309 0.047501698 -0.08675822 0.04781429 0.3259289 -0.04886625
-0.13877167 0.1439462 0.09963008 -0.19723462 -0.33206403 0.10075742 0.15888524 -0.2711521
0.092083134 0.23429357 0.049518228 0.23709416 -0.068876006 -0.2512478 -0.072285146 -0.018320901
-0.15622199 -0.14584026 0.037191827 0.02157403 0.0158872 0.0014556781 -0.108650945 0.023888992
0.34566444 0.10381092 -0.13671666 -0.10425697 0.06721792 -0.30008408 -0.04211757 -0.03986912
0.24307011 0.22456555 -0.01128752 0.26235864 -0.11305399 -0.3927484 -0.4286019 0.14018373
-0.20791675 -0.08897325 -0.291633 0.009553126 0.2364115 -0.41058198 -0.16479822 0.21401772
-0.1763293 -0.18832487 -0.12502608 -0.010035837 0.010333375 0.14895748 0.047361996 0.1753471
-0.06270288 0.12166035 0.05730428 -0.07002381 0.0016861435 0.23111558 0.23852785 -0.079502605
-0.13714667 0.2941048 -0.122142516 -0.2517973 -0.23652531 0.25762835 0.08384634 0.082368694
0.15354086 0.07967886 -0.09318452 0.082242616 0.1879549 0.1749677 -0.07019848 -0.140349
0.17785083 -0.047372717 0.058603145 -0.18263969 0.15224873 -0.17139491 0.033720933 -0.14931041
-0.13706733 0.22060642 -0.1549703 0.050309718 -0.07831143 0.213453 -0.16267878 0.12549546
0.16243479 0.25098002 0.06493171 -0.007131814 -0.17246321 0.0203831 -0.15700099 -0.19209875
-0.04045092 0.27005586 0.19929275 -0.08607805 -0.08768547 0.12929608 0.042535637 -0.16257313
-0.2502123 0.1550212 0.0049694194 -0.1690965 -0.037214313 0.103161685 -0.07494161 -0.036613725
0.07836183 0.08867977 0.14963663 0.16728912 0.010669905 -0.2213378 -0.093593605 0.048590112
0.07441588 -0.044342287 -0.17510061 0.14284992 -0.05171929 0.21824805 -0.07771439 0.083364815
0.11293424 0.048412655 0.08930592 -0.1095375 -0.11115931 -0.08373558 0.0784146 0.1583535
0.11425471 -0.16759759 -0.32770795 0.13218734 0.04851625 -0.29125518 0.053757504 0.18028976
0.059980612 -0.13321035 0.13264357 0.27476904 0.15613778 0.0593534 0.15468799 -0.22818622
0.084001474 -0.047629718 0.0806338 0.050137606 -0.24542788 0.14849825 0.14412053 -0.0409356
-0.08934247 -0.07874112 -0.03606831 0.13678478 0.050255395 -0.16285962 0.07613988 -0.23458865
-0.17258316 -0.20962201 -0.22639465 0.06886443 -0.15635416 0.07075687 -0.13455737 0.22517166
-0.0014748994 -0.07244036 -0.06960384 0.02880452 -0.093810655 -0.14098898 0.12364371 -0.0050720703
00000000: b1db 80be 72e3 923e 9464 db3e d4e7 25be
00000010: cf46 a5bd 4447 853e 43ea 473e 9b5f a2be
00000020: e411 a1be 45a9 763d dddc 693e 0843 fdbd
00000030: 8981 c1bd 8548 443e f40a 11bd 2c8e 53bd
00000040: 1e21 793d 17e8 27bd eb2c bebd 1b82 2bbe
00000050: 464d 1a3e 2281 af3d 8426 bb3d 39b2 013e
00000060: 79eb 2d3e ca78 373b 765a 143d 16ef b4bd
00000070: adb2 1abe c94f 723e 72f3 ce3e 0776 26be
00000080: c70f fa3c 65c4 2e3e 8e61 c03d c3e7 323e
00000090: 57f7 2bbe 1d20 5bbe 1fa7 70be cf4b 62bd
000000a0: 8e81 d1bc ced1 8c3c d8e0 5cbd e942 4dbc
000000b0: 2817 2e3e 525a 3b3d 8dc4 5cbe c997 1ebe
000000c0: dc75 693d 2c43 b4bc 6e42 c5bd 035c b7bd
000000d0: 2b90 30be ae32 5d3e f62b 7bbd abba 6a3d
000000e0: 5914 d13d ef4c 95bd e45b 873c 2491 423d
000000f0: 4bae b1bd ebd8 433d 27e0 a63e fa27 48bd
00000100: 291a 0ebe a266 133e db0a cc3d dff7 49be
00000110: 4c04 aabe e859 ce3d d0b2 223e 73d4 8abe
00000120: 1596 bc3d a7ea 6f3e a0d3 4a3d d0c8 723e
00000130: dd0e 8dbd 8da3 80be 3c0a 94bd b715 96bc
00000140: a8f8 1fbe 2657 15be 7556 183d 05bc b03c
00000150: e025 823c 74cc be3a 6384 debd d9b2 c33c
00000160: eefa b03e d29a d43d 74ff 0bbe ae84 d5bd
00000170: 8da9 893d 9fa4 99be 7983 2cbd cd4d 23bd
00000180: 5fe7 783e 83f4 653e 4aef 38bc df53 863e
00000190: da88 e7bd 5116 c9be b571 dbbe 538c 0f3e
000001a0: 21e8 54be 9b37 b6bd ec50 95be b784 1c3c
000001b0: db15 723e cd37 d2be ddc0 28be 7627 5b3e
000001c0: ab8f 34be 3cd8 40be d606 00be 5a6d 24bc
000001d0: 514d 293c 4f88 183e a7fe 413d 318e 333e
000001e0: 5e6a 80bd 1029 f93d e5b7 6a3d a568 8fbd
000001f0: 9601 dd3a 90a9 6c3e a540 743e 43d2 a2bd
00000200: 2d70 0cbe e894 963e db25 fabd 93eb 80be
00000210: b133 72be dde7 833e a1b7 ab3d ebb0 a83d
00000220: d139 1d3e ac2e a33d 87d7 bebd d16e a83d
00000230: 4077 403e bc2a 333e 38c4 8fbd a6b7 0fbe
00000240: 871e 363e e509 42bd da09 703d e605 3bbe
00000250: 17e7 1b3e 2682 2fbe f61e 0a3d d4e4 18be
00000260: 615b 0cbe a6e6 613e 89b0 1ebe 9011 4e3d
00000270: be61 a0bd 6c93 5a3e 4495 26be e281 003e
00000280: 4e55 263e 7480 803e ebfa 843d feb1 e9bb
00000290: 329a 30be 75fa a63c dec4 20be 89b5 44be
000002a0: ddaf 25bd c344 8a3e 6613 4c3e b049 b0bd
000002b0: 7194 b3bd 3166 043e d939 2e3d 9279 26be
000002c0: d41b 80be e1bd 1e3e 83d6 a23b a227 2dbe
000002d0: 096e 18bd 6f46 d33d fd7a 99bd 46f8 15bd
000002e0: 2b7c a03d bd9d b53d 583a 193e d74d 2b3e
000002f0: d3d0 2e3c 60a6 62be 01ae bfbd 6d06 473d
00000300: 5a67 983d 42a0 35bd 934d 33be 4047 123e
00000310: 9bd7 53bd 6b7c 5f3e b928 9fbd 2cbb aa3d
00000320: 114a e73d 594c 463d 06e6 b63d 3255 e0bd
00000330: 7ea7 e3bd 8f7d abbd d597 a03d 6b27 223e
00000340: 60fe e93d b49e 2bbe 56c9 a7be 1e5c 073e
00000350: fab8 463d 661f 95be d430 5c3d e19d 383e
00000360: 3bae 753d 4b68 08be b7d3 073e 87ae 8c3e
00000370: 95e2 1f3e 8d1c 733d 8766 1e3e a6a9 69be
00000380: f708 ac3d 6117 43bd 5523 a53d 175d 4d3d
00000390: 7251 7bbe ed0f 183e 5594 133e 16ac 27bd
000003a0: 2ff9 b6bd 0643 a1bd 5dbc 13bd 4f11 0c3e
000003b0: 9ad8 4d3d acc4 26be 3aef 9b3d 0238 70be
000003c0: a4b9 30be 27a7 56be 00d4 67be cb08 8d3d
000003d0: 4e1b 20be fae8 903d 68c9 09be 6693 663e
000003e0: 6951 c1ba 9d5b 94bd 758c 8ebd 75f7 eb3c
000003f0: cd1f c0bd 6a5f 10be ea38 fd3d 9c33 a6bb

weight f4 [20, 10]
0.090339094 -0.23355754 0.07524812 -0.2918546 -0.28108186 -0.29620817 -0.22578523 -0.2090585
-0.14797053 -0.19127691 -0.0314188 0.15979165 -0.30335543 -0.045384467 -0.057145894 0.23986712
-0.07033737 -0.1783222 -0.056731433 -0.18794337 0.23950759 -0.14033395 -0.121582046 -0.26033622
0.18741748 -0.14199097 0.049849153 0.2331588 -0.23938915 0.071205765 -0.23999989 0.017828882
0.026109338 0.29781935 0.18336365 0.0676164 0.1341519 -0.123373985 0.30663815 -0.080441445
-0.30807304 0.14059705 0.23436937 -0.3151578 0.18986109 0.21333578 -0.10870057 0.21361634
0.24101087 0.25631854 -0.15522914 -0.2342476 0.0106833875 -0.28940186 0.15925065 0.14243028
-0.15353268 0.17290449 -0.1300719 -0.23830965 0.09972662 -0.27837327 -0.09298119 0.09720817
0.16341573 0.072526425 0.064237386 0.18309975 0.16462317 0.24120864 -0.29022613 -0.2947377
0.10110918 0.038836986 0.15038368 -0.03717631 -0.11735441 0.15388486 -0.027953774 0.10238162
-0.07663897 -0.14706187 0.044695795 0.17173687 -0.2618184 0.2663003 -0.22648665 0.13434914
-0.1411449 -0.17494395 0.3003975 0.13787723 -0.14081316 -0.18061739 0.033501744 -0.26756757
0.20594522 -0.038873076 -0.082172364 -0.17332692 0.2506291 0.1409598 0.3009691 -0.101612955
-0.08235292 0.2242386 0.1456913 -0.18559231 -0.20776987 0.12323281 0.24259064 -0.077539206
0.17107949 0.030176938 -0.29759803 -0.26028007 -0.17819783 -0.114769354 -0.25052398 0.17937085
-0.29610875 -0.25201076 0.2139931 0.0020275116 0.2257351 -0.14663249 -0.2201358 -0.1809365
-0.19093555 0.12678215 -0.2746691 -0.038777262 -0.27256748 0.17132214 0.13768429 -0.0243648
0.2818583 -0.044934303 -0.10987304 0.06596902 0.05007267 -0.2770498 0.180121 -0.1264505
-0.19372153 -0.06364459 0.18470594 0.06796375 0.15728727 -0.13218184 0.29986528 0.15056765
0.058449984 -0.17526852 0.11621553 -0.28324565 -0.24744296 8.326769e-05 -0.13856226 -0.08627759
0.10660145 0.049411714 -0.21983954 -0.16411887 0.17341292 -0.016095072 -0.26275462 0.29287198
0.037846297 0.1431664 -0.26436493 -0.17008552 -0.008711457 0.112541705 0.10527745 0.25440332
0.18424615 0.071449906 -0.038412035 0.17882964 -0.2021316 -0.2644564 -0.2873017 0.31125864
-0.15707804 -0.23735338 0.13124669 0.21106061 -0.09863639 -0.0256204 0.123912364 -0.1062417
-0.26454937 0.086269945 0.13299516 -0.24854952 0.04760304 0.055505306 -0.024385989 0.11909032
00000000: b403 b93d b529 6fbe b01b 9a3d f76d 95be
00000010: f6e9 8fbe 99a8 97be 3e34 67be 6e13 56be
00000020: 9685 17be 18de 43be 00b1 00bd 6ca0 233e
00000030: 6751 9bbe 10e5 39bd d011 6abd ba9f 753e
00000040: 0a0d 90bd 189a 36be 385f 68bd 3a74 40be
00000050: 7a41 753e b4b3 0fbe 0200 f9bd ca4a 85be
00000060: 5eea 3f3e 1566 11be a02e 4c3d 2ec1 6e3e
00000070: 6e22 75be 54d4 913d 88c2 75be e00d 923c
00000080: 40e3 d53c c77b 983e aec3 3b3e 787a 8a3d
00000090: 1e5f 093e 80ab fcbd adff 9c3e 7cbe a4bd
000000a0: c0bb 9dbe acf8 0f3e 86fe 6f3e 5d5c a1be
000000b0: f26a 423e b274 5a3e 689e debd 3ebe 5a3e
000000c0: 8ecb 763e 2f3c 833e 63f4 1ebe 9ade 6fbe
000000d0: 6009 2f3c 7b2c 94be 9a12 233e 3ed9 113e
000000e0: ac37 1dbe e00d 313e 9131 05be 7207 74be
000000f0: 783d cc3d f186 8ebe ec6c bebd 1415 c73d
00000100: 7456 273e bc88 943d e48e 833d 807e 3b3e
00000110: fa92 283e 66ff 763e 8598 94be dce7 96be
00000120: 5412 cf3d 8813 1f3d 2efe 193e 3046 18bd
00000130: 8257 f0bd fe93 1d3e 50ff e4bc 74ad d13d
00000140: e4f4 9cbd 6397 16be f012 373d cadb 2f3e
00000150: 100d 86be 8358 883e 1eec 67be d292 093e
00000160: 4a88 10be 8224 33be b3cd 993e b02f 0d3e
00000170: 5331 10be c4f3 38be 2039 093d 9efe 88be
00000180: 4ee3 523e 6039 1fbd fc49 a8bd 9d7c 31be
00000190: 7552 803e c457 103e 9f18 9a3e 741a d0bd
000001a0: a6a8 a8bd ce9e 653e 1a30 153e e90b 3ebe
000001b0: a0c1 54be 7c61 fc3d ae69 783e e0cc 9ebd
000001c0: 762f 2f3e a035 f73c c55e 98be 6e43 85be
000001d0: 7e79 36be 320c ebbd ae44 80be feac 373e
000001e0: 919b 97be 8e07 81be 0221 5b3e 00e0 043b
000001f0: 1a27 673e d426 16be 476b 61be 6b47 39be
00000200: 9c84 43be 2ed3 013e 6ea1 8cbe e8d4 1ebd
00000210: f78d 8bbe 126f 2f3e 1cfd 0c3e b098 c7bc
00000220: bb4f 903e 080d 38bd 1e05 e1bd c41a 873d
00000230: 0019 4d3d 79d9 8dbe a471 383e 3d7c 01be
00000240: f05e 46be 1858 82bd 8e23 3d3e 9430 8b3d
00000250: ea0f 213e ad5a 07be f187 993e 682e 1a3e
00000260: 4069 6f3d 9779 33be 6802 ee3d 9305 91be
00000270: b061 7dbe 00a0 ae38 44e3 0dbe 4eb2 b0bd
00000280: dc51 da3d f063 4a3d 9e1d 61be c70e 28be
00000290: 2893 313e d0d9 83bc c687 86be 51f3 953e
000002a0: b804 1b3d 369a 123e d75a 87be e62a 2ebe
000002b0: 80ba 0ebc 447c e63d b49b d73d 2741 823e
000002c0: 06ab 3c3e 5454 923d f055 1dbd 1e1f 373e
000002d0: 96fb 4ebe d466 87be 3519 93be 4b5d 9f3e
000002e0: 11d9 20be c40c 73be 8865 063e 4620 583e
000002f0: e001 cabd e0e1 d1bc c4c5 fd3d 4095 d9bd
00000300: 0473 87be 4cae b03d e22f 083e c483 7ebe
00000310: 68fb 423d 8859 633d 20c5 c7bc a0e5 f33d

bias f4 [1, 10]
0.0 0.0 0.0 0.0 0.0 0.0 0.0 0.0
0.0 0.0
00000000: 0000 0000 0000 0000 0000 0000 0000 0000
00000010: 0000 0000 0000 0000 0000 0000 0000 0000
00000020: 0000 0000 0000 0000

weight f4 [10, 20]
-0.13036245 -0.05042808 0.05917858 -0.05247987 0.29050687 0.44673327 -0.36117688 -0.09271396
-0.18198898 -0.14074557 0.33623254 0.106744535 0.039653204 0.032339483 0.15808575 0.06461418
0.016187336 -0.24326237 0.084365405 -0.26631868 -0.4177903 -0.060765594 0.091342665 -0.3567605
0.26510724 0.104868695 -0.04767527 -0.0058820643 0.06528387 -0.022289451 -0.03957243 -0.11083132
0.21106295 -0.10560245 0.10093857 -0.055820525 0.19043982 -0.26014945 0.0528437 -0.038749866
-0.11662478 -0.27828145 -0.12837763 -0.0155139845 0.049941402 0.13531296 -0.37906736 0.097136535
0.04656452 0.27388996 0.30295432 -0.09884474 0.0473294 -0.19013269 -0.19770011 0.21693261
0.36301827 -0.14191055 0.016165912 -0.28937256 -0.068700425 -0.19428085 -0.21139817 -0.3080847
0.064517014 0.19587581 0.0037595762 -0.079914205 -0.13770895 0.17002992 0.26144314 -0.0579289
0.20880175 -0.043006904 -0.1896375 -0.18543212 -0.13503142 -0.09803633 -0.08355852 -0.2155471
-0.2879878 -0.20625515 -0.17464697 -0.24731664 0.077898845 0.049157143 0.10891921 -0.18252069
-0.2768557 0.034405533 0.050325125 0.08072259 0.056633443 -0.22283712 -0.0748837 0.16477764
0.29583693 0.09039129 -0.13633898 -0.14623308 -0.050289195 -0.18321733 0.059259504 -0.29080772
-0.01127832 0.099525064 0.1650913 -0.16447462 -0.16526896 0.14822163 0.30843922 -0.16296992
-0.10066196 -0.16344318 -0.15087892 -0.12308332 0.11485034 -0.10591787 -0.10960046 -0.07696589
-0.26349682 0.14854382 -0.054807514 -0.112615995 0.32620332 -0.029298274 0.02615285 -0.052890636
-0.22878915 -0.009363437 0.31134194 -0.051310875 0.1612409 -0.13699016 0.17658636 -0.1734441
-0.08905329 -0.29276487 -0.17721382 0.048799276 0.03763289 -0.12911142 -0.024739817 -0.23174144
-0.072202 -0.010380739 0.015887022 -0.08353968 -0.19542661 -0.027476393 0.26514035 -0.14380485
-0.1413014 -0.21662752 0.1595642 -0.14447863 -0.129593 -0.26594865 -0.1932152 -0.2812292
-0.19199309 0.06894078 0.0050861463 -0.09120092 0.13831595 0.097153924 -0.09362783 0.15923281
-0.24191731 0.20622206 0.08164334 0.1424006 0.19542794 -0.11365079 0.11919907 0.21471724
0.1696618 -0.27772897 -0.29296032 -0.08075145 -0.12054247 -0.18419908 0.08647751 -0.007742064
0.27766794 0.009802308 0.16333173 -0.1757781 -0.1411733 -0.112981655 0.035949677 -0.08915809
0.18367079 -0.027157128 -0.22584037 0.19663109 -0.039858896 -0.28948006 0.14341694 -0.31078854
00000000: bc7d 05be ad8d 4ebd 3d65 723d 22f5 56bd
00000010: 51bd 943e 39ba e43e 2dec b8be d1e0 bdbd
00000020: 525b 3abe 9b1f 10be ac26 ac3e e19c da3d
00000030: 666b 223d 6876 043d 3be1 213e 7054 843d
00000040: 4e9b 843c c519 79be c5c7 ac3d ec5a 88be
00000050: 9ce8 d5be 58e5 78bd dd11 bb3d 50a9 b6be
00000060: 23bc 873e 66c5 d63d 2547 43bd 55be c0bb
00000070: 8db3 853d 5e98 b6bc b316 22bd 88fb e2bd
00000080: e320 583e 1946 d8bd e2b8 ce3d 10a4 64bd
00000090: a802 433e 4f32 85be a372 583d 2eb8 1ebd
000000a0: f9d8 eebd e87a 8ebe 6d75 03be 5e2e 7ebc
000000b0: 5b8f 4c3d 7b8f 0a3e 1e15 c2be 85ef c63d
000000c0: 70ba 3e3d 4e3b 8c3e d41c 9b3e 1c6f cabd
000000d0: 79dc 413d 25b2 42be e671 4abe 9523 5e3e
000000e0: 88dd b93e 0051 11be 606e 843c a428 94be
000000f0: cfb2 8cbd 8ff1 46be c378 58be 47bd 9dbe
00000100: 7f21 843d ab93 483e 3963 763b 0faa a3bd
00000110: 9303 0dbe 531c 2e3e e0db 853e db46 6dbd
00000120: 20d0 553e 0228 30bd 5530 42be ebe1 3dbe
00000130: ad45 0abe 45c7 c8bd bb20 abbd 61b8 5cbe
00000140: 2373 93be 8d34 53be a8d6 32be 9340 7dbe
00000150: 6e89 9f3d 0059 493d 0911 df3d b4e6 3abe
00000160: 08c0 8dbe d1ec 0c3d b821 4e3d e351 a53d
00000170: 78f8 673d 6a2f 64be a05c 99bd 78bb 283e
00000180: f077 973e 121f b93d 729c 0bbe 20be 15be
00000190: 0bfc 4dbd 539d 3bbe 18ba 723d c0e4 94be
000001a0: b4c8 38bc ccd3 cb3d b20d 293e 096c 28be
000001b0: 443c 29be 69c7 173e bfeb 9d3e 96e1 26be
000001c0: dc27 cebd a65d 27be 0180 1abe 1c13 fcbd
000001d0: a836 eb3d 78eb d8bd 3576 e0bd 4ba0 9dbd
000001e0: 0ee9 86be df1b 183e d87d 60bd 37a3 e6bd
000001f0: 1f04 a73e ef02 f0bc 803e d63c daa3 58bd
00000200: b447 6abe 1a69 19bc 3668 9f3e 5a2b 52bd
00000210: 561c 253e 2647 0cbe 0ed3 343e 559b 31be
00000220: 9261 b6bd 47e5 95be 8a77 35be c0e1 473d
00000230: f224 1a3d c935 04be 28ab cabc a14d 6dbe
00000240: a4de 93bd fa13 2abc 8025 823c da16 abbd
00000250: ea1d 48be 2c16 e1bc 7ac0 873e 9441 13be
00000260: 50b1 10be 9bd3 5dbe cc64 233e 35f2 13be
00000270: 07b4 04be 6c2a 88be 35da 45be 46fd 8fbe
00000280: d699 44be d330 8d3d b0a9 a63b 8cc7 babd
00000290: b2a2 0d3e a3f8 c63d f3bf bfbd ed0d 233e
000002a0: 2cb9 77be e02b 533e a034 a73d 76d1 113e
000002b0: 431e 483e bfc1 e8bd a41e f43d d6de 5b3e
000002c0: d3bb 2d3e 7e32 8ebe e5fe 95be 0461 a5bd
000002d0: f8de f6bd af9e 3cbe 1f1b b13d 24b1 fdbb
000002e0: 7e2a 8e3e dc99 203c 6f40 273e 2dff 33be
000002f0: bc8f 10be ed62 e7bd f83f 133d 8498 b6bd
00000300: 3214 3c3e a078 debc b342 67be a959 493e
00000310: 1543 23bd bb36 94be e4db 123e ad1f 9fbe
