neuromancer/train_scripts/papers/flexy/device_test_models/model2/best_dynamics_flexy.pth (torch, 93415 bytes, 38 tensors)

weight f4 [30, 30]
00000000: 0e56 153e 962f a6bd 0eea 093e 50d5 073e
00000010: b8ba 953c 30c8 13be ac71 8a3d b8c0 e53c
00000020: c05b 57bc bc1c 273e c2eb 02be e8d0 393d
00000030: de98 fdbd 1833 81bd 4dfb 17be b4b9 a23d
00000040: 68af 6e3d 1cf7 25bd 50e2 4dbd 2de7 00be
00000050: 6ab8 77bd 5cea cc3d e8c3 f13c c648 813d
00000060: 00e5 533a bd9a cbbd 2c37 01be 3887 bebd
00000070: 0be0 94bd a8f3 18be a4fe 12be 1470 8b3d
00000080: e838 353e 7009 af3d 2fde 87bd c47a 653d
00000090: aecb 153e 3ca5 a53d fef6 033e 44f5 f53d
000000a0: 0837 e53d 2304 84bd 0918 30be f4c8 1e3d
000000b0: 3e76 1d3e 4203 00be 80da 4d3c 04a4 163e
000000c0: e06c 58bd d2aa 353e e02c 02bd e040 bf3b
000000d0: 80c8 093b c0c8 07be d8fd 443d 88be fbbc
000000e0: 783a e43d 0a39 09be 2001 c3bb cc6c 123e
000000f0: c01b 9bbb 0026 dfbc 9065 02be e063 5d3c
00000100: 6c30 393e 4cc4 fb3d 3343 9fbd a895 ba3c
00000110: 70a1 f83c f49b 363d ad05 a7bd c868 d63c
00000120: 8894 72bd f858 ce3c 48b0 eabd 28b1 24bd
00000130: 8091 82bc 94ff bd3d 037c 10be 48ca 3a3e
00000140: a0d7 ce3b afbf 0cbe 29a3 08be 8438 3cbd
00000150: f8f2 f9bc 8c3e 373d 6516 88bd 3448 123e
00000160: a454 a33d 0f62 80bd 3093 07bc c04d a4bb
00000170: ba6f 1b3e df53 36be b407 0d3e a4b2 92bd
00000180: cb88 b4bd cc92 a5bd ea14 273e c095 17be
00000190: cf73 efbd 7e24 e2bd a2e2 f4bd 387b e6bc
000001a0: 5de6 a2bd 78a6 ca3d 1c4c 983d 0218 a5bd
000001b0: 1a43 30be 04c1 debd 2003 8bbc ebe4 37be
000001c0: c824 943d cfb7 f0bd 04af 373e 6867 a2bd
000001d0: 538f 28be 70fc c93d 50cb 3e3c 80a6 b03b
000001e0: b087 a13c 408d 99bd b783 d0bd 24da d33d
000001f0: 4e7a 263e ecbb 033e 984e e23d 68b2 b13d
00000200: 408f b93d d99d adbd d031 173c 19c5 fdbd
00000210: f813 08bd 582a 67bd 98c0 103e 0cdc 6a3d
00000220: 68ef f33d 84b0 323e 3472 b93d 802a 2d3e
00000230: 0c1d 3a3e f24d 393e fce7 8f3d 1054 1a3e
00000240: ccf9 1abe c84b 963c a8de 293d 8064 bb3c
00000250: 3c7c c23d f832 893d 7510 a0bd d0fe 5f3c
00000260: aef7 063e 514c 0dbe b822 d9bc 5829 9f3d
00000270: 9855 20bd 0078 0639 4c54 353e bcd8 8e3d
00000280: 403c f8bb 98af 543d 2384 2cbe 3ebb 803d
00000290: 122c 32be a05f 473c c7b2 cdbd 14bd 38bd
000002a0: dcbd 09be 006c 0e3b b051 23bd 3b1d 13be
000002b0: 4838 fcbc ec51 26be d495 92bd bc81 e53d
000002c0: 1001 b83c 086b 8fbc f090 9e3c c891 33be
000002d0: 4938 39be fb0d b1bd 401b 9a3d fd40 28be
000002e0: c460 2d3e 0921 e5bd d4a9 7a3d 5ef0 2d3e
000002f0: f8b2 853c 54c8 b93d c8e9 e3bd 434e 12be
00000300: 2cbb 32bd fcd0 9a3d 00cb d13d e3bc d4bd
00000310: e4fb c73d 2a44 cbbd ec12 323e 4ff4 2bbe
00000320: c4e2 90bd 90eb 233e 8424 26be a23c 3a3e
00000330: 4e19 803d 8cf9 d23d bcef 053d 4c47 a13d
00000340: 8834 3bbd 2a62 173e 0b48 9abd f0f3 073d
00000350: a08e 5d3d c407 06bd 644d 0ebd 944a 8d3d
00000360: 3d4d 07be d28b 113e 78ce 70bd 1acb 82bd
00000370: e053 9c3d 50f1 f2bc 992a e5bd ec32 5cbd
00000380: 1e36 853d 469b 25be 50a2 c5bc bc2e bb3d
00000390: 8913 d3bd fa53 0cbe d5b5 19be 601d 14bd
000003a0: 9ecf 393e b438 0ebe 1924 99bd f820 f7bd
000003b0: b536 27be 640c 2cbe 604f 1c3e aaeb 253e
000003c0: 1e22 073e 0887 633d 488f c5bc 2013 d03d
000003d0: ab32 04be 4e54 863d ec9e 6c3d b20e 093e
000003e0: 9b85 e0bd 08b0 ce3d d716 eebd c8fe 113e
000003f0: 4054 523c c02a d83d aceb d43d 0a99 1f3e
0.14583609 -0.08114545 0.13468191 0.13264966 0.018277511 -0.14431834 0.067599624 0.028045997
-0.0131444335 0.16319555 -0.12785247 0.045365244 -0.12382673 -0.063085735 -0.14841957 0.07945576
0.05827275 -0.040518865 -0.050264657 -0.12588187 -0.060478605 0.10005638 0.02951236 0.063127086
0.0008083135 -0.09941623 -0.12618703 -0.09303135 -0.07269295 -0.14936697 -0.1435495 0.068084866
0.1769749 0.08546722 -0.06634175 0.05602528 0.14628479 0.080881566 0.12887189 0.12009671
0.11192137 -0.064461015 -0.17196669 0.038765863 0.15377137 -0.12501243 0.0125643015 0.14711004
-0.052838206 0.17740944 -0.031781077 0.005836591 0.0021024048 -0.13260174 0.048093647 -0.0307305
0.111439645 -0.13400665 -0.005951062 0.14299315 -0.0047335327 -0.0272398 -0.12734056 0.013512582
0.18084878 0.122933 -0.07776489 0.02277644 0.030350417 0.044582322 -0.081553794 0.02617301
-0.05922368 0.025188908 -0.11459404 -0.040208012 -0.01593852 0.09277263 -0.14109807 0.18241227
0.0063123256 -0.13744996 -0.1334349 -0.045952335 -0.030511364 0.044737384 -0.066448964 0.14285356
0.07975128 -0.06268703 -0.008274838 -0.0050141513 0.15179339 -0.17805432 0.1377247 -0.07162979
-0.08815154 -0.0808464 0.16316572 -0.14803219 -0.116920106 -0.110421166 -0.11957289 -0.028134927
-0.079540946 0.09895033 0.07436392 -0.0806122 -0.17213097 -0.108766586 -0.016969264 -0.17958419
0.07233578 -0.11753809 0.17937857 -0.079298794 -0.16460924 0.09862602 0.011645153 0.005390942
0.019718021 -0.074976444 -0.101813726 0.103443414 0.16257593 0.12864655 0.11050147 0.086766064
0.09060526 -0.08477373 0.009228185 -0.12391109 -0.03322217 -0.056436867 0.14135969 0.05733876
0.119108975 0.17450148 0.09054986 0.16910744 0.18175143 0.1809614 0.070266694 0.1507113
-0.15134352 0.018346682 0.041472107 0.02287507 0.09496352 0.06699175 -0.07815639 0.013671592
0.1318042 -0.13798644 -0.026505813 0.077715576 -0.03914413 0.0001282394 0.17707938 0.069749326
-0.0075755417 0.05192527 -0.16847281 0.062857136 -0.17399624 0.012168795 -0.10043865 -0.045102194
-0.13451332 0.0021731853 -0.039872825 -0.1436662 -0.030788556 -0.16242188 -0.07157484 0.112063855
0.022461444 -0.017507091 0.019356221 -0.1753608 -0.18087877 -0.08645245 0.07524729 -0.16431041
0.16931444 -0.111879416 0.061197117 0.16986224 0.01632069 0.09071413 -0.111285746 -0.14287667
-0.043635532 0.07559392 0.10243797 -0.1038759 0.09764841 -0.09925111 0.1739003 -0.16792415
-0.07074502 0.16007829 -0.16224867 0.18187192 0.062548265 0.103015035 0.03269933 0.07874927
-0.045704395 0.1478354 -0.07533272 0.03319162 0.054091096 -0.03272225 -0.034741774 0.0689899
-0.13213058 0.14213493 -0.058790654 -0.06386395 0.076331854 -0.029656082 -0.111897655 -0.0537595
0.06504463 -0.16172513 -0.024125248 0.09139773 -0.103064604 -0.1370391 -0.1501077 -0.036160827
0.18145606 -0.13888818 -0.07477588 -0.12066835 -0.16329463 -0.16801602 0.15264654 0.1620318
0.13196608 0.055548698 -0.024116173 0.10159898 -0.12909953 0.065590486 0.057768747 0.13384512
-0.10962983 0.10092169 -0.1162545 0.14257348 0.01283747 0.10555029 0.10396513 0.15585724

bias f4 [1, 30]
00000000: 0000 0000 0000 0000 0000 0000 0000 0000
00000010: 0000 0000 0000 0000 0000 0000 0000 0000
00000020: 0000 0000 0000 0000 0000 0000 0000 0000
00000030: 0000 0000 0000 0000 0000 0000 0000 0000
00000040: 0000 0000 0000 0000 0000 0000 0000 0000
00000050: 0000 0000 0000 0000 0000 0000 0000 0000
00000060: 0000 0000 0000 0000 0000 0000 0000 0000
00000070: 0000 0000 0000 0000
0.0 0.0 0.0 0.0 0.0 0.0 0.0 0.0
0.0 0.0 0.0 0.0 0.0 0.0 0.0 0.0
0.0 0.0 0.0 0.0 0.0 0.0 0.0 0.0
0.0 0.0 0.0 0.0 0.0 0.0

weight f4 [30, 30]
00000000: a513 2c3e 2f9e 5d3b 8f08 4bbe ff0f 5dbe
00000010: 3ca8 bc3c c7ac 58be 28e4 18bd 3531 ba3d
00000020: 9740 003e b1f4 693d 816b bc3d 3cf6 7cbe
00000030: e946 2ebc 87c7 c3bd 17dc 51bd 61c8 e3bd
00000040: f225 ccbd da9a c0bd 7b95 28bc 80fb fbbc
00000050: 3637 5f3e 33fc a1bd 3709 273d fc9a 383e
00000060: fb4e 25be aa06 86bd 8eaf c0bd 350b b23d
00000070: a3e1 c9bd 3983 8fbd fe23 2abe 064d f63a
00000080: 99ca 84bd 0685 a3bc 82a5 14bd 0d83 c63d
00000090: 4ee4 35be 6405 73bd 2cdb 863d 7747 33be
000000a0: dbd0 913d 6150 f73d 835d 0a3d 3e88 28be
000000b0: 25af b4bd 0a1c 28bd fbdd 0cbe 3ff9 98bd
000000c0: 3ad5 fc3d 3690 033d b7c6 09be f693 eebd
000000d0: 84ea e13d 55db e13c 90b1 f7bb dfef 013e
000000e0: f861 a93d 8dfd da3b de8c cf3d b6ba 6abd
000000f0: 1895 3b3d 01d5 0cbe 6bd4 343d cf71 c1bd
00000100: fe81 3c3e 723b 3a3c 6616 803d b21b d53d
00000110: 5af1 593d 6844 f63d f6e5 a83c c41f ac3d
00000120: c5b5 bdbd d475 c23d 67c1 393e ecbd 843d
00000130: 6db9 08be 8e57 fc3c b7ca 463c 485a 0fbe
00000140: a20b 1e3e 51ef bebd b8f1 44be 8146 41be
00000150: 951d ea3d 9ad2 1fbe 9b4b a83c c56d 213e
00000160: 125a ae3d d9eb 053e 19a5 c63d ff6c edbc
00000170: 84ac 4c3d 4521 383e 5518 47be 9239 133e
00000180: 7f76 213d da92 a23c 5fc1 423d d687 3ebe
00000190: 10e5 093e 5b6d 92bd 79b7 e4bd 593c 8cbc
000001a0: 1275 b03d 03a3 a3bd da4d b3bd 152f 7fbd
000001b0: 85b6 3c3e 4cd6 123c 4e12 e0bd f612 03be
000001c0: 113e 4b3d a343 27bd 0d2d 13bd 3a3b 923d
000001d0: 0fa6 9cbd 74ca 223e c77a 9ebd 9577 f9bd
000001e0: bc5a ecbd 8d88 f83c 34e9 0c3d 8b07 8dbd
000001f0: ae2d abbd ddee 33be 8f9a ab3d e03e b8bd
00000200: 0ee7 ff3c 194e 2c3e 2a9a b3bd 5ea7 e4bc
00000210: 7316 2abe d4ab 043e df17 103e e91e 04be
00000220: 2850 2a3e 228f 03be 0ded 14bd 3cad 4bbd
00000230: 672c 973d dfe9 113e d913 fa3d 42a6 123e
00000240: 505e febd aafb 0d3e 5617 273e d1fa 023e
00000250: 6621 08be 5d72 a93d 91b1 0e3e 661d 053d
00000260: 4237 963b bde5 3dbe a574 623e b84e 80bd
00000270: bcb6 183e 53b1 96bd dc0c 9b3d 03b8 6c3d
00000280: cca0 65bd 507d a73c 24bf 8dbd 183f 083d
00000290: 9f4e 2abd 47e6 3f3d 4a70 bebd f4c4 4c3d
000002a0: 1220 103e ed12 ebbd 3a05 9a3d a362 043e
000002b0: af96 f03c fe7c 7f3d 700d fcbd 7f86 32be
000002c0: 6086 303e 2956 e2bd 44af a93d 0520 67bd
000002d0: 6277 29be cf23 37bb 20cb 9c3d d8ae 8cbd
000002e0: 48ae 2abd 9882 52be e3b9 edbd 44c7 793d
000002f0: 453e edbd f217 3e3e 5d2e eb3d 04c5 273e
00000300: 882b 443d 813b f33d a396 303e bcf6 183e
00000310: 86ee c0bd 1d0b bd3d a90b a43d 44ee 83bb
00000320: 2503 f83d c2f0 f8bd c8fb cabd 0586 aaba
00000330: 7edd 323d 5d16 7abd 875e d5bd f91b 4abe
00000340: 5f2e 863e 8abf 483c d5b3 58bd 5aa6 b13d
00000350: 455a 2ebe 14ad e5bd 7a18 213e 337f c7bd
00000360: edf5 573d d3ec 1f3e 0c5a 27be 4467 283e
00000370: 5226 3dbe 10c7 203e fd5f 1cbe edce 5ebd
00000380: 4a62 0f3e 48ab 21bd 5bc6 8cbd 7b41 0e3a
00000390: 7bc1 09be a0b5 ac3c 8a78 053d ebd7 f5bd
000003a0: 8165 ffbd d953 06be 66e7 27bd e568 0c3d
000003b0: 025d 27be e147 07be 4acf 123e 850a 693e
000003c0: 6d84 1bbe 6fdf ce3c c8af 1c3e 4ee7 80b8
000003d0: 7a18 63bd a2e7 2c3e 8827 253e ad7f 82bc
000003e0: a361 0b3e cd8e 9ebd 3c94 103e 4dd9 25be
000003f0: 2b71 01be d3e6 df3d f56c e2bd 3a2b f13d
0.16804369 0.0033816209 -0.19827484 -0.21588133 0.02302944 -0.2115966 -0.03732696 0.09091417
0.12524639 0.05711812 0.09200192 -0.24703306 -0.0106370235 -0.09559541 -0.051235285 -0.111222036
-0.09968175 -0.094045356 -0.010289545 -0.030759573 0.21798405 -0.07909431 0.040780272 0.18027872
-0.1614341 -0.0654424 -0.094084844 0.08693544 -0.0985749 -0.070074506 -0.16615292 0.0018791265
-0.06483955 -0.019960891 -0.036290653 0.09692965 -0.17762873 -0.059331313 0.065847725 -0.1750773
0.07119914 0.12075878 0.033780586 -0.16458222 -0.08822469 -0.041042365 -0.13756554 -0.07469415
0.12345357 0.032119952 -0.1345471 -0.11649315 0.110310584 0.027570406 -0.007559009 0.1268916
0.08270639 0.0066830576 0.1013429 -0.057306968 0.045796484 -0.1375313 0.04414789 -0.094455354
0.18408963 0.011366712 0.06254272 0.10405673 0.053208686 0.12024766 0.020617466 0.08404496
-0.092631854 0.0949513 0.18140183 0.06481537 -0.13351984 0.030803468 0.012133292 -0.13999283
0.15434125 -0.0932299 -0.19232833 -0.18874551 0.114314236 -0.15607682 0.020543864 0.1576453
0.08513273 0.1307825 0.09699459 -0.028982637 0.04996921 0.17981441 -0.19442876 0.1437743
0.039419647 0.019845415 0.047547694 -0.18606505 0.13466287 -0.07149764 -0.11167807 -0.01711862
0.086160794 -0.079900764 -0.087550834 -0.06230076 0.18429 0.008962225 -0.10940991 -0.12800202
0.049619738 -0.040835988 -0.035931636 0.07140203 -0.07648861 0.15897542 -0.07738262 -0.121810116
-0.11540744 0.03033855 0.034402087 -0.06886204 -0.08358322 -0.17571588 0.08379089 -0.089963675
0.031238105 0.16826667 -0.08769639 -0.027911838 -0.16610126 0.12956172 0.14071606 -0.12902416
0.1663214 -0.1284757 -0.03635888 -0.049725756 0.07381516 0.14249371 0.12210817 0.14321235
-0.124203324 0.13865533 0.16317496 0.12790991 -0.1329399 0.08273766 0.13934924 0.03249874
0.004584224 -0.1854467 0.22114809 -0.062650144 0.14913458 -0.07358041 0.07570812 0.057792675
-0.05606155 0.020445496 -0.06921223 0.033263296 -0.041578885 0.04685047 -0.09298761 0.049992517
0.14074734 -0.11478219 0.07520528 0.12928252 0.029368727 0.06237506 -0.123072505 -0.17434119
0.1723876 -0.1105159 0.082853824 -0.05642702 -0.16549447 -0.0027944928 0.076559305 -0.06869286
-0.041670114 -0.2055763 -0.11607721 0.06098105 -0.115841426 0.18563822 0.114834525 0.16383749
0.047893077 0.11876584 0.17244963 0.14937872 -0.09420495 0.09230635 0.080100365 -0.004026206
0.12109975 -0.12155296 -0.09911305 -0.0013009912 0.043668263 -0.061056484 -0.1041842 -0.19737233
0.26207253 0.012252698 -0.052905876 0.08674307 -0.17026623 -0.11214653 0.15731993 -0.09741058
0.052724767 0.15617685 -0.16342944 0.16445643 -0.1847165 0.15700936 -0.15270992 -0.05439656
0.14002338 -0.039469987 -0.06873771 0.00054266275 -0.13452713 0.0210827 0.032585658 -0.12004074
-0.12470532 -0.13117923 -0.040992163 0.034279723 -0.16344073 -0.13211013 0.14336887 0.22757919
-0.15187235 0.025253026 0.1530143 -6.1465995e-05 -0.055443265 0.16885236 0.16128361 -0.015930021
0.13611464 -0.07742081 0.14119047 -0.16196175 -0.12640826 0.10932698 -0.11055938 0.11775823

weight f4 [30, 30]
00000000: c0bb f13d 808f 373e b765 12be 9ca2 c0bd
00000010: e8eb 2b3e f092 c5bc 30e1 b93c 006a bcba
00000020: 080f cf3d a869 9fbc 8aa8 e2bd 120d cbbd
00000030: 929c 0dbe b06b 35bc 00a9 6a3b e07a b13c
00000040: a007 f7bc ec1e 923d 87f9 16be f429 b83d
00000050: 5523 0bbe 94f5 2ebe 5828 833c 2083 153c
00000060: 948d e63d faea 23be 084b 1f3e aeec 39be
00000070: b810 a13d 0c97 f73d 1879 11be ac59 bb3d
00000080: 04b8 d1bd e469 2dbd 2ef8 2a3e f8ac ac3d
00000090: 9c87 bd3d 841c 0b3d 3804 34be de22 363e
000000a0: 46cf 37be 121b 3a3e 6469 1c3e 7638 213e
000000b0: 10aa 81bd 2b8e dbbd 0ce3 a4bd 0c52 283e
000000c0: 7a42 f6bd b02a ae3d acfe 92bd b024 86bd
000000d0: 98f4 bebc 1797 89bd 149e 2b3e 87df 27be
000000e0: 08e8 1e3d b731 cfbd 6c14 983d 01bf b7bd
000000f0: 9037 95bd f8e5 debc 2008 2a3d 740f 843d
00000100: f888 0c3e b81d be3d 94b0 d73d 24fc 903d
00000110: 2dc9 83bd dc92 903d 30f4 423c 1838 b23d
00000120: 6097 f83b 1a92 cfbd a8b5 a2bc ab0f 24be
00000130: 6040 b83b 603f db3c 107a cb3c c00a 933d
00000140: c48d babd 4467 fc3d e467 cf3d cf3c a6bd
00000150: 30a3 46bc 40a8 e8bd 56bf 29be 3055 793c
00000160: 30bd 68bc a20a 163e 0006 66bd 803e 353c
00000170: 6091 3bbc 80b0 cd3a b06f 743d c6c3 2abe
00000180: 520b 003e 882b 85bc 003f ea3d 1d2a b6bd
00000190: 78a6 ddbc 8906 0abe 98d9 cbbc 6417 5abd
000001a0: 6445 a83d 08ef e7bc 9e2e 1cbe e721 c6bd
000001b0: 2abf 09be 0e6b 1d3e ae80 243e 6fc9 a8bd
000001c0: 8cfa 153d ec55 5f3d 7071 09be 0f8b b2bd
000001d0: 2e71 183e c00f 2f3b b95e 32be 1cb0 58bd
000001e0: 281b 9bbc 2491 153e 84a4 d13d 10cf ffbc
000001f0: 40e8 763d 581d d4bc f85c 2a3e 5ce6 083e
00000200: cce0 ff3d 14c5 f93d 82f5 843d 90fe 0b3e
00000210: 827b 28be 22af a2bd b809 933c 2f9c e9bd
00000220: 8cd9 713d 4c23 173e f8b6 b63c 802e 843a
00000230: d479 133e ae6c 1fbe 1477 61bd 04dd 61bd
00000240: 17dd b2bd accc 29be c9b6 0bbe 1822 ae3d
00000250: ac3d 35bd a088 e8bc 8cb6 65bd 2c72 db3d
00000260: 1015 e83c 9cce 573d e0ab 5d3c c0e2 d6bc
00000270: a4ea 14be 644b 2d3e 44ac b93d c67a f8bd
00000280: e41e 613d e78c 1abe a1a2 a2bd 26e5 b6bd
00000290: 1892 dabc 72cd b5bd 8c03 b3bd 2ed4 bdbd
000002a0: ecd9 f2bd f41d 6cbd 5795 eebd a676 9bbd
000002b0: 24e8 f2bd acb0 1bbd 6ae9 033e 86d2 223e
000002c0: cc2d 2b3d 9eb7 f5bd b992 83bd 95c1 31be
000002d0: b864 d23d 7a32 023e 58d0 e53d b4f0 0fbd
000002e0: c130 cbbd d246 1d3e c004 19be b0f4 55bd
000002f0: 8021 35bd 389a b93d 7dc6 85bd 818b 27be
00000300: a828 b73c 8657 193e 5f3b 0abe 6cda 13be
00000310: 6073 df3b 4c3b 40bd e46b 22be 80ac c1ba
00000320: dc95 7f3d 888c 943d 50d7 a53d 800c c03d
00000330: 606e 46bc 8899 243d 4cc7 36be c835 363d
00000340: ebb2 ddbd c443 dc3d 78a7 96bc b4de 4e3d
00000350: 2023 8a3d 04be 8a3d d6d2 323e 8047 7bbb
00000360: a717 a5bd b0f7 a23d 6cec 0abd 185f 4a3d
00000370: f0db 79bc e4b0 a9bd 8023 d13a d940 19be
00000380: 9b6e e9bd f887 96bc 50d1 9cbd 4404 513d
00000390: 8c08 c6bd 087a d73d 307f 193c 600f 213c
000003a0: be92 103e 84f1 8c3d eb5e 8ebd 7e00 16be
000003b0: 9cc8 f43d c008 b6bc bb7c 39be 50d7 863d
000003c0: a871 933d e0af ff3d d618 0e3e 74cf fc3d
000003d0: dc48 b33d bcac 283e 1a47 04be c803 183e
000003e0: 501f 93bc de9d 85bd 7084 1f3c 3c2d d63d
000003f0: 67c9 debd af82 b2bd 20e9 43bd 10dc 123d
0.118033886 0.17925835 -0.14296614 -0.09406015 0.1678921 -0.024117917 0.022690386 -0.0014374852
0.10110289 -0.01945956 -0.110673025 -0.09914602 -0.13829258 -0.011073038 0.0035806298 0.021665037
-0.030155003 0.07134804 -0.14743625 0.08992377 -0.13587697 -0.17085868 0.016010448 0.009125501
0.11257473 -0.16007605 0.15555966 -0.18156692 0.07864517 0.12089357 -0.1420635 0.09147963
-0.10240176 -0.042337313 0.16696236 0.08431429 0.09254381 0.03396274 -0.17579734 0.17786738
-0.17950162 0.18174389 0.15274578 0.15744194 -0.06331265 -0.10720476 -0.08051118 0.16437548
-0.12024398 0.08504236 -0.07177481 -0.06549966 -0.02330999 -0.06718271 0.16759521 -0.16393863
0.0387955 -0.10116904 0.0742577 -0.08971978 -0.07285988 -0.027209267 0.041511655 0.0644826
0.13724124 0.09283012 0.105317265 0.07079342 -0.064348556 0.07059261 0.011899039 0.08702105
0.0075864047 -0.101352885 -0.019862011 -0.16021602 0.0056229085 0.026763618 0.024838477 0.07179785
-0.09109071 0.12324384 0.101272374 -0.08117067 -0.012123868 -0.11360216 -0.16576895 0.015218064
-0.014205262 0.14652494 -0.056158066 0.011062264 -0.011448234 0.001569286 0.059676826 -0.16676244
0.12504318 -0.016256109 0.114377975 -0.08894751 -0.027056918 -0.13479055 -0.02488403 -0.053244963
0.0821636 -0.028312221 -0.15252158 -0.09674435 -0.1345183 0.1537287 0.16064712 -0.082415454
0.036615893 0.0545253 -0.13422179 -0.087179296 0.14886925 0.0026712269 -0.17418946 -0.052902326
-0.018933848 0.14606148 0.10236457 -0.031226665 0.060280085 -0.025892898 0.16637027 0.13369125
0.124940485 0.12195793 0.064921394 0.13671327 -0.16453364 -0.0794356 0.01794897 -0.11406743
0.05904536 0.14759558 0.022304043 0.0010084659 0.14401942 -0.15568802 -0.055045202 -0.055142418
-0.08733576 -0.16581982 -0.13643946 0.085025966 -0.044248268 -0.02838546 -0.056082293 0.10715136
0.028330356 0.052687272 0.013529748 -0.02623117 -0.14542633 0.1692329 0.0906606 -0.12132792
0.0549611 -0.15092812 -0.07941175 -0.08930425 -0.026680991 -0.08877076 -0.08740911 -0.09268986
-0.118579715 -0.057645753 -0.11649578 -0.0759099 -0.118606836 -0.038010284 0.12882009 0.15900621
0.041791722 -0.11997913 -0.064244695 -0.17359002 0.10273117 0.12714568 0.11221379 -0.03514166
-0.099214084 0.15359047 -0.14943218 -0.052235305 -0.0442214 0.09062618 -0.06531999 -0.1636181
0.022358254 0.14974794 -0.13499211 -0.1443879 0.0068191737 -0.04693155 -0.1586147 -0.001477614
0.062398776 0.07253367 0.08097708 0.09377384 -0.012111276 0.04018548 -0.17849463 0.044484884
-0.108251415 0.10755113 -0.018390402 0.050505355 0.06744981 0.06774524 0.1746324 -0.0038342178
-0.08061152 0.07957399 -0.033916876 0.049407095 -0.015250191 -0.08285692 0.0015956014 -0.14966144
-0.113980494 -0.018375382 -0.07657111 0.05102946 -0.09669599 0.105213225 0.009368703 0.009830326
0.14118478 0.06882003 -0.06951698 -0.14648625 0.11952326 -0.02222097 -0.18113987 0.06584036
0.071994126 0.12484717 0.13876662 0.12344256 0.08754131 0.16472143 -0.12917748 0.14845192
-0.017959267 -0.065242514 0.009736165 0.104578465 -0.10878258 -0.08716332 -0.047829747 0.0358544

bias f4 [1, 30]
00000000: 0000 0000 0000 0000 0000 0000 0000 0000
00000010: 0000 0000 0000 0000 0000 0000 0000 0000
00000020: 0000 0000 0000 0000 0000 0000 0000 0000
00000030: 0000 0000 0000 0000 0000 0000 0000 0000
00000040: 0000 0000 0000 0000 0000 0000 0000 0000
00000050: 0000 0000 0000 0000 0000 0000 0000 0000
00000060: 0000 0000 0000 0000 0000 0000 0000 0000
00000070: 0000 0000 0000 0000
0.0 0.0 0.0 0.0 0.0 0.0 0.0 0.0
0.0 0.0 0.0 0.0 0.0 0.0 0.0 0.0
0.0 0.0 0.0 0.0 0.0 0.0 0.0 0.0
0.0 0.0 0.0 0.0 0.0 0.0

weight f4 [30, 30]
00000000: c11e 853e 853d 813d b0cc 6c3d f2af c33d
00000010: 9d4d 6b3e 66ab 0a3e a521 a9bd e32d 053e
00000020: c17f 1dbe 4509 88bc a9fd 02be a63d ea3d
00000030: f2f8 48be 0884 03bd ff2a 563d 3ed7 0fbd
00000040: 9c90 c03e c175 9c3d c4ba c33d 149d c43b
00000050: f781 35be e703 d83c 4a43 fabd 577f 5cbe
00000060: 7962 443e 3232 933d 1b1e 8e3d 5c7c a53d
00000070: b497 c1bc 7bc7 2a3e 5a90 f83d d650 0dbd
00000080: 1a51 25be 6473 e4bd f5bc 17be 6611 1bbe
00000090: 373d d1bc f839 cfbd 6da7 a1bd 5c59 863d
000000a0: b1c0 293e 6e57 10be dfc4 0f3e cfec 9abd
000000b0: 3f8e 08be 1ecc feba 2ff2 163e 08c6 783d
000000c0: 9215 60bd 7256 113e 974a 07be 3f1a fb3c
000000d0: 6abf 473e 95a6 013e 49c7 91bc 8c40 3cbe
000000e0: 11e6 3b3e fbda f83c 36ff 08be 5274 39bd
000000f0: 622b 883c b11c 6ebd b8f7 c03d 73cf 2dbe
00000100: 6fe2 a73d 82fd 00bd 3068 613e 2bd9 2e3e
00000110: 2e84 373e d63b 8ebd b923 093e cb78 e3bc
00000120: 4b16 c9bd 31d6 b73d 62bc 223c d92f a0bd
00000130: 95cd 90be 543f ae3d 7cd6 c7bd d1ba 96bb
00000140: 6dba 8bbc 08e1 c03c 471e 29be fa43 68bd
00000150: d087 a4bd 842a 64bc 8faf a93d 85d4 b33d
00000160: 92a7 243e 2022 d4bd e380 c0bc 369b 88bd
00000170: d941 dabd 0f8b 7e3e 949e 0d3e 0e9e 3fbd
00000180: 38e6 96bd 3c9f acbd 6c4e 77be 2049 963c
00000190: 65da 6f3c d554 f33b a78d 06be 0162 b2bd
000001a0: 808d 993d e4ec b73d 5493 a03e 6c70 2f3e
000001b0: dac7 eb3d 1c45 ee3d 2b2e 3fbd 1952 4d3d
000001c0: 83c7 773d dc58 89be e4f7 013e 0e65 f13d
000001d0: 102c df3d 44db c33b 1550 093e bd98 d8bd
000001e0: 6f6a 913d 58bc 903d 9b99 ee3b eb13 03be
000001f0: 153c 3c3d 76f0 4ebd 9b93 9bbe bfc7 4f3d
00000200: a80e ccbc 01dd 7bbc 79c9 dabc 9c61 2a3e
00000210: 896a 3dbe 6bcb 15be 6ff9 61bd b6f0 873d
00000220: 1fb4 dd3e 93aa 0e3d 2e52 493e 377a 443e
00000230: c001 84bd 3754 803e 8e5f 463d f5b6 a7be
00000240: de65 9f3e 5993 043d 382c 083e bbfa 0f3e
00000250: 1606 0ebe b1af 2dbe 8d71 ccbd d05e 8e3d
00000260: 6f2a fbbc 6f6f a93d c4d3 cc3c 6611 38bd
00000270: 1707 72bd 1864 11bc d44e fb3d 9a8c 38be
00000280: 49b6 393e 7065 6abd fe4f d8bc 5484 48be
00000290: a66b 1ebe 6a39 093e b882 133e aca1 183d
000002a0: 813e 3c3e 0752 13bd b931 583d 4986 a53d
000002b0: fcb0 9abd 1b3f 0c3e b941 8e3d a7ae 05be
000002c0: 4ccd 10be 23ce 44be 6f3d f9bd b870 21bc
000002d0: 7c4a 08be 0c92 4abe ae78 dabd aa46 493d
000002e0: ec97 a83d 7c76 393e eae8 6abd 87a5 013e
000002f0: 00b4 06bd a45d 123e 2757 e8bd ca24 13be
00000300: 45a5 8a3c 5bf7 603e e6ba 2b3e d785 31be
00000310: b700 9abe 0dd2 f1bd c406 9dbd 4253 16bd
00000320: 7d2e da3d 1892 c2bd 6494 23be b206 e93c
00000330: 8923 173e f7cd ff3d 2579 fabd bd01 96bd
00000340: b52e 003d fd34 abbc 3f77 d7bc a896 5f3d
00000350: dfe0 c13d 3566 16be d14b 0ebd 7951 f13d
00000360: 708b 09be a313 5a3d bd69 4c3e d591 e9bd
00000370: a325 183e c97f a6bd 4e2b 04be 4390 723d
00000380: 2af2 dc3d 1328 733d 689f f3bd b463 4bbd
00000390: 4f6a 4dbe 99ec 993d 472d db3b beb4 2b3d
000003a0: 7788 cfbd 0410 383e 0c60 10be 3933 18be
000003b0: fa7c 453e 6fb9 a83d 28ef ffbd 536e 3cbc
000003c0: a6a2 943d 5f39 023e b5f5 5a3e 6297 423c
000003d0: efd7 07be b852 2b3e 4c19 babd f6e1 db3d
000003e0: 37e4 023d 8d76 583e 86b5 97bd 8456 afbd
000003f0: 6da3 98bc f10b 2e3e fec2 623e 4785 de3d
0.26000026 0.06310562 0.057812393 0.09555043 0.22978826 0.13541946 -0.0825837 0.13005786
-0.15380765 -0.016605983 -0.12792076 0.1143754 -0.19626215 -0.032108337 0.052287098 -0.03511738
0.37610328 0.07639647 0.09557107 0.0060001705 -0.17725359 0.026369048 -0.122198656 -0.21532951
0.1917819 0.07187308 0.06939336 0.0808036 -0.023631908 0.16677658 0.12136908 -0.03450092
-0.16144219 -0.111548215 -0.14818175 -0.15143356 -0.025541885 -0.101184785 -0.07893262 0.06560013
0.16577412 -0.14095852 0.14039944 -0.07564699 -0.13335513 -0.0019439494 0.14740823 0.060735732
-0.05470807 0.14193133 -0.13212048 0.030652164 0.19506612 0.12661202 -0.017795222 -0.18383998
0.18349482 0.030377856 -0.13378605 -0.045276947 0.016622249 -0.05813283 0.094222486 -0.16973667
0.08197486 -0.031491764 0.220124 0.1707503 0.17921516 -0.069450065 0.13392533 -0.02776756
-0.09818705 0.08976401 0.009932609 -0.07821626 -0.28281847 0.08508173 -0.097577065 -0.004599907
-0.017056668 0.023544803 -0.16515456 -0.056705453 -0.08033717 -0.013926152 0.08285438 0.08780769
0.16079548 -0.10358071 -0.023498958 -0.06670229 -0.10657091 0.24857734 0.13830024 -0.046781592
-0.073681295 -0.08428809 -0.2415101 0.018345416 0.014639472 0.0074258843 -0.13139974 -0.08710099
0.07497692 0.0898073 0.31362402 0.1713273 0.11512728 0.11634275 -0.04667489 0.050127123
0.060493004 -0.26825607 0.12692219 0.11786853 0.10897076 0.0059770662 0.13409455 -0.105760075
0.07100379 0.07067174 0.007281495 -0.12800567 0.045955736 -0.05052229 -0.30386052 0.050727602
-0.024909332 -0.015372516 -0.026707398 0.16638798 -0.18497671 -0.14628379 -0.05516952 0.06637709
0.43301484 0.03483064 0.19660255 0.19187246 -0.06445646 0.2506425 0.04843097 -0.32756773
0.31132406 0.032367084 0.13298118 0.1406049 -0.13869509 -0.16961552 -0.099825956 0.06951678
-0.030659882 0.082732074 0.025003321 -0.044938467 -0.059088793 -0.008873962 0.12270895 -0.18022385
0.18135943 -0.057225645 -0.02640533 -0.19581729 -0.15470752 0.13400808 0.14405334 0.037263557
0.18383218 -0.0359669 0.052781794 0.080822535 -0.07553288 0.13695948 0.06946129 -0.13054906
-0.14140815 -0.1921926 -0.12169921 -0.009853534 -0.13309664 -0.19782275 -0.10667549 0.049139656
0.08232102 0.18111604 -0.05735103 0.126608 -0.032886505 0.14293534 -0.11344748 -0.14369503
0.01692451 0.21969359 0.16770515 -0.17336212 -0.3007867 -0.11807642 -0.07667306 -0.036700495
0.10653398 -0.095005214 -0.15974575 0.028445575 0.1475965 0.124904566 -0.12230138 -0.0732455
0.031294543 -0.02089929 -0.026301978 0.054587036 0.09466719 -0.14687426 -0.034740273 0.11783118
-0.13432097 0.053241383 0.19962211 -0.114047684 0.14858107 -0.08129842 -0.12907144 0.05921961
0.10788377 0.05936439 -0.11895639 -0.04965563 -0.20060085 0.075158305 0.006688747 0.041920416
-0.101334505 0.1797486 -0.14099139 -0.1486329 0.19285956 0.08238494 -0.12496787 -0.011500913
0.07257585 0.12717198 0.21382792 0.011876913 -0.13265966 0.16730773 -0.09086856 0.10736458
0.031955924 0.21138974 -0.0740767 -0.085614234 -0.018632615 0.16996743 0.22144696 0.108652644

weight f4 [30, 30]
00000000: 5025 003e 2104 2abe 0876 363e 5811 eb3d
00000010: f0ec 65bd 10a6 fb3c acf9 993d 2489 19bd
00000020: a283 123e d452 0abd 00c1 8ebc 9027 58bc
00000030: 9846 b7bc 009d 27be 7272 16be 4875 133e
00000040: 8056 543d de27 863d 6dd6 84bd 6ed0 97bd
00000050: 5007 4abc 6d20 d9bd 75c4 81bd 9dd5 87bd
00000060: 9a6b 89bd 5ce7 453d 4070 ae3d 2468 f63d
00000070: dce1 92bd 94bc 30bd f078 d5bd 0c5a 013e
00000080: 1455 083e f8cd 41bd 2cce 0b3e d0e7 a43c
00000090: 8008 8f3a 403a cfbd 6404 2cbd 84aa 6e3d
000000a0: e8b0 933d cbf5 e2bd 2b0c b9bd 96b8 023e
000000b0: 9851 693d 8068 dcbb a87f a83d 6021 1ebe
000000c0: e053 2a3e 178b 9fbd 1ec7 0d3e 4aa9 373e
000000d0: da0b e0bd c4b5 873d 9406 10bd 0083 fcbc
000000e0: a20d 133e 08ea b93c 509a ee3d 910c 10be
000000f0: 8c2b 123e 6c88 29be cc39 2fbd a073 a23d
00000100: 5469 9a3d 341b 1f3e 7ce1 cb3d b4a1 0c3e
00000110: 8817 093e 029c 00be 6459 b43d 8426 1d3d
00000120: 7269 173e 0013 003a 984d a03d 294e 21be
00000130: 32cf 1f3e a04e 15bc e861 933d f4cb b2bd
00000140: 82cd efbd 9c73 0abe e1a7 d8bd 5684 2abe
00000150: 30f5 2b3d cc2e 403d a6f9 08be 9ba8 b7bd
00000160: b37d 9abd 62bc 2fbe e814 de3c 5486 263e
00000170: 28e6 5d3d c20e aebd 2cca 35be d072 f5bd
00000180: b6f6 183e 886b 893d f63f 0b3e c369 f5bd
00000190: 2ea4 08be 34d7 143d 4b4e dfbd 7438 2e3e
000001a0: 094e bdbd aa35 113e 94da 1cbe 4411 503d
000001b0: c0e5 223e b8b0 c53d 6053 29be 98c3 213e
000001c0: 30a9 343d 583c ff3d 68f3 013d dcac 213d
000001d0: 7dbf 36be ac97 943d 00e2 e03b fbe0 31be
000001e0: d497 06be a4eb 293d 87f1 cebd a0fd 083e
000001f0: 63b6 e0bd 90c1 42bc 10ac 0a3c e4ad 16be
00000200: 716c edbd 9404 b13d 55f1 dfbd d8b4 923d
00000210: 5077 6b3c 64e3 03be 2864 a03d f2ea 393e
00000220: 1231 87bd cc83 c63d 3cbd a43d 7549 19be
00000230: 5667 b4bd 452a e6bd 9c1d 133e 5046 1a3e
00000240: 78ea e93d d0e1 ba3d 6ce4 753d 3c2c fb3d
00000250: a4e6 59bd 8052 893a 236f 2bbe d8c2 01bd
00000260: 1c7b 1d3e f803 acbd 0863 cd3d c0f5 7b3b
00000270: d0e9 1a3e fa30 163e c90a 11be e0ff 4c3d
00000280: fb1d 8bbd 2bbe e0bd a4e3 0cbe 27f5 e5bd
00000290: f609 823d 0443 063e 3821 ab3d bc09 a13d
000002a0: 5416 2d3e 3d58 babd 082d f23d f039 063d
000002b0: 33e7 b5bd 61c5 10be c01e 37be 8a9c 02be
000002c0: 9076 64bd a3aa ecbd e681 193e e017 a23c
000002d0: c06f 0abc 68f8 263d 4e11 10be 5047 2e3e
000002e0: 7ae9 85bd e005 85bc 5e54 09be 4630 063e
000002f0: cc3a 283e a0b6 863b e092 c03b 732b b6bd
00000300: 5cf3 26bd fc88 f73d 7c31 673d f023 0d3d
00000310: 39fe b7bd ea67 a8bd 3751 dfbd 5406 b9bd
00000320: 404a 4dbc 7053 2bbe 075b 98bd 2749 37be
00000330: 8885 f4bd 1038 b73d 806b 35be b694 033e
00000340: 2804 573d a034 3fbc f888 99bd cff5 d2bd
00000350: 7456 75bd b85b 12be f051 103d bc45 933d
00000360: dc52 34bd 7030 193e d468 e03d 007b fe3a
00000370: 9e23 063e d0d7 e53d 9c9d 38be 50e6 263d
00000380: a0ad dcbc eab4 09be e0d2 28bc cc1f 3dbd
00000390: 5465 a63d d482 f7bd 38a0 213e a822 253e
000003a0: ad8c d1bd 8037 55bc fc88 593d 00ea db3b
000003b0: 3072 f2bc 8fea 25be 8c54 bd3d 7e76 b8bd
000003c0: 8065 4ebd d297 c8bd 1473 243e f884 3a3e
000003d0: 7041 293e b23b 113e bfd6 b2bd e24a 213e
000003e0: c0ff 75bd 8857 c23d 24d9 3a3e e84c d4bc
000003f0: 588b e3bd 8c3d 3a3e 8c8e 913d 75ac 0ebe
0.12514234 -0.16603138 0.17818463 0.114779174 -0.056134164 0.030718833 0.07518324 -0.037484303
0.14308026 -0.033770397 -0.017426014 -0.013193026 -0.022372529 -0.16368484 -0.14692095 0.14400208
0.051840305 0.06550573 -0.06486211 -0.07412802 -0.012330845 -0.10601888 -0.06336299 -0.066325404
-0.067099765 0.048316345 0.08517504 0.12031582 -0.071719855 -0.043148592 -0.104234576 0.12632006
0.13313705 -0.047315568 0.13652867 0.020130068 0.0010912567 -0.10118532 -0.041996375 0.058268085
0.072114766 -0.110820375 -0.09035524 0.12765726 0.05696258 -0.0067263246 0.082274735 -0.15442419
0.16633558 -0.07790201 0.13845488 0.17935672 -0.109397605 0.06626466 -0.035162523 -0.030824184
0.1436067 0.022694603 0.116505265 -0.14067294 0.14274424 -0.16555947 -0.04277973 0.0793221
0.07539621 0.15537721 0.09955117 0.1373356 0.13387883 -0.12559512 0.088061124 0.03836681
0.14786318 0.0004885644 0.078273 -0.15752472 0.15606382 -0.009112984 0.071964085 -0.08730307
-0.117091194 -0.13520664 -0.10578895 -0.16652045 0.041981876 0.04691963 -0.13376483 -0.08967706
-0.075435065 -0.17161706 0.027109578 0.1626218 0.054174572 -0.084989086 -0.17752904 -0.11984789
0.14937863 0.06709963 0.13598618 -0.11983063 -0.1334388 0.036338046 -0.10903605 0.17013723
-0.092434 0.14180627 -0.15317756 0.050797716 0.15907955 0.09652847 -0.16535711 0.1579727
0.044106662 0.124626815 0.03172627 0.039471492 -0.17846484 0.072554916 0.006862879 -0.1737098
-0.13143855 0.04148449 -0.101046614 0.13378 -0.109722875 -0.011886969 0.008463874 -0.14714772
-0.11592949 0.08643451 -0.10934702 0.071633995 0.014371708 -0.12879711 0.07831603 0.18156031
-0.06601156 0.09693107 0.08043906 -0.14969428 -0.08808772 -0.11238531 0.14366764 0.15065885
0.114216745 0.091251016 0.060032293 0.122642964 -0.05319847 0.0010476857 -0.16741614 -0.031679958
0.15378994 -0.083991945 0.10028654 0.003844604 0.15128255 0.1466712 -0.1416427 0.05004871
-0.06792828 -0.10973772 -0.13758713 -0.112284 0.06349556 0.13111502 0.08355945 0.07863185
0.16903049 -0.09098861 0.11824995 0.032770097 -0.088819884 -0.14137794 -0.17882824 -0.12755027
-0.055777133 -0.11555984 0.14990959 0.019786775 -0.008449495 0.040764242 -0.14069101 0.17019391
-0.06538673 -0.016238153 -0.1341109 0.13104352 0.16428679 0.004111126 0.005876884 -0.08895006
-0.04075943 0.120866746 0.056443676 0.0344581 -0.08984036 -0.08222945 -0.109041624 -0.0903441
-0.01252991 -0.16731048 -0.07439237 -0.17898999 -0.119395316 0.0894624 -0.17716789 0.12849697
0.052494198 -0.011670262 -0.07496828 -0.103007905 -0.0598969 -0.142928 0.03523439 0.07191035
-0.044024333 0.14959884 0.109574944 0.0019415319 0.13099524 0.112228036 -0.18028873 0.040746987
-0.02693826 -0.1344792 -0.010304183 -0.046172902 0.081247956 -0.120855 0.15783775 0.16126502
-0.1023191 -0.0130137205 0.053109154 0.0067112446 -0.029595464 -0.16202758 0.09244642 -0.090069756
-0.050389767 -0.097945824 0.16059524 0.18214786 0.16528869 0.14182928 -0.08732366 0.15751222
-0.060058355 0.094893515 0.18246895 -0.025915578 -0.11110562 0.18187541 0.07107267 -0.13932975

bias f4 [1, 30]
00000000: 0000 0000 0000 0000 0000 0000 0000 0000
00000010: 0000 0000 0000 0000 0000 0000 0000 0000
00000020: 0000 0000 0000 0000 0000 0000 0000 0000
00000030: 0000 0000 0000 0000 0000 0000 0000 0000
00000040: 0000 0000 0000 0000 0000 0000 0000 0000
00000050: 0000 0000 0000 0000 0000 0000 0000 0000
00000060: 0000 0000 0000 0000 0000 0000 0000 0000
00000070: 0000 0000 0000 0000
0.0 0.0 0.0 0.0 0.0 0.0 0.0 0.0
0.0 0.0 0.0 0.0 0.0 0.0 0.0 0.0
0.0 0.0 0.0 0.0 0.0 0.0 0.0 0.0
0.0 0.0 0.0 0.0 0.0 0.0

weight f4 [30, 30]
00000000: d39f 0bbc 286a 91bc 2ed0 573b 6c12 03be
00000010: a7ff 53be 0eec 0bbe 8178 0d3e 4f41 eabb
00000020: 21ba ef3d 2b6e 003e 21f9 18be 33e4 fabd
00000030: 4c1f 283e bb77 e4bb 0547 2ebd 91d8 f33d
00000040: 567c 103e f848 7c3d 19e2 083e a7fc e43d
00000050: 4814 0c3e 8704 19be 406e 79be 1ef0 cabd
00000060: c844 2ebd 29e6 e1bd 563f a73d e243 fc3d
00000070: 8248 f0bc 4233 babd 59b6 97bd 4bc8 e73d
00000080: 8b2b 353e a9c6 79be 35dd 68be a57d e13d
00000090: 46a7 b2bd 40f3 263e ce43 a93d 0d13 debd
000000a0: 01be b3bd cfa0 083e 2e8e 07be 2c76 e4bc
000000b0: f58c 89bd 19bf e6bc 3004 de3d f45b 0dbe
000000c0: 2894 e63b 7aa0 923a 3a69 163e 6d41 b8bc
000000d0: 78cf 30be 6979 873d 98db 59bd cc18 0fbd
000000e0: ab2a 373e ba3d f93d aea2 4cbd c03a a6bd
000000f0: e8f7 debd f542 c93d 903e 08bd 9c87 113e
00000100: a4ff 653e e0f1 9cbd 4d71 38be 0ff4 bdbd
00000110: 70cb cebd 689a 22bd dc98 6a3c efda 13be
00000120: bd04 1dbe af02 aabd 0da5 21be 3362 46be
00000130: 060c b6bd ef17 8bbd 52bd a63d f37e 8a3d
00000140: c514 60be a8c6 3bbe cf8f 133e 4bde 10bd
00000150: 83d9 0cbe 4617 f93d b710 c3bc f70f f33d
00000160: fe82 293e db66 1ebe 8419 68be da73 ddbd
00000170: 2488 2d3e aa1a 11be 03a4 b1bd 3e71 b4bc
00000180: d3b2 d8bd f79e 2a3e 2740 38bd adb2 8cbd
00000190: c6b5 65be fb76 933d c43b 2fbd 2105 8c3d
000001a0: 45dc 193e 2c66 3abb 6104 07be fae9 263b
000001b0: 798f 053e e22e d0bd d95d 213d 5755 6ebd
000001c0: 2833 43be 1335 2cbe 6f8b 2f3e 9f3b d1bd
000001d0: 38e1 933d 4047 2a3e 798c 823d 0635 8f3d
000001e0: 3379 d63d cb08 0fbe 3f16 e0bc c8e0 28be
000001f0: b45b 50be 8eb1 1bbd 7cb9 833d 8201 7a3d
00000200: 4fd4 56bd 9167 e0bd c34e 24be 0d01 3fbe
00000210: 9b66 163d 58f6 3ebe 287d 223e 55cc 4dbd
00000220: 2276 bc3d f3a1 c83c b153 d2bc c6ce b33d
00000230: 61ee 743d 52c3 bd3d 96bf 3ebe 5ca6 043e
00000240: 277b 0e3e df0a 93bd 5153 04bc 0628 13be
00000250: b670 303d 26fe 473e 64cb 87be 7e25 08be
00000260: ac68 c73d 077a fbbd edc8 cdbd dcbf 2a3c
00000270: 1173 f03d fba5 8b3d f5d2 403e 964c 3c3e
00000280: 94c2 4fbe e3f3 67bd 6046 1f3e 48fa c1bd
00000290: 716a 43bd 710f f3bd eadd a9bd f4e3 a3bc
000002a0: 7384 183c 55c1 003e b294 413e 3ee7 fcbd
000002b0: f0a2 a23d a96e d13c e373 823d acec e6bd
000002c0: f7ff 3c3e 6ae2 a63d 1087 80bd 04a5 a63c
000002d0: 8dde 203e cd6c 103e 83a4 e3bd 9dd0 1fbd
000002e0: d7a3 793e d992 0f3c c8e0 1abd cbf6 13be
000002f0: cab5 6e3d bdc6 0dbe c79e 2e3d 9710 043e
00000300: 1b15 c73d 6424 403d c5ce 283d 3f3b 09be
00000310: a892 1a3c 6593 d43c 959d 41bb 6017 393d
00000320: 6950 ec3c a325 173e f639 1a3e dcb6 04bd
00000330: fc86 f73c 4d50 82bd 4245 bd3c c472 b13d
00000340: 63e0 4ebc 252d 6bbc 6c85 05be d490 fd3d
00000350: ea20 1abc 87b5 9a3c 9094 f63c b225 3bbe
00000360: 40b9 cdbd aaa5 4e3e d02c 123e 2c65 8abd
00000370: 708c 8abd a075 a0bd 0068 693d 1a79 1abd
00000380: 4fc8 abbd fb97 63bd 475c 253e bd2f 36be
00000390: 7501 2dbe 7135 303e cde3 533e 25e9 d1bd
000003a0: 73c4 d83d af64 7b3d 6b81 273e 5d43 c1bd
000003b0: e273 3c3e 4621 293d 1b99 e53d aa38 fd3d
000003c0: 0a75 4abd 9385 6bbb 1352 6f3d da0f ea3c
000003d0: 6a4b 403c f50c 40be 7cd0 593e a297 3abd
000003e0: e489 0cbd 0cbe 923d 6dd2 d9bd e1b2 393d
000003f0: 7d02 0fbe 7fdd 96bd ed33 093d 0160 9a3d
-0.008521992 -0.017750815 0.0032930481 -0.12799996 -0.20702992 -0.13664266 0.138155 -0.0071488987
0.11705423 0.12542026 -0.14938785 -0.12250557 0.16418189 -0.006972281 -0.0425482 0.11906541
0.1410993 0.061593026 0.133675 0.11181002 0.13679612 -0.14943133 -0.24358463 -0.0990908
-0.042546064 -0.11030228 0.08166377 0.12317635 -0.02933145 -0.09091808 -0.07407827 0.113175
0.17692392 -0.24392189 -0.22740634 0.11010293 -0.08723311 0.1630373 0.08264886 -0.108434774
-0.08776475 0.13342594 -0.13237831 -0.02788838 -0.067163385 -0.028167294 0.108406425 -0.13804609
0.0070367046 0.0011186742 0.14688578 -0.022492135 -0.17266643 0.06614954 -0.053187937 -0.034935758
0.1788737 0.121699765 -0.04995983 -0.081166744 -0.10887128 0.09827224 -0.03326279 0.14211887
0.224608 -0.076633215 -0.18011971 -0.09275066 -0.100973964 -0.039698035 0.014318671 -0.14438985
-0.15333839 -0.08301293 -0.15785618 -0.19373398 -0.08889012 -0.06791674 0.08141579 0.06762495
-0.21882923 -0.183375 0.14410327 -0.035368245 -0.13754849 0.12162642 -0.023811681 0.118682794
0.16553876 -0.15468924 -0.22665983 -0.108131126 0.16946465 -0.14170328 -0.08673861 -0.022026654
-0.10580983 0.16662203 -0.044983055 -0.06870017 -0.22432622 0.07200428 -0.042781606 0.06836916
0.15025432 -0.0028442247 -0.13185264 0.002546905 0.13043012 -0.10165192 0.03939614 -0.058186855
-0.19062483 -0.16817121 0.17143033 -0.1021645 0.072206914 0.16628742 0.06374449 0.06992535
0.10472336 -0.13968198 -0.027354358 -0.16491997 -0.20347482 -0.038011126 0.06431863 0.061036594
-0.052448567 -0.10957254 -0.1604567 -0.18652745 0.036718946 -0.1864866 0.15868056 -0.050243694
0.092022195 0.024491286 -0.025674673 0.08779673 0.05979765 0.0926577 -0.18627772 0.12954086
0.13914166 -0.07179808 -0.008076505 -0.14370736 0.04307624 0.19530544 -0.26522362 -0.13295552
0.097367615 -0.12279134 -0.10048089 0.010421719 0.11740697 0.06818768 0.18830474 0.1838859
-0.2028907 -0.056629073 0.1555419 -0.094715655 -0.047708932 -0.118681796 -0.0829428 -0.020006157
0.009308922 0.1257375 0.18904379 -0.123487934 0.07941234 0.025565462 0.0636976 -0.1127561
0.18457018 0.08148654 -0.06275761 0.020342357 0.15709896 0.14104004 -0.111153625 -0.03901731
0.24378906 0.008763039 -0.037812024 -0.14449613 0.058278836 -0.13845344 0.04263189 0.12896954
0.097208224 0.046909705 0.041212816 -0.13401507 0.00943438 0.02594919 -0.002954339 0.045188308
0.028846936 0.14760451 0.15061173 -0.03240095 0.030215733 -0.063629724 0.023104314 0.08664468
-0.01262674 -0.014354025 -0.13039178 0.123811394 -0.009407261 0.018885387 0.030100137 -0.18276098
-0.10045099 0.20180383 0.14274907 -0.06757578 -0.067650676 -0.07834935 0.056983948 -0.037713148
-0.08387815 -0.05556486 0.16148482 -0.17791648 -0.16895087 0.17207886 0.20692368 -0.10249547
0.10584345 0.061375316 0.16357963 -0.09436677 0.18403581 0.041291498 0.11210843 0.123643234
-0.049428023 -0.003593777 0.05842788 0.028572012 0.01173673 -0.18754943 0.21270937 -0.045554765
-0.03431119 0.07165155 -0.10635839 0.045336608 -0.13965793 -0.07366466 0.033496786 0.075378425

weight f4 [30, 30]
00000000: a421 163e 30df 7bbc f191 81bd 47f5 e9bd
00000010: 8870 93bc 507e 2a3e 83b4 33be 5056 83bd
00000020: b41e fe3d c861 48bd 4954 95bd c656 0abe
00000030: d0b2 323e 505b 62bd 6004 2c3e 38d6 843c
00000040: 7010 d03d 48ab 063e 5027 aabc bfbf 38be
00000050: 4c3a d43d c62c 883d 4a2b 853d b14e cdbd
00000060: 0451 67bd ccdc 183e d414 203e 6440 123d
00000070: ae02 163e 8061 503d b0cd 2b3e c8af 093e
00000080: 30fa 503c 0a1d 2d3e 200c 913d 7da7 30be
00000090: d04c 033d f84d 58bd d68f 03be 3016 48bc
000000a0: 17bd e5bd a278 313e ac1e 03be 9ccb 533d
000000b0: 7813 bd3d 70ef 253e ac08 0c3e 8ce4 35bd
000000c0: f805 9fbd 08e2 40bd e010 d9bb bc16 4ebd
000000d0: 48ce 1bbd 98a3 a13d 337b 96bd a823 a23c
000000e0: 0885 d03c 2479 563d ff4d eabd 83a7 1fbe
000000f0: 0c60 e43d 7058 b6bc e64d cfbd f027 143c
00000100: 3871 03bd a81a 0ebd 0c6b 04be 28c2 39bd
00000110: 5033 e1bc adc9 32be e4e7 b73d c180 fcbd
00000120: 50e7 33bc ce84 07be df26 f2bd 37fb 0bbe
00000130: 703f edbd d4c4 34be 4ee3 20be cf72 80bd
00000140: a8c3 f43d 61ee 04be 98f5 d93d 00a7 443b
00000150: b231 2c3e 318d e0bd 4e4e 163e 30ee 143e
00000160: fd96 fabd 17a9 bcbd 74f0 e13d 94e4 01be
00000170: 4c9c 20bd 08ed aa3d a630 eabd b085 12bd
00000180: b4d2 e5bd 09d6 31be a207 23be 4883 07be
00000190: 183c a83d a8b9 c03d 98fc c23d 700c b9bc
000001a0: 2c64 0e3e f099 eebc 7bf6 02be 640d e53d
000001b0: cc3e 913d 1e0c 1f3e d84d a63c a98b 2fbe
000001c0: 806d b23d d0e0 523c d21e a6bd 0c41 3a3e
000001d0: 3840 cebc 7862 a03d 1683 323e 74b7 4d3d
000001e0: b4c7 e9bd 8668 2f3e 6ca3 943d 30ea fbbc
000001f0: b0e2 ee3c e0c9 df3d 4842 e83c c3e8 dbbd
00000200: d6b9 383e d8b3 303e ff37 cdbd 6064 f73c
00000210: fec7 2cbe 00fe 9739 bda1 adbd 6f20 b5bd
00000220: 0682 75bd 3c1c 4f3d ba9a 0a3e 3827 cf3c
00000230: a04a a0bb e8cd 1b3e 876a c8bd 205b 7e3d
00000240: b8ad 22be 4fd5 92bd b40f 3bbd b4e7 0fbd
00000250: a4ec a83d 7678 853d 2eab 033e 0a6e f1bd
00000260: cf93 12be d6bb 2fbe 0017 c3bb 8423 9b3d
00000270: 6c85 bf3d c0a8 273b 98d9 b93c 9010 dcbd
00000280: 202f b1bb d0dd 173e 9ee6 043e e024 aa3d
00000290: 72ce d0bd a4b7 873d d891 8c3d b03d 8a3d
000002a0: fc9a a83d 1d11 c5bd 3ac9 c4bd 69ff c5bd
000002b0: 4cd6 68bd 38b8 35bd c01f 233b 3e62 d5bd
000002c0: 600a c33c 140c 43bd 3413 1a3e d859 ad3d
000002d0: f06b 123e 2a6b dfbd 7c54 b33d 2841 a63d
000002e0: 10ac 35be 5085 123e 7b65 d5bd 383b 09bd
000002f0: c29b 153e cbfc ddbd 50fa 99bd 776c 1ebe
00000300: 3ce6 923d b4f4 1b3e da93 103e 9281 073e
00000310: 20e0 253e c741 c0bd e492 ab3d 02a7 d7bd
00000320: 17f8 ebbd 88b6 f4bd 2030 903b 1b06 bfbd
00000330: 36c3 383e a22f 0d3e 003c 36bb 4854 d3bc
00000340: b439 c73d 0098 be3a 80e4 c53c ec21 bf3d
00000350: b08b df3c 4afd f7bd 2a79 1e3e 6c48 1b3e
00000360: 28d8 f03c 529d 253e 1c63 29bd 7df7 2abe
00000370: ca82 28be e0c3 8abc 84d1 373d 3645 aabd
00000380: 5ced 083d b856 d93d fcb3 c03d b90e 1ebe
00000390: 7083 493c 8c1f 623d 2c9d 90bd ef59 39be
000003a0: f082 da3c 729c 16be 9f8f 05be 8765 b5bd
000003b0: f469 c6bd 76c8 383e 9473 7b3d 4ccf 0b3e
000003c0: 3f2c eabd e03c b13d e4a1 cd3d 9428 2bbd
000003d0: 2573 d3bd f013 ef3c cc3c af3d 4fcc e1bd
000003e0: a06e 0a3c d8d2 81bc 28a1 f3bd 531c 95bd
000003f0: 9df7 23be 85c3 30be 3c0c 3abe bfa2 f5bd
0.1466127 -0.015373036 -0.06326664 -0.11423736 -0.017997995 0.16649747 -0.17549329 -0.06412947
0.124082 -0.048921376 -0.07291467 -0.13509664 0.17451024 -0.055262864 0.16798544 0.016215429
0.10159385 0.13151276 -0.020770699 -0.18041895 0.10362682 0.06649165 0.06502397 -0.10024775
-0.056473747 0.14927977 0.15632945 0.03570594 0.1464946 0.050874233 0.16777682 0.13445961
0.012754962 0.16905609 0.07082391 -0.17251392 0.032055676 -0.05280873 -0.12847838 -0.012212321
-0.11217707 0.17331174 -0.12804669 0.05170785 0.09232229 0.1620462 0.13675183 -0.044407412
-0.0776481 -0.04709056 -0.006624326 -0.05031465 -0.038038522 0.07892531 -0.07347717 0.019792393
0.02545406 0.052361622 -0.11440658 -0.15591244 0.11151132 -0.022258967 -0.1012228 0.009042725
-0.032090396 -0.03469339 -0.1293146 -0.045351177 -0.027490288 -0.17459746 0.089797765 -0.12329245
-0.010980442 -0.13234255 -0.1182382 -0.1367005 -0.11584365 -0.17653209 -0.1571171 -0.06271898
0.11951381 -0.1298156 0.106425464 0.0030006766 0.16815832 -0.1096443 0.14678308 0.14543986
-0.1223583 -0.09211939 0.11032191 -0.12684852 -0.039211556 0.083459914 -0.1143506 -0.035772026
-0.11221829 -0.17366804 -0.1592088 -0.13233674 0.08214587 0.09410411 0.09520835 -0.022588938
0.139054 -0.029126137 -0.12789337 0.11184195 0.07092056 0.15531966 0.02030079 -0.1714312
0.08712292 0.012870982 -0.08111347 0.18188876 -0.025177106 0.078312814 0.17432818 0.050223783
-0.114150435 0.17129716 0.07257733 -0.030751318 0.029160827 0.109271765 0.028351918 -0.10737755
0.18039641 0.17256105 -0.10020446 0.03019923 -0.16873166 0.0002899021 -0.08478115 -0.08844077
-0.059938453 0.050564036 0.13535586 0.025287256 -0.0048917085 0.15215266 -0.097859435 0.062098622
-0.15886581 -0.07169592 -0.045669273 -0.03513308 0.082482606 0.06517117 0.12858269 -0.117885664
-0.14314197 -0.17161497 -0.0059536695 0.075751334 0.0935162 0.002558276 0.022686765 -0.107453465
-0.005407229 0.14830709 0.12978598 0.083078146 -0.10195626 0.066268235 0.06863755 0.06750047
0.08232686 -0.09622405 -0.096086934 -0.09667856 -0.056844994 -0.044365138 0.002489075 -0.10419129
0.023808658 -0.04761894 0.15046388 0.08464402 0.14298987 -0.10909112 0.087563485 0.08117896
-0.17741418 0.14308667 -0.104197465 -0.03350374 0.14610198 -0.10839232 -0.075184464 -0.15471064
0.0717282 0.15230066 0.14118901 0.13233021 0.16198778 -0.09387546 0.083776265 -0.10529901
-0.11521929 -0.119488776 0.004400268 -0.093273364 0.18043217 0.13787702 -0.002780676 -0.025797024
0.09727803 0.0014541149 0.024156809 0.09332642 0.027288288 -0.12108858 0.15475908 0.15164346
0.029399946 0.16173294 -0.041354284 -0.16695972 -0.16456142 -0.016939104 0.044877544 -0.08313982
0.03342949 0.106122434 0.09409329 -0.15435304 0.012299404 0.055205867 -0.07061228 -0.18100713
0.026673764 -0.14708117 -0.13043068 -0.088572554 -0.09688178 0.1804522 0.06138952 0.13653296
-0.114342205 0.08654189 0.10040644 -0.041786745 -0.103246965 0.029184312 0.08556518 -0.11025297
0.008449227 -0.015847608 -0.118959725 -0.07280793 -0.16012426 -0.17262085 -0.1816873 -0.11993932

bias f4 [1, 30]
00000000: 0000 0000 0000 0000 0000 0000 0000 0000
00000010: 0000 0000 0000 0000 0000 0000 0000 0000
00000020: 0000 0000 0000 0000 0000 0000 0000 0000
00000030: 0000 0000 0000 0000 0000 0000 0000 0000
00000040: 0000 0000 0000 0000 0000 0000 0000 0000
00000050: 0000 0000 0000 0000 0000 0000 0000 0000
00000060: 0000 0000 0000 0000 0000 0000 0000 0000
00000070: 0000 0000 0000 0000
0.0 0.0 0.0 0.0 0.0 0.0 0.0 0.0
0.0 0.0 0.0 0.0 0.0 0.0 0.0 0.0
0.0 0.0 0.0 0.0 0.0 0.0 0.0 0.0
0.0 0.0 0.0 0.0 0.0 0.0
