neuromancer/train_scripts/papers/flexy/device_test_models/model2/best_policy_flexy.pth (torch, 8887 bytes, 9 tensors)

weight f4 [20, 10]
00000000: 5c5d 9cbe 78a6 18be 5e18 6f3e f847 66be
00000010: 4084 71be 5c11 6abe 2390 86be 5a4d b4bd
00000020: ee8f 57be 3017 3abd b020 053e a109 9cbe
00000030: 72a7 8dbe 803d c4bc e265 213e a0d8 f8bc
00000040: 3030 3cbd d6e7 3c3e 80ad c9bc 5404 9d3d
00000050: 54fa 203e 4e61 1b3e 7cbe d03d 46bd 92be
00000060: f836 73bd 1157 8b3e a057 aabc 80d8 b5bb
00000070: 6afc 653e 336b 983e aca2 943d 5e4c 1cbe
00000080: 300a a83d 57f7 923e 40a1 ce3c 2808 9d3d
00000090: 4804 133e 9b29 26be c99c 863e 9043 df3d
000000a0: 148b a4bd 3db2 0dbe 1402 aa3d 0002 173b
000000b0: b805 71be 9212 263e 6837 bd3d 7abd 83be
000000c0: f4c6 8fbe f849 a83d d421 253e 2381 47be
000000d0: 3436 f53d cc89 163e 9073 3bbd c57c 69be
000000e0: da83 583e a8e5 153e e22e f5bd c0be 8f3b
000000f0: e40b 90bd dd3e 26be afa4 a13e 9e25 5b3e
00000100: 04d6 ea3d 4005 943d a625 9dbd 8b57 893e
00000110: 75e1 05be 8e90 763e 031f 883e 901d f83c
00000120: a819 8abe a844 5fbd 3840 3b3d b007 153e
00000130: 6cf9 80be e012 71bc 2a6b 6bbe 030a 943e
00000140: a867 1ebd 00a9 2b3d f36f 52be 6756 94be
00000150: 7dcc 07be d549 863e 40c7 2ebd bbec 4dbe
00000160: 4aa1 13be 807e 7bbe b0e2 aabc 9918 16be
00000170: 90c8 293d 694a 963e 541d 64be fb19 923e
00000180: d04b 27be 8c9b 92be 82a7 32be 58df 07be
00000190: da74 59be e0fd 1b3c ceae 2a3e 2e66 aabd
000001a0: 2e04 5d3e 7ae2 603e b993 843e d6e5 1f3e
000001b0: 2bb7 993e d46e dd3d b44f 6abe 7a32 3cbe
000001c0: 5a0d bdbd 2376 1abe 53e9 22be f4e5 debd
000001d0: 299d 87be 078f 7fbe fefa 343e 25a5 953e
000001e0: 4478 b03d 4bdb 80be 57b6 5abe b03c 983d
000001f0: 3bce 933e 0ade 5f3e c84e fe3d 86c8 8bbe
00000200: 9284 363e 2453 963d 3270 5b3e 72ae 4a3e
00000210: fa00 013e 5ad7 7abe 1b57 8e3e d2e7 37be
00000220: f8cc 6abd 4e77 633e bc89 80be d05e 94bc
00000230: 8c0b bc3d d6b1 3d3e ecaa f83d 8071 0dbc
00000240: 69d2 73be b21a 96be b874 29bd ef79 2fbe
00000250: 4e64 3d3e eaf5 013e db9a a13e d062 cd3d
00000260: 44f8 bd3d a4c2 d43d 006c 39bd b4d5 9fbe
00000270: de0e 5e3e a481 313e f0c8 edbd 0e4b 9abe
00000280: 78ba 3bbe 5b88 8bbe d099 8fbe 5eb7 233e
00000290: 2c81 883d 40ed a23d 18b1 57bd ea3f 703e
000002a0: 3d4f 8abe b256 483e 18a6 b63d 2042 3abc
000002b0: 626e 90be f38a 9f3e 529c d8bd 20d9 ce3c
000002c0: dca8 b3bd 0b98 05be 2862 f63d c483 bebd
000002d0: 38ca 45be a4bf da3d f0b5 b6bd 0a02 3dbe
000002e0: 8079 2a3d acd0 76be 4599 3cbe 48fa 76be
000002f0: 2849 003d 9b54 05be 66c2 543e 7c35 9f3d
00000300: 8031 9cbb 48ab 533d d6cf febd c247 743e
00000310: daf5 0e3e 581f f83d 000b 6dbc 60b6 803d
-0.30539978 -0.14907253 0.23349139 -0.22488391 -0.23585606 -0.22858185 -0.26281843 -0.08803816
-0.21050999 -0.04543227 0.1300075 -0.30476096 -0.27666813 -0.023955107 0.15761521 -0.030376732
-0.045944393 0.18447813 -0.024618864 0.07666841 0.15720493 0.15173838 0.10192582 -0.2866003
-0.059378594 0.27214864 -0.020793736 -0.0055494905 0.2245957 0.29769287 0.0725759 -0.15263507
0.08205068 0.2870433 0.025223374 0.07667571 0.14357102 -0.16226809 0.26291493 0.109015584
-0.080343395 -0.13837524 0.083011776 0.0023041964 -0.23537338 0.16218022 0.092390835 -0.25730497
-0.28081477 0.082172334 0.16126186 -0.19482855 0.11973229 0.14701003 -0.045764506 -0.22801502
0.21144047 0.14638388 -0.11971833 0.004386753 -0.07033518 -0.16234918 0.31570956 0.21401069
0.114666015 0.07227564 -0.076731965 0.26824602 -0.13074286 0.2407858 0.2658616 0.030287534
-0.269727 -0.054508835 0.04571554 0.14553714 -0.25190294 -0.014713973 -0.22990099 0.28913888
-0.038673073 0.041909218 -0.20550518 -0.2897217 -0.132616 0.26228204 -0.04267049 -0.20109837
-0.14416996 -0.24559975 -0.020860046 -0.14657821 0.041451037 0.29353645 -0.22276813 0.28535447
-0.16337514 -0.28634298 -0.17446712 -0.13268793 -0.21235982 0.009520978 0.16668245 -0.083202705
0.21583626 0.21961394 0.25893953 0.15615019 0.3002256 0.108121544 -0.22881967 -0.1837863
-0.09231062 -0.15084128 -0.15909319 -0.10883704 -0.2648709 -0.24956904 0.17673871 0.29227558
0.08616689 -0.25167307 -0.2135862 0.0743345 0.2886828 0.21862045 0.1241737 -0.27301425
0.17824009 0.073400766 0.21429518 0.19793108 0.12598029 -0.24496213 0.2780083 -0.17959526
-0.05732438 0.2221348 -0.25105083 -0.018111616 0.0918189 0.1852487 0.12141976 -0.008633018
-0.23810734 -0.29317242 -0.041371077 -0.17136358 0.18495294 0.12691465 0.31563458 0.100286126
0.092758685 0.10388687 -0.045269012 -0.3121773 0.21685359 0.1733461 -0.116105914 -0.30135387
-0.18332851 -0.27252468 -0.28047037 0.15987918 0.066652626 0.07955408 -0.052659124 0.23461881
-0.2701358 0.19564322 0.089183986 -0.0113683045 -0.28209215 0.31160697 -0.10576691 0.025250018
-0.08772442 -0.13046281 0.120304406 -0.09302476 -0.19315422 0.10681084 -0.089214206 -0.18457809
0.041619778 -0.2410304 -0.18417843 -0.24118912 0.031319767 -0.13020556 0.20777282 0.07773873
-0.004766643 0.05167702 -0.12441985 0.23855498 0.13960972 0.12115353 -0.014467955 0.06284785

bias f4 [1, 10]
00000000: 0000 0000 0000 0000 0000 0000 0000 0000
00000010: 0000 0000 0000 0000 0000 0000 0000 0000
00000020: 0000 0000 0000 0000
0.0 0.0 0.0 0.0 0.0 0.0 0.0 0.0
0.0 0.0

weight f4 [10, 20]
00000000: bf7c 003e 98c7 503e 728c 073e ad14 a4bd
00000010: 8b59 83bd bb20 2c3e 0a79 c7bd 2cd9 afbd
00000020: 9b18 153e 70fb 893c 9a9d c23e 34bb 8f3d
00000030: b852 bb3e 468c 793d 8af4 743d a304 193d
00000040: 3173 603e ee18 9c3e de40 3c3e ae46 93bc
00000050: d2b7 f53d 5870 60bd 8a3d 12bd ae79 27be
00000060: a6c5 193d 7858 df3c 9b03 2dbe a9e6 103e
00000070: 5131 063e 7aab 52be 9327 9b3e a7f0 f13d
00000080: 195c 003e 6707 12bc 45eb bc3e fd4d bcbc
00000090: ea07 873e 8d71 ac3e 06f0 febb 9762 0a3e
000000a0: 9b44 8bbe 4f96 37be c678 22be 8047 d5bd
000000b0: cc44 033e f54e 833d cf06 78be ac74 42be
000000c0: e631 06be fffb 0cbe 2c48 93be 5173 9dbe
000000d0: 8cdf 163c c27c 25be 7675 dc3b 66a4 97be
000000e0: d544 1cbe 57a9 d6be 9b2f b5be 1fe8 feb9
000000f0: f0b1 20ba 2d3c 5e3d 4e53 67bb 72f8 4ebe
00000100: 58eb a8bd 72ea 883d 669d 353d d870 47be
00000110: 4bd4 083d ea09 83be fa30 aa3d 2ca4 04be
00000120: 4e70 373e 0b06 0cbe 96b1 8d3e e2a9 5bbd
00000130: 8c04 c43d e4cf ccbd 376b 7d3e a58f 273d
00000140: cf32 a2bd 8ead 57bd 6d1d 013e e896 59bd
00000150: 99d5 8c3d a61e bd3d 2e4d 31be 2721 12be
00000160: ca28 f23d c511 1ebe 696a 733e ea04 293e
00000170: 067e 833e f224 3b3e b89e f3bc 0213 8d3d
00000180: 984b d5bd b9d9 7c3e 6b1c 4c3c 4b60 e4bd
00000190: 34cd 183e 7085 a3bd d297 273e f484 423e
000001a0: 9e73 323e e0ed 983d f1d4 9b3d b1c6 94bd
000001b0: f4d5 e9bd 0614 4f3e dcd9 a23d ae17 1a3e
000001c0: 7d20 0d3e a05b 27bd a651 4a3e 8dbd 573d
000001d0: a4dd 2bbe 27c1 34be bbe9 4c3e 4fd9 f2bc
000001e0: 7289 2f3e 0356 1c3e d603 3c3d 0270 903e
000001f0: cfb3 793e effb 8d3e 0ead 8e3c 5c77 893e
00000200: 1346 063e ebcc 253d 1b7c 1d3e 6fec d0bd
00000210: 6114 51bd b312 2f3e 7ef4 98bd b0f7 b43d
00000220: 0e3e bd3b 71ad 0a3e c500 1dbe 2965 373e
00000230: e4b5 b33d e2b2 1d3e fb5c f83d e27d 883d
00000240: 8258 1abe ae42 f1bd b4e8 39bd 1ab3 8dbd
00000250: c9b4 233e 15cd 98bd 699e 003e ca8a e9bd
00000260: 3635 0bbe 4701 66be ad0d 4dbe afff f2bc
00000270: 7a79 14be d368 513d 80ad fb3c b9bf 0ebd
00000280: c2fe 053e b5ef 8a3d 217b 3a3d 581c d73d
00000290: ae5e cfbd 88c5 5ebe 5d10 4abe 618f 1a3e
000002a0: 74e3 063e 401e 9f3d 5607 01be 7c79 893d
000002b0: 1d5e 84be 4115 fb3b 33d3 0fbe 4f2f 4bbe
000002c0: c0cc 97be 07a4 96be cc5e cfbc 00f8 e43d
000002d0: b2f4 b13c 58a2 69be f3e0 5dbe 59b2 28be
000002e0: f8e5 bebe d47e 61be 8e03 c5be f5bc 4cbe
000002f0: 3c04 6fbd 44c5 93be f0d1 00be f786 b7be
00000300: c738 67be 9bc6 c3be c5b9 8cbe 4b63 adbe
00000310: b49e 863c 1394 85be 3bc2 c2be d860 98bd
0.12547587 0.20388639 0.1323717 -0.08011756 -0.06413563 0.1680936 -0.09739883 -0.08586344
0.14560167 0.016843528 0.38010865 0.07018128 0.36586547 0.06092479 0.059803523 0.037357938
0.21918942 0.3048777 0.1838412 -0.017978039 0.119979516 -0.05479464 -0.03570322 -0.16355011
0.037542008 0.027263865 -0.16895907 0.1415049 0.1310475 -0.20573226 0.3030363 0.11813479
0.12535132 -0.008912898 0.36898246 -0.022986406 0.26373225 0.33680382 -0.007780078 0.13514172
-0.2720078 -0.17928432 -0.15866384 -0.10414028 0.12819213 0.06411544 -0.24221347 -0.1898982
-0.13104972 -0.13768004 -0.28766 -0.30752042 0.009208571 -0.16160873 0.0067278696 -0.29617614
-0.15260632 -0.4192607 -0.35387883 -0.000486196 -0.00061300304 0.054256607 -0.0035297456 -0.20211962
-0.08248013 0.06685342 0.04433956 -0.1947664 0.033405583 -0.255935 0.08310123 -0.12953252
0.17913935 -0.1367418 0.2767455 -0.05362881 0.0957118 -0.100005895 0.2474793 0.040908474
-0.07919847 -0.05265575 0.12608881 -0.05312243 0.06876678 0.09234361 -0.17314598 -0.14270459
0.11824186 -0.15436466 0.23771061 0.16505781 0.25682086 0.18275812 -0.029738769 0.06888391
-0.10414809 0.2469243 0.012457947 -0.11151179 0.14922029 -0.079844356 0.16366509 0.1899603
0.17426917 0.07467246 0.07608975 -0.0726446 -0.114177614 0.20222482 0.0795171 0.15048096
0.13781925 -0.040858865 0.19757709 0.052671004 -0.16783768 -0.17651807 0.20011036 -0.029644636
0.17142275 0.15267186 0.045902096 0.28210455 0.24384998 0.27731273 0.017416503 0.26848876
0.13112669 0.040478628 0.15379374 -0.10201346 -0.051044825 0.17096977 -0.07468508 0.08836305
0.0057752198 0.13542725 -0.15332325 0.17909683 0.08774927 0.1540027 0.121271096 0.06664635
-0.15072826 -0.11780296 -0.04538794 -0.069189265 0.15986933 -0.07460991 0.12560429 -0.11403425
-0.13594517 -0.22461425 -0.20024748 -0.029662935 -0.14499465 0.05112536 0.03072238 -0.03485081
0.13085464 0.06784002 0.04552758 0.10503453 -0.101254806 -0.2175504 -0.19732805 0.15093757
0.13172704 0.077694416 -0.12600455 0.067126244 -0.25853053 0.007662446 -0.1404541 -0.19842266
-0.296484 -0.29422018 -0.025313757 0.11180115 0.021723125 -0.22815835 -0.21667843 -0.16474284
-0.37284827 -0.22021037 -0.38479275 -0.19993956 -0.058353648 -0.2886144 -0.12580085 -0.35845158
-0.22580253 -0.3823746 -0.2748548 -0.33864817 0.016433097 -0.26089534 -0.3803881 -0.074403465

weight f4 [10, 10]
00000000: e266 3d3e 6c6d 2e3e 92f9 f6bd 14ab 8e3d
00000010: 0c52 233e 4ead 16be 36d3 09be 83e0 11be
00000020: e042 b63d 00d3 563d 22aa d2bd 6231 58be
00000030: 74c8 b33d 42d4 653e b4f0 843d c2c4 503e
00000040: 4016 dcbc f26b d7bd 70d0 c8bc 7080 60be
00000050: 8ecc 15be fe53 753e 2e51 cfbd 0cb6 363e
00000060: b0c0 6e3d c07e b7bc afa2 803e bc7f 3cbe
00000070: 46ec 77be 0043 88bb b08c e03d 8021 acbc
00000080: cafb aabd 2e76 fabd 4428 2abe b066 edbc
00000090: a0d2 7a3d 68e4 383d d03a f9bc 402d 89bd
000000a0: e0b8 57bc 8061 2b3e 9040 9dbc 1cc2 82bd
000000b0: f001 efbc 4a4c 683e 8a38 743e 0f88 993e
000000c0: 2b88 943e dd3d 973e 4a04 aebd a839 d93d
000000d0: 6079 d0bc f303 57be 228b c9bd fe4d 083e
000000e0: 7e61 d7bd 8592 71be 90c0 93be d2eb f7bd
000000f0: 9d11 953e 5427 973d 084b 78bd eae0 7ebe
00000100: 60f9 01bd 7756 22be 74dd 9d3d a88c 22bd
00000110: 94a3 c63d 676d 93be 8681 343e 3a9c d6bd
00000120: d5fa 42be e5d1 04be 516f 87be 07d6 a03e
00000130: 9408 363e 5d2b 84be d002 8f3c aa9b 7c3e
00000140: b097 dbbd ba52 463e 1a5b 563e 00d1 94bb
00000150: 2804 27bd d664 53be 4f88 15be 3d46 973e
00000160: c02e c7bb 928c 4f3e 741e c4bd 4a3a 77be
00000170: e277 2b3e 536e 9b3e 6051 33bc cf07 1bbe
00000180: 4154 933e 089b 73be c198 813e 3443 8ebd
0.18496278 0.17033929 -0.120593205 0.06966224 0.15949267 -0.14714548 -0.13459477 -0.142458
0.08899474 0.05244732 -0.102863565 -0.21112588 0.08778468 0.22444251 0.06491223 0.20387557
-0.026866078 -0.10518636 -0.024513453 -0.21923995 -0.14628813 0.23957822 -0.10122906 0.17842883
0.05828923 -0.022399306 0.25124118 -0.18408102 -0.24211225 -0.0041583776 0.10964334 -0.021012068
-0.08348806 -0.12229572 -0.16616923 -0.02897963 0.061236024 0.0451397 -0.030423552 -0.06698084
-0.013166636 0.16736412 -0.019195825 -0.0638468 -0.029175729 0.22685352 0.23849693 0.29986617
0.29010138 0.29539385 -0.08496912 0.106067 -0.025448501 -0.209976 -0.098409906 0.13311002
-0.10516642 -0.23591049 -0.2885785 -0.12105526 0.29115 0.07380548 -0.06061843 -0.24890485
-0.031731963 -0.15853296 0.077082545 -0.03968492 0.09699169 -0.28794405 0.17627534 -0.104790166
-0.19040997 -0.12970693 -0.26452115 0.3141329 0.1777671 -0.25814334 0.017457396 0.24668756
-0.107222915 0.19367495 0.2093319 -0.0045415163 -0.040775448 -0.20643935 -0.14602779 0.29545775
-0.006078571 0.20268467 -0.09576121 -0.2414333 0.1674495 0.30357608 -0.010944694 -0.15139697
0.28775218 -0.23789608 0.25311854 -0.06946412

bias f4 [1, 10]
00000000: 0000 0000 0000 0000 0000 0000 0000 0000
00000010: 0000 0000 0000 0000 0000 0000 0000 0000
00000020: 0000 0000 0000 0000
0.0 0.0 0.0 0.0 0.0 0.0 0.0 0.0
0.0 0.0

weight f4 [10, 10]
00000000: 4f70 d03e 3706 943e 5e9d e3be 6fda 503e
00000010: 057e 3ebe 9879 b33e e771 0abd 0765 133c
00000020: 7103 acbe 2243 553d 26a2 023e 69a7 06bf
00000030: bec3 043f bb7c b5bd 5b36 f7bd 7929 16be
00000040: d948 983d 62e4 a33c 45d3 103d a8a3 d53e
00000050: 805c 72bd af10 f73d 947a 943e 1b3f 363d
00000060: 65d4 853e e3ba 93bd bf2b 13be 4827 713e
00000070: 6e36 4dbe bd2d 2f3e 2155 a2bd 4cc0 85be
00000080: e04a e33e 7558 613d c65f a8be 96bd ae3d
00000090: 85da 2abc 2408 4dbe 3caf ca3c 53da 70bd
000000a0: 3356 66be 58af 58be 4012 a43e 616d 4dbe
000000b0: a3aa 96be a020 e53d 1fdf b73d db1e b9bc
000000c0: ee48 973e 78c9 af3e ee80 dbbd 3039 3d3e
000000d0: d6cf 933c 0198 65bc 28d4 1dbe 0eac 5ebe
000000e0: 27b9 c4bc 15b5 193e f8da 253e 87fe 8a3d
000000f0: 4f02 bb3d 1c2a 203e 5262 97be e6cf 02be
00000100: 491f 5dbd 1eaf e43d ba76 b2bd 0ae7 793e
00000110: 8048 5f3a 760d 91be 5095 37be 6b67 8ebe
00000120: 54af 0c3f 1e3f 52bd 6d2b 6cbe 97e2 22bd
00000130: 7fd2 913e af6c d23e e483 283e ecc6 ad3e
00000140: 3a8d 9e3e 2809 053f 23d0 fdbe 3b5d 873e
00000150: 8550 a3bd e757 29be eb3e 1dbe 80da 73be
00000160: b950 293b e33d e7be d3d2 8fbe 3f38 e9be
00000170: 1b38 85bc 674d 823e aeec 81be fd24 513e
00000180: edf7 67be a1b2 193d 0f41 843e 3758 c63e
0.40710685 0.28910992 -0.44456 0.20395826 -0.1860276 0.35053706 -0.033800032 0.008996255
-0.33596376 0.052065976 0.12757167 -0.525992 0.5186118 -0.08861681 -0.12070914 -0.14664258
0.074357696 0.020006362 0.035357732 0.41726422 -0.059170246 0.12063729 0.2899977 0.044493776
0.26138607 -0.0721338 -0.14372157 0.23550141 -0.20040295 0.17107292 -0.07926393 -0.26123273
0.44393063 0.055016 -0.3288557 0.085322544 -0.010428076 -0.20022637 0.024741761 -0.05880196
-0.2249382 -0.21160638 0.32045174 -0.20061256 -0.2942706 0.11187863 0.08978104 -0.02259772
0.29547828 0.34333396 -0.10717951 0.18478847 0.01804344 -0.014013291 -0.15412962 -0.21745321
-0.024014069 0.15010484 0.16196811 0.067868285 0.091313 0.15641063 -0.295672 -0.1277462
-0.053984914 0.111662135 -0.087140515 0.2440454 0.0008517578 -0.28330582 -0.17928052 -0.27813277
0.5495503 -0.051329724 -0.2306344 -0.039766874 0.28480908 0.41098544 0.16456562 0.33940828
0.30967122 0.51967096 -0.49572858 0.26438317 -0.07974342 -0.16537438 -0.15356033 -0.2381382
0.0025835468 -0.45164403 -0.28090534 -0.45550725 -0.016262105 0.25449678 -0.25375885 0.20424266
-0.2265317 0.03752387 0.25830886 0.38739178

weight f4 [10, 10]
00000000: 7c2b 43be 7891 34bd 9a49 0cbe 224d 5b3e
00000010: 1a16 5c3e 0e7c 453e abcb 9fbe 30c1 183d
00000020: e06f 29bc e03f 97bc 4ca5 f23d 1c99 4abe
00000030: 40df ea3d e50a 99be 1d5b 9f3e 83c9 9b3e
00000040: 14eb 19be e03b 5cbe a00d 07bd f06b 5bbd
00000050: a0fd 583c 80a4 4fbd e95c 31be 7eed 65be
00000060: f9ab 983e 3e14 063e 5e26 633e 421c 5e3e
00000070: e2d3 5c3e b4ee 98be 48b0 87be 32aa f2bd
00000080: 2c7d 92be be28 4d3e d052 e2bd 2871 2fbd
00000090: 173c 4fbe 1ba2 8d3e 20d7 703c 0d87 973e
000000a0: 4952 34be a49a b33d 206c 3e3c df5b 903e
000000b0: 5e90 fdbd 4ee8 273e 60a9 b23c d6e1 50be
000000c0: a754 1ebe 3c65 c93d 5c7c 33be a161 813e
000000d0: 9546 30be a367 8c3e 800c 813d 502a 5ebe
000000e0: 3cd4 8b3d 20f6 6fbc 3c15 8cbd 26d5 5a3e
000000f0: 986f c83d 0c53 113e 4a04 663e e06d 273c
00000100: 181b 993d 429d 713e c3bd 5fbe 22f6 433e
00000110: d19d a1be 2059 f0bc 8002 ba3c 6020 0e3e
00000120: 626a 283e ff2d 8d3e 609e 033c b278 edbd
00000130: d074 243d de30 1e3e a0ed f43c 8c5f f33d
00000140: 00f7 053e d099 0bbd e0db 42bc 00f6 533c
00000150: 0364 7fbe e0e9 ffbd 13a8 8fbe 4cdd f43d
00000160: 59e5 40be fedd 87be a5b9 07be 0d65 0abe
00000170: e424 8d3d 412d 10be 0068 cebc dae5 1ebe
00000180: 80bd da3d f8c6 be3d 6893 d83d 7144 9b3e
-0.19059557 -0.044084042 -0.13699952 0.21416143 0.21492806 0.19285604 -0.31210074 0.037293613
-0.0103416145 -0.018463075 0.11847934 -0.19784969 0.11468363 -0.29891124 0.311242 0.3042718
-0.15031081 -0.21507215 -0.03297198 -0.053569734 0.013244063 -0.05069399 -0.17320599 -0.22453877
0.29818705 0.1309366 0.22182605 0.21690467 0.21565202 -0.29869616 -0.2650168 -0.118488684
-0.28611124 0.20035073 -0.110509515 -0.042832524 -0.20237766 0.2766274 0.014699727 0.29595223
-0.17609514 0.0876973 0.011622459 0.28195092 -0.123810515 0.16397211 0.02180928 -0.2039865
-0.1546198 0.09833762 -0.17527908 0.25269797 -0.17214425 0.2742282 0.06301212 -0.21695828
0.0682759 -0.014646083 -0.06839988 0.21370372 0.0978691 0.14191836 0.22462574 0.010219067
0.07475871 0.23595145 -0.21849732 0.19136861 -0.31565717 -0.029339373 0.02270627 0.13879538
0.16446832 0.27574155 0.008033365 -0.115952864 0.040150464 0.15448329 0.029898465 0.118834585
0.13082504 -0.034082234 -0.011893243 0.012937069 -0.24940495 -0.1249578 -0.28057918 0.119562715
-0.18837489 -0.26536554 -0.13254412 -0.1351511 0.06891802 -0.14079763 -0.025196075 -0.15517369
0.106806755 0.09315294 0.105749905 0.30325654

bias f4 [1, 10]
00000000: 0000 0000 0000 0000 0000 0000 0000 0000
00000010: 0000 0000 0000 0000 0000 0000 0000 0000
00000020: 0000 0000 0000 0000
0.0 0.0 0.0 0.0 0.0 0.0 0.0 0.0
0.0 0.0

weight f4 [10, 10]
00000000: 1196 3ebe 9061 0abe b636 5abe 045b babe
00000010: 6191 f4be 5d76 c03d 3e06 153e 2f73 d1be
00000020: 1699 e33e 994f 11be e474 c53d b1e8 80be
00000030: a35a 833e 7621 afbe cef6 7fbd 5871 b53c
00000040: e4a8 183e 5554 4fbe f2f5 0f3f 53bf 25be
00000050: 0d1c 4abd c457 d3be 1db1 913d 3116 02bc
00000060: e294 56bc defa adbd 5d93 09be f36d 07bf
00000070: 4086 b63e 2420 d8be 27b9 f43e 4171 12be
00000080: 32e7 f5bd e192 983d b0ac 2cbe 5534 9b3d
00000090: e028 963d 5188 9abe 6bb9 d03d 8ca9 66be
000000a0: 7a19 cb3e 3da5 ccbd 9e30 27be 2dcc 93be
000000b0: 67a1 e1be 6cf9 e23c 9d81 863e 95b1 39be
000000c0: b974 46bd b4a6 d3bd 659e da3e e7c4 83bd
000000d0: 620b a5be 4a18 d03d db59 cf3d 92c0 aabd
000000e0: 7ec2 df3c 3805 edbe df95 973e 1a3d 0fbe
000000f0: 9345 a23e 465b cabd 19f6 863d 550d 46be
00000100: fa58 acbe d4ca 6b3e f7fa 193e 7338 e2bd
00000110: 6394 aa3c 40d7 a7be e53d b63e e418 e5bd
00000120: 3cf1 cf3c 5c3f 54be 4f4d 1ebe b7e0 a0be
00000130: 68ee 4c3e 3b6e 68be 7381 81bd 7cd7 75be
00000140: 6c87 b23e 8534 73be 26b3 b13d 181f 85be
00000150: cc1c 403c 4c45 debd 4c36 85bd 1101 05be
00000160: 1853 1ebd 16fe b7be 7937 ad3e 8667 86be
00000170: 4f9f c1be 1007 81be 1347 c2be 7831 c1be
00000180: eaef 02be 92dd 113c 4c60 243e 5bf9 d03c
-0.18611933 -0.1351378 -0.21309933 -0.36397564 -0.47767165 0.09397576 0.14553162 -0.4090819
0.44452733 -0.1419052 0.09641436 -0.2517753 0.25655088 -0.34205216 -0.06249123 0.022148773
0.14908177 -0.20247014 0.5623466 -0.16186266 -0.049343158 -0.41277897 0.0711386 -0.007939861
-0.01309702 -0.08495115 -0.13435121 -0.52902144 0.356493 -0.4221202 0.4779751 -0.14301015
-0.12006988 0.0744989 -0.1686275 0.07578341 0.07332015 -0.30182126 0.10191616 -0.22525615
0.39667875 -0.09992454 -0.1632714 -0.2886671 -0.44068453 0.027706824 0.26270762 -0.18134148
-0.04845116 -0.103345305 0.4269897 -0.064340405 -0.32235247 0.10160883 0.101245604 -0.08337511
0.02731442 -0.46293044 0.2960653 -0.13988152 0.31693706 -0.0988069 0.06589908 -0.19341023
-0.33661634 0.23026592 0.15037142 -0.11045923 0.02082271 -0.3278141 0.35594097 -0.11186388
0.025383584 -0.20727295 -0.15459178 -0.31421444 0.2001282 -0.226983 -0.063235186 -0.24007982
0.34868944 -0.23750503 0.08676748 -0.26000285 0.011725616 -0.10853061 -0.06504497 -0.12988688
-0.038653463 -0.3593604 0.33831385 -0.26250857 -0.37816855 -0.252007 -0.3794485 -0.37733054
-0.12786832 0.008902924 0.1605236 0.025509527
