neuromancer/train_scripts/papers/flexy/device_test_models/model2/best_estimator_flexy.pth (torch, 31503 bytes, 12 tensors)

weight f4 [10, 30]
000000 ab af be bd 42 fe 98 bd a6 00 2b 3e 94 9f 0b 3e
       -0.0931085 -0.07470371 0.16699466 0.13635093
000010 b4 5a eb 3d b6 eb 10 3e 9c 3b 7b bd 30 9e 20 bd
       0.114919096 0.14152417 -0.061336145 -0.03921336
000020 12 a8 a6 bd 0c 5d 5a 3d 1e 0d 0d 3e b9 00 87 bd
       -0.081375256 0.053311393 0.13774535 -0.06591935
000030 50 78 8a 3d 6b f2 26 be c4 99 17 3d 94 a9 b1 3d
       0.06761229 -0.16303413 0.037011877 0.086749226
000040 10 db 07 3e dd a4 a5 bd bb c5 fb bd c0 76 c7 3d
       0.1326716 -0.08088086 -0.122935735 0.09739447
000050 0c b1 4c 3d e8 19 8d 3c ac 60 7c 3d 70 f2 49 3c
       0.049973533 0.017224267 0.06161563 0.012325868
000060 46 cc 32 3e 68 14 43 3d 68 58 df 3d 54 1b 7d 3d
       0.17460737 0.047626883 0.10905534 0.06179364
000070 01 3f 37 be 3c c1 cf 3d 00 52 4b 3d 38 99 30 3d
       -0.17895128 0.101442784 0.04963875 0.04311487
000080 9f 76 2e be 26 82 18 3e 40 cb e0 bc 20 ea d9 bc
       -0.17037438 0.14893398 -0.027440667 -0.026600897
000090 74 b8 f4 3d 0c 11 ee 3d d8 66 b6 bc 4c 5f a4 3d
       0.11949244 0.11624345 -0.022265837 0.08025989
0000a0 cf 1a 37 be 8c 2c 17 3e 4c 35 2e be 0c b8 c7 3d
       -0.1788132 0.14763087 -0.17012519 0.09751901
0000b0 88 63 35 be c8 ba d1 3d 30 66 11 be f4 4a 1c 3e
       -0.1771375 0.10240704 -0.14199138 0.15262967
0000c0 9c 73 dc 3d 5f ba 2c be 60 40 fb bc 5c d1 14 3d
       0.10764238 -0.1686797 -0.030670345 0.036332473
0000d0 b4 f8 1b 3d e0 16 d8 bb 3c 9d 1a 3e 98 b0 bb 3d
       0.03807898 -0.006594524 0.15099043 0.09164542
0000e0 ee a3 28 3e 9e a2 01 be 31 11 38 be 94 08 f4 3d
       0.16468784 -0.1265969 -0.17975308 0.11915699
0000f0 50 8c 03 3d 4c 9e 73 3d e8 a5 31 be f0 3f 48 3c
       0.032116234 0.059477136 -0.17348444 0.012222275
000100 2c 67 aa 3d 98 a9 85 3d 69 7b 86 bd ba a6 33 3e
       0.0832046 0.06526488 -0.06566507 0.1754407
000110 48 cd 11 3e 54 7d 80 3d a8 c2 97 3c 48 f0 93 3d
       0.14238465 0.062739044 0.018525437 0.072235644
000120 03 c7 ae bd 48 36 40 bd d2 68 8d bd c0 aa ec bb
       -0.08534052 -0.046926767 -0.069047585 -0.0072225034
000130 d2 68 13 be 84 c3 24 be f8 b1 3b bd f0 be 8a bc
       -0.14395455 -0.16090208 -0.04582402 -0.01693675
000140 f4 b3 45 bd 3a 70 34 3e d6 ad 21 be 4c 48 68 3d
       -0.04826732 0.17620936 -0.1578897 0.056709573
000150 7c 7d 3c bd 09 55 95 bd 78 8d 14 3e 00 6c c2 bc
       -0.04601811 -0.0729161 0.14507091 -0.023733139
000160 81 43 00 be 95 05 11 be 56 e8 89 3d 80 29 8a 3a
       -0.1252575 -0.14162286 0.06733768 0.0010540932
000170 55 f7 16 be 65 f2 8b bd a8 21 02 be 4c c5 01 bd
       -0.14742787 -0.068333425 -0.12708151 -0.031682298
000180 40 f0 51 3c 54 e7 35 3e 3d 9b 87 bd e8 fa 99 3c
       0.012813628 0.17764026 -0.06621406 0.0187964
000190 d3 96 1a be 48 38 5a bd 98 55 b4 3d fc 8b fc bd
       -0.15096597 -0.05327633 0.08805388 -0.123313874
0001a0 48 1e a7 3c 5f 68 b3 bd 63 25 ce bd 0a 21 39 3e
       0.020400181 -0.087601416 -0.10065725 0.1807901
0001b0 f8 1d e1 3d 58 bc 3f 3d 64 0d d7 3d b2 26 a6 bd
       0.10992044 0.046810478 0.10500601 -0.08112849
0001c0 76 85 06 3e da 94 1f 3e e7 89 03 be 60 0b 58 bd
       0.13136849 0.15584126 -0.12845574 -0.052745223
0001d0 8c d3 4e 3d 3f 04 c2 bd 28 fa 50 3d 95 9d d3 bd
       0.050494716 -0.09473466 0.051019818 -0.10332791
0001e0 f3 42 e2 bd 70 67 ec 3d e0 e1 06 3c 78 df bf bc
       -0.11047926 0.11543167 0.008232564 -0.023421988
0001f0 54 e5 53 bd 71 34 8f bd 74 51 2b 3e 94 00 02 bd
       -0.051732376 -0.06992424 0.1673029 -0.031738833
000200 e1 ee 29 be 54 89 24 bd 34 28 15 3d 26 48 32 3e
       -0.16595031 -0.04017003 0.036415294 0.17410335
000210 32 67 1e 3e c0 2e 87 3d 06 6e 39 be 90 03 c1 3c
       0.15469053 0.06600714 -0.18108377 0.023561269
000220 5c 15 a9 bd 29 f3 36 be 9c 48 52 3d 90 83 7a 3c
       -0.08256027 -0.17866196 0.051338777 0.015290156
000230 64 98 1b 3d e8 4a c5 3d 85 90 06 be 18 93 23 3d
       0.037987128 0.09633428 -0.13141067 0.0399352
000240 c8 69 b0 bc b7 77 bf bd d8 aa 85 3c 80 92 c5 3d
       -0.021534815 -0.09349006 0.016316816 0.09647083
000250 38 33 0e 3d 74 a1 02 3d c0 45 a7 3d 27 94 8b bd
       0.034716815 0.031892255 0.08167601 -0.06815367
000260 30 6f 47 bd 03 92 20 be 0c 66 48 3d fc f6 10 3e
       -0.04869002 -0.15680699 0.048925444 0.14156717
000270 4a 0a 2b be 70 33 a8 3d b4 af f4 3d b2 db 2c 3e
       -0.16703144 0.08212936 0.11947575 0.16880682
000280 68 8b 35 3e de b1 0c be 94 5f cc 3d 0c e1 22 3d
       0.1772896 -0.13739726 0.099791676 0.039765403
000290 45 5c a6 bd f2 59 d2 bd a3 6d 2b be e9 3d eb bd
       -0.08123068 -0.10271062 -0.16741042 -0.11486418
0002a0 95 bb 2b be d4 a0 e6 3d b0 7b ff bd 40 eb 92 bc
       -0.16770776 0.11261144 -0.124747634 -0.017934442
0002b0 f0 39 95 bd 17 7e a5 bd 34 e2 ab 3d 80 20 32 3e
       -0.07286441 -0.0808069 0.08392754 0.1739521
0002c0 3c 51 07 3e 77 80 13 be 5a da 31 be d1 2e 30 be
       0.13214582 -0.14404474 -0.17368451 -0.17205359
0002d0 1c f0 60 bd f0 40 4b bd 18 ca 39 3e c4 ac c5 3d
       -0.054916486 -0.049622476 0.18143499 0.09652093
0002e0 1a f3 1a 3e 9c d3 0b 3e fd 05 97 bd 60 f9 5e 3c
       0.15131798 0.13654941 -0.07374189 0.01360926
0002f0 b6 a2 23 be 2e c5 94 bd 78 50 54 3d 6c 7f fa 3d
       -0.15980038 -0.072641715 0.051834553 0.12231335
000300 8e 47 75 bd f4 a4 04 be 09 91 b5 bd b8 95 ee 3c
       -0.059882693 -0.1295355 -0.08865554 0.029124126
000310 f0 85 01 3d 5e 67 24 be b4 92 17 bd c0 3e 64 3b
       0.031621873 -0.16055056 -0.03700514 0.003482744
000320 56 b3 2d 3e 43 37 2c be bb fd a5 bd e0 b0 11 be
       0.16962942 -0.16817956 -0.08105036 -0.14227629
000330 24 97 ae bd 84 0a 9a 3d 20 ac be 3d a0 af 8d 3b
       -0.085249215 0.07521537 0.09310174 0.0043239146
000340 c7 a4 32 be f8 61 7c 3d fc 78 36 be 5d 60 33 be
       -0.1744567 0.061616868 -0.1781959 -0.17517228
000350 a8 e3 85 3d aa 6a 0c 3e d4 a5 38 3d 5c db a3 3d
       0.065375626 0.13712564 0.04508002 0.08000824
000360 7c 42 d0 3d 7a 87 02 be d8 06 f2 3c b8 48 af 3c
       0.10168931 -0.12746993 0.029544279 0.02139698
000370 8c b8 9c 3d d9 be d4 bd 6e 1a 26 be 48 67 1d be
       0.07652387 -0.10387964 -0.1622102 -0.1537143
000380 79 5b f1 bd 90 a5 e1 bc 2c 51 af 3d d0 de 27 3e
       -0.11785025 -0.027544767 0.08560404 0.1639359
000390 1b 2c d1 bd 00 5c 38 ba 18 47 09 3e 38 10 36 3e
       -0.102134906 -0.0007032752 0.13406026 0.17779624
0003a0 24 d8 14 be 2e 70 33 3e e0 74 ab bb 20 ee eb bb
       -0.14535576 0.17523262 -0.0052324384 -0.0072000176
0003b0 00 83 e7 bc 40 b3 4e 3d 48 ab 9a 3c bf 72 25 be
       -0.028260708 0.050463915 0.018880501 -0.16157053
0003c0 c1 3e f1 bd b4 d5 a2 bd ee c8 1f 3e 60 71 27 3c
       -0.117795475 -0.07950917 0.15603992 0.010219902
0003d0 b4 64 77 bd 84 ac dc 3d ec 4d e9 3d a4 e7 0a be
       -0.060398772 0.10775092 0.113918155 -0.13564926
0003e0 fc d7 f7 bd 4c 19 21 3e ae ab 10 3e 10 2c 41 bd
       -0.121017426 0.15732306 0.1412799 -0.047161162
0003f0 00 e7 68 3a ce b6 0d be 58 75 31 3e 74 00 3a 3e
       0.00088845193 -0.13839266 0.1732992 0.18164235

bias f4 [1, 30]
000000 00 00 00 00 00 00 00 00 00 00 00 00 00 00 00 00
       0.0 0.0 0.0 0.0
000010 00 00 00 00 00 00 00 00 00 00 00 00 00 00 00 00
       0.0 0.0 0.0 0.0
000020 00 00 00 00 00 00 00 00 00 00 00 00 00 00 00 00
       0.0 0.0 0.0 0.0
000030 00 00 00 00 00 00 00 00 00 00 00 00 00 00 00 00
       0.0 0.0 0.0 0.0
000040 00 00 00 00 00 00 00 00 00 00 00 00 00 00 00 00
       0.0 0.0 0.0 0.0
000050 00 00 00 00 00 00 00 00 00 00 00 00 00 00 00 00
       0.0 0.0 0.0 0.0
000060 00 00 00 00 00 00 00 00 00 00 00 00 00 00 00 00
       0.0 0.0 0.0 0.0
000070 00 00 00 00 00 00 00 00
       0.0 0.0

weight f4 [30, 10]
000000 86 b8 90 bd 94 9c 2e 3e 99 15 ac bd 5e c3 59 3e
       -0.07066445 0.17051917 -0.08402557 0.21265933
000010 55 09 b7 3d fc d3 38 be 46 f2 54 3e 71 4e d4 3d
       0.08937327 -0.18049616 0.20795545 0.10366524
000020 5d 5b 46 3a b9 11 1d 3d d1 a3 15 bd c7 8f 95 3e
       0.0007566715 0.03834698 -0.03653318 0.29211256
000030 4f e5 82 3d e8 9a b9 3c fa 82 90 be ab 66 fb 3d
       0.063913934 0.022656873 -0.28224927 0.12275442
000040 73 d0 6f be 2e d2 4e be e7 33 ad be 01 97 6c be
       -0.23419361 -0.20197365 -0.3382866 -0.23104478
000050 0f d0 48 be 53 b5 a4 3d 1c f6 a5 be 0e 8a dc 3d
       -0.19610618 0.08042397 -0.3241433 0.10768519
000060 92 aa 8f 3e 04 48 ec 3d 6d f4 9c 3e 0e 9e 66 3e
       0.28059822 0.115371734 0.30655232 0.2252123
000070 6a 91 49 be 15 2b cf 3d fa 7b 59 bc 77 bb 1a be
       -0.19684377 0.10115639 -0.013274187 -0.15110575
000080 64 44 5e 3e 0a 2a ba bd f6 f6 ed 3d 68 9a 06 3d
       0.21705776 -0.090900496 0.1161937 0.032862097
000090 22 13 2a 3d 94 45 50 be 62 8d bb 3e 0e 95 8e 3e
       0.041522153 -0.20339042 0.36631304 0.27848095
0000a0 b7 25 88 be 2b a5 7b 3e a5 67 c9 3d 68 18 a6 3e
       -0.26591274 0.24574725 0.09834222 0.32440495
0000b0 41 45 7c be 5d aa 20 3e 23 7d 8d 3e 47 b0 61 3d
       -0.24635793 0.15689988 0.27634534 0.05509975
0000c0 ad 8e 5e be cd 62 87 3e 3e 1f fc 3d a9 e0 37 3e
       -0.21734114 0.26442567 0.123106465 0.17956795
0000d0 5a 3c 6e be a5 e6 d5 3c bd d9 80 3d e6 2a f9 bd
       -0.2326521 0.026110956 0.0629153 -0.12166385
0000e0 36 54 19 3e 26 44 fc bd 87 4e dc 3d da 9b 72 3e
       0.1497353 -0.12317686 0.107571654 0.23692265
0000f0 31 bf 23 3e b3 38 91 3e 10 2d 89 bd 45 26 61 bd
       0.15990902 0.2836357 -0.06698048 -0.054968137
000100 64 db 3c bc 51 1a b1 3e eb 50 84 3e 7a 5b a0 3e
       -0.011526916 0.3459039 0.25842986 0.3131979
000110 1d 08 a4 3e b1 7c 84 3e 60 74 e0 3d 8e 2f dd bd
       0.3203744 0.25876382 0.10959697 -0.10800086
000120 2d 4c 64 be 8f 3b 9d be bd 0f 39 be 7f 27 30 3e
       -0.22294684 -0.30709502 -0.1807241 0.17202567
000130 57 b2 01 3e 7f 9b ed bd 5c 7e e8 3e 96 c7 c9 3d
       0.12665688 -0.11601924 0.45408905 0.09852521
000140 f9 f8 87 3e a8 b4 5d 3e 70 90 47 3d 0b 5c 88 be
       0.2655714 0.21650946 0.04872173 -0.26632723
000150 0d ad 9c bc 2d 5a e7 3c 1a 77 43 be 72 4b 92 be
       -0.019125486 0.028241241 -0.19088402 -0.28573185
000160 13 df 8b bd 23 0b bd be 4a 62 7a 3d 17 3b 6e be
       -0.068296574 -0.3692256 0.061128892 -0.23264728
000170 a4 f2 89 bd a9 03 9e bd 72 62 2a be 8c 20 2d 3e
       -0.06735733 -0.07715542 -0.16639116 0.16906947
000180 8b 4b c3 be c3 f0 d3 be 33 09 1c be c2 90 56 3d
       -0.38143572 -0.41394624 -0.15237884 0.052384146
000190 45 44 ad 3e c8 01 5f 3b 00 d8 ad 3e ba 95 18 be
       0.33841148 0.0034028161 0.33953857 -0.14900866
0001a0 28 b4 1c 39 08 37 3c 3e 3b 80 74 be 6a 88 06 3e
       0.00014944433 0.18380368 -0.23877041 0.13137975
0001b0 c2 13 70 bd 9c 79 7f 3e a1 11 10 be f0 cb 46 3e
       -0.058612593 0.24948734 -0.14069225 0.19413733
0001c0 bc ad 11 be e6 25 1b 3e 1d 8c 6a be f0 64 84 bd
       -0.1422643 0.15151176 -0.22905011 -0.06464565
0001d0 89 a6 91 3e 39 ee af 3e e3 c2 40 bd 29 c3 5d 3e
       0.2844737 0.34361437 -0.04706086 0.21656479
0001e0 c7 aa 8c 3e de 3e 8c be cf 32 ee 3d f1 b2 63 be
       0.27474043 -0.27391714 0.11630785 -0.2223623
0001f0 4a 48 61 be ae e2 7b 3e 79 3a 57 3e 61 a8 20 3e
       -0.22000232 0.2459819 0.210184 0.15689231
000200 65 50 10 3e 2d 2b d0 3e 84 9e 6a 3d 17 79 49 3e
       0.14093168 0.4065794 0.05728008 0.19675098
000210 ba c1 a8 3e e1 6c 8d bd 85 c6 01 3d 79 7d 0e 3e
       0.32960302 -0.06905533 0.031683464 0.13915052
000220 07 24 a0 3d 1b 7b 77 be 4c 3a 6b 3d cb 2b 80 be
       0.07819372 -0.24168055 0.057428643 -0.2503341
000230 8c c2 ae 3d 51 54 57 3e 8d 6e 80 3c 58 6d 93 bd
       0.085332006 0.21028258 0.015677715 -0.0719859
000240 53 b8 71 3e 2b 4f 1d 3e 24 c2 9e bc 33 72 eb bd
       0.2360547 0.15362231 -0.019379683 -0.11496391
000250 f1 f6 36 3e 1f 94 03 be ad 95 27 be aa 97 61 3e
       0.17867638 -0.12849472 -0.1636569 0.22030511
000260 d8 ce d0 bd da 78 46 bc a2 84 85 3e 30 1e 91 be
       -0.10195702 -0.012113774 0.26077753 -0.28343344
000270 53 6f 73 be 36 fb e8 3d 07 5c 50 be 84 85 bc bb
       -0.23772936 0.1137604 -0.20347606 -0.005753221
000280 1f fe b4 3d 9d cd 96 be 11 33 b7 3d 4d 2f a5 3e
       0.08837532 -0.29453745 0.08945287 0.3226265
000290 1a b9 be 3d ce c9 4e 3e 9c b2 a4 3e e8 10 1c be
       0.09312649 0.2019417 0.32167518 -0.15240824
0002a0 52 2c 67 be eb 75 0c 3d 34 77 11 be b7 3f 8f 3e
       -0.225755 0.034292143 -0.14205629 0.27978298
0002b0 2b ab 05 3e 6d 99 74 3e 52 b0 6d 3d ff 69 cd bd
       0.13053577 0.23886652 0.05802948 -0.10029983
0002c0 7d 2c 92 bb d1 04 92 be d9 76 33 be 82 76 6f be
       -0.00446087 -0.285193 -0.17525806 -0.23385051
0002d0 75 cb 66 3e bc b2 9c 3e 4b 25 33 3d 71 4e 8c 3e
       0.2253855 0.30605114 0.043736737 0.27403596
0002e0 0f 03 29 3e 1a 17 bb 3d 5c a5 34 3e 67 20 32 3d
       0.16505073 0.09135266 0.17641205 0.043487933
0002f0 d9 39 73 3e 86 f9 9a 3e da 56 8f 3e ae 69 3d 3e
       0.23752536 0.30268496 0.2799595 0.18497345
000300 14 92 5f be 40 82 4b 3e 0b e1 32 be 84 1e 59 be
       -0.21833068 0.19873905 -0.1746866 -0.21203047
000310 75 67 3a 3d ac ca 8a 3e 6c db b7 bb 6e 6d 25 be
       0.04550882 0.2710775 -0.005610874 -0.16155025
000320 f4 dc 39 3e 6a c2 05 3e a7 16 95 3e 5e 96 ad 3b
       0.18150693 0.13062444 0.29118845 0.005297466
000330 4d 63 fa bd 7d 74 14 be c2 14 0b be ca 9c 9c 3e
       -0.12225971 -0.14497562 -0.13582137 0.3058837
000340 62 0d 1c 3e 34 42 0d bd 85 e2 bc 3a 4a dc bf 3d
       0.1523948 -0.034486964 0.001441077 0.09368189
000350 7b c3 54 be 88 68 1b bd a1 f4 16 3e 6d a9 4b 3e
       -0.20777695 -0.037941486 0.14741756 0.1988885
000360 50 ca d8 bd 8e 17 e2 bc 74 af c0 bd 0d a4 ab 3e
       -0.10585463 -0.027599122 -0.09408465 0.33523598
000370 f0 88 4a be 46 60 bc 3e 61 5b 03 3d 5b 77 d2 3e
       -0.197788 0.367922 0.032069568 0.41106686
000380 2d 22 9e 3e cf 75 8d 3e 98 22 b4 bd fc f1 8d bd
       0.3088545 0.27628943 -0.08795661 -0.069309205
000390 45 2f 11 be b4 69 91 be 9c 12 50 3e 76 93 24 3e
       -0.14178188 -0.28400958 0.20319599 0.16071877
0003a0 02 08 cc bc 32 4f 54 3d 5b 5a 96 bd 39 1e 0a 3e
       -0.024906162 0.05183334 -0.07341453 0.13488092
0003b0 17 93 82 be ee 84 84 3e 9a 7c a6 3e 3a 3a 89 be
       -0.25502846 0.25882667 0.32516938 -0.26802236
0003c0 cf ca 8f 3d e2 a5 31 be cc ff 96 be af a5 ba bd
       0.070211045 -0.17348436 -0.29492033 -0.09113633
0003d0 6e 3e ba 3d 96 c8 2f 3d 58 3a 91 be 72 46 24 be
       0.09093939 0.042915903 -0.28364825 -0.16042498
0003e0 34 5c 3e 3e 81 46 85 3e 34 0d 27 be 28 0c 28 3e
       0.1858986 0.26030353 -0.1631363 0.16410887
0003f0 cb d9 14 be fe e4 88 3e c3 df 1f 3e 30 e7 36 3e
       -0.14536206 0.26737207 0.15612702 0.17861629

weight f4 [30, 30]
000000 70 e3 00 3e 00 6e d2 3d 5f d0 0c be 56 23 04 3e
       0.1258676 0.10274887 -0.13751362 0.12904105
000010 0a b1 01 3e 80 c7 be 3b e6 21 fa bd 70 bc 0f 3e
       0.12665191 0.005822122 -0.12213497 0.14036727
000020 ac c4 d8 3d 34 02 7d bd ce 35 21 be ea 34 b4 bd
       0.10584387 -0.06176968 -0.15743181 -0.08799155
000030 68 e0 e5 3d 4a 10 12 3e 28 1f e2 3c 84 dd ca 3d
       0.11224443 0.14264026 0.027602747 0.09905532
000040 a8 f5 be 3d 26 bf 1a 3e 1b f2 24 be 8c bd 1a 3e
       0.09324199 0.1511198 -0.16107981 0.15111369
000050 a8 f6 32 bd ac 45 f9 3d cc e5 05 3e 10 4d 4b bc
       -0.04369226 0.12171492 0.13075942 -0.01240851
000060 9e f4 31 3e f6 69 1d 3e 7a a2 36 3e 70 f0 04 bc
       0.1737847 0.15372452 0.17835417 -0.008113965
000070 e0 1e 68 3d 36 b3 fc bd f8 fb 4c bd bc 80 d8 3d
       0.05667007 -0.12338869 -0.050044984 0.10571429
000080 78 10 e6 3d d2 a3 0f 3e b0 b8 04 bc 6e 24 37 be
       0.1123361 0.14027336 -0.008100674 -0.1788499
000090 ec 07 53 3d c8 80 4d bd f8 17 d1 3c 62 a7 2f 3e
       0.051521227 -0.050171643 0.025524125 0.17153695
0000a0 2a e5 0f 3e 4c 50 6d 3d 80 2e 9a ba d8 5b 4b bd
       0.14052263 0.057937905 -0.0011763126 -0.049648136
0000b0 e5 dc 17 be 30 54 44 3d a4 9c a0 3d 20 fa a7 3d
       -0.14830358 0.04793185 0.07842377 0.082020044
0000c0 f0 16 a7 3d 70 f3 6a 3d 34 00 e4 bd dc 3b 5f bd
       0.08158672 0.057361066 -0.11132851 -0.054500446
0000d0 80 93 e2 3b 34 36 a3 bd 04 01 2b be 40 30 34 be
       0.006914556 -0.07969323 -0.16699606 -0.17596531
0000e0 90 68 13 bc 82 76 16 be 4c f5 29 3e 97 4a bd bd
       -0.008997098 -0.14693645 0.1659748 -0.092427425
0000f0 fc d5 88 bd 14 b4 45 3d 30 82 75 3d c0 bf fd 3d
       -0.06681439 0.04826744 0.05993861 0.12390089
000100 5c b7 f8 3d 1c 68 fa 3d 0a a7 2c 3e aa 38 22 be
       0.12144348 0.122268885 0.16860595 -0.15841928
000110 85 6c 0a be 3b 89 95 bd 40 0f 13 bb 8a a6 0f 3e
       -0.1351796 -0.07301565 -0.002243951 0.14028373
000120 c0 f8 46 bc 90 c4 65 bc 50 03 f2 3d 98 29 0f 3d
       -0.012144268 -0.014023915 0.11817038 0.034951776
000130 50 d4 2c be 6f af 2e be c1 b8 29 be d0 30 63 3c
       -0.16877866 -0.1705911 -0.16574384 0.013866618
000140 47 3b 15 be d0 c4 b1 3c 9c 1a 1f 3d a0 99 fe bd
       -0.14573394 0.021700293 0.038843736 -0.124316454
000150 c4 eb b0 3d 36 6f 1a 3e e0 a7 00 be ca 76 b1 bd
       0.08638719 0.15081486 -0.12564039 -0.08665235
000160 27 72 e8 bd bf 80 0e be 5f ea 11 be 5e b4 15 3e
       -0.11349898 -0.139163 -0.14249562 0.14619586
000170 4a 27 77 bd 5d 83 0c be 50 4a 65 bc 52 25 18 3e
       -0.060340203 -0.13721986 -0.013994768 0.14857987
000180 04 b1 72 3d e8 07 77 bd 80 91 3f 3b 72 c9 0a 3e
       0.059250847 -0.060310274 0.0029231012 0.13553408
000190 f5 27 2d be de c3 19 be 80 4c b5 3d ba 43 30 3e
       -0.16909774 -0.15016124 0.08852482 0.17213336
0001a0 a0 8b ac 3d 54 8f 25 3e 68 c5 10 3e 48 a6 be 3d
       0.08425069 0.16167957 0.14137805 0.093090594
0001b0 38 99 99 bc 72 a7 3a be 5e cb ae bd 08 36 53 bd
       -0.018749818 -0.18227938 -0.08534883 -0.0515652
0001c0 c0 2e 4b 3c fd c5 00 be be 37 e9 bd 00 7a bf ba
       0.012401283 -0.12575527 -0.11387585 -0.0014608502
0001d0 34 63 2b 3e 80 f1 d0 3b 8e a0 25 be fc 73 0d 3e
       0.16737062 0.0063764453 -0.16174528 0.13813776
0001e0 ee 24 38 3e a8 99 a1 3d 1d 2f 12 be 08 2e e8 3c
       0.17982838 0.07890636 -0.14275785 0.028342262
0001f0 82 08 2d 3e be 8a 82 3d 80 3f 13 3e 80 16 31 bd
       0.16897777 0.06374119 0.14379692 -0.04323435
000200 c1 ec b1 bd a0 ed ed 3b a4 84 00 3e 7e 3d 33 3e
       -0.08687735 0.007260993 0.12550598 0.17503926
000210 6e cb 06 3e 42 e0 1e be 83 1e c1 bd 6a 4e 3a be
       0.1316354 -0.15515235 -0.09429648 -0.18193975
000220 b0 6a c8 3d 80 f0 9a 3a 1c 8e c4 3d 54 2d 2f 3e
       0.09785974 0.0011820942 0.09597418 0.17107135
000230 3c 81 05 be 2e 80 08 3e fc 80 13 3e a2 41 81 3d
       -0.1303758 0.13330147 0.14404672 0.063113466
000240 80 66 37 3e 44 26 61 3d 00 08 b7 bb e0 c0 5f bd
       0.17910194 0.054968134 -0.0055856705 -0.0546273
000250 e0 50 5d 3d 0e d4 3a 3e 40 e3 2d bc ce 3b 15 3e
       0.054032207 0.18244955 -0.010613263 0.14573595
000260 09 ac 17 be a0 7a 64 3c be ca ce bd 78 0c 17 3e
       -0.1481172 0.013945252 -0.10097264 0.1475085
000270 f6 d5 2b be b5 1b 32 be 45 0a a2 bd 84 2d ca 3d
       -0.16780838 -0.17393382 -0.07912115 0.09871963
000280 07 5f e1 bd b8 d2 cc 3d ac 1d cf 3d 20 9c 43 3d
       -0.11004453 0.10001129 0.10113081 0.047756314
000290 e8 1f 0b 3e c8 7b f0 3c 49 7a 92 bd ac cd da 3d
       0.1358639 0.029355898 -0.0715223 0.1068376
0002a0 ca e2 2e 3e 48 12 04 be 20 3c 2c bc ec d7 a7 3d
       0.170787 -0.12897599 -0.010512382 0.08195481
0002b0 58 37 f7 3c 40 df e9 3d 2f 44 23 be 1c 55 ef 3d
       0.030177757 0.11419535 -0.15943979 0.11686155
0002c0 cc a0 52 3d ce be 14 be 76 ec 2f 3e fc bb e9 3d
       0.05142288 -0.14525911 0.17180046 0.11412808
0002d0 5d 57 ad bd ca 91 1c 3e 18 8e 22 3e 10 fd 71 3c
       -0.08463929 0.15289989 0.15874517 0.014769807
0002e0 40 c8 08 bd 98 cf de 3d 95 94 29 be a7 4c b2 bd
       -0.0333941 0.10879439 -0.16560586 -0.087060265
0002f0 fc 8c 04 3e 76 fe 20 be fa 61 e9 bd d8 50 a5 bd
       0.12944406 -0.15722069 -0.11395641 -0.0807206
000300 e0 0e 78 bc a4 01 10 3e c6 74 32 3e 30 f2 0f 3e
       -0.015140265 0.14063126 0.17427358 0.14057231
000310 82 61 7a bd e6 34 1c be d8 cb 03 be f2 f4 1a 3e
       -0.061128147 -0.15254554 -0.12870729 0.15132502
000320 00 6e a8 3d 40 75 ff 3c 28 cc 35 be 76 cb c3 bd
       0.08224106 0.031183839 -0.1775366 -0.095602915
000330 a0 aa 78 3d 70 cb 10 3d 60 99 ed bb c6 0c 32 3e
       0.060709596 0.035350263 -0.0072509497 0.17387685
000340 db 8d c7 bd 10 b3 51 3d fc 34 9b 3d 68 cb 47 bd
       -0.09743854 0.051196158 0.07578465 -0.048777968
000350 a2 65 12 3e 2f 6c da bd b0 5e f2 bc da 75 01 be
       0.14296582 -0.10665166 -0.029586166 -0.12642613
000360 a0 90 79 3d ba 28 39 be 88 cc dd 3d fb 55 a9 bd
       0.06092894 -0.18081942 0.10830027 -0.082683526
000370 5b 74 23 be 21 32 fe bd 0d 30 2b be b8 d6 b0 3d
       -0.15962355 -0.12411905 -0.16717549 0.08634704
000380 7c 17 e3 3d bc 31 30 3e 94 e2 39 be d8 b8 97 3d
       0.11088464 0.17206472 -0.18152839 0.07408303
000390 2d 07 e5 bd 94 51 10 3e 1d 55 1f be 01 87 8d bd
       -0.11183009 0.1409362 -0.15559812 -0.069105156
0003a0 5c d3 38 bd 80 02 4e bc 58 f3 c9 3c 1c cd bc 3d
       -0.045123443 -0.012573838 0.024652168 0.09218809
0003b0 8c 23 d4 bd f8 44 6a 3d e8 b6 9a 3d 50 b7 24 bd
       -0.103583425 0.05719468 0.07554418 -0.040213883
0003c0 72 98 18 3e cb 72 fa bd 00 16 a0 ba a4 76 0d 3d
       0.14901903 -0.12228926 -0.0012213588 0.034536973
0003d0 ff 1a c8 bd 51 30 d1 bd f0 d7 76 bd 0a 72 cc bd
       -0.09770774 -0.10214294 -0.060264528 -0.09982689
0003e0 27 0b 00 be 00 ee 39 ba 68 38 b2 3d ca a4 08 3e
       -0.12504254 -0.00070926547 0.08702165 0.13344112
0003f0 b6 eb 32 3e c6 06 0f 3e 26 5a df bd 30 18 73 bd
       0.17472729 0.13967428 -0.10905866 -0.05934924

bias f4 [1, 30]
000000 00 00 00 00 00 00 00 00 00 00 00 00 00 00 00 00
       0.0 0.0 0.0 0.0
000010 00 00 00 00 00 00 00 00 00 00 00 00 00 00 00 00
       0.0 0.0 0.0 0.0
000020 00 00 00 00 00 00 00 00 00 00 00 00 00 00 00 00
       0.0 0.0 0.0 0.0
000030 00 00 00 00 00 00 00 00 00 00 00 00 00 00 00 00
       0.0 0.0 0.0 0.0
000040 00 00 00 00 00 00 00 00 00 00 00 00 00 00 00 00
       0.0 0.0 0.0 0.0
000050 00 00 00 00 00 00 00 00 00 00 00 00 00 00 00 00
       0.0 0.0 0.0 0.0
000060 00 00 00 00 00 00 00 00 00 00 00 00 00 00 00 00
       0.0 0.0 0.0 0.0
000070 00 00 00 00 00 00 00 00
       0.0 0.0

weight f4 [30, 30]
000000 95 e1 03 3e 23 84 ee 3d ef f0 37 bd cb 09 e4 3d
       0.12879021 0.11646297 -0.044907507 0.1113468
000010 6c fa 6c 3d bc ef dc bd 12 d3 34 be 7e ea 97 be
       0.05785601 -0.10787913 -0.17658642 -0.2967109
000020 bb b5 1d be b8 02 07 3d 61 f0 e7 3c 5f d4 43 be
       -0.15401356 0.032961577 0.028312864 -0.19123982
000030 fd 79 8b be ea f0 6e 3e 97 e7 3c 3d fc 11 84 bc
       -0.27241507 0.23334089 0.0461193 -0.016121857
000040 68 fd b2 bc 20 cd 5b 3e 7b 26 85 bc b5 4f 26 be
       -0.02184935 0.21464968 -0.0162537 -0.16241343
000050 a6 6e 0d 3e c4 76 34 ba 20 0b 41 3e 36 51 e4 3d
       0.1381174 -0.00068841525 0.188519 0.11148302
000060 95 12 13 be 4c 5d 04 3e 1b a5 4c 3e 8f d0 38 3e
       -0.14362557 0.12926215 0.19984858 0.18048309
000070 2e 43 87 bd 70 15 df 3d 31 05 8c bc 9f a0 27 bc
       -0.066046104 0.10892761 -0.01709232 -0.010231166
000080 4d d1 28 3e 3d ae fc 3d d4 f3 1b bd a2 60 84 bd
       0.16486092 0.12337921 -0.03807433 -0.06463744
000090 78 9a 78 bd 8a 4c df be ab 41 cd 3d f3 e5 81 be
       -0.060694188 -0.43613082 0.10022291 -0.2537075
0000a0 6c c9 4d 3e 30 94 d3 bb 58 e9 13 be 54 67 86 3e
       0.20096368 -0.0064568743 -0.14444482 0.26250708
0000b0 8d ef 68 3e ae 56 30 bd b4 54 b8 3e 5a 64 e2 3d
       0.22747631 -0.043051414 0.36002123 0.11054297
0000c0 ae d8 6f 3d 42 50 56 bd 27 2e ca 3d 7e d9 7d bd
       0.05855625 -0.052322634 0.09872084 -0.061974995
0000d0 ba 92 92 3e 5c 87 65 3e 48 3d 98 bd f8 0e dd 3b
       0.28627568 0.22414917 -0.074335635 0.006746169
0000e0 09 ef 7c 3e c9 18 5a 3e 9d d0 42 3d 9f d8 49 3d
       0.2470056 0.21298517 0.04756223 0.04927885
0000f0 ff 09 bc 3b f0 d0 d0 bd 49 db 09 be 87 5a 85 be
       0.0057384963 -0.10196102 -0.13462557 -0.2604563
000100 6f a3 2c be d4 9d 58 bc ae 89 fd bd 88 e1 66 bd
       -0.1685922 -0.013221223 -0.12379776 -0.056367427
000110 8e d1 f0 bc 75 c2 80 3d 6e bf 2d be a8 47 1e be
       -0.029396798 0.0628709 -0.16967556 -0.15457022
000120 b1 13 98 be b2 ba 99 be 67 97 a0 be 37 92 eb bd
       -0.29702523 -0.3002525 -0.3136551 -0.11502498
000130 16 78 2e be c3 bc cd bd d3 08 08 be 03 8e ef 3c
       -0.17037997 -0.10045769 -0.13284616 0.029242521
000140 5e 45 7a be fe af 09 be 4e bb eb bd 76 e9 d8 bc
       -0.24440524 -0.13446042 -0.11510335 -0.02647851
000150 f4 21 2b 3e f0 62 11 3d be 3b 09 3e 56 af 69 bc
       0.16712171 0.035494745 0.13401696 -0.014262995
000160 55 9d 91 bd 32 db 5b bd b7 65 fe 3d a6 0b 24 3e
       -0.07110087 -0.053675838 0.12421744 0.16020069
000170 99 2e c4 3c 23 c2 5c be dd a0 d3 3d e2 20 b6 bd
       0.023948 -0.21558432 0.103334166 -0.08892991
000180 05 36 54 be 1a 58 e4 bb 90 8a a2 3d cd 0c 0d bd
       -0.20723732 -0.0069685103 0.07936585 -0.034436036
000190 cb 48 ca 3d d4 89 03 be bd c2 f7 3c 43 68 fc 3d
       0.098771654 -0.12845546 0.030244226 0.12324574
0001a0 27 17 9a 3d c1 98 37 3d c4 ce e6 bb aa 7a dd bd
       0.07523947 0.04482341 -0.0070436914 -0.10814412
0001b0 a2 5c 66 be 77 2f c5 bd 8e f1 1f 3c 0b e7 ae 3c
       -0.22496274 -0.09628194 0.009762181 0.021350404
0001c0 c7 02 40 3e 66 24 00 be 29 82 3e 3b d9 bd 14 3e
       0.1875106 -0.12513885 0.002906928 0.14525546
0001d0 a2 2d 69 3c 77 b5 76 3d db cf 17 bd 1d d0 9e 3d
       0.014232071 0.060231652 -0.03706346 0.07754538
0001e0 ac ed 15 3e 7b d4 aa bd ea c2 da bd 5d 8a cb 3c
       0.14641446 -0.08341309 -0.10681708 0.02484625
0001f0 a5 62 fc 3c 77 23 97 bd 99 6c 01 be 9b 6f 6d be
       0.030808756 -0.07379811 -0.12639083 -0.23187105
000200 55 61 b2 3d 06 3f 9a 3d 8e 36 fa bd fe c9 0b bd
       0.08709971 0.07531552 -0.12217437 -0.03412818
000210 bb 23 6b 3d c1 55 5b 3d 4b d4 ed 3b 8a 4e be 3c
       0.057407122 0.05354858 0.0072579733 0.02323081
000220 da 81 4f 3e 78 42 0f bd 3d 72 0b 3e 5e 6a f3 3d
       0.20264378 -0.0349755 0.13617797 0.11885522
000230 00 03 24 3d 71 9f 4d bd df 45 8e 3e e7 ca d2 3d
       0.040041924 -0.050200883 0.27787682 0.10292607
000240 58 a7 6a 3d 23 2e ab bd bb 36 d2 bd eb 5f 67 3e
       0.057288498 -0.08358409 -0.10264345 0.22595184
000250 2f 12 8d bd c9 08 0a be 17 f7 7c bd eb 64 bd 3c
       -0.06888234 -0.13479914 -0.06175908 0.02311941
000260 40 7c e2 bd 86 62 60 3c 19 98 07 3e 4a d7 cb 3c
       -0.11058855 0.013695365 0.13241614 0.024882931
000270 ee b7 77 be d6 96 d7 bd 98 65 34 3e 03 db ee bd
       -0.24191257 -0.105268165 0.1761688 -0.11662867
000280 e8 01 24 be 64 c2 78 be db 2d 26 be cb d9 8c 3d
       -0.16016352 -0.24292904 -0.1622843 0.06877478
000290 0f c2 0c 3e b9 6b 1e 3e 86 d4 1a 3e e5 44 0b 3e
       0.13745902 0.1547078 0.15120134 0.136005
0002a0 40 4c 1d be 5a 2f c8 3b fa 0c b9 3d 47 8c 9e 3d
       -0.15361118 0.0061091604 0.09035678 0.077415995
0002b0 a5 f2 42 bc f2 a0 75 3d b9 2e f8 3c 33 21 37 be
       -0.011898671 0.059967943 0.030295717 -0.17883758
0002c0 be 3e 25 3d ca bf 24 3c d9 1d 66 3e 25 37 2c bd
       0.04034304 0.010055492 0.22472323 -0.042044777
0002d0 62 2b f0 3d 17 1b d5 bd be 2b 8d 3d 0e 7a 66 3e
       0.117270246 -0.104055576 0.06893109 0.22507498
0002e0 3b 37 ed bd bc 8c 42 3e c7 94 e4 3d 60 3a b9 3e
       -0.115828 0.18998998 0.111611895 0.3617735
0002f0 55 b0 43 bd 54 7c b1 bd 11 99 c9 3d 46 f6 08 3e
       -0.047775585 -0.08666292 0.09843648 0.13375196
000300 c5 7f 93 3e 36 bb b1 be 3c 80 57 bd 42 71 6d be
       0.28808418 -0.34713143 -0.05261253 -0.23187736
000310 c8 a9 8e 3d 21 cd c5 bd 33 39 19 3e 84 fb 98 bd
       0.06965977 -0.09658266 0.14963226 -0.07469848
000320 e3 aa 2e be 6d b5 36 3e 0c 5b a7 be bb b9 03 be
       -0.17057376 0.17842646 -0.3268665 -0.1286382
000330 33 81 5a 3e 5d ae df bd 9e ff 0f be 9f 73 c8 bd
       0.21338348 -0.10921929 -0.14062354 -0.09787678
000340 7e 11 1a 3b d0 70 19 be b5 f0 b9 bd 81 6a 3d 3e
       0.0023508961 -0.14984441 -0.09079114 0.1849766
000350 58 50 b3 bd dd fd 1f 3d 0d 9f b2 bd b9 d4 02 be
       -0.08755559 0.039060462 -0.08721743 -0.1277646
000360 4e af 35 be dc 6e 7d 3d 3b 4b 8e 3d a4 06 1a 3e
       -0.17742655 0.061873302 0.06947943 0.15041596
000370 6f d5 39 be ee 68 65 be 6d 5e 33 be a3 4a e6 bb
       -0.18147825 -0.22403309 -0.1751649 -0.0070279404
000380 e7 1e 3f 3d 94 8b 5d 3e fe a5 f7 bd 63 77 e5 bd
       0.04666033 0.21635276 -0.12092207 -0.11204412
000390 25 d8 37 be 88 bf 4f be b6 1e 5c be 16 c0 3c 3c
       -0.17953546 -0.20287907 -0.2149609 0.011520406
0003a0 bf 96 62 bd 98 c6 48 bd fb c3 17 3e 22 b0 df bd
       -0.055319544 -0.04901752 0.14820854 -0.109222665
0003b0 6b bd dc 3c 0d c3 b0 3d e4 79 76 bd b4 69 71 3e
       0.02694579 0.08630953 -0.060174838 0.23575479
0003c0 3f b4 06 3e 23 3d 47 be de b3 07 be d8 54 1b 3e
       0.13154696 -0.19456916 -0.13252208 0.15169084
0003d0 79 6d 84 bd b4 f0 1b bd df 15 aa 3b b3 3b 6a 3d
       -0.06466193 -0.03807135 0.0051905955 0.05718584
0003e0 3e 6e 49 bd a1 58 5d be ba 8c 23 3e 88 6e 06 3d
       -0.0491774 -0.2161584 0.15971652 0.032820255
0003f0 58 08 1b 3e 0a 21 25 3d 98 83 b8 bd b4 e6 7b bd
       0.15139902 0.04031471 -0.090094745 -0.061499313

weight f4 [30, 30]
000000 1c 0e c4 bd 64 bb 05 3e c4 07 84 bd 06 26 16 3e
       -0.09573004 0.13059765 -0.06446794 0.14662942
000010 c8 12 e8 3d 44 58 f2 3d 36 4d bc bd bc 60 15 3e
       0.11331707 0.118332416 -0.09194414 0.14587682
000020 e8 7b ff 3d 8c a1 b9 3d 04 3b cf bd a0 53 cd 3d
       0.12474805 0.09064016 -0.10118678 0.10025716
000030 d8 95 9a bd 08 4b 80 3d fc 4c 30 3e 5c 43 10 bd
       -0.07548112 0.06264311 0.17216867 -0.03522049
000040 33 6f 24 be 30 13 c7 3d 94 55 9a 3d 6c 33 92 3d
       -0.16058044 0.097204566 0.07535854 0.07138714
000050 24 24 e7 3d c0 ff e0 3d 00 13 93 ba 97 9e 11 be
       0.1128619 0.109862804 -0.0011220872 -0.14220653
000060 44 2c 72 3d e8 cc 8d 3c 18 ba 6a bd c8 93 d0 bd
       0.059124246 0.017309621 -0.05730638 -0.10184437
000070 90 1e 2e bc b2 d1 9a bd fb aa 01 be da a4 c9 bd
       -0.010627404 -0.075595275 -0.1266288 -0.09845896
000080 e0 21 2e 3e c9 1a ed bd 70 dc ee bc be f6 ca bd
       0.1700511 -0.115773745 -0.029157847 -0.099103436
000090 24 ca 90 bd 74 c4 b5 bd 6a 5b 86 3d ca 17 24 3e
       -0.07069805 -0.08875361 0.065604046 0.160247
0000a0 15 92 35 be 48 8e d8 bc 88 d6 ed 3d fc c6 b0 3d
       -0.17731507 -0.026435032 0.11613184 0.08631703
0000b0 20 b7 c1 3c 62 cc 9c bd 6a b0 19 3e fb ca ff bd
       0.023646891 -0.076561704 0.15008703 -0.12489887
0000c0 1e 2c 78 bd 74 8f 8e 3d d4 0d 0b bd 66 eb 14 3e
       -0.06058895 0.06960955 -0.033948734 0.14542922
0000d0 ef 06 31 be 04 db 11 3e 2e 9f 15 3e 24 0d b9 bd
       -0.17287801 0.14243704 0.14611503 -0.090357095
0000e0 e0 aa 0d 3c 10 64 f1 3d c0 50 92 3d 0c b0 71 3d
       0.008646697 0.117866635 0.07144308 0.059005782
0000f0 31 7c 32 be a6 84 21 be 8e 5b 34 3e e1 0e a9 bd
       -0.17430188 -0.15773258 0.1761305 -0.08254791
000100 d4 2c 1d be 54 de 16 3e d0 93 5c 3c 1c 85 6f bd
       -0.15349132 0.14733249 0.013462976 -0.058476552
000110 62 a5 32 3e 80 40 cd bb da 2d 3a 3e 40 2f ee 3d
       0.17445901 -0.0062637925 0.18181553 0.11630106
000120 cc 13 55 bd 88 23 5c bd fc 88 2c bd 20 6a a5 bb
       -0.052020833 -0.053744823 -0.042122826 -0.0050480515
000130 66 83 29 3e b8 72 94 bc 88 cc b4 3c 7e 49 31 3e
       0.16554031 -0.018121108 0.022070184 0.17313191
000140 dc f9 13 3e 14 b9 be 3d 18 9d f1 3d 80 57 9f bb
       0.14450783 0.093126446 0.117975414 -0.0048627257
000150 9e 4b 02 3e 46 ef 32 be e0 32 37 bd 90 d6 7c bc
       0.12724158 -0.17474088 -0.044726253 -0.015432015
000160 aa 87 13 be 1c ee ea 3d 60 4b bd bd 42 40 03 3e
       -0.1440722 0.11471197 -0.09242892 0.12817481
000170 1c 58 a6 3d 6e 9a 0b 3e c4 a8 31 3e 2a aa d8 bd
       0.08122274 0.13633129 0.17349535 -0.10579331
000180 a6 d1 1f 3e d8 a5 c3 bc 0a 98 1a be 90 f4 ee bd
       0.15607318 -0.023882791 -0.15097061 -0.1166774
000190 3a fa 89 bd 13 d2 06 be b0 6e fb 3d a9 3e b8 bd
       -0.0673718 -0.13166074 0.12276971 -0.089963265
0001a0 c8 eb 8c bc 2f 62 ce bd 40 55 f0 3b 18 df ca bc
       -0.017202273 -0.10077321 0.0073343813 -0.024764583
0001b0 e8 91 f9 3d c4 07 8c 3d 63 34 b7 bd 32 fc fe bd
       0.121860325 0.06837419 -0.08945539 -0.12450446
0001c0 32 5b 2c 3e 00 ba 52 3a ac bc 45 3d 40 cb 02 bb
       0.16831663 0.00080385804 0.048275635 -0.0019957572
0001d0 eb 36 25 be 28 b3 1f 3e 8f 70 16 be ac e5 6b 3d
       -0.16134231 0.15595686 -0.14691375 0.05759208
0001e0 d0 6c 01 3c f8 fe 8d bc 5c 6c b8 3d d8 77 2f 3e
       0.007899478 -0.017333493 0.09005043 0.1713556
0001f0 d8 09 27 3e 6c 3e 9d 3d 9e 89 29 3e e0 07 5f 3c
       0.16312349 0.07677922 0.16556403 0.013612717
000200 10 33 13 3e 40 1a 7b 3d b0 b5 a8 3c 00 38 e4 b8
       0.14374948 0.06130433 0.020594448 -0.00010882318
000210 4c 5b 55 bd 5b 03 86 bd 56 36 0f 3e 48 88 f5 3d
       -0.05208902 -0.06543609 0.13985571 0.11988884
000220 33 4d 29 be 0c 6f 06 bd 90 9c 6d bd d8 30 02 be
       -0.16533355 -0.032820746 -0.058010638 -0.12713945
000230 c8 ee 76 3d 7c 13 e0 bd 78 85 26 bd 1c 4a d1 3d
       0.060286313 -0.10941216 -0.04065463 0.10219213
000240 00 ee 36 3c a2 63 71 bd 60 84 0a 3c 0c d1 ff 3d
       0.011165142 -0.058932908 0.008454412 0.124910444
000250 e7 03 9b bd f8 81 13 be 6c f3 2d be f2 e5 38 3e
       -0.07569104 -0.14405048 -0.1698739 0.18056467
000260 08 51 c0 3d be c6 12 be c0 8b 89 3d 40 2f cc bd
       0.093904555 -0.14333627 0.06716108 -0.0996995
000270 f4 80 45 3d c4 ce 8c 3d 89 08 0f be 9c 3a b7 3d
       0.048218682 0.06875375 -0.139681 0.08946726
000280 80 02 d5 3b 85 db b3 bd ac e0 32 3e e8 22 c5 bd
       0.006500542 -0.087821044 0.17468518 -0.096257985
000290 ee b6 0d be 90 41 4a 3d e8 63 e1 3d a8 8f 2e bd
       -0.13839313 0.04937893 0.11005384 -0.04261747
0002a0 d4 49 97 3d 7c c5 c6 3d c4 14 34 3e e9 70 e9 bd
       0.073871285 0.09705636 0.17586046 -0.11398489
0002b0 a0 0d 88 bc 14 ef fa 3d 3c e4 ab 3d 38 95 1e 3d
       -0.01660806 0.12252632 0.083931416 0.038716525
0002c0 85 95 8e bd 20 81 41 3c ea f4 9c bd 1c 99 25 be
       -0.06962112 0.011810571 -0.07663901 -0.16171688
0002d0 d8 5c f7 bc 1a 6d 26 3e f9 c8 31 be 50 45 77 bc
       -0.030195639 0.16252556 -0.17361821 -0.015092209
0002e0 c0 f7 3a bc 20 0a 8c 3b 30 fa 21 3d 94 6f b2 3d
       -0.011411607 0.004273668 0.039545238 0.08712688
0002f0 30 0e 25 be 40 26 2e bc 10 0b 13 bc 94 2f 1c 3e
       -0.16118693 -0.010629237 -0.0089748055 0.15252525
000300 70 b1 f0 3d 28 88 2f be 69 1c 11 be c0 c4 41 3b
       0.117525935 -0.17141783 -0.14170994 0.0029566735
000310 a4 a1 5a bd b1 82 a7 bd 3c af 89 3d a5 a0 07 be
       -0.05337681 -0.08179224 0.067228764 -0.13244875
000320 e6 26 28 3e 80 72 f6 3a 30 dc fd bc 8f a7 94 bd
       0.16421089 0.0018802434 -0.030988783 -0.07258522
000330 29 0f ab bd d9 01 1b be 60 8c 7c bc 58 f4 15 3e
       -0.08352501 -0.15137424 -0.015414327 0.14643991
000340 28 45 f3 3d 20 ad 8e 3d 36 04 98 bd 6a 21 1f 3e
       0.11878425 0.06966615 -0.07422678 0.1554009
000350 00 bf 3e bb 4c 36 eb 3d ca 76 39 3e 80 82 67 3b
       -0.0029105544 0.11484966 0.1811172 0.0035325587
000360 24 d5 5f 3d 56 be 10 be ad 1d ac bd 6c 3e e8 3d
       0.054646626 -0.14135107 -0.08404098 0.11340031
000370 94 0e 35 3e 6e 1a 12 3e 04 6c 46 bd 17 8f 31 be
       0.17681342 0.14267895 -0.048442855 -0.1733974
000380 12 a5 02 3e 7c ef 04 be 72 68 7f bd e0 65 09 be
       0.12758282 -0.12981981 -0.062355466 -0.13417768
000390 20 37 be 3b f0 ec 12 bc 00 57 3f bc 5c c0 5b bd
       0.0058049113 -0.008967623 -0.011678457 -0.053650245
0003a0 50 18 f5 bc 58 25 04 3e 2c 86 a3 3d 00 6f b1 3d
       -0.02991882 0.1290487 0.07984576 0.0866375
0003b0 c4 db 05 3d 96 8e 15 3e af d7 01 be 82 0d 15 be
       0.032680288 0.14605173 -0.12679933 -0.14555934
0003c0 51 23 0d be 82 b8 f5 bd 80 10 d7 bd 79 dd 2e be
       -0.13783003 -0.11998083 -0.10501194 -0.17076673
0003d0 90 56 8b bc b8 31 2d be c8 96 14 3d d0 5d 15 be
       -0.01700905 -0.16913497 0.03627661 -0.14586568
0003e0 c2 13 31 3e 5d d5 f4 bd a1 14 e1 bd 08 a7 91 3c
       0.17292693 -0.11954758 -0.10990263 0.017779842
0003f0 f4 c5 33 be b1 6f 15 be 0c 99 e5 3d d8 b4 76 3d
       -0.17555982 -0.14593388 0.11210832 0.06023106

bias f4 [1, 30]
000000 00 00 00 00 00 00 00 00 00 00 00 00 00 00 00 00
       0.0 0.0 0.0 0.0
000010 00 00 00 00 00 00 00 00 00 00 00 00 00 00 00 00
       0.0 0.0 0.0 0.0
000020 00 00 00 00 00 00 00 00 00 00 00 00 00 00 00 00
       0.0 0.0 0.0 0.0
000030 00 00 00 00 00 00 00 00 00 00 00 00 00 00 00 00
       0.0 0.0 0.0 0.0
000040 00 00 00 00 00 00 00 00 00 00 00 00 00 00 00 00
       0.0 0.0 0.0 0.0
000050 00 00 00 00 00 00 00 00 00 00 00 00 00 00 00 00
       0.0 0.0 0.0 0.0
000060 00 00 00 00 00 00 00 00 00 00 00 00 00 00 00 00
       0.0 0.0 0.0 0.0
000070 00 00 00 00 00 00 00 00
       0.0 0.0

weight f4 [30, 30]
000000 62 16 82 be 48 f2 53 3b 64 c8 f3 3d 6e 0a 4c 3d
       -0.25407702 0.0032340456 0.11903456 0.049814634
000010 1e 33 04 be f2 b5 55 be bf 90 a3 bd b0 39 df 3d
       -0.12910125 -0.20870188 -0.079865925 0.10899675
000020 b0 f7 6c 3e 37 52 95 3d f0 0d 06 3e d0 a1 63 3e
       0.2314136 0.07291072 0.13091254 0.22229695
000030 27 7f 48 3e 45 ec 4d 3e 36 d1 68 bd 72 1c b9 bd
       0.19579755 0.20109661 -0.056840144 -0.09038629
000040 cb d3 4a be 15 35 b9 bd 0a 16 41 be 6c da 5a be
       -0.19807355 -0.09043328 -0.18856063 -0.21372384
000050 6e 37 4b 3e 01 e7 26 3e 2f 24 ff 3c af f8 c1 3d
       0.19845363 0.16299058 0.031145183 0.09471261
000060 0d a9 1d be 9b 71 09 be 8e 3b 64 3e 30 82 d9 bd
       -0.15396519 -0.13422243 0.22288343 -0.106205344
000070 67 45 7d 3d 7a a7 a0 bd 5b 41 8f bd b9 f8 69 3e
       0.061833765 -0.078444436 -0.069948874 0.22848786
000080 94 c0 a2 3d b5 da 11 3d 06 26 07 3d 53 39 61 3c
       0.079468876 0.035608966 0.032995246 0.013746577
000090 65 53 f3 bd 42 f3 09 3e 90 74 68 be 39 ce 08 be
       -0.118811406 0.13471702 -0.22700715 -0.13359918
0000a0 4c 3c bb bd 72 9a 9d bd 66 52 8d be 72 28 8a be
       -0.0914236 -0.07695474 -0.27601928 -0.26983982
0000b0 3e 25 97 bb c9 31 16 3d 52 4a 03 3e 6e 0a 4c be
       -0.004612594 0.036668573 0.1282132 -0.19925854
0000c0 c6 84 4b 3e 3d 2e 2f bd b6 14 8e 3d de 74 bf bd
       0.19874868 -0.042768706 0.06937544 -0.093484625
0000d0 e6 78 0c 3e 81 fd fd 3c 57 ae 59 be 8c 36 51 3e
       0.13717994 0.03100467 -0.21257912 0.20430964
0000e0 8f fd fa bd fd d3 73 3e bc 5b 68 3d f6 39 8a be
       -0.12255394 0.23811336 0.05672811 -0.26997346
0000f0 2b 98 85 3d bf f0 83 3e d0 32 3b bc b1 0c 0a 3e
       0.06523164 0.25769612 -0.011425689 0.13481404
000100 d5 fd a1 bd e8 b7 13 3e 8b 5e 43 be 57 82 20 3e
       -0.07909743 0.14425623 -0.19079034 0.1567472
000110 ce bc fb bd e6 c4 b0 3c bf 4f f3 be 6d 95 0b be
       -0.12291871 0.021578263 -0.4752178 -0.1363122
000120 69 3a d9 3d a4 78 02 3d 34 c4 2f be a6 a3 17 be
       0.10606844 0.031853333 -0.1716469 -0.1480852
000130 f7 4f 14 3e 78 20 7d bd 8e 6e e7 3c ee 83 45 3e
       0.14483629 -0.061798543 0.028250959 0.19288608
000140 53 fd 08 3e 15 44 97 3d ed b6 b4 3d 40 ee a3 bd
       0.13377886 0.073860325 0.08823953 -0.08004427
000150 1f 68 8d 3d 99 2f f5 3d bc 08 24 3e 99 90 13 3e
       0.06904625 0.11971969 0.16018957 0.14410628
000160 a1 b0 21 bd 77 9b 18 3e 6d 31 49 bb f2 60 9e 3e
       -0.039475087 0.14903055 -0.0030699626 0.30933338
000170 0e 8f e5 bd 00 68 1a be 39 e8 94 3d eb d2 5e bd
       -0.11208926 -0.15078735 0.072708555 -0.054400366
000180 de 51 98 3d 6c cb 9c bd 21 dd e7 3d 5e 4b 4e 3c
       0.0743749 -0.07655987 0.11321474 0.012591211
000190 7f f2 aa 3c 11 61 43 3e 02 11 a5 3e b8 ee 40 bd
       0.020867584 0.19079997 0.32239538 -0.04710266
0001a0 2e 33 a1 be 98 d0 3c 3e 6e 79 8d bd 43 11 32 3e
       -0.3148436 0.18438947 -0.069079265 0.17389397
0001b0 d1 55 b1 3c f6 9c 55 bc 81 92 3b 3e 18 65 83 3e
       0.021647366 -0.013037911 0.18317606 0.25663066
0001c0 1b 7d 9f bd 88 b5 1e 3e aa b2 83 3e 6c d2 d2 3d
       -0.07787534 0.15498936 0.25722247 0.10294041
0001d0 25 50 f2 bc c4 1f f7 3d 8b 0f 95 3d f7 05 44 3e
       -0.029579232 0.12066606 0.07278355 0.191429
0001e0 17 d6 62 3c f1 3f df 3d 52 de d6 bd 90 70 f0 b9
       0.013844988 0.10900868 -0.10491623 -0.00045860233
0001f0 c0 7a 0e 3e 62 7a df 3d f3 f7 d6 bd a9 5f f2 bd
       0.13914013 0.109120145 -0.10496511 -0.11834652
000200 52 38 76 3c 39 ea 31 3d f8 e1 c7 bc 6a 93 db 3d
       0.015028076 0.043436263 -0.024399742 0.107214764
000210 1e 82 36 3d cb f5 1c 3e b9 b2 02 3e fa bd ec 3d
       0.044557683 0.15328138 0.1276349 0.11559673
000220 28 dc df 3d 96 c1 1f 3e 78 ad 07 3d fa 32 40 3d
       0.10930663 0.15601191 0.033124417 0.046923615
000230 29 fd 04 3d 4b 29 01 3e c9 1f 07 be 02 7a 0a be
       0.032467995 0.12613408 -0.13195719 -0.13523105
000240 0c a3 8a 3d ec d3 5f bd 29 57 05 3e db 2b d9 3c
       0.0676938 -0.054645464 0.1302153 0.02651017
000250 5a eb 9f bd 9d 97 18 bc a3 56 7d be 77 5b 60 be
       -0.078085616 -0.009313491 -0.2474008 -0.21909891
000260 60 45 bd bd 6f 32 29 be 15 f4 11 3c 3f 46 4e be
       -0.09241748 -0.16523145 0.008908291 -0.20143984
000270 fd 4a 94 3d 78 96 d0 bd dd 4c 70 3e e5 54 ae 3d
       0.072408654 -0.1018495 0.23466821 0.08512286
000280 c1 67 74 3e cb 38 3e 3e aa 5a 42 3e 43 8b cc 3b
       0.23867704 0.18576352 0.18979898 0.006242187
000290 d8 95 06 3e 81 29 68 be 82 1d 9d 3d 42 81 14 3e
       0.13143098 -0.22672082 0.07671644 0.14502433
0002a0 5a be 22 bd a2 a5 e4 bd b2 54 02 be 50 3a 16 be
       -0.039732315 -0.111644045 -0.12727621 -0.14670682
0002b0 18 a9 f9 3d d9 fd 42 be bd 59 05 bd de 79 fe bd
       0.12190455 -0.19042148 -0.032556284 -0.12425588
0002c0 ba e7 81 3c 6f 9e 0c be bd ae 58 3e ca 11 df 3d
       0.015857566 -0.13732313 0.21160407 0.10892065
0002d0 22 9d 33 be 70 d6 12 bd c2 4d 30 be cd 85 f8 3c
       -0.1754041 -0.035849035 -0.17217162 0.030337239
0002e0 63 b8 1a 3d 18 db df 3d 20 ec da 3d 26 49 c8 bc
       0.0377735 0.10930461 0.106895685 -0.024448942
0002f0 c6 83 82 bc 64 21 3b bc 18 7d 82 3e 1c b5 f4 3d
       -0.015931975 -0.011421535 0.25486064 0.11948606
000300 74 dd 2c 3e 88 64 f5 3d 91 b4 0b 3e 5b 53 05 3d
       0.16881353 0.119820654 0.136431 0.032550197
000310 72 ce c7 bd a0 fc df bd fe af b9 bc 6e 09 84 3d
       -0.09756173 -0.10936856 -0.022666927 0.06447111
000320 d8 30 ef 3c 78 10 16 bb e6 96 1e be 68 03 b6 3d
       0.029198095 -0.0022898 -0.1548725 0.088873684
000330 67 16 02 be 67 79 e6 bd 9b cd d6 3d ed 91 c9 bd
       -0.12703858 -0.112536244 0.10488435 -0.09842286
000340 70 d4 da b9 5a 4c a0 bd 67 3d 20 3d ed 8d fb bd
       -0.00041738478 -0.07827063 0.039121058 -0.122829296
000350 2e 6a 00 3e 33 85 a1 3d 48 bb 65 be 98 c0 f8 3d
       0.12540504 0.07886734 -0.22434723 0.12146109
000360 7f 64 2b bd 0b cb 78 3d d5 f6 23 be 00 65 91 3c
       -0.041843887 0.060740512 -0.16012128 0.017748356
000370 f2 4f 1d be 6d 37 0e bd ef d2 4d 3d 86 e5 13 bd
       -0.15362528 -0.034720827 0.05024999 -0.036107562
000380 65 55 24 3e b6 25 61 3d d1 54 a1 3d 51 b7 87 3c
       0.160482 0.054967605 0.078775056 0.016566904
000390 39 72 0f 3e 68 01 0f be 36 d8 87 bd 5e 87 65 be
       0.14008416 -0.1396538 -0.06633036 -0.2241492
0003a0 b1 9b 6f bd 09 3d cc 3d d1 b2 83 3d 2c 25 c2 3d
       -0.05849809 0.09972579 0.06430591 0.09479746
0003b0 00 e3 85 bd 78 87 04 bd d6 9b e3 bd 11 23 d6 bd
       -0.065374374 -0.032355756 -0.11113708 -0.10455907
0003c0 06 03 d6 bd 5f 0e c4 3c 30 84 ed 3d 4e a9 33 bd
       -0.104497954 0.023932634 0.115974784 -0.043862633
0003d0 5e 7e f4 bd c8 7d e2 bb 26 f8 40 be 32 75 5c 3d
       -0.11938165 -0.006911967 -0.18844661 0.053822704
0003e0 10 1c e1 3c 0b 75 0f be 88 fc 6e bc b2 65 00 be
       0.027479202 -0.14009492 -0.014586575 -0.12538794
0003f0 3c 67 f4 bd 9f d4 55 be 3c 72 7f 3d 66 d5 cf bd
       -0.11933753 -0.2088189 0.0623648 -0.101481244
