neuromancer/train_scripts/papers/flexy/scalability/policy_flexy_N12.pth (torch, 18807 bytes, 9 tensors)

weight f4 [48, 20]
00000000: 8a44 8bbd 10a2 febd 4a80 4d3e 2e8a 123e
00000010: 4cbf 8e3d 5c83 86bd e899 003e 168f 1e3e
00000020: a80f 6f3d d3e7 4fbe 1c94 e43d a055 2b3d
00000030: 986d 24be 1b4b edbd 404f e73c 3072 05be
00000040: 141f 113e e862 593e 1483 10be 5e99 463e
00000050: e80f 193e 488a f1bd b900 62be 785c fe3d
00000060: c007 f53b e0f8 cc3d daec 40be 90e5 0bbc
00000070: 8a5b 523e 24bc ed3d ea44 3a3e 00e6 1b3e
00000080: 6f50 64be a65d 3fbe 3c13 2abd 703c 93bc
00000090: 34f9 07bd 60ae 613c 38a9 593e 3cc1 273e
000000a0: e4eb 14bd f642 273e b093 e83c bc4b 28be
000000b0: c092 053d 102c 163d d012 56bc 9eee e6bd
000000c0: 380b 14be 0009 ca3d 5048 113d 6202 aabd
000000d0: 834a 25be d41f 253e f085 85bc 9ce9 c33d
000000e0: 689e aa3d 8c6b 853d 1481 99bd e0d8 bf3c
000000f0: e4e4 1abd ba5d 0d3e 9ec9 62be 78a2 753d
00000100: d802 923c 0c6e db3d 688f 08be 885d 4e3d
00000110: 82bd 563e 4cf2 58be 75ab 5abe 38e5 15be
00000120: f05f 1fbe 5030 433e 0066 d439 50cb a33d
00000130: 2c32 d23d fc07 353e 302f 4c3e e028 083e
00000140: b00b 42bc 2a4e 483e 603a a13d 00a6 03ba
00000150: 38e0 523e e413 08be 644b 0ebd 7810 773d
00000160: 80d1 513e d063 a0bd c03f cdbb 5893 263e
00000170: 3737 fabd d174 60be 8498 09be 812f 1abe
00000180: c051 9e3d 9c4b 843d 4080 0dbe 104f 5f3d
00000190: 24ab 0fbe 36ee 91bd 7a4a 11be fc3e 323e
000001a0: dcde e73d d472 c03d 4457 54bd 6915 e4bd
000001b0: 0852 ef3d 4895 34be 60b6 5d3e ea79 b9bd
000001c0: 064c 2d3e 4e87 303e bb28 20be 9c8f a43d
000001d0: cb60 d6bd bc88 2e3e 58ae 8abc 2eb4 303e
000001e0: 5c50 373e 3a04 1fbe bc06 393e c8e7 1cbe
000001f0: b066 b23c 10ab 38bc 7a07 20be 4bcf 12be
00000200: ac7d 60be cca2 ad3d 701e f83d c895 0e3e
00000210: 30d0 183d 6450 583e b010 ee3c 6023 ac3c
00000220: 8277 053e e893 3b3d ca1e 8cbd 1bef fdbd
00000230: 20bd 363d e2ea 013e b005 503d 906e 15bd
00000240: 5037 5dbc f0f1 093e 10be 7f3d 7c20 5cbd
00000250: 1e20 383e 34cc f63d 5113 58be 9a66 3b3e
00000260: 2d2e eebd 29f5 04be 04e5 0cbe 0097 ea3d
00000270: 9069 d3bc dee8 80bd 48ba 253e a0ef 543d
00000280: 0cb5 34be 8265 123e f816 363d ce29 083e
00000290: dca7 98bd 3f95 39be 909f 7c3c d6c5 1abe
000002a0: ecc3 993d e423 13be 8019 1d3c 9219 ccbd
000002b0: 6441 563e 20a0 dd3d 1c7e a6bd 589c 693d
000002c0: 1f0b 36be c48b 4abe 50ed 6b3c b853 393e
000002d0: 403e f43d 0869 833c 0696 223e 3890 e93d
000002e0: 00bc c93b c419 cbbd 9847 de3d cc9a a93d
000002f0: a30b 47be 40e9 28be fbc9 e2bd f85a eebd
00000300: ccb5 9cbd c081 583b 11b5 53be b4f5 283e
00000310: 6c67 cc3d 0095 b23a 4363 f2bd 48de 003d
00000320: 8ec3 043e 3634 9abd 2745 edbd 68f9 2bbd
00000330: 9afa 203e b414 543e 911f 17be 9c15 1abe
00000340: f05b 5f3c 2651 adbd 48d1 64be 80d9 cd3d
00000350: a040 9c3c ba90 2b3e 549c 313e e6d1 2ebe
00000360: 16f5 363e 7811 6c3d b000 7d3d 7c53 b5bd
00000370: 245b 53bd 78aa b93d 9a50 183e 103b e4bc
00000380: 9244 53be 3e60 033e bf9a 0bbe 5c01 b13d
00000390: f018 103d fbaa e8bd 709b 9b3d a064 38bd
000003a0: 2f74 4abe eacf 003e d454 b03d 8e2b 623e
000003b0: 27e2 63be e04b bb3d d861 0fbd 5860 b43d
000003c0: b2fa 07be 1f9c 4bbe e013 d7bc a0c3 0abc
000003d0: 6c9e 9d3d 42bf 1f3e 1991 d0bd 4c8b 163e
000003e0: fea0 643e 067c 00be 5853 a53c 3e16 283e
000003f0: d1a4 45be 00c1 d13d a852 2b3e 5822 203e
-0.06800182 -0.12433255 0.2006847 0.14310524 0.06970081 -0.065680236 0.1255871 0.1548427
0.05836454 -0.20303278 0.11161062 0.041829705 -0.16057432 -0.11586591 0.028236032 -0.1303184
0.14172012 0.21229136 -0.14112502 0.19394442 0.14947474 -0.11793953 -0.22070588 0.12419981
0.0074777305 0.10008407 -0.18840352 -0.008538619 0.20542732 0.116081506 0.18190351 0.15224457
-0.22296308 -0.18688068 -0.04152225 -0.017973155 -0.033196643 0.013774484 0.21255958 0.16382307
-0.036357775 0.16334137 0.028390735 -0.1643514 0.032610655 0.036663115 -0.013066009 -0.11275981
-0.14457405 0.09864998 0.035469353 -0.08301236 -0.16141705 0.16125423 -0.016299218 0.09566042
0.08330995 0.065146536 -0.07495323 0.023418844 -0.037815943 0.13805285 -0.22147223 0.059969395
0.017823622 0.10714349 -0.13335955 0.050382167 0.20970729 -0.21186179 -0.21354468 -0.14638221
-0.15563941 0.19061399 0.00040511787 0.07997763 0.10263476 0.17678827 0.19939876 0.13296843
-0.011843607 0.19561067 0.07872462 -0.00050219893 0.20593345 -0.13288838 -0.034739867 0.06031844
0.20490074 -0.07831538 -0.006263703 0.16267145 -0.12217563 -0.21919562 -0.13437086 -0.15057184
0.07730436 0.06459734 -0.13818455 0.05451876 -0.14030129 -0.07125513 -0.14188567 0.17406839
0.11321804 0.09396902 -0.051841035 -0.11136896 0.11685568 -0.17635071 0.21651602 -0.090564564
0.16923532 0.17239115 -0.15640537 0.08035204 -0.104676805 0.17044348 -0.016928837 0.17256233
0.17901748 -0.15528956 0.18068975 -0.15322793 0.02177748 -0.011271253 -0.15627852 -0.14336888
-0.2192294 0.08478317 0.121151805 0.13924325 0.037307918 0.21124417 0.029060692 0.021012962
0.1303387 0.04579535 -0.0684181 -0.123991214 0.044613957 0.12687257 0.050786674 -0.036482394
-0.013501957 0.13471198 0.062437117 -0.053741917 0.17981002 0.120506674 -0.21101119 0.18300858
-0.11629901 -0.12984146 -0.13759238 0.11454582 -0.025807172 -0.06294416 0.16184342 0.051986337
-0.17647189 0.14296535 0.0444555 0.13297197 -0.07453892 -0.18123339 0.015418902 -0.15114531
0.07508072 -0.1436916 0.009588599 -0.09965815 0.20923382 0.10821557 -0.08129522 0.057033867
-0.1777768 -0.19779879 0.014399841 0.18098342 0.11925936 0.016041294 0.15877542 0.11404461
0.0061564445 -0.09917024 0.10853499 0.08281478 -0.19438033 -0.16495228 -0.11073681 -0.11638445
-0.076518625 0.0033036321 -0.2067454 0.16499978 0.09980664 0.0013624728 -0.11835339 0.031461984
0.12965223 -0.0752949 -0.115854554 -0.0419859 0.15720597 0.20711023 -0.14758135 -0.15047306
0.013632759 -0.084627435 -0.2234546 0.100512505 0.019073784 0.16754428 0.1734479 -0.17072257
0.1786693 0.057633847 0.061768234 -0.08853814 -0.05160059 0.090657175 0.14874497 -0.027860194
-0.20631626 0.12829682 -0.1363325 0.086428374 0.035180032 -0.11360737 0.07598007 -0.04501784
-0.19770883 0.12579313 0.0860993 0.22086927 -0.22254239 0.091453314 -0.03500542 0.088074386
-0.13279226 -0.19883774 -0.026254594 -0.008469492 0.07696232 0.15600303 -0.10183925 0.14701575
0.22327039 -0.12547311 0.020181343 0.16414735 -0.19301154 0.1024189 0.1673075 0.15638101

bias f4 [1, 20]
00000000: 0000 0000 0000 0000 0000 0000 0000 0000
00000010: 0000 0000 0000 0000 0000 0000 0000 0000
00000020: 0000 0000 0000 0000 0000 0000 0000 0000
00000030: 0000 0000 0000 0000 0000 0000 0000 0000
00000040: 0000 0000 0000 0000 0000 0000 0000 0000
0.0 0.0 0.0 0.0 0.0 0.0 0.0 0.0
0.0 0.0 0.0 0.0 0.0 0.0 0.0 0.0
0.0 0.0 0.0 0.0

weight f4 [20, 48]
00000000: 6526 353d 35ee e23d 4423 943d bb58 4b3d
00000010: 6ac3 e6bd 0077 66bd 159d a33c 9db1 9c3b
00000020: 6af1 e1bc 5fd9 163d ca5f c8bb 9611 2bbe
00000030: 95d2 26be 61a3 833d 20aa 93bd afd1 b7bd
00000040: 0f95 03be 0a39 e8bc 81b0 c6bc 3c37 f0bc
00000050: 2fb4 af3d 370f 07bd b133 dfbd 94b0 15be
00000060: 2d38 613d 153d 9fbd d388 06bc fe76 c63d
00000070: c96d 1abe e1bb dabd 15a6 bb3c 01cc 2abe
00000080: ce63 853b d8e7 533d 61c5 05be b824 90bd
00000090: c775 edbd ad39 73bc 1932 37be 0ded 55be
000000a0: b2e9 9bbd 88be 4ebe 921d e9bd 92b0 b1bb
000000b0: c575 39be e5e5 bdbd 3fbd 3fbe f9a1 2c3c
000000c0: 4909 92bd a1ca 35be 5679 23be 8696 27be
000000d0: c116 b3bd f55b 333d 4626 62bc 5125 2ebe
000000e0: da46 8a3d c4c4 3ebe f23d 8c3d 4246 8dbb
000000f0: 3175 0fbd e030 94bd a90f 8dbd 1aa7 22bd
00000100: c4a6 eebd b6de c73d dfe8 a83d 5da9 ebbb
00000110: fa9e 923d 386e 19bd 4ce3 91bd 1419 653d
00000120: f008 a23d d9dd 9a3d e1eb 29be b490 fcbd
00000130: cb66 20be 0bfc 17bd 7885 8abc a4c3 debd
00000140: 64fc bc3d d1ad 16be 4c31 143d bef7 2dbe
00000150: 2fac b93d 32bc 75bd 2bb8 3ebe fab5 87bd
00000160: 9925 703d 1cba bc3d d2eb 323c 3a49 0bbe
00000170: 0344 143d 6549 c4bb 8b48 2ebe 0166 1dbe
00000180: d07b 03bd 1cf4 163b 4cb0 04bd 96c8 973d
00000190: e353 4fbd b68e e53d ec64 103e e7d8 ff3d
000001a0: 2190 c2bd 5db8 553d ac4a 4c3b b6da 623d
000001b0: ccfd 7dbd 18c0 523e d81a febb 2a88 8f3d
000001c0: 4f90 053e f298 483e 9da7 f63b 5de0 0b3e
000001d0: 1957 6b3d 0339 ff3d 97e1 61bd fc40 86bb
000001e0: 4d55 bcbc 79ff c0bd 0fd0 f13d 31ae 98bd
000001f0: adaa 0c3e 3ace 1e3e 3aba b4bd 89ea f33d
00000200: 59c6 1f3e df3d 4bbd 9715 943d d2e1 8abd
00000210: e15b 313e 579b 883d c3fa 2bbb 204e b03d
00000220: dd28 46bd 719c 063e f299 4a3e 1a38 083e
00000230: 8095 8a3b ab6c 3d3e ec97 033d b2c1 9fbd
00000240: e291 39bd 5018 c3bc fac5 03be 77ea b33d
00000250: afc0 cbbd 313d 03be 3d36 f7bd b316 c83b
00000260: ee00 2c3c e949 afbd 1c19 00be b6eb d53a
00000270: d1be d93d b018 a63d 27b3 d1bd 78b3 42bd
00000280: 83fb f4bd afb1 f6bd a8c2 9bbd 755c 3c3c
00000290: c602 b9bd b243 04be 44bd 0bbe c81c cabb
000002a0: 1d36 45bd 5ba4 85bd 8537 843d 3eed e2ba
000002b0: b34e 463d 049a 27be 4a87 30be 42e8 a1bd
000002c0: ed62 a03d 3660 e63b cc93 b5ba 1a71 a1bd
000002d0: ded2 40be d2d9 9fba 7bd3 143d 523f 26bc
000002e0: 23f4 85bc 9fb0 55bc 01ca 4dbd f5a8 03be
000002f0: a566 0fbd 4fe9 693d 5a2c 1ebe 0100 c0bd
00000300: 3234 043e 871a 053d 5117 15bc 46da c0bc
00000310: 6552 b6bd 59d1 89bc 3823 8c3d c06f c23d
00000320: 7be9 d1ba d0cb 45bc 73d9 893d e08e 83bc
00000330: 5913 2f3e c90e 1d3c 0ced aabd d0ca 023e
00000340: 922c 2bbc da3c 84bd a6fd 593d 19d2 073d
00000350: 755c 25bd 1da9 c43c a4d9 113e f94b 9f3d
00000360: d0c8 3c3d 99b6 0e3e 54a5 b03d 23bb d33c
00000370: 01be 743c aeca aabd 3345 493d ae4a 92bc
00000380: 8ccc 053e 5d2e 093e 82ee e4bc 44e9 98bd
00000390: f49e 44bd 1501 013b cb1a 0b3d 2e98 70bd
000003a0: 2eb4 113d 092e 1b3e 39f4 2c3d 6d63 2c3e
000003b0: eb7a c53d 3575 143e 3391 c63d 8c3c 8a3d
000003c0: fc95 613d d40e 723d 7b2b 01be 68a5 383d
000003d0: fdca 683d 38ed c5bd 2c35 18be 398d 92bc
000003e0: 3751 d73d e8d2 24bd b56c 93bd fb94 23bd
000003f0: 9c9d babc ca24 8c3d 8387 2b3c 52a2 ed3d
0.04422607 0.11080591 0.07233289 0.049645167 -0.11267741 -0.05626583 0.019972363 0.0047819153
-0.027580936 0.036828395 -0.0061149346 -0.16705927 -0.16291268 0.064276464 -0.07210183 -0.08975541
-0.1284983 -0.02834751 -0.024254085 -0.029323213 0.08579289 -0.032973494 -0.10898531 -0.1461814
0.054985214 -0.07775322 -0.008211332 0.09690665 -0.15080942 -0.10680366 0.022906343 -0.16679384
0.0040707355 0.051734775 -0.13063575 -0.070382535 -0.1159473 -0.014845294 -0.17890204 -0.20891209
-0.07612933 -0.2018987 -0.11382593 -0.00542266 -0.18111332 -0.092723645 -0.18724535 0.010536664
-0.07130677 -0.17753078 -0.15964255 -0.16366014 -0.08744574 0.04378887 -0.01380307 -0.17006423
0.06751795 -0.18629748 0.06847753 -0.004311354 -0.03502387 -0.07235885 -0.068877526 -0.03971014
-0.11652902 0.097592756 0.08247542 -0.0071918205 0.071592286 -0.03745863 -0.071234316 0.05593212
0.07911861 0.07561845 -0.16593887 -0.123322874 -0.15664212 -0.0371056 -0.016909346 -0.10877159
0.09227827 -0.14714743 0.036179826 -0.16989037 0.090660445 -0.05999393 -0.18624942 -0.06626506
0.058629606 0.09215185 0.010920482 -0.13602152 0.036197674 -0.0059901946 -0.1701986 -0.15370943
-0.0321005 0.0023033684 -0.032394692 0.074113056 -0.05061711 0.112088606 0.14100999 0.12492543
-0.09500147 0.052177776 0.0031172438 0.05538436 -0.062009618 0.2058109 -0.007754665 0.07008393
0.1304333 0.19589594 0.0075273053 0.13659807 0.05745611 0.12462046 -0.05514678 -0.004097102
-0.022989893 -0.094237275 0.11807262 -0.074550994 0.13736983 0.15508357 -0.088245824 0.119099684
0.15603007 -0.04961955 0.072306804 -0.06781353 0.17320205 0.06670254 -0.0026241995 0.08608651
-0.048378814 0.13145615 0.19785288 0.13302651 0.0042292476 0.18498485 0.032127306 -0.07800616
-0.04530514 -0.023815304 -0.12868491 0.08784955 -0.09948861 -0.12816311 -0.12070892 0.0061062216
0.0104982685 -0.08559019 -0.12509578 0.0016320858 0.106320985 0.081101775 -0.10239249 -0.047534436
-0.119620346 -0.12045609 -0.07605487 0.011496653 -0.09033732 -0.12916449 -0.13646418 -0.006167982
-0.04814731 -0.06525489 0.06455902 -0.0017313135 0.048414897 -0.16367346 -0.17239109 -0.07905628
0.078313686 0.007030512 -0.0013853251 -0.078829005 -0.1883044 -0.0012195653 0.036334496 -0.010146933
-0.016351765 -0.013042598 -0.050241474 -0.1285742 -0.03501 0.057107266 -0.15446606 -0.09375001
0.12910536 0.032496 -0.009099797 -0.02354158 -0.08902434 -0.016823458 0.06842655 0.09493971
-0.0016015017 -0.0120725185 0.06730928 -0.016059339 0.17097224 0.009586045 -0.08345994 0.1277268
-0.010447638 -0.06456919 0.053220414 0.03315935 -0.040371377 0.02400642 0.1424318 0.077781625
0.046089947 0.13936843 0.08625284 0.02584607 0.014937879 -0.08339439 0.04913826 -0.017857876
0.1306631 0.13396592 -0.02794576 -0.07466367 -0.048003152 0.0019684483 0.0339611 -0.05873888
0.035572223 0.1515428 0.042225096 0.16834803 0.09642585 0.14497836 0.09695663 0.0674983
0.055074677 0.059096172 -0.12614243 0.04507962 0.05683421 -0.096643865 -0.14864033 -0.017889606
0.105135374 -0.0402402 -0.071984686 -0.039937 -0.022780232 0.068429545 0.01046932 0.11603226

weight f4 [20, 20]
00000000: 58f6 193e 08b1 10bd 9009 503c 880a 4a3d
00000010: f2b6 053e 8095 6b3b 48fa 8c3d 606b b9bd
00000020: 94f2 b13d 1842 14bd d0d4 1fbc 104c 2b3d
00000030: 50a4 e0bd 1a00 63be b848 bd3d 88a1 57be
00000040: d075 7a3d 7e85 353e 27d9 e6bd f497 a33d
00000050: e0e1 5a3d 525d dabd aeea 363e e848 413e
00000060: 1a6b 073e fac1 023e b2b1 1fbe 76c2 11be
00000070: 24f0 c6bd 8414 fc3d 105f a8bc b850 fd3d
00000080: 7661 64be 0800 45bd 0cdb 563e c231 563e
00000090: 10e2 9abc 44ef 1bbd e4df a13d 784e b53d
000000a0: 34aa 12bd d2cb 4d3e 8c06 60be 149d 11be
000000b0: 28e3 af3d 1680 62be ba32 a5bd dc1f 0d3e
000000c0: fb07 59be 4c5b 22be 7f58 d0bd 46fd 40be
000000d0: 1049 58bc 7805 813d 6cca 1c3e f09c 0dbe
000000e0: e423 ac3d b057 be3d 12cd 603e 1ad4 0ebe
000000f0: ba23 43be 34cf 0ebe 00f0 4e3d 3e5a 25be
00000100: 00b5 903b a043 213d d270 543e 480b b63c
00000110: 6802 4e3d 789b 793d 581f 013d 8e1e 0e3e
00000120: e4a2 583e 0005 823c 58a0 9bbd f2be 5f3e
00000130: 009e 0e3d a640 32be 5485 2cbd 3065 3c3e
00000140: d92a 4ebe b04d 04bd a862 23be 876b 29be
00000150: 8826 593e f0ea 883d 7260 0d3e 30f9 65bd
00000160: 2acd a1bd 783d c2bc 7a32 043e d478 56bd
00000170: 5407 2a3e a8e9 a33d 78c3 173d ac02 3dbe
00000180: a43c 323e d884 593e b40b f63d a81c d13c
00000190: 927a 0dbe 66d4 223e cdfc f5bd c0a8 2bbc
000001a0: 7a38 a0bd 908e a2bd 2473 37be 7081 633e
000001b0: 464c 613e 5453 0e3e c0c1 c53d dc1f c53d
000001c0: d42a 1e3e 30ae 2e3e 8855 1e3d 6437 95bd
000001d0: 5c7c 313e 0697 c0bd a478 9abd 7433 e73d
000001e0: e8bc 93bd a069 e33b b573 14be b331 29be
000001f0: 0282 0f3e 266e 643e a4a4 843d 2aae 5a3e
00000200: c495 c33d de9c abbd 64ba 383e 0c88 77bd
00000210: 92b3 a1bd e0d4 aa3d 0032 c23a 39fd 1ebe
00000220: 64ec 48be a3f7 d1bd 08ce 403d 00f8 8a38
00000230: 759a 34be b78a e2bd 18ad 82bc 0d38 39be
00000240: 126c 433e 38b4 28be 0cb7 c43d 508f 78bc
00000250: b4d9 bbbd 60af 30bc 18e6 913c e2f5 1f3e
00000260: c2a5 473e 4e8f 533e 9fa2 40be d2c7 fbbd
00000270: 1299 afbd 9852 b1bd f684 3dbe 2421 41be
00000280: 3631 113e aa44 94bd 066f 213e b8f9 d6bc
00000290: 12a7 06be ccf1 e83d 5e59 39be 0cbb 523e
000002a0: 70f8 3fbd f8e1 463d f27b 39be f2ea 383e
000002b0: a026 0d3c a095 0bbc 7a7a ebbd e262 033e
000002c0: 9c02 86bd b068 fa3d 410e 18be 1f60 51be
000002d0: 0812 423d 30e6 ac3c e37b 29be 069b 21be
000002e0: 28c3 6d3d 169f 313e 88ff 963c 3273 dbbd
000002f0: 09df 47be 3a47 1abe f810 b53c 807c e23d
00000300: 785a 983d 009f 68ba 08c4 5d3d a871 da3d
00000310: f4fb 233e 47a5 e8bd 7a43 243e 6575 34be
00000320: 1cd8 aebd 3057 523e 42a3 383e 8472 26bd
00000330: 8809 bfbd 90ea d93c 5a1b 563e 299e 4abe
00000340: 7a9c c5bd 1238 203e 7c3d 33bd 6811 21bd
00000350: 9ffe 32be 8484 77bd 557e e9bd 04e5 52be
00000360: 5277 223e 72b9 d2bd 4073 843b e85d 30bd
00000370: 768d aabd 2e4d 21be 9a7a 2b3e e0bc a1bb
00000380: 36c5 0f3e baf6 09be 1843 c9bc fce8 5c3e
00000390: 10f8 183d 6272 ccbd 6497 3dbe 1b73 d0bd
000003a0: a0fe b3bb b82a b6bc 04ec 42be e5b3 58be
000003b0: a46d b73d 902e ea3c 0416 de3d d82c e7bc
000003c0: a049 42bc a6f1 3e3e 9226 d5bd 1802 0fbe
000003d0: ecb5 0a3e c644 0a3e d15d 46be ecea 40be
000003e0: 60a7 e83c 7aa9 213e f0af 0f3e 5e16 453e
000003f0: 2a67 a5bd b6e3 053e 8256 55be 6439 8e3d
0.15035379 -0.03532508 0.012697592 0.04932645 0.1305807 0.0035947263 0.06883675 -0.09053683
0.08688846 -0.036195844 -0.009755328 0.041820586 -0.1096884 -0.22168007 0.092423856 -0.21057713
0.06114751 0.17726704 -0.11271887 0.07987967 0.053438067 -0.10662331 0.1786296 0.18875468
0.1322445 0.12769309 -0.15595129 -0.14234337 -0.09713772 0.123086005 -0.020553142 0.123689115
-0.22302803 -0.048095733 0.20981997 0.20917419 -0.018906623 -0.03806998 0.07904032 0.08852857
-0.03580685 0.20097283 -0.21877497 -0.14220077 0.085882485 -0.22119173 -0.08066316 0.13781685
-0.2119445 -0.1585514 -0.10173129 -0.18846616 -0.013201013 0.06299871 0.15311593 -0.13829398
0.08405283 0.09294069 0.21953228 -0.13948098 -0.19056597 -0.13946229 0.05052185 -0.16147706
0.004416108 0.039371133 0.20746163 0.022222176 0.050295264 0.060939282 0.031524032 0.13878843
0.21155888 0.015871525 -0.075989425 0.21850184 0.03481865 -0.17407474 -0.04211934 0.18397975
-0.20133533 -0.03230065 -0.15955603 -0.16544925 0.21206105 0.06685436 0.13806322 -0.056145847
-0.0790046 -0.023710951 0.1290988 -0.052361324 0.16604358 0.08003551 0.037051648 -0.1845805
0.17405945 0.21242082 0.12013951 0.02552636 -0.13816288 0.15901336 -0.120111085 -0.010477245
-0.07823272 -0.07937348 -0.17915016 0.22217345 0.22001752 0.13898975 0.096560955 0.09625217
0.15446025 0.17058635 0.038655788 -0.072859555 0.17332596 -0.094038054 -0.075425416 0.11289111
-0.072137654 0.0069400817 -0.14497264 -0.16522865 0.14014438 0.22307643 0.06476715 0.21355501
0.0955005 -0.083795294 0.18039852 -0.06043248 -0.078955784 0.08341384 0.0014815927 -0.15526284
-0.19621426 -0.10252311 0.047071487 6.6265464e-05 -0.17637046 -0.11061614 -0.015951678 -0.18087788
0.19084194 -0.16474998 0.09605226 -0.015170887 -0.09172383 -0.010784 0.017809913 0.1562114
0.19496825 0.20660135 -0.18812035 -0.12293972 -0.08574118 -0.08658332 -0.18507752 -0.18860298
0.14178929 -0.07239659 0.15765008 -0.026242122 -0.1314967 0.11374244 -0.18100497 0.20579165
-0.046867788 0.048555344 -0.18113688 0.18058375 0.008615166 -0.00851956 -0.1149797 0.1283069
-0.065434664 0.12226999 -0.14849187 -0.20446824 0.047380477 0.021105856 -0.16551165 -0.15781793
0.058047444 0.17345843 0.018432394 -0.10715331 -0.19518675 -0.15066233 0.022102818 0.11058903
0.074391305 -0.00088737905 0.054142028 0.106662095 0.16014081 -0.11359649 0.16041365 -0.17622907
-0.08537313 0.20541072 0.18031028 -0.040636554 -0.0932799 0.026601106 0.20908871 -0.19786896
-0.09648986 0.15646389 -0.043759808 -0.03932324 -0.17479943 -0.06042911 -0.11401049 -0.20595175
0.1586583 -0.10289277 0.004042059 -0.043058306 -0.08327763 -0.15752098 0.16745988 -0.0049358457
0.14040074 -0.13473025 -0.024568126 0.21573251 0.037345946 -0.09982754 -0.18514782 -0.101782046
-0.005493 -0.022237167 -0.19035345 -0.21162374 0.08956459 0.028586656 0.10844043 -0.028219625
-0.011858374 0.18646869 -0.10407747 -0.13965642 0.1354596 0.13502797 -0.19371726 -0.18839616
0.028400123 0.15787306 0.14031959 0.19246814 -0.080763176 0.13075146 -0.20833781 0.0694454

bias f4 [1, 20]
00000000: 0000 0000 0000 0000 0000 0000 0000 0000
00000010: 0000 0000 0000 0000 0000 0000 0000 0000
00000020: 0000 0000 0000 0000 0000 0000 0000 0000
00000030: 0000 0000 0000 0000 0000 0000 0000 0000
00000040: 0000 0000 0000 0000 0000 0000 0000 0000
0.0 0.0 0.0 0.0 0.0 0.0 0.0 0.0
0.0 0.0 0.0 0.0 0.0 0.0 0.0 0.0
0.0 0.0 0.0 0.0

weight f4 [20, 20]
00000000: 6dc2 463d ce73 56be 2070 623e d418 b23d
00000010: dc6a 703e 2492 643e 6ba1 6abe 5909 dd3b
00000020: ee1c 263e 2fe3 dd3d 3c40 d7bd 9988 5a3e
00000030: 50f3 a03c cdbe 153e 727f d73d 6b97 9c3d
00000040: 70c0 103d e3e2 053e ae70 423e 092e 33be
00000050: 8a2b b5bd 2953 4f3d 8ce7 36be 7ab8 393d
00000060: eee9 d23d 4c44 573b 3b70 3d3e 6a95 2ebd
00000070: 4825 b13d f235 a63d e542 fb3c 1325 243e
00000080: e0ec edbc 3717 26be 70d6 0abe c7da d6bd
00000090: e2fa 09be b332 41be 196b e3bc 1f21 343e
000000a0: 9e00 b7bd 9467 f03d 4161 2cbe 64f7 4d3e
000000b0: 77a9 e1bd e52a 4abd c383 debc ca58 d23d
000000c0: 6c6a a63d ae91 703e 0fe2 0f3d 3389 85bd
000000d0: 0138 f03d 61ae 0ebd 536d 26be 80c7 70bd
000000e0: 1534 203e 0149 0a3e 5da7 59bd 4ef5 8e3c
000000f0: f255 ddbc e33f f1bd 10fc 743b 27ec 173e
00000100: 49dd 37be 70a8 fdbd e658 083e 786b 393e
00000110: 6871 0d3e 71a2 82bd 0f52 4e3e c185 393e
00000120: 98c6 29be eb37 4d3e c041 09b9 7c31 ebbd
00000130: cd1c c83d 32ae fc3d 7058 fd3d 7e5f 1c39
00000140: 9611 ee3d e2d8 523d 3d27 883e d4d2 72be
00000150: b79a e53d d35e 843e 7f5c 883d 7da0 97bd
00000160: 871a 66bd 64c4 5dbe a3fa 1ebe bf22 853e
00000170: e400 f9bd 2c48 ae3d 9ed6 0a3e 2eab 473a
00000180: d879 763d 2870 8bbd a272 903c 6434 813b
00000190: dc83 313e 2880 30be 2623 04be 4044 bc3d
000001a0: 8958 cdbd 9288 c3bd e745 2bbe d12a 243e
000001b0: e46c 84bc a441 883d 6ae8 263e 372f 723e
000001c0: e470 f0bc 3065 f73c 852b 19be 9702 c0bd
000001d0: f174 093e d1c6 10be e607 bc3b 0664 38be
000001e0: 1715 6b3e ee23 0bbe 232b 9c3c 40bc 2dbd
000001f0: 2718 f8bc efbd fe3d a67c 4ebe c60f 583d
00000200: e284 3ebe 0e66 773e 2217 03bd af37 833d
00000210: 9762 5fbe 3739 8e3d 7738 12be f1c8 8cbe
00000220: b9cb 733e 3779 983d 1db6 60be 84b3 2a3e
00000230: 6b88 753e b684 833d e7d2 3bbe 01bc 853d
00000240: 0ddc b0bc fa47 313d a199 033e 4706 e63d
00000250: 20b3 91bd c215 af3d 6618 383e 95af f73d
00000260: 1f02 c73c c955 283b ad69 86bd 9d42 66be
00000270: 8fa0 363d 13e2 473e 2162 8fbc fea7 593e
00000280: b82b 2e3d 07b3 85be 035c ebbd c233 2b3d
00000290: a497 ca3d 68f1 843e 0c85 063e 02b0 e6bd
000002a0: dfad 01be f258 00be 2944 8ebe 60bb e4bd
000002b0: e240 933e f6d3 29bd 3a86 35be f592 d53d
000002c0: 8c8b 1c3d 5bd7 113e 5d02 8cbd c628 68be
000002d0: 17af f7bd 7745 36bd eb7c b8bd bf45 11be
000002e0: 5b1d 173d 290d 683e fe88 11be ebf6 76be
000002f0: 7212 953d f014 5abd e432 cdbd d7c8 043e
00000300: 82c6 b1bd 22d0 533e 403f 4c3d bc08 b1bd
00000310: 3322 63be f40b 55be 2e7a 083e 35ad 2a3d
00000320: c313 7b3d d072 7dbe 3bb0 453e 418e 193e
00000330: 53fb 503c 0d59 afbc e4fa dcbd 18eb 38be
00000340: e253 493d b850 08be 5dd4 fdbd 3e3e f63d
00000350: ded8 413e 3118 ec3d 3507 023d 2888 d8bd
00000360: 89db 8abe 717f 993d 811f a9bd eb82 97bd
00000370: 0549 a03b ad45 0e3e cb0c 653e fb9a e03d
00000380: 5ee4 bdba 673e 37bd 11c8 91bd 8398 51bd
00000390: c944 80bd 9993 fbbd 2eec 3abe ae3f 46be
000003a0: 77e8 463d c566 093e 4184 1bbe 29fd 673e
000003b0: e9b3 bbbd c944 623c 4805 7e3e ac33 04be
000003c0: 64e4 4d3d 72cc a1bd afa7 093b e832 25be
000003d0: 33dc 053d 2688 13be 925d debd 3b42 4dbe
000003e0: 9f54 35bd 763e a73c e4be 8e3d 648f 3a3e
000003f0: 8b6b 0d3d 921a ab3c 49bd 1b3d 135d a03d
0.048525263 -0.20942613 0.22113085 0.08696142 0.23478264 0.22321373 -0.22913139 0.006745499
0.16221973 0.108343475 -0.105102986 0.2134117 0.01964727 0.14623566 0.10522355 0.07646068
0.035339773 0.13074832 0.18988296 -0.1749803 -0.08846195 0.050616417 -0.17861766 0.045341946
0.10298525 0.0032847105 0.18499844 -0.04262296 0.08649689 0.08115758 0.030671546 0.16029768
-0.029043615 -0.16219793 -0.13558364 -0.10490947 -0.1347461 -0.18866996 -0.02776103 0.1759076
-0.089356646 0.11738506 -0.16833974 0.20113903 -0.11018651 -0.049357314 -0.027162438 0.102708414
0.08125767 0.23493072 0.035127696 -0.06520309 0.11729432 -0.03483427 -0.16252641 -0.058784008
0.15644868 0.13504411 -0.053138126 0.017450955 -0.027018521 -0.117797635 0.0037381686 0.14836179
-0.17955507 -0.123856425 0.13315162 0.18107402 0.13812792 -0.063786395 0.2014849 0.1811743
-0.16579664 0.20040862 -0.00013089832 -0.11484048 0.09771118 0.123379126 0.12370384 0.00014912893
0.11624448 0.051476367 0.26592436 -0.23713237 0.1121115 0.25853595 0.06658267 -0.074036576
-0.056177642 -0.21656948 -0.15525298 0.26003072 -0.12158373 0.085098594 0.13558432 0.00076167553
0.060174793 -0.068085015 0.017632786 0.003943013 0.17335457 -0.17236388 -0.12904033 0.09192705
-0.10026652 -0.09547533 -0.16725884 0.16031958 -0.016165204 0.06653145 0.16299596 0.23650824
-0.029350705 0.030199617 -0.14958008 -0.09375494 0.13423516 -0.14138342 0.0057382463 -0.18006906
0.22957264 -0.13587925 0.019063538 -0.042415857 -0.030284954 0.12438571 -0.20164737 0.052749418
-0.18605378 0.24160025 -0.032004483 0.06407105 -0.21814953 0.069445066 -0.14279352 -0.27497056
0.23808183 0.07444995 -0.2194447 0.16670042 0.2397782 0.06421797 -0.18342172 0.065299995
-0.021589303 0.043281533 0.12851574 0.11231666 -0.071142435 0.08549072 0.17978057 0.120940365
0.024293004 0.0025685898 -0.06563125 -0.22486348 0.044586714 0.19519834 -0.017502846 0.2125549
0.042522162 -0.2611315 -0.11492159 0.041797407 0.098922044 0.25965428 0.13136691 -0.112640396
-0.12663983 -0.1253393 -0.27786377 -0.111685514 0.2876044 -0.041461907 -0.17726985 0.104284205
0.03821902 0.14242308 -0.06836388 -0.22671804 -0.120939426 -0.04449984 -0.09008201 -0.14186762
0.03689323 0.2266127 -0.14212415 -0.24117629 0.07278909 -0.053242624 -0.10019472 0.1296724
-0.086804405 0.20684865 0.049865007 -0.08644244 -0.22181015 -0.20805341 0.13327858 0.04166909
0.061298143 -0.24750829 0.19305508 0.14995672 0.012755233 -0.021404767 -0.10790041 -0.18058431
0.049152263 -0.13312042 -0.12394021 0.120235905 0.18930385 0.11528052 0.031745154 -0.10572845
-0.27120617 0.07495011 -0.08257962 -0.073980175 0.004891517 0.13893767 0.22368161 0.1096706
-0.0014487614 -0.044737246 -0.07118238 -0.051170837 -0.0626312 -0.122840114 -0.18254158 -0.1936023
0.04856154 0.1341811 -0.1518717 0.22655167 -0.091651745 0.013810345 0.24806702 -0.12910336
0.05026664 -0.07900323 0.0021004488 -0.161327 0.0326807 -0.14407405 -0.10857691 -0.20044796
-0.044270154 0.020415526 0.06970003 0.18218762 0.03452639 0.020886693 0.038022313 0.078302525

weight f4 [20, 12]
00000000: 80bc afbc 5078 703e 2a60 013e e492 09be
00000010: bf2c 66be 9871 2fbe 2861 8bbe f825 823e
00000020: 2e8f 823e 046d d1bd b43b 6b3e 8097 7bbb
00000030: d85d 763e 4370 0ebe cca8 f9bd 5e23 0e3e
00000040: fe8d 4a3e db0c 31be 4019 0c3e 3c81 aabd
00000050: 8088 283c e81a cfbd 30ce 5bbe 18bd 1dbe
00000060: 60b5 363d 544a 383e 3edb 893e 342a cf3d
00000070: 15bc 70be 2861 923e e258 2b3e 4542 0bbe
00000080: 0a6d 8abd c6ae 7bbe 7486 623e cc2d 7ebd
00000090: 0edd 2b3e 3a72 80be 5070 a9bc 3e9d 553e
000000a0: 58b2 28bd f003 3d3d 9862 023e 0f6e 1bbe
000000b0: 466c 933e 2006 643d e1dd 85be 206a aabc
000000c0: b03a b83c 7106 8dbe 78b5 803e dd35 55be
000000d0: 865b 95bd 500d acbd b086 ae3c 2caa febd
000000e0: 0293 563e 4835 e9bd a866 0e3e b0d8 d93c
000000f0: f81d 2c3d 43d6 0fbe a83b 023d ba31 74be
00000100: 3cad 59be e41b 70be 92fb 33be 40a1 0abc
00000110: 482f 81be c013 733d 502b 0cbe 34bc 91be
00000120: 58cd bcbd 7091 33be 03e0 3dbe ded3 64be
00000130: 88bb 17be 70bd 3b3d e613 52be 7eed 2c3e
00000140: b4d1 6a3e c058 62bc de07 113e 4bd4 16be
00000150: d0f5 90bc fc02 6f3e cc02 75bd 4c4d ebbd
00000160: b0b4 a43c 185e 8d3d b89c 8c3e 9a65 843e
00000170: cc95 5cbe d40f 43be fc00 7bbd d6fd 27be
00000180: da0b 393e 8e45 283e 6906 07be 62fe 563e
00000190: e06b 6abd e8fe 623e 00a4 72bc c4e4 bc3d
000001a0: 1c13 81bd 68c2 87be 7ce5 4bbd a5c9 05be
000001b0: 86cc 6dbe 5234 2f3e 4053 a7bb 72a2 413e
000001c0: 6a2b 76be 02ec 8e3e d168 7ebe f844 6c3d
000001d0: 6db6 7fbe 0023 ce3b 40cb b23c 73fd 8cbe
000001e0: 68b6 9bbd 78ee 593d 800a dcbc d417 603e
000001f0: 2ece 40be 4449 91bd 0a0c 8e3e ccf7 663e
00000200: 1e3e 863e 88d9 a23d 929c 0dbe b8f6 613e
00000210: 9afb 46be 2aa6 8a3e 8401 4ebe a0bd 7d3e
00000220: 50d4 bebd 0216 033e 1ae4 5bbe 763d 59be
00000230: 7801 343d 02e1 b6bd 24bb fe3d 7429 f83d
00000240: 1a64 933e e4be 5c3e 0441 443e 6e47 b5bd
00000250: c02d c6bb b4b2 483e 5820 c3bd d4bf 1d3e
00000260: a883 e2bd 44be aabd 1c97 d73d e00b 92bc
00000270: 8c0d 8d3e 9068 1cbd 8ec1 24be b4f9 163e
00000280: e0c1 a93d caab 2a3e d66b 2bbe ac23 823d
00000290: 4001 3b3e 4231 97bd 90d9 3f3e 9e02 4e3e
000002a0: 943c e43d 106c 663d 3306 68be 3870 4f3e
000002b0: f61c 39be 69d4 15be 6cb4 cbbd 01b2 6fbe
000002c0: 0093 8cbe 6a1d 913e b9fb 2ebe 9a20 203e
000002d0: 204e ebbc 407c c0bb 923c 313e 783c 143e
000002e0: 1c5a 983d f86c 4b3d 301e 4e3e 4c32 53bd
000002f0: 8c74 e33d 44ec 1e3e b0e5 ccbc 2424 6f3e
00000300: e6c0 71be 0411 d53d ef0a 58be 966a 0c3e
00000310: 2c0f f13d 5a81 0b3e 0ab0 8e3e d6b5 853e
00000320: 40b3 063c aa8b 883e 0613 eabd 9c10 0d3e
00000330: 6b9c 18be 6cac aa3d fadd 81be 1c86 e9bd
00000340: 58b0 6dbd 409a 483d c06b be3b 50cb e73d
00000350: 80c3 053e 98f4 c9bd 1e89 423e fe8c d4bd
00000360: 2817 5d3e c096 313d 2817 2b3d d6e7 113e
00000370: ba59 2c3e a0a7 363e 2833 883e c482 913e
00000380: 08e9 acbd 105d 50bd f9eb 16be ac52 9abd
00000390: c092 063d fac8 28be 4082 653d 7251 4a3e
000003a0: cfb4 49be 6074 e73c b0a8 793e 90e8 863e
000003b0: fbe5 45be dea1 423e 26ca 1fbe c7f6 85be
-0.021452188 0.23483396 0.1263434 -0.1343494 -0.22478007 -0.17133176 -0.27222562 0.25419593
0.25499862 -0.10225871 0.22971994 -0.0038389862 0.24059236 -0.13910012 -0.121903986 0.13880679
0.19780728 -0.1729006 0.13681507 -0.08325431 0.01028645 -0.10112554 -0.21465373 -0.15404165
0.044606566 0.17997104 0.2692508 0.101154715 -0.23509248 0.2858975 0.16733125 -0.13599499
-0.06759079 -0.2457839 0.22121602 -0.062055394 0.16783544 -0.25087148 -0.020683438 0.20860764
-0.041185707 0.046146333 0.12732923 -0.15178703 0.28793544 0.055669904 -0.26145843 -0.020802557
0.022488922 -0.27543977 0.2513845 -0.20821328 -0.07292847 -0.08400977 0.021304458 -0.124348015
0.20954517 -0.11387116 0.13906348 0.026592582 0.042020768 -0.14046578 0.031795174 -0.23847094
-0.2125749 -0.2344814 -0.17576435 -0.008461297 -0.25231385 0.059345007 -0.13688397 -0.284639
-0.09218854 -0.17535949 -0.18542485 -0.22346446 -0.14817631 0.04583496 -0.20515403 0.16887471
0.22931558 -0.013815105 0.14163157 -0.14729421 -0.017695338 0.23340982 -0.05981712 -0.114893526
0.02010569 0.069027126 0.27463317 0.25858766 -0.21541518 -0.19049007 -0.061280236 -0.16405424
0.18070927 0.16432783 -0.13186039 0.20995477 -0.057231784 0.22167552 -0.014809608 0.09223321
-0.06302473 -0.26515508 -0.0497794 -0.13065203 -0.23222551 0.17109802 -0.0051063597 0.18909624
-0.24039999 0.27914435 -0.24844672 0.05768296 -0.24971934 0.0062907934 0.021825433 -0.27537116
-0.076031506 0.053205937 -0.026860476 0.2188409 -0.18828651 -0.070940524 0.2774356 0.22555465
0.26219267 0.07951647 -0.13829258 0.22066772 -0.19431916 0.27079898 -0.20117766 0.24779367
-0.09317839 0.12801364 -0.21473733 -0.21214852 0.043946713 -0.089296356 0.12438038 0.121172816
0.2878731 0.21557194 0.19165426 -0.08851515 -0.0060479343 0.1959942 -0.095276535 0.15405208
-0.11060268 -0.083370715 0.10526869 -0.017827928 0.27549398 -0.038185656 -0.1608946 0.14743692
0.08288932 0.16667095 -0.16740355 0.0635446 0.18262196 -0.07382442 0.18735337 0.20118186
0.11144367 0.0562554 -0.22658615 0.20257652 -0.18077454 -0.1463181 -0.09946522 -0.23407747
-0.27455902 0.28342754 -0.17088212 0.15637437 -0.028723776 -0.0058741868 0.17308262 0.14476192
0.07439062 0.049664468 0.20128703 -0.05156164 0.11106214 0.15519816 -0.025011867 0.2335363
-0.23608741 0.10403636 -0.21097921 0.13712534 0.11770472 0.13623562 0.27868682 0.26115292
0.0082214475 0.26669055 -0.1142941 0.13775867 -0.14903419 0.08333668 -0.25364667 -0.114025325
-0.058029503 0.04897523 0.0058111846 0.11318076 0.13062859 -0.09861106 0.18997619 -0.103784546
0.21590865 0.043356657 0.04177013 0.14248595 0.16831103 0.17837381 0.2660153 0.2842008
-0.08442885 -0.05087 -0.14738454 -0.075353 0.032854795 -0.16482916 0.05603242 0.19757631
-0.19697879 0.028253734 0.24380755 0.26349306 -0.19326012 0.1900706 -0.15604457 -0.2616484

bias f4 [1, 12]
00000000: 0000 0000 0000 0000 0000 0000 0000 0000
00000010: 0000 0000 0000 0000 0000 0000 0000 0000
00000020: 0000 0000 0000 0000 0000 0000 0000 0000
0.0 0.0 0.0 0.0 0.0 0.0 0.0 0.0
0.0 0.0 0.0 0.0

weight f4 [12, 20]
00000000: 6cbf fbbc 7907 5cbd 8a3f 2bbe 07da 463d
00000010: 6cea c63d e21c 8dbd 9398 66be 7d7f 71be
00000020: 2a6d 5abd 7e46 35be a49f 213e 1203 153e
00000030: 5d49 89bd aa99 36be 9d6c 11be 0ba6 25be
00000040: 37fa 2ebe 5ee5 3e3e b3c1 02bc 6a8b 14be
00000050: fec6 a63d fe78 55be 6bba 2b3e 0903 82be
00000060: 13d4 143e 1f43 f9bd b384 39be 5967 87bd
00000070: fe55 debd 67f4 7e3e c433 17be b772 4d3d
00000080: 83d9 10bb 0d80 78be 6708 17bd 21a9 85bd
00000090: 8b3a 453e 4140 1f3e 11d4 f7bd 6ae4 01be
000000a0: 49ba 623d 4e2a 213e 960d dbbd c7f2 053e
000000b0: e855 263e c13d 953d 66c0 7abd 42c9 2cbe
000000c0: 0338 933d 3f7c 643e 9fac 833d 344f bcbc
000000d0: d1fc ebbd a45c 23be 4e3c 98bd 9834 213e
000000e0: c242 c6bc 912b 0bbe 483f 3e3d e575 683e
000000f0: 713a 523d cd86 09be b4fd 41be 0c77 2f3e
00000100: 1548 01be 8bd4 1ebe 40d2 bdbd 5867 303c
00000110: 94a4 76bd 11ed 553e 812d 793e a11d 3f3e
00000120: 4e14 9d3c bd2d f53d 485d 5ebe 1b16 78be
00000130: 680c bfbd b7bc 173e 8b12 22bd 91f5 353e
00000140: e2be 07be 2485 d9bd d520 253e 0a32 58be
00000150: 88df 153e 5d84 b3bd 2b49 e6bc 29fa 69be
00000160: 4a31 a83d 9c00 523e c7cf 2dbe 9d80 a0bb
00000170: 5384 633e b7f3 71be defe bfbd ab66 13be
00000180: 879a 0d3c 3aba 843d 32ad 54be 9435 543e
00000190: c779 8e3e b92f 86bc c2c7 383d 21a3 1b3e
000001a0: 519b 483e e0a2 47bd 4527 53be 35d1 7dbe
000001b0: d387 043e 9bd3 01be 2c31 983d 3709 1a3e
000001c0: d79a 103e 6bde 053e 8622 e43d 57fb 41bd
000001d0: ee84 ed3d f580 243e 31d7 db3b 8909 2abb
000001e0: d6ca 0fbe 56c0 06be 9061 32be ad8e 01be
000001f0: 1d12 1a3e 7914 78bc a188 253e 4233 0bbe
00000200: 3606 45be b2d6 6e3e 5c5b a13d 1689 353d
00000210: 7674 143e b6af 75be fdf2 8d3d 41f4 4fbe
00000220: bc21 70bd 5786 5e3e a591 4dbd d958 3f3e
00000230: 318d 16be 4a31 2d3e 33b1 2abe 863e e53c
00000240: e7d1 d23b dffa dcbc 36cb 5fbe 6f01 1ebd
00000250: 3c90 9dbc 4026 683d ef86 773e ca34 713e
00000260: ba97 843e 816c 72be 21d4 b4bd db52 1c3e
00000270: 9292 abbd 136e 8a3c 3465 90be cf10 fbbd
00000280: 2c8f 1cbc 21ae 66be 5016 8cbc 2197 e0bd
00000290: 8013 dc3d ac4e d03b 053c b2bd 4dcf 653d
000002a0: 17b3 113e 130b 273e 8201 3abc 1c8c 1d3d
000002b0: 244f de3d 5c5f 18be 34cd 0fbe c0d7 953d
000002c0: 2f2a 503a bedb 703e 063e a6bc f285 6fbc
000002d0: 02be 743e fd6e 573b 3a69 93bd c2cd 6abe
000002e0: eda2 d3bd 4345 ccbc 83a2 01be a130 bbbc
000002f0: f426 5b3e edb4 c5bd 9d7d 203e ee58 b1bd
00000300: 1654 13be f8f8 9c3d 84df 8bbe 9974 37be
00000310: c3a0 af3c e17d 893e 8d65 1b3e 4ebe 443e
00000320: efdf 7e3e abbf 13be 904a 8bbe 5736 1abe
00000330: 03bb 453e 3988 23bc 6919 bd3d 3053 19bd
00000340: a9e6 243d cded cc3d a5d0 c03d 1f06 ed3c
00000350: 7d07 353e b859 f23d 4b1c 6cbc 1ef4 a8bd
00000360: f9cf 023d 0ac3 c63c 91b7 85be 22b7 ed3b
00000370: 8f5f d8bd 2735 9dbd bfac aa3d 0e2b 5fbe
00000380: d527 293e b4ad eebd 80ce 0bbe 9b5d aebd
00000390: 7854 da3d 91ec 10be ddb6 283e 181e 1e3e
000003a0: c56b 663e 5b09 6abe 70d0 863d 02f8 16be
000003b0: 82c5 4fbd 4df9 103e acad 33bd e542 f63d
-0.030730926 -0.053718064 -0.16723457 0.04854777 0.09712681 -0.068902746 -0.2251914 -0.23583789
-0.053326763 -0.17702672 0.15783554 0.14551952 -0.06703446 -0.17832056 -0.14201589 -0.16176622
-0.17087637 0.18642184 -0.007980752 -0.14506307 0.081434235 -0.20846936 0.16770332 -0.2539294
0.14534025 -0.121710055 -0.18117027 -0.06611509 -0.108562455 0.2489792 -0.14765841 0.05015823
-0.0022102303 -0.24267597 -0.036873247 -0.065263994 0.19260614 0.15551855 -0.12100995 -0.1268479
0.055353437 0.15738794 -0.10695951 0.13080893 0.16243708 0.07287169 -0.06121864 -0.16873649
0.07188418 0.22313021 0.06429409 -0.022986986 -0.1152283 -0.15953308 -0.07433377 0.15742719
-0.024201754 -0.13590838 0.04644707 0.22701223 0.051325265 -0.13430329 -0.18944436 0.17135257
-0.12625153 -0.15510766 -0.09268618 0.010766827 -0.060215548 0.20891215 0.24333765 0.18663646
0.019174721 0.119716145 -0.21715271 -0.24227183 -0.09328538 0.14818083 -0.039568465 0.17769457
-0.1325641 -0.10621098 0.16125806 -0.21112838 0.14636052 -0.08765481 -0.028111061 -0.22849335
0.08212526 0.20508045 -0.16973792 -0.0048981444 0.22218446 -0.23628126 -0.09374784 -0.14394633
0.008642799 0.064808324 -0.20769194 0.20723563 0.27827284 -0.016380178 0.04511238 0.15198947
0.19590499 -0.048739314 -0.20620449 -0.24786837 0.12942438 -0.12678377 0.07431254 0.15042578
0.14121567 0.13073127 0.11139397 -0.047358837 0.1159762 0.16064818 0.0067090024 -0.0025945625
-0.1404222 -0.13159308 -0.1742003 -0.12652083 0.15045972 -0.0151416 0.16165401 -0.13593772
-0.1924065 0.23324087 0.078787535 0.04432019 0.14497551 -0.2399281 0.06931112 -0.20308019
-0.05862592 0.21730934 -0.050187726 0.18686236 -0.14702298 0.16913334 -0.16669159 0.027983915
0.0064337137 -0.026975093 -0.21854863 -0.038575586 -0.019233815 0.056677103 0.24172567 0.23555294
0.25897008 -0.23674203 -0.08829523 0.15265982 -0.083775654 0.01689819 -0.28202212 -0.12259065
-0.009555619 -0.22527362 -0.017100483 -0.109663256 0.10745907 0.0063570347 -0.08702854 0.0561059
0.14228474 0.16312818 -0.011352899 0.038463697 0.108549386 -0.14880127 -0.14043123 0.07316542
0.0007940856 0.23521325 -0.020293247 -0.014619337 0.23900607 0.003287255 -0.07197805 -0.22930053
-0.1033381 -0.02493537 -0.1265965 -0.022850337 0.21401578 -0.096536495 0.15672918 -0.0865954
-0.14387545 0.076646745 -0.27318966 -0.17915572 0.021438962 0.2685385 0.15175457 0.1921322
0.24890111 -0.14428584 -0.27205324 -0.15059792 0.1930962 -0.0099812085 0.09233362 -0.03743285
0.040259037 0.100062944 0.09414796 0.028933583 0.17678638 0.11833519 -0.014411042 -0.08249687
0.03193662 0.024262924 -0.26116613 0.007254497 -0.10565101 -0.07676154 0.0833373 -0.21793768
0.16519101 -0.11654225 -0.13652992 -0.085139476 0.106606424 -0.14152743 0.16476007 0.15441167
0.22502048 -0.22855131 0.06582725 -0.14743045 -0.050725468 0.141576 -0.0438668 0.12024478
