neuromancer/train_scripts/papers/flexy/scalability/policy_flexy_N7.pth (torch, 14711 bytes, 9 tensors)

weight f4 [28, 20]
0	0x3e08d60c	0.13362902
1	0x3e29c2f6	0.16578278
2	0x3d997890	0.074936986
3	0x3ccb4838	0.02481471
4	0x3d90d0f0	0.07071102
5	0xbe605020	-0.21905565
6	0xbcb25cf8	-0.021772847
7	0x3e516f5e	0.2045264
8	0xbd0951c8	-0.03352526
9	0xbda81062	-0.0820625
10	0x3be794a0	0.007067278
11	0x3dd22968	0.10261804
12	0xbde18afa	-0.11012836
13	0xbd87ff1a	-0.06640454
14	0xbe4eff55	-0.20214589
15	0x3d391950	0.045190156
16	0xbe05f32e	-0.13081047
17	0x3d2be190	0.04196316
18	0xbd958a8c	-0.07301816
19	0xbe105b54	-0.14097339
20	0x3dcbc900	0.09950447
21	0xbe2abbd4	-0.16673213
22	0x3e1a1ea2	0.15050748
23	0x3de61d58	0.112360656
24	0xbd71b30c	-0.059008643
25	0xbe5edfac	-0.21765012
26	0xbe55ad0b	-0.20866792
27	0x3dea5414	0.11441818
28	0x3e317d64	0.17332989
29	0x3e14e7da	0.1454157
30	0xbd08ec0c	-0.033428237
31	0x3e605798	0.21908414
32	0xbe5e74b0	-0.217242
33	0x3d687a08	0.056757003
34	0x3dd64b08	0.1046353
35	0x3e3aee98	0.18255079
36	0x3e546504	0.2074166
37	0x3e21fae4	0.15818363
38	0xbdbdfcd6	-0.0927674
39	0xbd41c26c	-0.047304556
40	0x3dead874	0.114670664
41	0xbdbc95f0	-0.09208286
42	0x3e2d1e80	0.16906166
43	0x3d8c039c	0.06836626
44	0xbc8522c0	-0.016251922
45	0xbd6cd0dc	-0.05781637
46	0xbcbd2e08	-0.023093238
47	0xbe5f0581	-0.21779443
48	0x3e30c408	0.1726228
49	0x3cd9cff0	0.02658841
50	0x3e5ec15c	0.21753448
51	0xbca10b00	-0.019658566
52	0x3e361876	0.17782769
53	0xbe0a8ba6	-0.13529834
54	0x3e44e992	0.19229725
55	0x3c822d10	0.015890628
56	0x3cb00280	0.021485567
57	0x3e3d70d0	0.18500066
58	0x3e0748cc	0.13211364
59	0xbd516cc0	-0.051129103
60	0x3d198eb8	0.037489623
61	0x3e19ff42	0.1503878
62	0xbd396ed4	-0.04527171
63	0x3d0f7e40	0.03503251
64	0x3af07700	0.0018346012
65	0x3b8efc40	0.0043635666
66	0xbc995fb0	-0.018722385
67	0x3db73c10	0.08947003
68	0xbe242ba8	-0.16032279
69	0x3e2fdc92	0.17173985
70	0x3dc5c214	0.09656158
71	0xbe6316c8	-0.22176659
72	0xbce7f5a0	-0.028315365
73	0xbdc20d4c	-0.094751924
74	0x3e56c032	0.20971754
75	0xbdf0902a	-0.11746247
76	0x3da7f7e4	0.08201578
77	0x3de925d8	0.11384171
78	0xbd331ba8	-0.043727547
79	0xbe0b9990	-0.13632798
80	0xbe0c2878	-0.13687313
81	0x3d632460	0.05545461
82	0x3e2ec660	0.17067862
83	0xbe104356	-0.14088187
84	0xbdf7c3ff	-0.1209793
85	0x3c867410	0.016412765
86	0x3e13be5c	0.14428085
87	0x3ceda100	0.029007435
88	0x3d34cd68	0.044141203
89	0xbc7e2a90	-0.015513077
90	0xbe4e1e11	-0.20128657
91	0x3c3d74e0	0.01156351
92	0x3cca0768	0.024661735
93	0xbd1c71f8	-0.038194627
94	0xbcabab30	-0.020955652
95	0xbdcf8309	-0.10132415
96	0x3dacdf0c	0.0844098
97	0x3ce08880	0.027408838
98	0xbe4ee95e	-0.2020621
99	0xbc0e72f0	-0.008694395
100	0x3e55a89a	0.20865098
101	0x3e227640	0.15865421
102	0x3cc7b480	0.024378061
103	0x3e1bd3d2	0.15217522
104	0x3d1ed788	0.038779765
105	0xbe3fe6a3	-0.18740325
106	0x3d4b2b60	0.049601912
107	0x3e4b929c	0.19880146
108	0xbb1097c0	-0.0022063106
109	0x3e4b4506	0.19850549
110	0xbd128ae0	-0.035776973
111	0xbe5968ae	-0.21231338
112	0x3e01dc16	0.12681612
113	0xbdcc3065	-0.09970168
114	0x3e6309de	0.22171733
115	0xbe30cc22	-0.1726537
116	0xbe2eec66	-0.17082366
117	0xbe3f2686	-0.1866704
118	0xbe6082ea	-0.2192494
119	0xbd136f90	-0.035995066
120	0x3e16c52a	0.1472365
121	0xbe61b7b5	-0.22042735
122	0xbe40f6a0	-0.1884408
123	0x3e0e45ba	0.13893786
124	0x3ca32318	0.019914195
125	0xbdef89b8	-0.1169619
126	0x3e48f468	0.19624484
127	0xbca6b968	-0.02035208
128	0xbda16474	-0.07880488
129	0x3e5c96e2	0.21541932
130	0xbe462e49	-0.19353594
131	0x3c5dcb20	0.013537198
132	0x3d382180	0.044953823
133	0x3e3c045a	0.18361035
134	0xbe5afbac	-0.21385068
135	0x3e0d11b2	0.13776281
136	0x3e20a86e	0.15689251
137	0x3e5ce9d4	0.21573573
138	0x3d2891a8	0.041154534
139	0xbd937d2e	-0.072016105
140	0x3c23ed10	0.010005251
141	0x3d4b40b0	0.049622238
142	0x3dfc7e00	0.1232872
143	0xbca04638	-0.019564733
144	0xbe610960	-0.21976233
145	0xbda0caf6	-0.07851212
146	0x3e2166fa	0.15761939
147	0xbe539e9c	-0.20665973
148	0x3e6414bc	0.22273535
149	0xbe1ee0ce	-0.15515444
150	0xbdbd9cee	-0.092584476
151	0x3e616352	0.22010544
152	0xbd693a7c	-0.05694054
153	0xbe124e27	-0.14287625
154	0xbdbd3840	-0.092392445
155	0x3c6153f0	0.013752922
156	0xbd83b26e	-0.06430517
157	0x3e3c63a4	0.18397385
158	0xbb3b5980	-0.0028587282
159	0x3e633e74	0.22191793
160	0xbde02685	-0.10944847
161	0x3e4f6c32	0.20256117
162	0x3d3b7e28	0.04577461
163	0xbdc1af12	-0.0945722
164	0x3e268fb2	0.16265753
165	0xbdcca0e2	-0.099916235
166	0x3e189ed6	0.14904341
167	0xbdb0b954	-0.086290985
168	0xbe1048ce	-0.14090273
169	0x3e3497f4	0.1763609
170	0xbe28fd0f	-0.16502784
171	0x3e4931bc	0.19647878
172	0xbcd96720	-0.026538432
173	0x3e648962	0.22318032
174	0xbe504950	-0.20340466
175	0x3e1dd36a	0.1541268
176	0x3e0fc952	0.14041641
177	0x3e567164	0.20941693
178	0x3e4e9182	0.20172694
179	0xbdd6c4fc	-0.104867905
180	0x3d9fb2d0	0.07797778
181	0x3e49eaee	0.19718525
182	0x3c740de0	0.014895886
183	0x3e4c75b8	0.19966781
184	0x3e55fcf0	0.20897269
185	0xb979cc00	-0.00023822486
186	0xbddb259a	-0.10700531
187	0xbe19066a	-0.14943853
188	0xbd73957c	-0.05946873
189	0xbdf9360a	-0.1216851
190	0xbe2e20dc	-0.17004722
191	0x3c243d00	0.010024309
192	0x3d902628	0.07038528
193	0x3e29a112	0.1656535
194	0x3dd6d3c8	0.10489613
195	0x3e4daae6	0.20084724
196	0x3db569a4	0.0885804
197	0x3dbe4874	0.09291163
198	0xbe24d084	-0.16095167
199	0x3e567f40	0.2094698
200	0x3e2858f2	0.1644018
201	0xbe2191a6	-0.15778217
202	0xbe303cae	-0.17210647
203	0xbd58d544	-0.05293776
204	0x3c7cddf0	0.015433773
205	0xbe0fea58	-0.14054239
206	0x3e153d76	0.14574227
207	0xbe0078c2	-0.12546065
208	0x3e2d326a	0.16913763
209	0x3cd17e40	0.025572896
210	0xbcf35208	-0.029702201
211	0xbd19bb54	-0.037532166
212	0xbe39e2a6	-0.18152866
213	0xbe5bad7b	-0.21452896
214	0xbe2dcc61	-0.16972496
215	0xbe26544f	-0.16243099
216	0x3d3f83b8	0.046756476
217	0xbe333344	-0.17500025
218	0x3dba5318	0.0909788
219	0x3e2bb11e	0.16766784
220	0xbd6900ec	-0.056885645
221	0xbc916278	-0.017747149
222	0x3d6db270	0.0580315
223	0xbe4f3842	-0.20236304
224	0x3d8069ac	0.06270155
225	0xbe09a89b	-0.13443224
226	0xbe06b76a	-0.13155904
227	0xbdab65f8	-0.08369058
228	0xbe57e401	-0.2108307
229	0xbdca1e8e	-0.09869109
230	0x3e02c6e8	0.12771189
231	0xbdb37c20	-0.08763909
232	0x3df21b90	0.118216634
233	0x3ca2f398	0.019891545
234	0xbd926370	-0.071478724
235	0x3c9c1120	0.019051135
236	0x3e453668	0.19259036
237	0xbdf0cb47	-0.11757522
238	0xbde7ec05	-0.11324314
239	0xbe251ff5	-0.16125472
240	0x3d8b1aa8	0.06792194
241	0x3e34125e	0.17585132
242	0x3d76d838	0.060264796
243	0xbd990398	-0.074713886
244	0x3e3cda80	0.18442726
245	0x3e03ad6e	0.12859127
246	0xbe588b04	-0.2114678
247	0x3c927d98	0.017882153
248	0x3d306898	0.0430685
249	0xbd028864	-0.031868353
250	0xbde487c5	-0.111587085
251	0x3cf97830	0.030452818
252	0xbe5ccb80	-0.21562004
253	0x3d0a12b0	0.033709228
254	0x3e2c64fa	0.16835395
255	0xbdf74aad	-0.1207479

bias f4 [1, 20]
0	0x00000000	0.0
1	0x00000000	0.0
2	0x00000000	0.0
3	0x00000000	0.0
4	0x00000000	0.0
5	0x00000000	0.0
6	0x00000000	0.0
7	0x00000000	0.0
8	0x00000000	0.0
9	0x00000000	0.0
10	0x00000000	0.0
11	0x00000000	0.0
12	0x00000000	0.0
13	0x00000000	0.0
14	0x00000000	0.0
15	0x00000000	0.0
16	0x00000000	0.0
17	0x00000000	0.0
18	0x00000000	0.0
19	0x00000000	0.0

weight f4 [20, 28]
0	0xbe5fbd3a	-0.21849528
1	0x3dfcf9a9	0.123523064
2	0xbd953ad0	-0.07286608
3	0xbe57e00c	-0.21081561
4	0xbe4bec78	-0.19914424
5	0xbe2b56ed	-0.16732378
6	0xbe4ae50b	-0.19813935
7	0xbdd70221	-0.10498453
8	0xbe140bc1	-0.14457609
9	0x3cb18586	0.021670114
10	0xbe3cb311	-0.18427683
11	0x3d93cdfa	0.07217021
12	0xbe540a5b	-0.20707075
13	0xbe6f2952	-0.23355606
14	0x3e0ba92b	0.13638751
15	0xbe4c602f	-0.19958566
16	0x3d567694	0.05235918
17	0x3df22d75	0.118250765
18	0xbd224b8f	-0.03962284
19	0xbd74d081	-0.059769157
20	0xbd8a84bc	-0.06763598
21	0xbe282728	-0.16421187
22	0xbdc8d2b1	-0.09805811
23	0xbe72093b	-0.23636334
24	0xbde15d22	-0.11004092
25	0xbe7c2329	-0.24622788
26	0x3d77c060	0.060486197
27	0xbe717712	-0.23580578
28	0xbba59286	-0.0050528673
29	0xbde4e470	-0.111763835
30	0x3dde1070	0.10842979
31	0x3dbe9401	0.09305573
32	0x3bc40fc1	0.0059833233
33	0xbd6751ce	-0.0564745
34	0xbceb0548	-0.028689042
35	0x3cfcdb4a	0.030866284
36	0xbdbe4b63	-0.092917226
37	0x3dc92db7	0.098231725
38	0x3dbc6b26	0.092001244
39	0xbe3bcf6e	-0.18340847
40	0xbe0946a6	-0.13405856
41	0xbd69d771	-0.057090227
42	0xbd842b30	-0.0645355
43	0xbe4484b1	-0.19191243
44	0x3d89e935	0.06733934
45	0xbdff29e2	-0.124591604
46	0xbe1b5d68	-0.1517235
47	0x3dcf75a9	0.10129864
48	0xbe426041	-0.1898203
49	0xbe25c4c9	-0.16188349
50	0xbc92faf6	-0.017941933
51	0xbd642aa0	-0.055704713
52	0xbe7b4953	-0.2453969
53	0x3d12a724	0.03580393
54	0xbd374094	-0.04473932
55	0xbc869111	-0.016426595
56	0x3d20f35f	0.039294597
57	0x3e1a2e62	0.15056756
58	0x3d388bcb	0.045055192
59	0xbda0b01b	-0.078460895
60	0x3d4ea74a	0.050452508
61	0x3db40822	0.08790614
62	0x3cc534bc	0.024072997
63	0xbde544a9	-0.111947365
64	0x3d898085	0.06713966
65	0xbdf4b174	-0.11947909
66	0x3e5ff93e	0.21872422
67	0x3e070ddd	0.13188882
68	0x3e45a24c	0.19300193
69	0xbdf30a0a	-0.11867149
70	0xbde3d2ad	-0.111241676
71	0x3dd795fc	0.10526654
72	0x3dee8fe3	0.11648538
73	0x3e34a7ca	0.17642131
74	0x3cce679e	0.025195893
75	0xbe027676	-0.12740502
76	0x3e00a011	0.1256106
77	0x3e496fa2	0.19671491
78	0x3dceb924	0.100939065
79	0x3e57f6f8	0.21090305
80	0x3e376da4	0.17912918
81	0x3d250fff	0.04029846
82	0x3e49bb64	0.1970039
83	0x3cbf1329	0.023324566
84	0xbd234650	-0.039861977
85	0x3d911a28	0.07085067
86	0xbcf36a8c	-0.029713891
87	0xbd36b883	-0.044609558
88	0xbe0f4427	-0.13990842
89	0xbcf82ad0	-0.030293852
90	0x3cc71e83	0.024306541
91	0x3e1a931b	0.15095179
92	0x3e200497	0.15626751
93	0x3d4f5597	0.050618734
94	0x3e1386b7	0.14406858
95	0x3e1737b2	0.1476734
96	0x3e00accc	0.12565917
97	0x3cde78b6	0.027157169
98	0x3e2ab81a	0.16671792
99	0x3e14a38b	0.14515512
100	0x3e0b429b	0.13599627
101	0x3da97931	0.082750686
102	0x3decdeae	0.1156591
103	0xbe0f0500	-0.13966751
104	0x3ba37e03	0.004989387
105	0x3d8f8c21	0.07009149
106	0xbe1e47df	-0.15457104
107	0xbe2df6e5	-0.16988714
108	0xbe22bd2f	-0.1589248
109	0xbdab57cd	-0.08366356
110	0xbdc9ac9f	-0.09847378
111	0x3b3dea15	0.0028978635
112	0x3cec97d5	0.028880993
113	0x3dba8916	0.09108178
114	0x3de2dad7	0.11076897
115	0x3ce9006f	0.02844259
116	0xbe135543	-0.14387994
117	0x3e23a449	0.15980639
118	0xbe43f1b5	-0.19135173
119	0xbc44d53c	-0.01201373
120	0xbdb368fb	-0.08760258
121	0x3c9c6f52	0.01909605
122	0xbe142471	-0.14467026
123	0xbe72f0eb	-0.23724715
124	0xbe6277b5	-0.22115977
125	0xbc17badf	-0.009260862
126	0xbe240f3e	-0.1602144
127	0xbe3dd2f2	-0.185375
128	0xbe548e07	-0.20757304
129	0xbc4d3df7	-0.012526981
130	0x3db834b8	0.0899443
131	0x3d2c50cc	0.04206924
132	0x3dc15888	0.09440714
133	0xbe45446c	-0.19264382
134	0xbe6ba6b2	-0.23012808
135	0x3dac18cb	0.084031664
136	0xbe3223dd	-0.17396493
137	0xbe3e81ce	-0.18604204
138	0xbe396d68	-0.18108141
139	0xbe35ba94	-0.17746955
140	0xbe2c3fef	-0.16821264
141	0x3d756fa4	0.059920922
142	0x3e38de9f	0.18053673
143	0x3e25b2a1	0.16181423
144	0xbe2b35c4	-0.16719729
145	0xbdd87f93	-0.10571208
146	0x3d4cf638	0.0500395
147	0xbe071c8a	-0.1319448
148	0xbe0e4b18	-0.13895833
149	0x3dec5338	0.1153931
150	0x3e562c3f	0.20915316
151	0xbdb0564c	-0.0861021
152	0x3e2d1f31	0.1690643
153	0x3e49aac1	0.19694044
154	0xbdb2787d	-0.087143876
155	0xbb8f39c5	-0.0043709003
156	0x3dea55b7	0.1144213
157	0x3c78926d	0.015171629
158	0xbda2b4a6	-0.07944612
159	0x3d03bc75	0.03216215
160	0xbd54525e	-0.051836364
161	0x3db022b6	0.086003706
162	0x3d934c7a	0.07192321
163	0x3e23665a	0.15957013
164	0xbd445315	-0.047930796
165	0xbd6bf923	-0.057610642
166	0xbe05ab90	-0.13053727
167	0x3d85ed1a	0.06539364
168	0xbe1873f3	-0.14887981
169	0x3dba626e	0.09100805
170	0xbd4cb2a8	-0.049975067
171	0x3dc7da15	0.09758393
172	0xbe01b271	-0.12665726
173	0x3e1ac5c8	0.1511451
174	0xbd854c39	-0.06508679
175	0x3e153f6d	0.14574976
176	0x3dd7e1b8	0.10541099
177	0x3e5601d6	0.20899138
178	0x3d118933	0.035531234
179	0xbd930df2	-0.07180394
180	0x3c559755	0.013036569
181	0x3da6c4d0	0.08143008
182	0x3e469dc9	0.19396128
183	0xbd0a90c3	-0.03382946
184	0x3daeacc5	0.08529047
185	0x3e4d100b	0.20025651
186	0x3d0754a3	0.0330397
187	0xbcb12790	-0.02162531
188	0xbdc7c9f0	-0.097553134
189	0x3d453ef4	0.04815574
190	0x3e1c5649	0.1526729
191	0xbd7694f5	-0.06020065
192	0x3e002f09	0.12517942
193	0xbdedfb12	-0.116201535
194	0x3e2a54c3	0.16633897
195	0xbe1a0909	-0.15042509
196	0x3e291173	0.16510563
197	0xbe170a3d	-0.1475
198	0x3e007fc0	0.12548733
199	0xbda36eae	-0.07980095
200	0x3e29dba9	0.165877
201	0x3de3c410	0.1112138
202	0x3de51cfe	0.111871704
203	0x3e6be0fb	0.23035042
204	0xbdafe6ec	-0.08588967
205	0x3de2285a	0.11042853
206	0x3e6c2946	0.2306262
207	0x3e5e9aba	0.21738711
208	0x3cb5a0aa	0.022171337
209	0x3e55167c	0.20809358
210	0x3e2b444d	0.16725273
211	0x3d8e0b9b	0.06935807
212	0x3e4f1ae4	0.20225102
213	0xbdb32a81	-0.08748341
214	0xbe0fc720	-0.14040804
215	0x3dea9553	0.114542626
216	0xbccf53fd	-0.025308603
217	0x3e66313f	0.22479723
218	0x3e32620d	0.17420216
219	0xbd8574d6	-0.06516425
220	0x3e07a596	0.1324676
221	0xbe033aa2	-0.12815335
222	0x3e54e8b8	0.207919
223	0xbe0134a1	-0.12617733
224	0x3c8a9a46	0.016919266
225	0x3df11fba	0.117736295
226	0x3d1fa159	0.038972232
227	0x3d5697f4	0.052391008
228	0x3d6a5de6	0.057218455
229	0x3e0967b3	0.13418464
230	0xbddd1d3a	-0.1079659
231	0xbe6c0951	-0.23050429
232	0xbb81bef6	-0.003959532
233	0x3d1b214c	0.03787355
234	0xbe1056af	-0.14095567
235	0x3c1c6234	0.009544898
236	0xbe5cce53	-0.21563081
237	0x3d38af4e	0.04508906
238	0x3ba4bac5	0.0050271475
239	0xbd7e4219	-0.062074754
240	0xbe1a2327	-0.15052472
241	0x3da85e42	0.08221103
242	0xbafddac2	-0.0019367563
243	0x3d88d70c	0.06681642
244	0xbe4eee04	-0.20207983
245	0x3d876078	0.06610197
246	0xbe2b5d00	-0.16734695
247	0xbdf2aff5	-0.118499674
248	0x3da163f9	0.078803964
249	0xbe1cf403	-0.15327458
250	0xbceff58d	-0.029291892
251	0xbdc45fff	-0.09588622
252	0x3e22a323	0.15882544
253	0xba7b1f12	-0.000957952
254	0x3db650c5	0.08902124
255	0x3e31b05f	0.17352436

weight f4 [20, 20]
0	0x3e4301a0	0.19043589
1	0x3d2db4e0	0.042408824
2	0xbcb80308	-0.022462383
3	0x3dc4183c	0.09574935
4	0x3d885e18	0.06658572
5	0x3e6197f0	0.22030616
6	0xbdaa879c	-0.08326647
7	0xbd964ad6	-0.073384926
8	0x3ccc2570	0.024920195
9	0xbe56bcd1	-0.20970465
10	0xbe33ccca	-0.1755859
11	0xbddeafcc	-0.10873374
12	0xbcc38210	-0.02386573
13	0xbd5415a0	-0.051778436
14	0xbd6ce778	-0.057837933
15	0xbe22c662	-0.1589599
16	0x3e5ab1e8	0.21356928
17	0x3dd7b510	0.10532582
18	0xbde054b6	-0.10953657
19	0x3da022d0	0.0781914
20	0xbd574464	-0.052555457
21	0xbd476184	-0.048676983
22	0x3c17c910	0.009264246
23	0x3e38e95c	0.1805777
24	0x3d2cda50	0.042200387
25	0x3dfadd78	0.12249273
26	0xbdfe5426	-0.12418394
27	0x3e643044	0.22284037
28	0xbe11036c	-0.14161462
29	0x3dbb219c	0.0913727
30	0x3e0c895a	0.1372427
31	0xbcf28ac0	-0.029607177
32	0xbe1f2842	-0.15542701
33	0x3e4af470	0.19819808
34	0xbe23e1ce	-0.16004106
35	0x3d9d89a8	0.076922715
36	0xbd7785ac	-0.060430214
37	0xbdc06446	-0.09394126
38	0x3e36f854	0.17868167
39	0x3e3ed678	0.18636501
40	0xbd0b2e84	-0.033979908
41	0xbc323140	-0.010876
42	0x3e338b42	0.17533591
43	0xbe21ce04	-0.15801245
44	0xbe4c2b4b	-0.1993839
45	0xbe3e4810	-0.18582177
46	0xbd60d440	-0.054889917
47	0x3e5b6dcc	0.21428603
48	0xbe2e6667	-0.17031251
49	0xbe32391c	-0.17404598
50	0xbd7b2bdc	-0.061321124
51	0x3e07dfda	0.13268986
52	0x3e250350	0.16114545
53	0x3e5881ea	0.21143308
54	0xbe509208	-0.20368207
55	0xbe10f896	-0.14157328
56	0x3cd41b10	0.02589181
57	0x3e48407c	0.19555849
58	0x3cfd0db0	0.030890316
59	0x3d648918	0.055794805
60	0xbccf1db0	-0.02528271
61	0xbdb39a8c	-0.08769712
62	0x3d9b013c	0.07568595
63	0x3d118620	0.035528302
64	0x3e1697ea	0.14706388
65	0x3d63aca8	0.05558458
66	0x3d465b88	0.048427135
67	0x3c7f4950	0.015581444
68	0xbe0ced50	-0.13762403
69	0x3de47ebc	0.11156985
70	0xbd6a9ef0	-0.05728048
71	0xbe097b28	-0.13425887
72	0xbd379424	-0.044819012
73	0xbd3fb1ac	-0.0468003
74	0xbd8dc924	-0.0692313
75	0xbe2effc6	-0.17089757
76	0xbd068350	-0.032840073
77	0xbdcc04f5	-0.09961883
78	0xbd244c8c	-0.040112063
79	0xbc996b40	-0.018727899
80	0xbc6a5470	-0.014302358
81	0xbdf6fe42	-0.120602146
82	0xbe0b5fce	-0.13610765
83	0xbd818ed8	-0.063260734
84	0x3e088d26	0.13335094
85	0xbe3de93a	-0.18546
86	0x3caff170	0.021477431
87	0x3daed7b4	0.08537236
88	0xbb010a40	-0.0019689947
89	0xbe5c8658	-0.21535623
90	0x3d047978	0.032342404
91	0x3d613078	0.054977864
92	0xbd2244c8	-0.039616376
93	0x3df0ec60	0.11763835
94	0x3ca82578	0.020525679
95	0xbda153ec	-0.07877335
96	0x3d914db0	0.07094896
97	0x3b2f6e00	0.0026768446
98	0xbc6dbc80	-0.014510274
99	0x3d154700	0.036444664
100	0xbd9e9650	-0.077435136
101	0xbcbe6498	-0.023241326
102	0x3d68e270	0.056856573
103	0xbcb82778	-0.022479758
104	0xbde334e5	-0.11094073
105	0x3e1bd72c	0.152188
106	0xbe34e8ba	-0.17666903
107	0xbd3b25e8	-0.045690447
108	0xbdf82de7	-0.1211813
109	0x3e608de4	0.21929127
110	0xbe391f07	-0.18078242
111	0xbcc78400	-0.024354935
112	0x3d061aa8	0.032740265
113	0xbe18bdac	-0.14916104
114	0xbe03d41a	-0.12873879
115	0xbe3d11fe	-0.18463895
116	0x3e64696e	0.22305843
117	0x3cae9040	0.021309018
118	0x3d8533a4	0.0650399
119	0xbd09fbe4	-0.033687487
120	0xbd8414c2	-0.06449272
121	0x3e0c0480	0.13673592
122	0x39dc5600	0.00042025745
123	0xbe574e09	-0.21025862
124	0x3d0089e8	0.031381518
125	0xbe3566bb	-0.1771497
126	0xbd368664	-0.04456176
127	0xbe3d091c	-0.18460506
128	0x3d4ab648	0.049490243
129	0x3ce146f0	0.027499646
130	0x3ddb74b0	0.10715616
131	0xbe064cbc	-0.1311521
132	0x3dc2b304	0.09506801
133	0xbdeca6d3	-0.11555257
134	0x3d89bf64	0.06725958
135	0x3e3a8fea	0.18218961
136	0xbe302035	-0.17199786
137	0xbc81bcc0	-0.015837073
138	0xbb509ac0	-0.003183052
139	0xbd300014	-0.042968825
140	0xbe422912	-0.1896098
141	0xbc7770b0	-0.01510255
142	0x3d59b248	0.053148538
143	0x3df3fad4	0.11913076
144	0x3df902fc	0.12158772
145	0x3dc97d0c	0.09838304
146	0x3da06268	0.078312695
147	0x3e0b4f96	0.13604578
148	0x3bc93940	0.006140858
149	0xbdaa2498	-0.08307761
150	0x3daf4f24	0.08560017
151	0x3e25dc8c	0.16197413
152	0xbda7d10a	-0.08194168
153	0xbceae210	-0.028672248
154	0x3e1ff44c	0.15620536
155	0x3e436222	0.19080403
156	0x3dd0ff74	0.10204974
157	0xbc84aa58	-0.016194507
158	0x3dc12e90	0.09432709
159	0x3dbc3538	0.09189838
160	0xbdd669ef	-0.10469424
161	0x3dffcb84	0.124899894
162	0x3e2d56ba	0.16927615
163	0x3e10dc7e	0.14146611
164	0xbe49f0b6	-0.1972073
165	0xbd8aff1c	-0.067869395
166	0xbd547a98	-0.051874727
167	0xbe636270	-0.2220552
168	0xbe644d2c	-0.22295064
169	0x3df44064	0.11926344
170	0x3e247ff0	0.1606443
171	0xbe099e44	-0.1343928
172	0x3df06810	0.11738598
173	0x3dd0d734	0.10197297
174	0xbd88e5e2	-0.06684472
175	0xbde58f67	-0.112089925
176	0xbd993462	-0.07480694
177	0x3dca32e0	0.09872985
178	0xbd9a572a	-0.075361565
179	0xbcfd1030	-0.030891508
180	0x3e2eb09e	0.17059562
181	0x3e2fd0b2	0.17169455
182	0x3e276808	0.16348279
183	0x3e1e4170	0.1545465
184	0x3db0b3f4	0.08628073
185	0xbda306a2	-0.079602495
186	0x3d94231c	0.07233259
187	0xbd69a0dc	-0.057038173
188	0x3d8de374	0.06928149
189	0x3e3c4194	0.18384391
190	0x3d844d7c	0.064600915
191	0x3c4c5120	0.012470514
192	0xbdc62ac8	-0.096761286
193	0xbdca4c0c	-0.09877786
194	0x3e00d19a	0.12579957
195	0xbddf566a	-0.10905154
196	0xbe54048c	-0.2070486
197	0x3d931344	0.07181409
198	0xbd3193a8	-0.043353707
199	0xbde8338f	-0.11337959
200	0xbc9ae748	-0.018909112
201	0x3de0dabc	0.1097922
202	0xbde09ff4	-0.10968009
203	0xbe5d6c00	-0.2162323
204	0x3d9fe234	0.07806817
205	0xbdf0e81c	-0.11763021
206	0xbe455f5f	-0.19274662
207	0xbe3e96a9	-0.1861216
208	0xbe312752	-0.17300156
209	0x3de2ac78	0.11068052
210	0xbe1891dc	-0.14899391
211	0xbda1ba80	-0.078969
212	0x3d919820	0.07109094
213	0x3d62a3f8	0.055332154
214	0x3e24b04a	0.16082874
215	0x3dc1316c	0.094332546
216	0x3e0661d0	0.1312325
217	0x3df7bd60	0.12096667
218	0xbe2cf0e3	-0.16888766
219	0x3e574328	0.21021712
220	0x3d572f70	0.052535474
221	0xbe148c10	-0.14506555
222	0xbe479fea	-0.19494596
223	0xbdf73c81	-0.12072087
224	0x39914000	0.0002770424
225	0xbe4c8063	-0.1997085
226	0x3d80538c	0.06265935
227	0xbe106d8c	-0.14104289
228	0x3e3fe322	0.18738988
229	0x3e167144	0.14691645
230	0xbe45ffda	-0.19335881
231	0x3dc7a28c	0.097478
232	0xbe1956dc	-0.1497454
233	0x3c51bc00	0.01280117
234	0xbdd88323	-0.10571887
235	0x3e238d74	0.15971929
236	0x3e3f28ac	0.18667859
237	0x3d8430cc	0.0645462
238	0x3d370b90	0.04468876
239	0x3e22ebb6	0.15910229
240	0x3ba993e0	0.005175099
241	0xbe1aa7c2	-0.15103057
242	0xbe5a4010	-0.213135
243	0x3c0275b0	0.007962629
244	0x3d400848	0.046882898
245	0x3dcafeb0	0.09911859
246	0xbe10af30	-0.14129329
247	0xbe614c3e	-0.2200174
248	0x3c90c870	0.017673701
249	0xbe40aa09	-0.18814863
250	0xbe36ef96	-0.17864832
251	0xbe394614	-0.18093139
252	0x3e223f72	0.15844515
253	0xbe5695ec	-0.20955628
254	0x3de468d8	0.1115281
255	0x3e00aec8	0.12566674

bias f4 [1, 20]
0	0x00000000	0.0
1	0x00000000	0.0
2	0x00000000	0.0
3	0x00000000	0.0
4	0x00000000	0.0
5	0x00000000	0.0
6	0x00000000	0.0
7	0x00000000	0.0
8	0x00000000	0.0
9	0x00000000	0.0
10	0x00000000	0.0
11	0x00000000	0.0
12	0x00000000	0.0
13	0x00000000	0.0
14	0x00000000	0.0
15	0x00000000	0.0
16	0x00000000	0.0
17	0x00000000	0.0
18	0x00000000	0.0
19	0x00000000	0.0

weight f4 [20, 20]
0	0x3d406603	0.046972286
1	0x3cbffd03	0.023436075
2	0xbc7a2808	-0.015268333
3	0xbd9faa8c	-0.07796201
4	0xbd5a0542	-0.05322767
5	0xbda7d630	-0.0819515
6	0xbd592d4b	-0.05302171
7	0xbe20cf14	-0.15703994
8	0x3e0b9172	0.13629702
9	0xbe223fa0	-0.15844584
10	0x3ddba477	0.107247286
11	0xbe61e08e	-0.22058317
12	0x3d5d3d2e	0.054013424
13	0xbe1ab779	-0.15109052
14	0xbe13280f	-0.1437075
15	0x3b0890a2	0.002083816
16	0x3b978034	0.0046234373
17	0x3e0ff903	0.14059834
18	0xbe6d954f	-0.23201488
19	0x3bfce4fc	0.0077177268
20	0x3e6155c0	0.22005367
21	0x3e7d9322	0.24763158
22	0x3e1abd7e	0.15111348
23	0x3bfb8160	0.007675335
24	0x3e4eebaa	0.20207086
25	0xbe4e46ea	-0.20144239
26	0xbe74fb81	-0.23924066
27	0x3c5dcb36	0.013537219
28	0x3e75ca21	0.24002887
29	0x3e330bea	0.17485014
30	0xbc8f0821	-0.01745993
31	0xbe1e6741	-0.15469076
32	0xbe870354	-0.26369727
33	0xbde189b7	-0.11012595
34	0x3e167eb6	0.14696774
35	0x3df03198	0.11728209
36	0xbdb91c03	-0.09038546
37	0x3e89db29	0.26925018
38	0x3b195d32	0.0023401496
39	0xbdcc7d05	-0.09984783
40	0x3caf97eb	0.021434745
41	0x3de41cfe	0.11138342
42	0x3e3a8c19	0.18217506
43	0xbe088fc7	-0.13336097
44	0xbe805cd4	-0.25070822
45	0xbd230fb1	-0.039809886
46	0xbcad0750	-0.021121651
47	0xbdb5bad9	-0.08873529
48	0xbe809842	-0.25116163
49	0xbd2c7579	-0.04210422
50	0x3dafafb0	0.085784316
51	0xbe61e385	-0.22059448
52	0xbdd40cdf	-0.103540175
53	0x3da0bfa4	0.078490525
54	0x3e839693	0.25700817
55	0xbde8dbe1	-0.113700636
56	0x3db87ae2	0.09007813
57	0xbdfae54d	-0.12250767
58	0x3e46e572	0.19423464
59	0xbe0c5e33	-0.13707809
60	0x3d2f8f9e	0.042861573
61	0xba70222f	-0.0009160367
62	0x3e5703a6	0.20997486
63	0xbd065608	-0.03279689
64	0x3d639c5a	0.05556903
65	0xbae9e30b	-0.0017844153
66	0x3d232e54	0.039839104
67	0xbe138cc9	-0.14409174
68	0xbe2c4b90	-0.168257
69	0x3d21ae41	0.039472822
70	0xbe10a50f	-0.14125465
71	0x3cafd99a	0.021466065
72	0x3e7626aa	0.24038187
73	0x3e523a31	0.20530011
74	0xbd3b0870	-0.045662344
75	0xbc1529a2	-0.009104164
76	0x3e1504dc	0.14552635
77	0xbe70e2d8	-0.23524034
78	0xbe1ded4d	-0.15422554
79	0x3cb3bf9c	0.021941952
80	0xbd42ae38	-0.04752943
81	0x3d968bd9	0.073508926
82	0xbe39bee9	-0.18139233
83	0x3d91927d	0.071080185
84	0xbdf2d8a8	-0.1185773
85	0xbdb0e91f	-0.08638214
86	0xbe2dd5cb	-0.16976087
87	0x3e0f5012	0.13995388
88	0x3daa7fcc	0.083251566
89	0x3e1dabc3	0.15397553
90	0x3e7a4949	0.24442019
91	0xbe07bfce	-0.13256761
92	0x3dcf5b60	0.1012485
93	0x3e70f61b	0.23531382
94	0x3e329300	0.17438889
95	0x3d652302	0.05594159
96	0x3e5819b8	0.21103561
97	0xbe23f97e	-0.16013142
98	0x3d64ff6c	0.05590765
99	0x3e362e06	0.17790994
100	0x3e88a480	0.26688004
101	0x3e80fdb8	0.25193572
102	0x3bd505eb	0.0065009496
103	0x3e18aa1e	0.14908645
104	0xbdb953ed	-0.09049211
105	0xbdb567d1	-0.08857692
106	0xbe02919d	-0.1275086
107	0xbe30971c	-0.17245144
108	0x3e036c2d	0.12834235
109	0x3d1f4061	0.038879756
110	0x3dfefb1e	0.124502406
111	0x3e57f6db	0.21090262
112	0xbd904b45	-0.070456065
113	0xbe835418	-0.25650096
114	0xbe6be233	-0.23035507
115	0xbe255f72	-0.16149691
116	0xbdca33f9	-0.09873194
117	0x3e6ef462	0.23335412
118	0xbe351ba4	-0.17686325
119	0x3dbb136a	0.09134562
120	0xbdea76b3	-0.11448421
121	0xbe86c6f7	-0.26323673
122	0x3d8a5972	0.067553416
123	0xbd269456	-0.040668808
124	0xbe32e823	-0.17471366
125	0x3e006ace	0.12540743
126	0xbd077752	-0.033072777
127	0x3c607465	0.013699626
128	0xbdf6bdff	-0.12047958
129	0x3ddaafc2	0.106780544
130	0x3dd090c4	0.10183862
131	0xbd9dd2dc	-0.07706234
132	0xbe0a2eae	-0.1349437
133	0x3e5324dc	0.2061953
134	0xbdb19c4e	-0.08672391
135	0xbe12c49c	-0.14332813
136	0x3e4de182	0.20105556
137	0x3adf4c1f	0.0017036236
138	0x3e4d191a	0.20029107
139	0x3d106238	0.03524992
140	0xbd831a76	-0.064015314
141	0xbd77d9f4	-0.06051059
142	0xbda055c6	-0.0782886
143	0x3ca287ce	0.019840147
144	0x3df07e20	0.117428064
145	0x3dd02ebe	0.10165165
146	0xbd26fac8	-0.040766507
147	0xbe149193	-0.14508657
148	0x3e85a31c	0.26101005
149	0xbd2d4ba5	-0.04230847
150	0xbd317e2c	-0.043333218
151	0x3e00fd01	0.12596513
152	0x3d3612f1	0.044451658
153	0xbd78ff15	-0.06079014
154	0x3cb99e81	0.022658588
155	0xbdda12bf	-0.10648107
156	0x3dab2563	0.0835674
157	0x3e44f0dc	0.19232506
158	0xbe75f7c8	-0.24020302
159	0xbe1c4308	-0.15259945
160	0x3d77f6b1	0.060537998
161	0xbe571e73	-0.21007709
162	0x3e5c281e	0.21499678
163	0x3e1ee2ca	0.155162
164	0xbc40cada	-0.011767114
165	0x3e409366	0.18806228
166	0x3de34a79	0.11098189
167	0x3ce6fbdb	0.028196266
168	0xbe71f844	-0.23629862
169	0x3e2d935d	0.16950746
170	0xbc5b861b	-0.013398672
171	0xbc8cebb4	-0.017202236
172	0x3cf60ff4	0.030036904
173	0x3e2c9d01	0.16856767
174	0x3ddfafcf	0.10922205
175	0xbe637a67	-0.22214662
176	0xbd513cef	-0.0510835
177	0xbe445db1	-0.19176365
178	0x3e528855	0.20559819
179	0xbe31967a	-0.17342559
180	0x3e089f0b	0.1334192
181	0x3e3f3478	0.18672359
182	0x3e0ea05b	0.13928358
183	0xbe2a5089	-0.16632284
184	0x3d3c9497	0.046040144
185	0xbdd67233	-0.104710005
186	0xbd08bfa0	-0.033385873
187	0xbe06e019	-0.13171424
188	0x3e796d25	0.24358042
189	0x3e2204d8	0.1582216
190	0xbd1bbe85	-0.03802349
191	0x3e636010	0.22204614
192	0xbb9574c8	-0.0045610406
193	0x3dca64cf	0.09882509
194	0x3dc248c8	0.09486538
195	0x3e4a1181	0.1973324
196	0x3d80e9bb	0.062945805
197	0x3d804a0e	0.06264125
198	0x3e2247ca	0.15847698
199	0x3e8af96f	0.27143428
200	0xbe8b3346	-0.27187556
201	0xbcf0b95f	-0.029385267
202	0x3e8540f7	0.26026127
203	0x3c8f9e08	0.01753141
204	0xbe4a7e0b	-0.19774644
205	0xbe34977b	-0.1763591
206	0x3c5ec7c5	0.013597433
207	0x3e0db016	0.13836703
208	0x3dd0da37	0.10197871
209	0xbdbaaa07	-0.091144614
210	0xbd3ac0eb	-0.045594137
211	0xbd02dfb3	-0.031951617
212	0x3e3e0b50	0.18559003
213	0xbe0b215f	-0.13586949
214	0x3e481a10	0.19541192
215	0xbdf886d7	-0.12135094
216	0x3e2c95d6	0.16854033
217	0xbe31dd6e	-0.17369625
218	0xbe058a9a	-0.13041154
219	0xbe4a7079	-0.19769467
220	0x3e545cca	0.20738521
221	0xbe08c831	-0.13357617
222	0xbdf2fd33	-0.118647
223	0xbd999f85	-0.07501129
224	0xbb893d65	-0.004188227
225	0xbc9cb29e	-0.01912814
226	0x3b4ae301	0.0030958059
227	0x3cb26b2f	0.021779625
228	0xbd9ed378	-0.07755178
229	0xbe3eb7f2	-0.18624857
230	0x3e07018c	0.13184184
231	0xbccbe8bb	-0.024891248
232	0xbe2d861b	-0.16945688
233	0x3ce1a7e8	0.027545884
234	0xbd839bbf	-0.064261906
235	0xbe204358	-0.1565069
236	0xbe3aa5e9	-0.18227352
237	0xbdcf7b03	-0.101308845
238	0xbe1cdc3c	-0.15318388
239	0xbe33c3e0	-0.17555189
240	0x3e8be10b	0.27320132
241	0xbda14aee	-0.0787562
242	0xbd8156f8	-0.06315416
243	0x3e231ae6	0.1592823
244	0x3e0bef98	0.13665617
245	0x3e202424	0.15638787
246	0xbc236a42	-0.009974064
247	0xbe7cb62b	-0.24678867
248	0x3e665c4c	0.22496146
249	0x3e10b741	0.14132406
250	0xbe764de2	-0.24053147
251	0xbe22d559	-0.15901698
252	0xbe811160	-0.2520857
253	0xbd3b57d0	-0.04573804
254	0xbbd56e01	-0.0065133576
255	0x3e3a056f	0.18166135

weight f4 [20, 7]
0	0xbe359d47	-0.17735778
1	0xbdfcabe4	-0.12337473
2	0x3ea055dd	0.31315508
3	0x3e6a0ac6	0.22855672
4	0x3e8fed39	0.28110674
5	0xbd81bfec	-0.06335434
6	0x3eadb321	0.33925727
7	0x3eae2a3d	0.340166
8	0xbe163994	-0.14670402
9	0xbc3fcae0	-0.011706084
10	0xbde88ee4	-0.11355379
11	0x3e707c22	0.23484853
12	0xbd1c4800	-0.038154602
13	0x3e2577b6	0.16158947
14	0x3e5523fa	0.20814505
15	0x3d849d8c	0.06475362
16	0xbe551852	-0.20810059
17	0xbe9cb778	-0.30608726
18	0x3ea6764b	0.32512125
19	0x3e9ef22b	0.31044134
20	0x3e5bf0be	0.21478555
21	0x3d89eea4	0.0673497
22	0x3e2bfe2e	0.1679618
23	0x3e9d9753	0.30779514
24	0xbd76ec30	-0.06028384
25	0xba010e00	-0.00049230456
26	0x3e19e42a	0.15028444
27	0x3eb82adf	0.35970208
28	0xbe8e172c	-0.27752054
29	0xbe57a9f4	-0.21060926
30	0xbdf713dc	-0.12064335
31	0xbea25bee	-0.31710762
32	0x3e455542	0.19270805
33	0xbe04724e	-0.12934229
34	0x3e89b997	0.26899406
35	0xbd84ab4c	-0.06477985
36	0xbebbea96	-0.36702412
37	0x3e96d2d7	0.29457733
38	0xbd4ebbc8	-0.05047205
39	0x3e4516d2	0.19246987
40	0x3e55a72e	0.20864555
41	0xbea1964f	-0.3155999
42	0x3e2ecbaa	0.17069879
43	0xbe77900b	-0.24176042
44	0x3df24854	0.11830202
45	0x3ea10443	0.31448564
46	0xbdf52350	-0.11969626
47	0x3cc57df0	0.024107903
48	0xbe254dc1	-0.16142942
49	0xba9d9600	-0.0012022853
50	0xbe798e18	-0.2437061
51	0xbe914648	-0.28373933
52	0x3e9c8e63	0.30577382
53	0xbe07c484	-0.13258559
54	0xbe469c2b	-0.19395511
55	0x3e0d810a	0.13818756
56	0xbd919aa4	-0.071095735
57	0x3eb7a04d	0.35864487
58	0xbda8c5d4	-0.08240858
59	0x3e5fab5a	0.21842709
60	0xbe6590bd	-0.22418495
61	0xbe86f131	-0.2635589
62	0x3e9f6911	0.31134847
63	0xbe3f043a	-0.18653956
64	0xbea04e0a	-0.3130954
65	0xbe9d8d5a	-0.30771905
66	0xbe941551	-0.28922513
67	0x3ea95e55	0.33079782
68	0x3e70011e	0.23437926
69	0x3e802ae1	0.25032714
70	0x3e857ee7	0.2607338
71	0xbe8044f8	-0.2505262
72	0x3e938457	0.28811905
73	0xbdf3dd74	-0.11907473
74	0x3ebb20f9	0.36548594
75	0xbe0f99a1	-0.14023449
76	0xbdf2c628	-0.118542016
77	0x3e0aa0f2	0.13537958
78	0x3debaa44	0.11507085
79	0x3da4b35c	0.080420226
80	0x3d293a90	0.041315615
81	0x3dd73c7c	0.10509583
82	0xbe892cba	-0.26791936
83	0x3dd5b41c	0.10434744
84	0x3daf4960	0.08558917
85	0x3e6747ce	0.22585985
86	0xbc866a90	-0.016408235
87	0x3d6073c0	0.054797888
88	0x3d111e18	0.03542909
89	0xbe14c5ef	-0.1452863
90	0xbea5e3b1	-0.32400277
91	0x3e625c56	0.22105536
92	0xbcc13d50	-0.023588806
93	0xbe8bb411	-0.27285817
94	0x3d586118	0.05282697
95	0xbe86d1ca	-0.2633193
96	0x3e9c19eb	0.30488524
97	0xbe428505	-0.18996055
98	0x3ebdd9fd	0.37080374
99	0x3e761796	0.24032435
100	0x3e9c5f4d	0.3054146
101	0xbcbbab30	-0.022908777
102	0x3eb0b7cf	0.34515235
103	0xbd911430	-0.070839286
104	0xbe9b72ab	-0.30360922
105	0x3e04f44a	0.12983814
106	0x3cc8d980	0.024517775
107	0xbc9b3730	-0.018947214
108	0xbe8b4b33	-0.2720581
109	0xbeaa7327	-0.3329098
110	0x3e7a2a8e	0.24430296
111	0xbde33664	-0.110943586
112	0xbd016a88	-0.031595737
113	0x3ea7ff27	0.32811853
114	0xbcf4a450	-0.029863507
115	0xbe01f582	-0.1269131
116	0x3ea2c831	0.3179336
117	0xbc816f80	-0.015800238
118	0x3e15d28a	0.14631096
119	0x3dace044	0.08441213
120	0xbe9f7234	-0.31141818
121	0x3ea3c393	0.3198515
122	0xbc1573e0	-0.009121865
123	0x3ec16ae9	0.37776878
124	0x3e9a221b	0.30104145
125	0xbe0945ac	-0.13405484
126	0x3ec00299	0.37501982
127	0xbc788320	-0.015167981
128	0xbe2e74e8	-0.17036784
129	0xbd4c21b0	-0.049836814
130	0x3ebc3b83	0.36764154
131	0xbea71a8b	-0.32637438
132	0xbea43904	-0.3207475
133	0xbd8c7b74	-0.06859484
134	0xbe3724dd	-0.17885156
135	0xbebcd20a	-0.36878997
136	0xbe88bfdc	-0.26708877
137	0xbdf50c9c	-0.11965296
138	0xbdf0a1f8	-0.11749643
139	0xbccfafe0	-0.025352418

bias f4 [1, 7]
0	0x00000000	0.0
1	0x00000000	0.0
2	0x00000000	0.0
3	0x00000000	0.0
4	0x00000000	0.0
5	0x00000000	0.0
6	0x00000000	0.0

weight f4 [7, 20]
0	0xbe921c40	-0.28537178
1	0xbd507c37	-0.05089971
2	0x3e247c08	0.16062939
3	0xbc69bf67	-0.014266825
4	0x3dfdbb45	0.123892345
5	0x3e1a20d3	0.15051584
6	0x3e7efc61	0.24900962
7	0x3e0fc5a3	0.14040236
8	0x3e543b35	0.2072571
9	0xbd850e19	-0.064968295
10	0x3e6d8378	0.23194683
11	0xbe265f32	-0.16247252
12	0xbe4ac897	-0.19803081
13	0xbd751892	-0.059837885
14	0x39dc2c97	0.00041994892
15	0xbde3f0f1	-0.1112994
16	0x3dd0549b	0.10172387
17	0xbd212ee7	-0.03935137
18	0xbe69ac07	-0.2281953
19	0xbbb19837	-0.0054197568
20	0x3d6fe7ed	0.05857079
21	0xbe32797a	-0.17429152
22	0x3df90292	0.121586934
23	0x3e0cf0b7	0.137637
24	0x3e816325	0.25270954
25	0xbe78bf4c	-0.24291724
26	0x3e4f7220	0.20258379
27	0xbdae2f54	-0.08505121
28	0x3e0e2fcc	0.1388542
29	0x3e19eea3	0.15032439
30	0xbd11e91a	-0.035622694
31	0x3e366959	0.17813624
32	0x3e2cd9a7	0.16879903
33	0x3e324cd2	0.17412117
34	0xbe293c13	-0.16526823
35	0x3de4e876	0.11177151
36	0xbdebcab4	-0.11513272
37	0x3e8b099e	0.27155775
38	0xbd4b922d	-0.04969995
39	0x3cde46f8	0.02713345
40	0xbdb2ff09	-0.0874005
41	0xbe62da51	-0.22153594
42	0xbd9d1ecf	-0.07671892
43	0x3c60cba5	0.013720428
44	0xbde63b2e	-0.112417564
45	0xbe330945	-0.17484005
46	0x3e3eac9f	0.18620537
47	0x3dbc9995	0.09208981
48	0x3e842485	0.25809112
49	0xbe7837fa	-0.24240103
50	0x3e254caa	0.16142526
51	0x3de8edac	0.11373457
52	0xbe5b253a	-0.2140092
53	0xbda772bd	-0.081761815
54	0xbe6c9054	-0.23101932
55	0x3e08e7fb	0.13369744
56	0x3d012b20	0.031535268
57	0xbdfd5e30	-0.123714805
58	0x3e05dab5	0.13071711
59	0xbe624aa0	-0.2209878
60	0xbe3a3819	-0.18185462
61	0xbc0d08e4	-0.008608077
62	0xbdc3a700	-0.09553337
63	0xbd9b1dc2	-0.07574035
64	0x3e31d893	0.17367773
65	0xbd8e5d38	-0.06951374
66	0x3e18d1f8	0.14923847
67	0xbe725992	-0.23666981
68	0x3e409f05	0.18810661
69	0xbe7a3c09	-0.24436964
70	0x3e82d2ea	0.2555154
71	0x3de54c5c	0.11196205
72	0xbd7aa3af	-0.061191257
73	0x3d6c00a8	0.057617813
74	0xbc914888	-0.01773478
75	0x3e1d790a	0.15378204
76	0x3d1a5cc7	0.037686136
77	0xbccd5544	-0.025065072
78	0xbe00b022	-0.1256719
79	0x3e57af11	0.21062876
80	0x3de7b746	0.113142535
81	0xbce1c749	-0.027560847
82	0x3da5c715	0.080946125
83	0x3e351b0b	0.17686097
84	0xbd29ba52	-0.041437455
85	0xbe747700	-0.2387352
86	0xbccc9e5a	-0.024977852
87	0xbe730dab	-0.23735683
88	0x3e5a8262	0.213388
89	0xbd1152f6	-0.03547951
90	0x3e53485d	0.20633073
91	0xbe5160ab	-0.20447032
92	0xbe6e496a	-0.23270193
93	0xbe01ca75	-0.12674887
94	0xbe0cf06b	-0.13763587
95	0x3ced8b22	0.028997008
96	0x3de7d387	0.113196425
97	0xbd626f28	-0.055281788
98	0xbd05936b	-0.03261129
99	0xbc2c9f96	-0.010536095
100	0x3d2ee1f3	0.04269595
101	0xbe183799	-0.14864959
102	0x3cab67d0	0.020923525
103	0x3e0ef67e	0.13961217
104	0x3d172f89	0.036910567
105	0x3c630800	0.013856888
106	0x3ba3a11e	0.004993572
107	0xbd8d124f	-0.06888258
108	0x3e42be7f	0.19017981
109	0xbd94f468	-0.07273179
110	0x3e8a9dff	0.27073666
111	0x3c7f48bf	0.015581309
112	0x3da6a6f3	0.08137312
113	0x3e3e6d7a	0.1859645
114	0xbdb03913	-0.08604636
115	0x3dfd3824	0.123642236
116	0xbe2a785b	-0.16647474
117	0x3e392e90	0.18084168
118	0xbe307e84	-0.17235762
119	0xbdd982fb	-0.10620686
120	0x3e13b5eb	0.14424865
121	0xbd49996b	-0.049218576
122	0x3dbcc0f1	0.09216488
123	0xbdd25cf5	-0.102716364
124	0x3e525072	0.205385
125	0xbe8b5d0c	-0.27219427
126	0x3e1c72f6	0.15278229
127	0xbe3f0dab	-0.18657558
128	0x3cf763d5	0.03019897
129	0xbdc11bca	-0.094291285
130	0x3d25fc36	0.04052373
131	0xbe1ac611	-0.15114619
132	0xbe36cdf2	-0.17852
133	0xbd8300fe	-0.063966736
134	0xbc9f8aca	-0.01947536
135	0xbd4d9a5f	-0.050196048
136	0xbdef5ccb	-0.11687621
137	0x3e25b0e4	0.1618076
138	0xbdab33b7	-0.08359473
139	0xbdd17296	-0.10226934
