neuromancer/train_scripts/papers/flexy/scalability/policy_flexy_N10.pth (torch, 17143 bytes, 9 tensors)

weight f4 [40, 20]
000000 cc d6 20 3e d6 77 28 3e 52 01 4f be 8e d2 c8 bd
       0.15706939 0.16451964 -0.20215347 -0.09805785
000010 98 f2 d7 3c 70 a0 3a 3d d4 52 88 3d 76 66 27 be
       0.026360795 0.04556316 0.06656423 -0.1634768
000020 38 1b 17 3d 34 83 a5 3d 38 13 20 3e ea c3 2e 3e
       0.036891192 0.08081666 0.15632331 0.17066923
000030 db f4 2f be 30 71 7e bd f9 53 0e be 50 a8 23 3e
       -0.17183249 -0.062119663 -0.1389922 0.15982175
000040 ac 2b ec bd d8 2b ef bc 7c 5b fb 3d 60 fa 3e bd
       -0.11531767 -0.029195711 0.12273309 -0.046625495
000050 e2 b8 99 bd 50 32 17 bd da 38 36 be 82 78 4f 3e
       -0.07505967 -0.036913216 -0.17795125 0.20260814
000060 28 32 fa bc f9 e0 f3 bd 58 11 e9 3d 72 fd 57 3e
       -0.030541494 -0.119081445 0.11380261 0.21092775
000070 18 ef fa bc 00 2d 2e 3e c0 95 66 bc aa 39 26 be
       -0.030631587 0.17009354 -0.014073789 -0.16232935
000080 74 d1 02 3e 72 f1 26 3e 2b 87 1b be 84 8a a7 3d
       0.12775213 0.16303042 -0.15188281 0.08180717
000090 76 b1 2c be 00 dc 64 be 38 a4 b4 3d d3 0e 36 be
       -0.16864571 -0.22349548 0.08820385 -0.17779092
0000a0 16 31 64 3e 30 2a 9f bd ed c6 cd bd c0 6f f3 3c
       0.2228435 -0.077717185 -0.10047708 0.029716372
0000b0 c0 ac 12 3c 88 55 c7 3c 40 20 3a bb 70 75 7b 3d
       0.00895232 0.024332777 -0.002840057 0.061391294
0000c0 00 fc 53 be 8d f7 e0 bd a8 c7 8a 3d 96 5b 60 3e
       -0.20701599 -0.109847166 0.06776363 0.21909937
0000d0 78 d3 04 3e 8a 96 14 3e a0 01 bf 3d 10 5a 10 3e
       0.12971294 0.14510551 0.09326482 0.14096856
0000e0 44 30 34 be 26 5f 34 3e 9a 85 14 be d0 a7 33 bd
       -0.17596537 0.17614421 -0.1450409 -0.04386121
0000f0 6c ba 5f be 5c 51 fb 3d 65 d3 39 be 50 cc e3 3d
       -0.21848458 0.122713774 -0.18147047 0.11122954
000100 b4 bf af 3d 8c 4d 10 be 30 a8 f1 bc c2 21 10 3e
       0.08581486 -0.14092082 -0.029499143 0.14075378
000110 18 91 2b 3e 56 ce 4d 3e e6 e8 2c 3e 1c 49 3c be
       0.16754568 0.20098242 0.16885719 -0.18387264
000120 90 b5 ad 3d b4 2f 13 bd 08 58 95 3d 8e 3f 40 3e
       0.08481896 -0.035934165 0.07292181 0.18774244
000130 80 06 38 be 0e 7a 55 be e6 51 35 3e f2 84 14 3e
       -0.1797123 -0.20847341 0.17707023 0.1450384
000140 e8 63 4f 3d c0 ba f7 bb 3f 17 58 be 18 7e e2 3d
       0.050632387 -0.007560104 -0.21102618 0.11059207
000150 98 86 bd 3d 82 f2 f0 bd 78 eb f1 3d f2 37 4e 3e
       0.09254187 -0.11765005 0.1181249 0.20138529
000160 13 6c fd bd e8 08 d0 bd a0 81 f4 3c 0c c7 4c be
       -0.12374129 -0.10157949 0.029846966 -0.19997805
000170 a0 3e f1 3d 38 fe fb 3d 32 a5 a5 bd 20 34 27 bd
       0.11779523 0.12304348 -0.08088149 -0.040821195
000180 fc d0 c5 3d 4a cd 12 3e d7 cb 48 be 4f 57 13 be
       0.09659001 0.14336124 -0.19609009 -0.14388774
000190 48 d6 51 be 60 5e 84 bc 66 8a 56 be a2 1c 50 be
       -0.20491898 -0.016158283 -0.20951232 -0.20323423
0001a0 a8 f8 1b 3d 10 32 12 3c 21 ed f8 bd 48 f4 b8 3d
       0.038078934 0.008923069 -0.12154604 0.09030968
0001b0 b2 ee 08 3e 80 a5 ca 3d 80 fb 50 3c b0 a7 16 3e
       0.13372305 0.09894848 0.012755275 0.14712405
0001c0 80 d0 6a bd 22 b3 fa bd 8a 4f 07 be 60 c2 8a bd
       -0.057327747 -0.12241198 -0.13213935 -0.06775355
0001d0 64 0a d2 bd 60 76 c5 3b ea 0f 48 3e 8c c0 a8 3d
       -0.10255888 0.0060260743 0.1953732 0.082398504
0001e0 fc 64 f3 3d 50 57 de 3d 5c b7 0d bd 1e 04 36 3e
       0.118844956 0.10856497 -0.034598693 0.17775008
0001f0 1c 0f 0e bd ec 35 4b bd be bf 32 3e f0 44 d6 3c
       -0.03468238 -0.04961197 0.17455956 0.026155919
000200 80 6d ba bd f8 fc a2 bd ab 5b 48 be f0 a7 b9 3d
       -0.09102917 -0.07958406 -0.19566219 0.09065235
000210 c6 e9 4f be 2c ca 00 be 10 08 42 3d e5 10 05 be
       -0.20304021 -0.12577122 0.04737097 -0.12994726
000220 6e c7 20 be 60 0f 5e 3e 32 52 19 be 48 20 02 be
       -0.15701076 0.21685553 -0.14972761 -0.12707627
000230 66 c3 9c bd e8 6b 0f 3e 44 0b 05 3e 1a c0 41 3e
       -0.07654457 0.14006007 0.12992579 0.18920937
000240 d4 70 62 3e 70 77 5f be 2c d3 37 3e 1c 89 31 be
       0.22113353 -0.21822906 0.1795165 -0.1733746
000250 5c 59 80 3d 00 eb 42 3c f8 cb aa 3c b0 b3 3e 3d
       0.06267044 0.011896849 0.020849213 0.046558082
000260 e8 d4 d8 3d 74 a8 58 3e de ab 20 3e d0 b8 2c bd
       0.10587484 0.2115801 0.15690562 -0.04216844
000270 0a f6 2e be c2 e8 09 be 00 3c 50 be 3b f2 34 be
       -0.17086044 -0.13467696 -0.20335388 -0.17670529
000280 a0 bb 42 3e 20 52 2b be 10 3c e4 3c 10 26 6a 3d
       0.19016886 -0.16730547 0.027860671 0.057165205
000290 b0 6a 64 3e 70 f3 61 3e 57 cf 30 be a0 30 49 3d
       0.22306323 0.2206552 -0.17266594 0.049118638
0002a0 74 6c d7 3d 08 3f c2 bd 74 92 44 be 8a 80 ae bd
       0.10518733 -0.094846785 -0.19196492 -0.08520611
0002b0 38 6b fc bc f1 2b 29 be 5a 8f a4 bd 5c 83 64 be
       -0.030812845 -0.16520669 -0.08035155 -0.22315735
0002c0 4d be e3 bd 00 6f 1c ba f0 46 b4 bc 40 20 76 3b
       -0.11120281 -0.0005967468 -0.022006482 0.0037555844
0002d0 d2 2a 02 3e c8 2f 5d bd 56 1f 06 3e 47 66 08 be
       0.12711647 -0.054000646 0.13097891 -0.13320266
0002e0 20 32 da bd 40 4c 92 3d d4 d1 b2 bd 34 c8 43 be
       -0.10654092 0.0714345 -0.08731428 -0.1911934
0002f0 8b a9 3f be c0 32 dc 3d e0 15 28 3e 7a 1f 94 bd
       -0.1871702 0.10751867 0.16414595 -0.07232566
000300 88 1c 08 3e f5 c0 5d be 50 80 a7 3d 48 a2 cf 3d
       0.13292134 -0.21655639 0.081787705 0.101383746
000310 c8 af 3e 3e e4 41 e6 3d 97 e4 15 be 12 98 40 3e
       0.18621743 0.112430364 -0.14637981 0.1880801
000320 04 2b 50 3e 95 d6 4d be 90 e4 ab bd c8 bb 77 3d
       0.20328909 -0.20101388 -0.08393204 0.060481817
000330 d8 10 7a bd 40 ad a5 bb aa 3e 81 bd 8c 51 26 3e
       -0.06105122 -0.0050560534 -0.0631078 0.16242045
000340 28 4e 84 bc 88 57 22 be d9 95 1b be c6 b9 0a 3e
       -0.016150549 -0.15853703 -0.15193881 0.1354743
000350 e6 02 b4 bd 85 fb 35 be 80 2e e7 3b b5 d5 5a be
       -0.08789615 -0.17771728 0.007055104 -0.21370585
000360 80 39 2b 3d b8 a7 04 3e 88 72 69 3d 77 08 1a be
       0.041802883 0.12954605 0.05699399 -0.15042292
000370 58 3a 97 bd 77 3e 47 be 78 97 57 bd 74 3e 5c be
       -0.07384175 -0.19457422 -0.052634686 -0.21508199
000380 74 43 20 bd 58 c2 6a 3d de 82 1e be a8 36 39 3e
       -0.03912683 0.057314247 -0.1547961 0.18087256
000390 1e 2b 05 3e 09 78 5e be 20 33 f7 3b 83 8d 3d be
       0.13004729 -0.21725477 0.0075439364 -0.18511014
0003a0 55 d1 f1 bd fa 6b d0 bd 74 e1 bd 3d f0 46 c5 3d
       -0.11807505 -0.10176845 0.092715174 0.09632671
0003b0 b5 b4 46 be ac 20 2a 3e 64 74 3f 3e f0 5b 01 bc
       -0.19404872 0.16614026 0.18696743 -0.007895455
0003c0 a8 10 ae 3d ae e9 51 be d0 41 24 bd 28 7a 9e bd
       0.08499271 -0.20499298 -0.040101826 -0.07738143
0003d0 43 72 14 be c0 07 f9 bc e6 ad 2f 3e 12 04 1d 3e
       -0.14496712 -0.030399203 0.1715618 0.15333584
0003e0 f8 71 8a bc 06 0d 4a be 16 b7 48 be 58 18 59 bd
       -0.016900048 -0.1973153 -0.19601092 -0.05300173
0003f0 46 b8 2a 3e d8 80 27 bd 6e ae 45 3e f4 51 67 bd
       0.16671857 -0.04089436 0.19304821 -0.05647464

bias f4 [1, 20]
000000 00 00 00 00 00 00 00 00 00 00 00 00 00 00 00 00
       0.0 0.0 0.0 0.0
000010 00 00 00 00 00 00 00 00 00 00 00 00 00 00 00 00
       0.0 0.0 0.0 0.0
000020 00 00 00 00 00 00 00 00 00 00 00 00 00 00 00 00
       0.0 0.0 0.0 0.0
000030 00 00 00 00 00 00 00 00 00 00 00 00 00 00 00 00
       0.0 0.0 0.0 0.0
000040 00 00 00 00 00 00 00 00 00 00 00 00 00 00 00 00
       0.0 0.0 0.0 0.0

weight f4 [20, 40]
000000 8b 9b 8d bd 48 25 35 bc e6 a6 33 bd 7f a4 97 bd
       -0.06914433 -0.011056252 -0.04386034 -0.07404422
000010 5f ff 95 bc e0 53 74 3d f8 6a 18 3e 3e 46 69 bc
       -0.018310247 0.059650302 0.14884555 -0.014237938
000020 b2 0a 22 3d 93 a6 e7 bc 16 30 0a 3e e1 57 d0 bc
       0.03956098 -0.028277671 0.13494906 -0.025432529
000030 9c d2 3c 3e 96 04 2a bd 05 14 f9 b9 18 bb a6 3d
       0.18439716 -0.04150828 -0.00047507897 0.08141154
000040 18 7f d8 3d 92 06 a4 3d e3 eb 74 3e 78 1c 65 bd
       0.10571116 0.08009066 0.23918109 -0.055935353
000050 7f 54 a0 3d 65 9c 1c 3e 5b 72 f7 3d 93 d9 71 bc
       0.07828616 0.15294035 0.120823584 -0.014761346
000060 07 fa d8 3d 48 68 0e 3e 9c 8b ba bd 73 fd 8f bd
       0.10594564 0.13906968 -0.091086596 -0.070307635
000070 0c d6 d6 3d eb c2 0e 3e ab e2 89 3c 4b d1 66 3e
       0.10490045 0.13941543 0.016831717 0.22540776
000080 05 10 3a 3e 05 0c 0f 3e dc a2 e3 39 64 78 95 bc
       0.18170173 0.13969429 0.00043418154 -0.018245883
000090 01 82 f2 bb 89 10 9d 3b c1 d0 c3 3d d6 31 fc 3d
       -0.0074007516 0.004793231 0.09561301 0.12314193
0000a0 5e 98 ce 3d 93 24 5f 3d 46 35 02 be dd dc fc 3d
       0.100876555 0.05447824 -0.12715635 0.12346814
0000b0 a4 2f eb 3d a9 31 88 bd 16 1f 0e bd bf a1 b5 bd
       0.11483696 -0.06650097 -0.034697615 -0.08868741
0000c0 76 f6 a4 3c 1e 4f d3 bd 9d f9 cb bd 39 fd 44 3d
       0.020137053 -0.10317825 -0.09959719 0.048093054
0000d0 26 fd ba 3d 9f c5 16 3c 19 dd d9 3d b5 3e d8 3d
       0.091303155 0.00920239 0.10637874 0.105588354
0000e0 d0 2c fd bd 60 8e b7 3c 4b 1e 56 3d 0e e3 7f bd
       -0.12362063 0.022406757 0.052274983 -0.062472396
0000f0 d5 03 0c 3d e5 24 4f bc 79 1d 17 bd e7 ac 1e be
       0.034183342 -0.012643074 -0.03689334 -0.15495645
000100 3c a5 8e 3d a8 c8 74 bd 80 2b 0b be 69 37 a1 3d
       0.0696511 -0.059761673 -0.13590813 0.07871897
000110 e0 19 2e 3d f9 3f ad 3c 2e d6 38 3d fe c7 20 be
       0.042505145 0.021148669 0.045126133 -0.15701291
000120 86 db 54 3d c6 cc e2 bd 77 0f 33 bd ec 78 db 3d
       0.051967166 -0.11074214 -0.04371592 0.107164234
000130 0e 6c 32 be a0 9a dc 3d b4 2b f7 3d 4e e1 07 3e
       -0.17424032 0.1077168 0.120688826 0.1326954
000140 18 95 11 bd a3 75 9b 3d d5 dc 5e bd dc 1c cd 3d
       -0.035542578 0.07590797 -0.05440982 0.1001527
000150 f9 3e fb bd 37 6c e8 bd c9 83 35 bd cf 89 ef bd
       -0.122678705 -0.11348765 -0.044315133 -0.11696207
000160 15 0e 00 3e b9 99 81 bd 6f 2e a0 3d ef aa af bd
       0.12505372 -0.063281484 0.078213565 -0.08577525
000170 71 34 2b be 2b 2a a5 bd 5f ec 76 bd 3d 74 07 be
       -0.16719224 -0.080646835 -0.060284015 -0.13227935
000180 66 92 3f bb a2 69 17 be c7 d4 0c be b2 8c 8c bd
       -0.0029231547 -0.1478639 -0.13753043 -0.06862773
000190 0a 2e ca bd ce c4 2b bd c6 94 c5 3c 1b 1f 14 be
       -0.098720625 -0.041935734 0.024118792 -0.14464991
0001a0 8c 7b db 3d 13 f1 bd bd c8 58 6d 3d 53 00 0a 3e
       0.10716924 -0.09274497 0.057945997 0.13476686
0001b0 e3 1e 02 be d2 75 6e 3d c5 11 84 bd 44 1b 7c bd
       -0.12707095 0.05821783 -0.06448702 -0.06154944
0001c0 0a cc a2 3c e7 07 22 be 40 c0 28 be 40 46 5a be
       0.019872684 -0.15823327 -0.16479588 -0.21315861
0001d0 54 4c dc bd e7 b7 28 3d 7d 91 50 be 78 90 98 bd
       -0.10756746 0.041191008 -0.20368 -0.0744943
0001e0 05 3c a6 bd c9 09 1d bd 07 dd 15 3e 34 ba be 3d
       -0.081169166 -0.03833941 0.14635096 0.09312859
0001f0 d3 a0 2e bd 70 1a fb bd 1a 12 fa 3d c2 c0 d9 bc
       -0.042633843 -0.12260902 0.12210484 -0.026581172
000200 17 17 0c 3c 77 27 f0 3d e0 0c a0 bd 37 bc 20 3e
       0.008550427 0.11726277 -0.07814956 0.15696798
000210 01 07 b4 3d 19 58 c3 bd f6 ff 2d 3d a6 a4 c2 3d
       0.087903984 -0.09538288 0.04248043 0.095040604
000220 3a 0a 0b 3d 94 9c 18 3e f4 a0 01 3e 9d 6c 0a 3e
       0.0339453 0.1490348 0.12659055 0.13517995
000230 55 f8 50 3d 59 b8 80 3d 64 47 1c 3e f7 5c 27 3e
       0.051018078 0.062851615 0.15261608 0.16344057
000240 6e 38 f4 bd 3f 6a 06 be cd 28 17 3e b7 42 14 3e
       -0.119248256 -0.13126467 0.14761658 0.14478575
000250 3d 33 8b 3d f9 4b 0f bd 1a ba ae 3d f5 e3 ae 3c
       0.06796882 -0.034984563 0.0853159 0.021348933
000260 f6 a4 01 3d 03 23 15 3e bf fb 40 bd d9 05 76 3d
       0.03165146 0.14564137 -0.047115084 0.06006417
000270 96 a6 28 3e 85 b8 43 3d 2f 1f 8d bd 15 cb e8 3d
       0.16469797 0.047783393 -0.068907134 0.1136686
000280 85 57 84 3d 28 0b fe 3d 9d 54 96 bd 19 41 67 bd
       0.064620055 0.12404472 -0.073403575 -0.056458566
000290 dd 10 92 3d 20 89 b5 3d c8 1e 01 3e 16 98 8f bd
       0.07132123 0.08864045 0.12609398 -0.0701143
0002a0 be 21 a4 bd 0a 51 3a bd 67 ca dd 3d 02 e6 1b be
       -0.08014248 -0.04548744 0.10829621 -0.1522446
0002b0 55 3c 05 bd 72 50 de bd a1 bf ac bd 41 92 88 3d
       -0.03252824 -0.108551875 -0.08434988 0.06668521
0002c0 53 18 08 bc 96 18 f8 bd 24 52 04 be 7c 26 e6 bd
       -0.008306581 -0.121140644 -0.12921959 -0.11237809
0002d0 19 13 22 bd f3 d9 b2 bd f9 ab 27 bc 46 2d c9 bd
       -0.039568994 -0.08732977 -0.010233873 -0.09823088
0002e0 84 d9 ef bd 09 48 cb 3d d8 e5 a5 bd 82 83 a8 3d
       -0.1171141 0.09925849 -0.0810048 0.08228208
0002f0 57 03 9f bd fb 5a b0 bd c4 02 2b be 08 5c db bd
       -0.07764309 -0.08611103 -0.16700274 -0.10710913
000300 de 6a f4 3c f0 0a aa 3d 9b 12 c8 3d a8 ba ee bb
       0.029836114 0.083028674 0.09769174 -0.0072854348
000310 ef c0 32 3c dc f7 af 3c ea 4e 02 be b4 e4 9c 3c
       0.010910257 0.021480493 -0.12725416 0.019152023
000320 fd 29 96 3c 15 bf 02 3d 83 7a 99 bd 9c bd 1f 3d
       0.018330568 0.03192051 -0.074940704 0.038999185
000330 40 1c bd 3c 47 7f 53 bd 4a 19 05 3e 62 d9 12 3d
       0.02308476 -0.051635053 0.12997928 0.035851844
000340 0a 4a af bd d8 3f a6 3c 52 13 35 3e 07 64 44 bd
       -0.08559044 0.020294115 0.17683151 -0.047946956
000350 a0 64 2a bd 6d 51 e6 bc 47 4f 71 3e c9 eb 49 3e
       -0.04159987 -0.028114999 0.23565398 0.19718851
000360 24 04 3f 3e f5 0e ef bc 4c 69 3c 3e ec a8 01 3e
       0.18653923 -0.029181937 0.18399543 0.12662095
000370 a8 50 db bd ee 5b d0 bd 8e e9 93 3c 7b dd 14 3e
       -0.10708743 -0.10173784 0.018055703 0.14537613
000380 32 5e 5c bd 9b 9e 77 3d 0e ef 06 3e 16 11 3f 3e
       -0.05380077 0.060453992 0.1317713 0.18658862
000390 17 5b 92 bc 0e c4 4e 3c 9f a1 c0 3c 6b 17 71 3e
       -0.0178657 0.012619985 0.023514567 0.2354409
0003a0 cf a0 44 3e a7 ed 2e bd df fe 5a 3e 1b fe 1f bd
       0.19201969 -0.04270711 0.21386288 -0.039060693
0003b0 b8 f5 88 bd 29 ce 83 bd 33 0b ff 3d ff 25 25 bd
       -0.06687492 -0.06435806 0.12453308 -0.04031944
0003c0 19 9d 1c be 37 83 57 3d 10 8d f8 bd 22 83 2d be
       -0.15294303 0.05261537 -0.121362805 -0.16944554
0003d0 28 b9 ae bc a3 8d f8 bd b7 11 b7 3d 8f d8 d6 3d
       -0.021328524 -0.1213639 0.08938926 0.10490524
0003e0 86 38 87 3c 9d 9d c0 3d 7a 7d 42 bc f2 fe 35 be
       0.016506445 0.09405062 -0.011870736 -0.17773035
0003f0 de 0a 03 be 73 ca 37 bc 0f 1c ff 3d 26 d3 bf bd
       -0.12797114 -0.011217701 0.124565236 -0.09366445

weight f4 [20, 20]
000000 60 ec 63 bd f7 22 61 be 30 fe ff 3c f6 e2 4b 3e
       -0.055645347 -0.21985994 0.031249136 0.19910797
000010 ff c4 2f be a8 2e 52 3d a7 55 26 be 8a cb c1 bd
       -0.17164992 0.051314026 -0.16243611 -0.0946265
000020 8b e1 06 be 00 c4 ce ba 11 43 2e be 8f 65 d6 bd
       -0.13171975 -0.0015774965 -0.17017771 -0.104685895
000030 58 be c6 bd b0 95 ea bd 80 73 b1 3b b6 28 35 3e
       -0.09704274 -0.11454332 0.00541538 0.17691311
000040 43 18 1d be 80 24 db bd 94 58 1d bd cc f9 60 3e
       -0.15341286 -0.10700321 -0.038414553 0.2197029
000050 44 40 c4 3d 90 73 b9 3d f4 a6 26 be 5e b2 20 be
       0.0958257 0.09055245 -0.16274625 -0.15693042
000060 fa d8 9d bd 78 c8 b9 bd 9c cf 3a be 3f ba 16 be
       -0.077074006 -0.090714395 -0.18243259 -0.14719485
000070 74 d8 ef 3d d0 86 7b bc ac ab 9c 3d ca 6f c8 bd
       0.11711207 -0.015351966 0.07649931 -0.09786947
000080 94 89 18 be 64 f2 13 3e e0 bd 1a 3e 70 81 96 3d
       -0.14896232 0.14447933 0.15111494 0.07348907
000090 8a f5 c8 bd 48 25 bc bd 04 33 f8 3d d8 a2 d3 3d
       -0.09812458 -0.09186798 0.121191055 0.10333794
0000a0 a8 c2 3a 3d 40 d5 bf bd f0 f0 8e 3d 28 bf cf 3d
       0.045595795 -0.09366846 0.06979549 0.10143882
0000b0 a0 0b 86 3d 44 f8 81 3d 9e eb 03 3e 25 fb 61 be
       0.06545186 0.06346181 0.1288285 -0.2206846
0000c0 50 17 6b bc 30 18 5b be 8a 0c 01 be d0 87 6e 3d
       -0.01434882 -0.21395946 -0.1260244 0.05823499
0000d0 8a 2a 15 3e b0 89 a7 bd c0 7c a9 3d b8 35 75 3d
       0.14567009 -0.08180559 0.08275747 0.059865683
0000e0 06 02 0c be 46 b6 4d 3e 00 96 4a 3b 76 82 32 3e
       -0.13672647 0.20089063 0.003091216 0.1743258
0000f0 30 12 db 3d 86 af 5f 3e 5c 9b 4d bd 38 66 7a bd
       0.10696828 0.218443 -0.05019699 -0.06113264
000100 20 18 42 3e 2f 78 56 be 94 61 19 be 90 7c ae 3d
       0.18954515 -0.20944284 -0.1497863 0.08519852
000110 d8 f8 26 3e 7c 26 57 3e f4 3b 25 bd 44 30 26 be
       0.16305864 0.21010774 -0.04034038 -0.1622935
000120 f2 7f d5 bd 80 db 89 3d 90 e7 08 bc d4 81 47 bd
       -0.10424794 0.067313194 -0.00835599 -0.048707798
000130 62 73 08 be e3 cd 52 be 29 e2 3c be e0 5a ea 3d
       -0.13325265 -0.20586352 -0.18445648 0.11443114
000140 99 38 08 be 24 04 46 3e b3 92 2b be 54 fd 39 3e
       -0.1330284 0.19337517 -0.1675518 0.18163043
000150 16 a4 26 3e dc d1 52 3e e6 ba a4 bd 76 7a 4e be
       0.16273531 0.20587867 -0.080434605 -0.20163903
000160 26 d2 3a 3e a6 b1 1e 3e b2 46 bc bd 04 61 a5 bd
       0.18244228 0.15497455 -0.091931716 -0.08075145
000170 d3 93 3b be 40 8a e4 bb fa 1a 5d 3e b4 51 a6 3d
       -0.18318109 -0.0069744885 0.21592322 0.081210524
000180 3e 27 59 3e 60 54 2f bc 5c 58 29 3e c0 ce 6b 3d
       0.21206376 -0.010701269 0.16537613 0.05757022
000190 48 d6 0b be b0 f6 6f 3c cc 1b 61 bd 8e 96 b5 bd
       -0.1365596 0.014646217 -0.05495815 -0.08866607
0001a0 f2 fb 11 3e 30 ce 9f bd ca dc 32 3e c4 b8 50 bd
       0.14256266 -0.07802999 0.17467037 -0.050957456
0001b0 60 2e b0 3d 76 4e bb bd 68 74 6f 3d b2 5a 3b 3e
       0.08602595 -0.091458246 0.058460623 0.18296316
0001c0 38 c8 b3 bd f0 3e 7a 3d 0c 69 86 bd c0 14 35 bb
       -0.08778423 0.061095178 -0.06563005 -0.0027630776
0001d0 98 b2 24 3d be 89 04 3e f4 97 4d bd 08 eb 5b 3d
       0.040209383 0.1294317 -0.050193742 0.05369094
0001e0 1a cb 3b 3e 5a bb b4 bd 98 6b b0 bc 54 d8 4f bd
       0.18339196 -0.08824797 -0.02153568 -0.050743416
0001f0 99 ff 1d be 82 d4 47 3e 40 a2 9a 3d 94 ec 09 bd
       -0.15429534 0.19514659 0.07550478 -0.033672884
000200 52 19 3f 3e b7 73 10 be 5c 14 eb 3d 10 f5 68 bc
       0.18662003 -0.14106642 0.114784926 -0.014218584
000210 04 eb b8 3d f3 14 4b be 8c 5e 44 bd ac f8 f5 3d
       0.09029201 -0.1983221 -0.04794173 0.12010321
000220 a0 b9 aa bd 80 d5 11 3d 3f f2 1a be 28 20 26 3d
       -0.083361864 0.035604 -0.15131472 0.04055801
000230 40 53 11 bb 70 57 e0 3d 82 31 0a be 9e 94 35 be
       -0.0022174865 0.109541774 -0.13495448 -0.17732474
000240 c0 d3 1e 3d 2b 51 49 be ea 63 95 bd 18 c2 5c 3d
       0.03877616 -0.1965987 -0.07294448 0.05389604
000250 a8 a1 8d bd a0 da f5 3c a3 5c 37 be de fd fe bd
       -0.06915599 0.030011475 -0.17906432 -0.12450765
000260 d0 97 3b be d8 9e 8e 3c 74 e6 53 3e 19 01 db bd
       -0.1831963 0.017409727 0.2069338 -0.10693569
000270 c0 9a 49 3e 1e 92 9d bd c0 82 ed 3c de d1 2e 3e
       0.19687939 -0.07693885 0.02899301 0.17072245
000280 3c 0c d9 bd b4 f4 4f bd 3c 4c 8f 3d 8c 6d b9 3d
       -0.10598037 -0.050770476 0.069969624 0.090540975
000290 1e 31 49 3e dc f4 a2 3d b4 12 8d bd d0 cf 99 3d
       0.19647643 0.079568595 -0.06888333 0.0751034
0002a0 72 52 b4 bd 76 f0 b6 bd 58 3a 31 3d b0 ed bd 3c
       -0.08804788 -0.08932583 0.04326853 0.023184627
0002b0 2c 8f 00 bd bc 6e 5c 3e 9c 66 28 3e 24 67 84 bd
       -0.03138654 0.21526617 0.16445392 -0.06464985
0002c0 92 f8 64 be 56 c8 3b be 4c 86 87 3d aa 24 46 be
       -0.22360447 -0.18338141 0.06617412 -0.19349924
0002d0 54 c4 53 bd c0 bd 4a 3d 00 70 6a bb e8 0c 00 3e
       -0.051700905 0.049497366 -0.0035772324 0.12504923
0002e0 9a d0 1c 3e d8 81 a1 bc 36 91 06 3e d6 a7 42 be
       0.1531395 -0.019715235 0.13141331 -0.19009337
0002f0 a2 e5 5f 3e f4 09 9c bd 08 b6 3b be 08 10 fa 3d
       0.21864942 -0.07619086 -0.18331158 0.12210089
000300 e0 84 08 3d 0a 2e 19 3e d4 30 fc bd df 28 2f be
       0.033329844 0.14958969 -0.12314001 -0.17105435
000310 cc 0e 3d bd d9 9b 57 be 46 46 bb bd e8 6e bc 3d
       -0.04615669 -0.21055545 -0.09144263 0.09200841
000320 30 4a d9 bd 28 02 86 bc e4 d0 db 3d f6 09 b4 bd
       -0.10609853 -0.01635845 0.10733202 -0.087909624
000330 b0 d6 18 bc 80 e5 5e 3d c4 2e 82 3d a8 57 b5 3d
       -0.009328529 0.054418087 0.06356576 0.0885461
000340 d4 0b cd 3d 60 e1 c6 bc 74 d7 4b 3e 42 9c 52 be
       0.10012022 -0.024277389 0.19906408 -0.2056742
000350 0a 6b a7 bd c8 32 48 3e ae 50 50 3e a8 f5 51 3e
       -0.08174713 0.19550622 0.20343277 0.20503867
000360 e6 9a 25 3e 84 04 8e 3d ec 26 2f 3e 74 35 60 be
       0.1617237 0.06934455 0.17104691 -0.21895391
000370 71 fb 58 be 1a 35 39 3e 0a be 4e be a0 af 88 bd
       -0.21189667 0.18086663 -0.20189682 -0.06674123
000380 e8 9b db 3d 50 19 9d bc 3a 71 11 3e e8 2e 7c 3d
       0.10723096 -0.019177109 0.14203349 0.06156817
000390 68 41 08 bd 84 99 d1 3d a0 43 84 3d 70 1b e1 3c
       -0.0332655 0.10234359 0.06458211 0.027478904
0003a0 55 8e 3a be c2 56 16 3e 53 7a 63 be b3 88 0d be
       -0.18218358 0.14681533 -0.22214632 -0.13821678
0003b0 e1 82 3a be 6e cb a2 bd e4 74 35 3e 18 9b 32 bd
       -0.18213989 -0.079489574 0.17720371 -0.04360494
0003c0 ae db 82 bd 99 3a 1c be 07 fe 50 be 40 d8 1a be
       -0.06389557 -0.15256728 -0.20409404 -0.15121555
0003d0 d2 67 19 3e 8a 0c 0c be 18 90 36 3e 88 cc 15 3e
       0.1498101 -0.13676658 0.17828405 0.14628804
0003e0 5a 00 5d 3e 72 06 9b bd 42 bc 2c be 38 5a 1a 3d
       0.21582165 -0.07569589 -0.1686869 0.037683696
0003f0 4a a2 03 be 58 72 bb 3d 56 82 5f 3e 10 39 5a bd
       -0.12854877 0.09152669 0.21827063 -0.053277075

bias f4 [1, 20]
000000 00 00 00 00 00 00 00 00 00 00 00 00 00 00 00 00
       0.0 0.0 0.0 0.0
000010 00 00 00 00 00 00 00 00 00 00 00 00 00 00 00 00
       0.0 0.0 0.0 0.0
000020 00 00 00 00 00 00 00 00 00 00 00 00 00 00 00 00
       0.0 0.0 0.0 0.0
000030 00 00 00 00 00 00 00 00 00 00 00 00 00 00 00 00
       0.0 0.0 0.0 0.0
000040 00 00 00 00 00 00 00 00 00 00 00 00 00 00 00 00
       0.0 0.0 0.0 0.0

weight f4 [20, 20]
000000 57 ee 58 3e 13 23 20 3e 46 00 d8 bd 19 8e 39 bd
       0.2118467 0.1563838 -0.10546927 -0.04530153
000010 4d d1 ef bd 97 f3 fb 3c c6 3e 2b be 93 7a 34 be
       -0.11709843 0.030755801 -0.16723165 -0.17624883
000020 f5 c2 9e 3d 64 cd 7a bd 15 9a 95 be 65 9a c7 bd
       0.07752029 -0.061231032 -0.29219118 -0.09746245
000030 6e 33 fc 3d b0 a8 20 be f0 48 85 be 90 8d 1b b8
       0.12314497 -0.15689349 -0.2603221 -3.708672e-05
000040 0f 38 27 3e a4 a8 c5 3d 44 1a fb bd 96 57 c9 3c
       0.16329978 0.09651306 -0.12260869 0.024577897
000050 73 ae 41 be 90 79 00 3e 14 d4 0d 3e cf b6 da 3d
       -0.18914203 0.12546372 0.13850433 0.10679399
000060 66 a5 d2 3d ae fe d0 3d 43 42 87 bd 3c 9e 6a 3e
       0.102854535 0.10204826 -0.06604435 0.22911924
000070 13 46 1c be 93 e8 44 3e 4a 5f a4 3d 81 41 26 3e
       -0.15261106 0.19229345 0.080259874 0.16235925
000080 6e 8c 6e 3e 1b c0 6e bc ab 69 24 bc b6 a6 57 be
       0.23295757 -0.014572169 -0.010034959 -0.21059689
000090 be 9d 26 3e f3 ea ac 3c ae b8 3c 3e d6 c0 f3 3d
       0.16271111 0.021108126 0.18429825 0.11902015
0000a0 d5 be 13 bd 2c af 2c 3e 3c 5e 38 be 1f a0 26 be
       -0.036070663 0.16863698 -0.18004698 -0.16272019
0000b0 8f a2 97 3d 04 5f 86 3c 38 b3 2d be f8 f9 65 3e
       0.074040525 0.016402729 -0.16962898 0.22458637
0000c0 02 68 30 be 83 8c 0d 3d 1f 2d ab 3c 23 09 5e 3d
       -0.17227176 0.03455783 0.020895539 0.054207932
0000d0 d7 47 74 3e 42 cb 13 be e7 12 14 3d 01 d7 8c 3d
       0.2385553 -0.14433005 0.03615084 0.06876946
0000e0 3f 4c 1b 3d 18 52 13 be df ba 41 3e ce 1f 3b be
       0.03791451 -0.14386785 0.18918942 -0.18273851
0000f0 fa 0d ad bc d1 45 c2 bd d8 eb 02 3e 38 11 6f bd
       -0.021124829 -0.09485973 0.1278528 -0.05836603
000100 0f 30 0f be 99 16 50 3e c5 30 6a be 83 32 4f 39
       -0.13983177 0.2032112 -0.22870167 0.00019759875
000110 fe bb 3c bd d6 74 ac bc 68 8d f6 3d 31 ba 66 be
       -0.04607772 -0.021051805 0.1203869 -0.22531964
000120 86 f4 d7 3d 85 23 97 bd 5e c1 4b be 98 cb 2c be
       0.10544686 -0.07379822 -0.19897982 -0.1687454
000130 d8 29 1d 3e 95 5d ae bd 6b 1a f7 bd 49 3c 5a be
       0.15347993 -0.08513943 -0.12065586 -0.2131206
000140 16 e1 87 3d bf e9 c7 3d c3 b0 4b be 44 4d 36 3e
       0.066347286 0.097613804 -0.19891648 0.17802912
000150 3d d9 6f be 93 b7 26 3e a6 3f cd 3d 82 ac 1c 3c
       -0.23422714 0.16280966 0.100219056 0.009562613
000160 d0 45 95 3d 2b bc 87 3d 0e d8 c8 3c e5 fe 67 bd
       0.07288706 0.06627687 0.024517085 -0.05663957
000170 5e d9 07 3e 5c 1f 18 3e ae 3b d6 ba e1 4a 52 3e
       0.13266513 0.14855713 -0.001634469 0.20536377
000180 02 17 5f 3c 7a 5e c6 3d 6a 00 2a 3b 07 54 cd bc
       0.013616325 0.09685989 0.0025940188 -0.025064481
000190 61 c3 50 be 56 0d 13 3e 57 44 24 bd 59 25 1c be
       -0.20387031 0.14360556 -0.040104236 -0.15248622
0001a0 30 1c 74 3e c2 52 31 3c 42 0a 6c 3d f7 52 ae 3b
       0.23838878 0.010822954 0.05762697 0.005319949
0001b0 c3 0c 72 be 28 e0 ff 3d 94 d3 6a 3d 68 17 8a 3e
       -0.2363768 0.12493926 0.057330683 0.26970983
0001c0 df 42 7a 3d bf 58 28 3e 50 6e 6d 3e 27 33 0a 3e
       0.06109893 0.16440104 0.23186612 0.13496076
0001d0 03 f2 43 3e 81 a3 b9 3d 1f 95 97 bd 6a 55 67 3e
       0.19135289 0.09064389 -0.074014895 0.22591177
0001e0 93 6e 28 3d a2 ff 16 3e 6f 75 66 3e 94 de 8d be
       0.041121077 0.14745954 0.22505735 -0.27708876
0001f0 d7 e1 1f bd b0 46 d0 bd a8 61 22 3c fd 07 e2 bb
       -0.039033737 -0.101697326 0.009910978 -0.006897925
000200 1a 5a 8b be 64 6a ef 3d 74 92 39 3e 28 ae 1c bd
       -0.2721718 0.11690214 0.18122274 -0.038252026
000210 8e 09 77 3e 7e ac 1c bd 30 ab b0 bc 40 6a 8b bd
       0.24124739 -0.03825044 -0.021566004 -0.06807375
000220 af dd 1e be 5a 24 df bd 56 be 38 3d a5 df 30 3e
       -0.15514253 -0.108956054 0.045103393 0.17272814
000230 21 76 e1 bd 50 30 3a be 55 a4 49 be c7 3b 22 be
       -0.110088594 -0.18182492 -0.19691594 -0.15843116
000240 c0 14 03 bd fe 40 82 3d aa c6 93 3d 6f 07 50 be
       -0.03200221 0.063600525 0.072156265 -0.20315336
000250 0b 2a 2e 3d cf 19 2d be a8 a5 e6 3d 5e f0 37 3e
       0.042520564 -0.16904376 0.11262065 0.17962787
000260 c2 f2 5f 3d 0c 5a 97 bd 32 28 16 3e c1 ed e3 3d
       0.05467487 -0.07390222 0.14663771 0.11129332
000270 78 63 4e bc e3 61 fe 3d 61 a0 a9 bd 23 02 09 3c
       -0.012596957 0.12421014 -0.08282543 0.008362326
000280 60 af 6c be 7a c8 ed 3c 6e da 8d 3e 49 c0 60 be
       -0.23113775 0.029026259 0.2770571 -0.21948351
000290 4b bc cf bd b6 4f a6 bd f1 0d 84 3e 80 fc 49 3d
       -0.10143336 -0.081206724 0.25791886 0.04931307
0002a0 b5 54 cb bd 40 ee a8 bb 47 f4 bd 3c 27 1d 3d 3e
       -0.09928266 -0.0051553547 0.02318777 0.18468152
0002b0 ea b8 92 3e f3 60 5c 3e cd 04 5d 3e 42 ff 1e 3e
       0.28656703 0.21521358 0.21583863 0.1552706
0002c0 71 a5 2a be d2 95 7f bc bd b0 08 3e 3d 24 95 bd
       -0.16664673 -0.015599685 0.1334867 -0.072823025
0002d0 38 3b fa 3d 6f 0e 48 3d 11 d6 ec 3d a2 bc 04 be
       0.12218326 0.04884189 0.115642674 -0.12962583
0002e0 40 51 98 ba 37 36 10 3e 2b 46 ac bc 1c 55 40 3e
       -0.0011620894 0.14083181 -0.021029552 0.18782467
0002f0 da 10 d0 bc f8 17 23 3d 53 31 84 3c f9 bf 89 bd
       -0.02539866 0.03981778 0.0161368 -0.06726069
000300 6f 05 98 3d bc 34 76 bd 7e 90 82 3e ab ee 17 3e
       0.074229114 -0.060108885 0.25500864 0.14837138
000310 d7 8e 51 be 9a c1 2e be 41 91 ca bd 3a 4f 1d 3e
       -0.20464645 -0.1706604 -0.09890986 0.15362254
000320 20 2e d8 bb bb ca 11 be 07 da 17 be 03 75 90 bd
       -0.0065972954 -0.14237492 -0.14829265 -0.07053568
000330 aa 8f a3 3d 65 9b 7d bd 69 67 d6 3c 9a fa 6e bd
       0.07986386 -0.061915774 0.026172357 -0.05834446
000340 16 21 11 3e a4 0d 41 be 13 60 20 be 99 80 6a 3e
       0.14172778 -0.1885286 -0.1566165 0.22900619
000350 78 5b 4a bd f5 80 99 bd 16 ca 5f 3e dd fc 4c be
       -0.049403638 -0.074953 0.21854433 -0.20018335
000360 c9 a9 6e be 3e 25 83 be 8c 74 14 3d 5e 85 92 3d
       -0.23306955 -0.2561435 0.03624396 0.07154344
000370 9c 22 6c be 14 8a 19 be d7 98 8a 3e 88 ee ea bd
       -0.23060077 -0.14994079 0.27069733 -0.114712775
000380 43 36 f9 3c 2d 9d 3a be 8a f7 7b 3e 0d 6b 09 3d
       0.030421382 -0.1822402 0.24606147 0.033549357
000390 78 3d 4e be a7 02 4e be c7 f6 8d 3e 2e 40 86 bd
       -0.20140636 -0.201182 0.2772734 -0.0655521
0003a0 98 04 b9 3d 4b a9 aa 3b 07 40 b6 3d 9e 81 50 bd
       0.09034079 0.0052081696 0.08898931 -0.050904863
0003b0 98 df 4f be a6 a1 98 bc 91 71 9b 3e f9 04 c1 bd
       -0.20300138 -0.018631767 0.30360082 -0.094247766
0003c0 c5 3d 45 3b 13 ae b9 3d e4 87 2c be 88 a9 e0 3d
       0.0030096632 0.09066405 -0.16848713 0.109698355
0003d0 7b 80 9c be 19 f8 ac 3d cb c9 8d be 6f 1c 8b bc
       -0.30566773 0.084457584 -0.27693018 -0.016981332
0003e0 de e3 94 3e 18 f6 ef bd 48 5c 50 be 8a e3 5b be
       0.290801 -0.117168605 -0.20347703 -0.21473518
0003f0 5f 52 8e be 77 d3 40 3d 8f 40 6f bd e8 cc 79 3e
       -0.2779722 0.04707667 -0.058411177 0.24394572

weight f4 [20, 10]
000000 dc fc 82 be 6c 93 c8 bd 73 5b 98 3e 4c a8 b1 3d
       -0.2558354 -0.097937435 0.2975727 0.08674678
000010 58 f4 00 3e 3c b7 b8 bd d4 4b a2 3d c0 9e 21 3e
       0.1259321 -0.09019324 0.07924619 0.15783215
000020 29 86 80 3e 3d 96 09 be 20 76 65 bd 36 33 8b bd
       0.25102356 -0.13436218 -0.056020856 -0.06796877
000030 f6 c1 2b 3e d0 72 ee 3d c0 6e 41 bc 18 62 bb bd
       0.16773209 0.116429925 -0.01180619 -0.09149569
000040 e2 75 74 3e e8 16 09 3e d6 82 1f 3e 93 3d 9b be
       0.23873094 0.13387644 0.15577254 -0.30320415
000050 e9 37 0f be 62 68 72 3e 38 83 16 bd 67 dc 83 3e
       -0.13986172 0.23672631 -0.036746234 0.2575409
000060 fe 90 30 be f8 ef 9c 3d 1d d9 8d 3e e0 e2 78 bc
       -0.1724281 0.07662958 0.27704707 -0.01519081
000070 1b 4e 9d 3e 1b b7 82 3e 61 53 92 3e 14 b3 91 3d
       0.30723652 0.25530323 0.28579238 0.071142346
000080 14 f8 8e 3d e4 81 81 be d8 d4 e5 3d 00 8e ed bc
       0.06980911 -0.2529441 0.11222237 -0.028998375
000090 90 35 65 bd 64 94 4b be ee 88 40 be 42 90 42 3e
       -0.055959284 -0.19880825 -0.18802235 0.19000342
0000a0 96 cf 18 3e 30 1a 5c 3d 0e 6c 50 be 49 c8 87 be
       0.14922938 0.05373591 -0.2035372 -0.26519993
0000b0 fc 92 ba 3d 96 a9 7b be 52 f0 76 be fe 5d 99 be
       0.09110066 -0.2457641 -0.24115112 -0.29954523
0000c0 00 63 70 3b 87 e0 8b 3e 20 86 ec bc 9c cf 9b 3d
       0.0036680102 0.27319738 -0.02887255 0.07607958
0000d0 0b 48 0b be 6c 61 cf bd 90 6a 05 3e b6 65 77 be
       -0.13601701 -0.101260036 0.13028932 -0.24159893
0000e0 0e 62 3f 3e 72 e3 7e be b3 6e 93 3e c2 46 95 bd
       0.18689749 -0.24891451 0.28795394 -0.072888866
0000f0 00 eb 7a bd 00 89 00 bb 71 bd 29 be 1a 86 0f 3e
       -0.06125927 -0.0019612908 -0.16576172 0.14016
000100 78 18 43 be 08 01 ec 3d f2 52 48 3e 8c 39 67 be
       -0.19052303 0.11523634 0.19562891 -0.22580546
000110 43 87 82 3e 6e 55 79 be 51 d7 8f be 00 04 e1 3a
       0.25493822 -0.24348995 -0.2809396 0.001716733
000120 60 94 84 3d ec 0e 8e bd c4 14 22 3e 84 07 bc bd
       0.06473613 -0.0693644 0.15828234 -0.09181121
000130 00 f6 0b bb b0 72 88 3c 1a 1c 60 3e f0 a9 6d be
       -0.0021356344 0.01665625 0.2188572 -0.23209357
000140 e2 bb 74 3e f8 5c 75 3d da 73 08 3e 08 b1 4d be
       0.23899797 0.059903115 0.13325444 -0.20087063
000150 c9 07 22 be 5c 8f 1f be 80 29 4c bc 6c 50 07 3e
       -0.15823282 -0.15582031 -0.012461066 0.13214272
000160 aa a7 41 3e c6 1c 54 be fa 43 2e 3e 98 91 c0 3d
       0.18911615 -0.20714101 0.17018119 0.0940277
000170 20 e2 7b 3d 20 62 79 3d c2 1b 69 3e 74 d5 09 3e
       0.061494946 0.060884595 0.22764495 0.13460332
000180 29 05 8f 3e 98 42 1f be 0e 1f 95 bd 54 fd 0f be
       0.27933624 -0.15552747 -0.07281314 -0.14061481
000190 c0 10 91 be 78 69 31 3d f4 32 ba 3d 80 05 8b be
       -0.28333092 0.043313473 0.0909175 -0.27152634
0001a0 aa 46 7a 3e 4c 87 e6 bd 67 18 9f 3e bc 1f 53 be
       0.24441019 -0.112562746 0.31073305 -0.20617574
0001b0 6a 6d aa bd 08 85 f2 3d 95 b0 94 3e 9a 49 ce bd
       -0.0832165 0.1184178 0.2904097 -0.10072632
0001c0 80 e0 46 3d 40 d2 28 bd 9c 8b e3 3d 5f ed 2b be
       0.048553944 -0.041216135 0.11110613 -0.16789769
0001d0 c0 3e 9c 3b 00 7c 43 3c 78 5e 37 be 30 23 32 be
       0.0047682226 0.011931419 -0.1790713 -0.17396235
0001e0 06 a7 42 3e 67 14 83 3e 26 5c ff bd d0 f8 ba 3c
       0.19009027 0.25601503 -0.12468748 0.022823721
0001f0 48 71 6b 3d 08 32 81 3d 0c 83 75 be 86 3e 39 be
       0.05748108 0.06308371 -0.23975772 -0.18090257
000200 d6 44 37 be e0 2b aa 3c 48 ad 35 3e 82 24 7c be
       -0.17897353 0.020772874 0.17741883 -0.24623302
000210 d3 2c 8e 3e 2c 06 a9 3d 4a 5e 37 3e ca f7 73 3e
       0.27768573 0.0825313 0.17907062 0.23824993
000220 26 08 98 bd ee 63 16 be da fb 7f be 96 60 64 3e
       -0.07423429 -0.14686558 -0.24998417 0.2230247
000230 fb e1 8e 3e 59 7d 80 3e c0 b7 22 bd 80 0f 3f bd
       0.27906784 0.25095633 -0.03972602 -0.04664564
000240 87 26 90 3e f0 73 9b bc f0 b8 27 bd d2 74 4a 3e
       0.28154394 -0.018976182 -0.040947855 0.19771126
000250 d0 d1 a0 3d 88 f4 3c be a5 28 96 3e 00 8b b3 bb
       0.078525186 -0.18452656 0.29327884 -0.0054792166
000260 e3 00 92 3e 80 db 0f 3d bb 78 9d be c8 83 8f be
       0.28516302 0.03512144 -0.30756173 -0.2803023
000270 4e cf 14 3e e8 43 2d be 90 36 35 bd 63 35 55 be
       0.14532205 -0.16920435 -0.044241488 -0.20821147
000280 8a 21 05 3e c8 63 4b be fe 19 5b be 9a 30 14 be
       0.13001075 -0.19862282 -0.21396634 -0.14471665
000290 30 c3 df 3c f6 c6 5f be 5c 02 17 be d2 40 58 3e
       0.027314752 -0.21853241 -0.14746994 0.21118477
0002a0 c6 5b 39 be 70 80 d6 3d 9c 71 83 be 48 b3 0c 3e
       -0.18101415 0.10473716 -0.25672615 0.13740265
0002b0 02 56 5b 3e ab ff 9f 3e c5 f2 2d be ea 33 29 3e
       0.21419528 0.31249747 -0.1698714 0.1652371
0002c0 18 57 05 3e a0 e5 cf 3d 40 39 73 bd 82 85 07 3e
       0.13021505 0.10151219 -0.05938077 0.13234523
0002d0 34 cb a8 bd e0 34 7b bd 88 2b fa bd 04 88 37 3e
       -0.08241883 -0.061329722 -0.12215334 0.1792298
0002e0 52 f4 3e 3e 0f c7 87 be f4 6d 38 3e ee 23 3c 3e
       0.18647888 -0.26519057 0.18010694 0.18373081
0002f0 be f8 bf bd 2c de 9a 3d 80 45 df bd 66 de f6 bd
       -0.09373616 0.07561907 -0.10901928 -0.12054138
000300 11 ae 8c 3e 89 76 34 be 64 16 eb 3d fe 89 65 3e
       0.27476552 -0.17623343 0.1147888 0.22415921
000310 d0 1a 7f be a8 09 6d bd 04 e6 0a 3e 97 be 96 be
       -0.24912572 -0.057870537 0.13564306 -0.29442284

bias f4 [1, 10]
000000 00 00 00 00 00 00 00 00 00 00 00 00 00 00 00 00
       0.0 0.0 0.0 0.0
000010 00 00 00 00 00 00 00 00 00 00 00 00 00 00 00 00
       0.0 0.0 0.0 0.0
000020 00 00 00 00 00 00 00 00
       0.0 0.0

weight f4 [10, 20]
000000 e5 40 f9 3b d6 f4 82 bd 51 d7 ab bd 6c 7c 53 bd
       0.007606613 -0.06394355 -0.08390678 -0.05163233
000010 74 e0 00 bd 0d 22 da 3c 96 0f 3c be 34 19 30 be
       -0.031464055 0.026627565 -0.1836532 -0.17197114
000020 30 62 29 be e6 8a 82 3d 05 63 8b bd 86 f3 37 be
       -0.16541362 0.06374149 -0.06805996 -0.1796399
000030 79 4d ab 3d 45 6d 97 bd 83 d7 08 be 77 92 86 be
       0.08364386 -0.073938884 -0.13363461 -0.2628362
000040 72 9e ad bb f5 55 0f 3e c0 1e 83 3b 72 50 0c be
       -0.005298429 0.13997634 0.0040014684 -0.13702562
000050 42 5a 61 3e 6b ae d4 bd 45 74 a6 bc 74 ec 06 be
       0.22007087 -0.1038483 -0.020319114 -0.13176137
000060 02 57 59 3e 93 a8 84 bc 97 3a 8c be 66 00 41 be
       0.21224597 -0.016193664 -0.2738845 -0.18847808
000070 52 06 95 bd db cb 84 be 39 9f 1a 3e 4c 0c c3 3c
       -0.07276596 -0.2593678 0.15099801 0.023809575
000080 90 f5 67 3c 56 ef 9b bd ab e3 3f 3e 68 9d 03 3e
       0.014157668 -0.07614009 0.18739192 0.12853014
000090 c2 24 a7 3d 26 60 c1 3d f4 ec 84 be 37 da 37 bd
       0.08161308 0.09442167 -0.2596203 -0.04488584
0000a0 c8 7c ce bd 20 83 4c be 7d 16 92 bd 30 90 c1 bc
       -0.10082394 -0.19971895 -0.071331955 -0.023628324
0000b0 be df 56 3e 07 b1 1e 3e f9 55 5e be 7f bc 89 ba
       0.20983788 0.15497218 -0.21712483 -0.0010508447
0000c0 e8 30 f4 bd c4 37 05 3e 13 6f de bd b7 3c 5b 3d
       -0.119233906 0.13009554 -0.108610295 0.0535247
0000d0 c8 50 91 3e 21 52 5e 3e 39 50 ce 3c 2b f4 d9 bd
       0.28381944 0.21711017 0.025184738 -0.106422745
0000e0 41 81 76 bd 98 cf 95 3d c5 68 0f 3c 64 2f 6f 3e
       -0.06018186 0.07314986 0.008753006 0.23357922
0000f0 90 6e de 3d 38 48 b4 bd a0 c4 1a be 3d 24 84 3d
       0.10860932 -0.08802837 -0.15114069 0.064522244
000100 0c 6f 68 3c 94 1e 8c bd 75 3a 08 3d 4f 79 38 3e
       0.014186632 -0.0684177 0.033258874 0.18015026
000110 f5 71 85 be 94 20 56 be 2d f8 8b bd 6a c0 26 be
       -0.26063505 -0.20910865 -0.06834445 -0.16284338
000120 53 b5 8e 3d 40 9d b5 3c 15 53 64 3e 51 bb 8b 3c
       0.069681786 0.02216971 0.22297318 0.017057093
000130 77 0c f4 bd 20 e2 e0 bc 5d 23 1a 3e 82 6f 32 3a
       -0.1191644 -0.027451575 0.15052553 0.0006806777
000140 ca 86 81 3e 14 fe 43 be c7 e7 45 be 70 9b 48 3e
       0.25298148 -0.19139892 -0.19326697 0.19590545
000150 ef e9 0e be 07 d5 1a be 5b 2d 0e bc 03 99 54 be
       -0.13956426 -0.15120326 -0.008677806 -0.20761494
000160 4b b1 d6 bd 45 f3 67 3c 60 88 63 bd 8e ce 12 3e
       -0.10483035 0.014157121 -0.05554998 0.14336607
000170 2e a8 8b 3d ed 16 46 3e ed 99 3b be e7 40 84 be
       0.06819187 0.19344683 -0.18320437 -0.25830767
000180 9b f8 6e be 49 63 e1 bd 53 0d da bd f1 62 71 3e
       -0.23337023 -0.11005265 -0.10647073 0.235729
000190 35 20 52 3d 0d 0b 2d 3e 39 8b fe bd 0a 10 57 3e
       0.051300246 0.16898747 -0.12428898 0.21002212
0001a0 1b 06 e5 bd bb a1 7a be 65 eb 0a be 01 6d a4 3d
       -0.11182805 -0.24475758 -0.13566358 0.08028603
0001b0 4e 3d 64 be 38 e1 2c 3e 52 19 59 be 17 84 1b 3d
       -0.22289011 0.16882789 -0.21201065 0.037967768
0001c0 0e fd ae bd dd f4 6a bd 4a 66 9e 3d 47 8a 04 bc
       -0.0854436 -0.057362426 0.07734354 -0.0080896085
0001d0 6f 95 0d be 16 da a3 3a e1 bd 02 be 72 e0 6d 3e
       -0.13826536 0.0012500908 -0.12767746 0.2323015
0001e0 ea 98 8e bd 92 f4 81 3d fe f3 1f 3e 63 0e 3d bc
       -0.0696276 0.06345476 0.1562042 -0.011539075
0001f0 a8 16 d1 3c 73 59 94 bd ad a0 82 3d 52 ac 2d 3e
       0.025523499 -0.072436236 0.06378303 0.16960266
000200 68 14 4d bd 41 d7 96 3d ce 87 03 3e c4 2f 7b be
       -0.05006829 0.07365275 0.12844774 -0.2452994
000210 76 83 8c 3e 5e f5 50 be af be 4a 3c 7b 25 72 be
       0.27444047 -0.204061 0.012374564 -0.2364711
000220 91 e0 e9 bd 63 79 45 3e e6 58 32 bd 67 4f 82 3d
       -0.11419786 0.19284587 -0.04354181 0.06362801
000230 4b 37 d6 bd 8e 4f 61 be 53 01 dc 3d 86 9c ba 3b
       -0.10459765 -0.22003004 0.1074244 0.0056949286
000240 dd 73 2c 3d b3 b2 88 be f2 f1 3d bd 71 1a 86 bd
       0.042102683 -0.26698837 -0.046373315 -0.06548012
000250 94 b3 06 bd 73 74 2c be ae 54 17 3c cf 90 64 be
       -0.032886103 -0.16841297 0.009236498 -0.22320865
000260 b3 46 d6 bb 65 26 d2 bd 4c cb 80 3e 7e a5 b5 3d
       -0.0065391897 -0.102612294 0.25155103 0.08869456
000270 a7 e0 ba bd ca 04 91 3c d7 dd 88 be 86 c7 17 bc
       -0.0912488 0.017702479 -0.2673175 -0.009263879
000280 81 f3 60 3e af 06 46 be da 6b 6b be 35 11 1e 3d
       0.2196789 -0.19338487 -0.22990361 0.03859063
000290 c8 eb 76 3e 21 22 24 3e 9f 74 9a bc 47 72 4b be
       0.24113381 0.16028644 -0.018854437 -0.19867812
0002a0 8e 84 7a be 74 57 21 3e 05 eb 4b 3e c1 2c a3 bd
       -0.24464628 0.15756017 0.19913872 -0.079675205
0002b0 44 7b 1e bd 15 30 33 3e 49 29 2b be 1a d1 78 bd
       -0.038691774 0.1749881 -0.16714968 -0.06074629
0002c0 5b 72 12 be 3d 5b 28 be a4 06 62 be 1d 92 1e 3e
       -0.14301436 -0.16441055 -0.22072846 0.15485425
0002d0 56 60 83 3e bd 45 5e be 1e 02 31 be 98 04 4b bd
       0.25659436 -0.2170629 -0.17285964 -0.049564928
0002e0 9f 6d 4d 3e a0 9f 4b be 1c 9b 5b be 19 94 41 3e
       0.20061348 -0.19885111 -0.21445888 0.18904151
0002f0 0d 01 81 3d cc 63 1d be 62 2d bd bd 9b b1 5f 3d
       0.062990285 -0.153701 -0.09237172 0.054612737
000300 3f b6 9b 3d ed 11 13 3e c1 f1 3d be 93 b9 d0 bd
       0.0760312 0.14362307 -0.18549253 -0.101916455
000310 e7 98 e1 bd 9c 24 15 3b 5e 06 e1 3d 45 45 99 3c
       -0.11015492 0.0022757417 0.109875426 0.018709788
