neuromancer/train_scripts/papers/flexy/scalability/policy_flexy_N5.pth (torch, 13175 bytes, 9 tensors)

weight f4 [20, 20]
0	0x3e60313e	0.21893784
1	0xbdca9d17	-0.09893244
2	0xbd9dfdac	-0.077144
3	0xbac73300	-0.0015197694
4	0x3e0b8b24	0.13627297
5	0xbdbe7ed6	-0.09301536
6	0xbcdace20	-0.026709616
7	0x3bc2d0c0	0.005945295
8	0xbdb59ab4	-0.08867398
9	0xbdc96528	-0.09833747
10	0xbbbdd440	-0.0057931244
11	0xbe0da58a	-0.1383268
12	0xbd0192e4	-0.031634226
13	0x3d8095b4	0.062785536
14	0xbd842868	-0.064530194
15	0xbc1662a0	-0.0091787875
16	0x3cffdb80	0.031232595
17	0xbde599b4	-0.11210957
18	0x3bfbc120	0.0076829344
19	0xbe0053b9	-0.12531938
20	0xbdce0589	-0.100596495
21	0x3e2b59d0	0.1673348
22	0x3dd6a314	0.104803234
23	0x3d10c4a8	0.035343796
24	0xbdb5b3bc	-0.08872172
25	0x3d3a2328	0.045443684
26	0xbdb8a9ca	-0.0901676
27	0x3e0dc9de	0.13846537
28	0x3e5c616a	0.21521536
29	0xbe39fcf0	-0.18162894
30	0x3d195700	0.037436485
31	0x3c4f50e0	0.012653559
32	0x3aef8a00	0.001827538
33	0x3da8aca8	0.082360566
34	0x3e54d42c	0.20784062
35	0xbe05c7c4	-0.13064486
36	0x3df55554	0.11979166
37	0xbd45685c	-0.048195228
38	0x3dafc2ec	0.085821
39	0xbd7e35b8	-0.06206295
40	0xbe4d0b35	-0.20023806
41	0xbdaeca40	-0.0853467
42	0x3d9c9ed8	0.076474845
43	0xbde8be64	-0.11364439
44	0xbe44e91b	-0.19229548
45	0x3e228b4e	0.15873453
46	0xbdfd07e6	-0.12355022
47	0x3e55a1b4	0.20862466
48	0xbd217f90	-0.039428294
49	0x3e0c1d26	0.13682994
50	0x3e5c019c	0.21484989
51	0x3e1fb1ae	0.15595123
52	0x3d3e2820	0.046424985
53	0x3e570c42	0.2100077
54	0x3dc67628	0.09690505
55	0x3dad4090	0.0845958
56	0xbbc1f8a0	-0.005919531
57	0x3e501a88	0.20322621
58	0xbd7253bc	-0.059161887
59	0x3dd863d8	0.10565919
60	0x3ded5b20	0.11589646
61	0xbe393ab7	-0.18088804
62	0x3d8ac35c	0.06775543
63	0xbd5be9d0	-0.053689778
64	0xbceea008	-0.029129043
65	0xbc9fac18	-0.01949124
66	0x3e18a6de	0.14907405
67	0xbe187730	-0.14889216
68	0xbc042c50	-0.008067206
69	0xbdeb50b4	-0.11490002
70	0xbd3daef4	-0.046309426
71	0x3e2e47f6	0.17019638
72	0x3e4f601c	0.20251507
73	0x3e54dd26	0.20787486
74	0xbca34038	-0.019928083
75	0x3e0baf86	0.13641176
76	0xbe1bb312	-0.15205029
77	0x3e1dbf10	0.15404916
78	0xbc33b5c0	-0.010968626
79	0x3d0b9368	0.034076124
80	0x3dfb5554	0.122721344
81	0x3da547d8	0.08070344
82	0xbe49978a	-0.19686714
83	0x3d3ac788	0.045600444
84	0xbd629cc0	-0.05532527
85	0x3da4adb4	0.08040944
86	0xbd7e48cc	-0.062081143
87	0x3e1eee6e	0.15520641
88	0x3d61b838	0.055107325
89	0xbdbdd2e2	-0.09268738
90	0xbe31bd02	-0.17357257
91	0x3d957b24	0.07298878
92	0xbe0d811c	-0.13818783
93	0x3e54881c	0.20755047
94	0x3e458bde	0.19291636
95	0x3d262f80	0.040572643
96	0x3d82dea4	0.063901216
97	0x3df32438	0.118721426
98	0x3e4315c0	0.19051266
99	0x3e1333bc	0.14375204
100	0xbda93560	-0.082621336
101	0x3e5780ba	0.21045199
102	0xbe3d295d	-0.1847281
103	0xbe18f446	-0.14936933
104	0x3e11cb84	0.14237791
105	0xbdc8ce40	-0.09804964
106	0x3e322980	0.17398643
107	0x3d030e38	0.031995982
108	0xbe60b236	-0.21942982
109	0xbe0e670e	-0.139065
110	0xbb50d1c0	-0.0031863302
111	0x3e57a610	0.21059442
112	0x3cda8410	0.0266743
113	0x3dd248d0	0.10267794
114	0xbcdc6368	-0.02690287
115	0xbe230764	-0.15920788
116	0xbd4bf4b0	-0.0497939
117	0x3d63cb80	0.055613995
118	0x3d48b960	0.049004912
119	0xbca400b0	-0.02001986
120	0xbca47358	-0.020074531
121	0xbca80968	-0.020512298
122	0xbe394559	-0.1809286
123	0xbe088cd4	-0.13334972
124	0xbd0ef470	-0.034901083
125	0xbd94b508	-0.072610915
126	0x3e368b5e	0.17826602
127	0xbc9b4620	-0.018954337
128	0x3e079090	0.1323874
129	0x3e396450	0.18104672
130	0xbe258752	-0.16164902
131	0xbd9b8696	-0.075940296
132	0xbcca67c8	-0.02470769
133	0x3e057834	0.13034135
134	0xbe61e22a	-0.22058931
135	0x3e3d08e0	0.18460417
136	0xbe4670e3	-0.19379
137	0x3d045308	0.032305747
138	0x3d2a0930	0.041512668
139	0xbdb9b286	-0.09067254
140	0xbe4ac6e2	-0.1980243
141	0xbe44cbbc	-0.19218343
142	0xbcbf6490	-0.023363382
143	0xbdba1d16	-0.09087579
144	0xbe60a2ec	-0.2193715
145	0xbe4605e7	-0.19338189
146	0xbe41db9a	-0.18931428
147	0xbd8a1adc	-0.06743404
148	0x3dcf59a4	0.101245195
149	0x3e303eb0	0.17211413
150	0xbd27ff40	-0.04101491
151	0x3e49b872	0.19699267
152	0xbde64f33	-0.11245575
153	0x3ddd6334	0.10809937
154	0xbd5ad77c	-0.05342816
155	0xbd821f36	-0.06353609
156	0xbe2ab8d6	-0.16672072
157	0xbe0db4cc	-0.138385
158	0x3e47757e	0.19478413
159	0xbe224890	-0.15847993
160	0x3e1bf6b8	0.15230834
161	0x3e08ef36	0.13372502
162	0x3d8a63f8	0.06757349
163	0xbd30ed28	-0.04319492
164	0x3da308d8	0.07960671
165	0x3d889c40	0.06670427
166	0xbe478e6e	-0.19487926
167	0xbe040282	-0.12891582
168	0xbe4f609b	-0.20251696
169	0xbd4c9db0	-0.04995507
170	0xbe5e39ce	-0.21701738
171	0x3e03e3ce	0.1287987
172	0x3ca7e890	0.020496637
173	0x3e02a098	0.12756574
174	0x3dfb24e0	0.12262893
175	0x3d94fc4c	0.07274684
176	0x3d130f30	0.035903156
177	0x3d8daf64	0.06918219
178	0x3d2f4068	0.042786032
179	0x3cf643d0	0.030061632
180	0xbd9727c8	-0.073806345
181	0xbe293881	-0.16525461
182	0xbd520db8	-0.051282614
183	0x3df47704	0.11936763
184	0x3dcee94c	0.101030916
185	0x3d0fdde8	0.035123736
186	0xbdd34e7b	-0.10317703
187	0xbda395a8	-0.07987529
188	0xbe286197	-0.16443478
189	0xbdde6255	-0.10858599
190	0x3e47bf8c	0.19506663
191	0xbc86e8a0	-0.016468346
192	0xbd9878aa	-0.0744489
193	0x3de42180	0.11139202
194	0x3d042298	0.032259554
195	0x3e45031e	0.1923947
196	0x3dcff9a4	0.10155037
197	0xbc89de08	-0.016829506
198	0xbe19ffea	-0.1503903
199	0xbe463efb	-0.19359963
200	0x3d852954	0.06502023
201	0x3e535922	0.2063947
202	0x3dd5f700	0.10447502
203	0x3e451f0e	0.19250128
204	0xbe2301b4	-0.15918618
205	0xbbb34d80	-0.005471885
206	0x391d0000	0.00014972687
207	0x3e2b2cf6	0.1671637
208	0x3ca89428	0.020578459
209	0xbdb3b45c	-0.08774635
210	0x3e3fcdac	0.18730801
211	0xbe30a137	-0.17248999
212	0x3d3bdc50	0.045864403
213	0x3d7543a8	0.059878975
214	0x3e2b2f90	0.16717362
215	0xbd9b4ff8	-0.07583612
216	0xbdcd420f	-0.10022365
217	0xbdc6a970	-0.097002864
218	0x3e3afff0	0.18261695
219	0x3c970d48	0.01843895
220	0x3e5f471c	0.2180447
221	0xbde2ea5d	-0.110798575
222	0xbe446b18	-0.19181478
223	0x3e0bebdc	0.13664192
224	0x3df40d4c	0.11916599
225	0x3c25a4b0	0.010110065
226	0xbe0d6e5a	-0.13811627
227	0x3d91eac8	0.07124859
228	0xbe1a4efc	-0.15069193
229	0xbde1380c	-0.10997018
230	0x3e42c732	0.190213
231	0x3de6f040	0.11276293
232	0x3e34083a	0.17581263
233	0xbe5db920	-0.21652651
234	0x3d94fbf4	0.07274619
235	0x3de7ae3c	0.113125294
236	0x3e4435d0	0.19161153
237	0xbde04d95	-0.109522976
238	0xbd7aec54	-0.061260536
239	0x3e3b6f9e	0.18304297
240	0xbe51028b	-0.20411126
241	0x3dc28b60	0.0949924
242	0xbd14ddc8	-0.03634432
243	0x3e4a964c	0.19783896
244	0x3dad303c	0.084564656
245	0xbe3c77d0	-0.1840508
246	0x3e51f9a6	0.2050539
247	0x3da57090	0.0807811
248	0xbe41af20	-0.18914461
249	0xbd9b848c	-0.07593641
250	0x3e4eb006	0.20184335
251	0x3d85f9c4	0.0654178
252	0xbd87b1f2	-0.06625737
253	0xbe59a168	-0.21252978
254	0xbe3b9d19	-0.18321647
255	0xbe120446	-0.14259443

bias f4 [1, 20]
0	0x00000000	0.0
1	0x00000000	0.0
2	0x00000000	0.0
3	0x00000000	0.0
4	0x00000000	0.0
5	0x00000000	0.0
6	0x00000000	0.0
7	0x00000000	0.0
8	0x00000000	0.0
9	0x00000000	0.0
10	0x00000000	0.0
11	0x00000000	0.0
12	0x00000000	0.0
13	0x00000000	0.0
14	0x00000000	0.0
15	0x00000000	0.0
16	0x00000000	0.0
17	0x00000000	0.0
18	0x00000000	0.0
19	0x00000000	0.0

weight f4 [20, 20]
0	0xbe329102	-0.17438129
1	0xbe703f8d	-0.23461743
2	0xbe194325	-0.1496702
3	0xbd745be6	-0.059657954
4	0x3d83223f	0.06403016
5	0x3d77ebc5	0.06052758
6	0x3d9bf0a1	0.07614256
7	0xbdb18163	-0.08667257
8	0xbe2744c6	-0.16334829
9	0x3c67960e	0.014134897
10	0x3dc20694	0.09473911
11	0xbe9ccd5b	-0.30625424
12	0xbe7275eb	-0.23677795
13	0xbde99eb5	-0.11407224
14	0xbe5a12ef	-0.21296285
15	0x3da58e9e	0.08083843
16	0x3d774d86	0.060376666
17	0xbe73cb39	-0.23807992
18	0xbe2a19c6	-0.16611394
19	0xbe8e4037	-0.27783367
20	0xbe6d0247	-0.231454
21	0xbe2fc900	-0.17166519
22	0x3d68fd11	0.056881968
23	0x3bfeb71d	0.0077732936
24	0x3e11e8b4	0.14248925
25	0xbe68019d	-0.22656865
26	0xbdb43d98	-0.088008106
27	0xbd3c1261	-0.045915965
28	0xbe3aa670	-0.18227553
29	0xbd013ae9	-0.03155032
30	0xbd95ddd4	-0.07317701
31	0xbe589721	-0.21151401
32	0xbdec7a81	-0.11546803
33	0x3d91273c	0.070875615
34	0x3e36edbe	0.17864129
35	0xbeb08051	-0.34472898
36	0xbe09fa04	-0.1347428
37	0x3b42695b	0.0029664848
38	0xbe828293	-0.25490245
39	0x3db44cf9	0.08803744
40	0x3e07e0c0	0.13269329
41	0x3c28ff9d	0.010314849
42	0x3e2373f1	0.15962197
43	0x3dd0131f	0.10159897
44	0x3de58321	0.112066515
45	0xbe66cc04	-0.22538763
46	0xbe6c15f1	-0.23055245
47	0xbe0f9c6c	-0.14024514
48	0x3e3601ff	0.17774199
49	0x3dc80559	0.09766645
50	0x3d1ae34f	0.037814435
51	0x3e2b34d2	0.16719368
52	0xbdf36d5a	-0.118860915
53	0xbe7275bd	-0.23677726
54	0xbb7bc097	-0.0038414353
55	0x3dcbcb95	0.099509396
56	0x3da9094e	0.08253728
57	0xbe7f9554	-0.24959308
58	0x3e08290a	0.13296905
59	0x3ca35d6c	0.019942008
60	0xbdf1d062	-0.11807324
61	0xbe80b023	-0.25134382
62	0x3e131784	0.14364439
63	0xbdab0fd4	-0.08352628
64	0x3e1f4aec	0.15555924
65	0xbe29b37c	-0.16572374
66	0x3e1a9183	0.15094571
67	0xbe028be5	-0.12748678
68	0x3dc53a73	0.09630289
69	0xbe22776d	-0.1586587
70	0x3d6d1e6c	0.05789034
71	0x3dd56f4b	0.10421618
72	0x3db94f8b	0.09048375
73	0x3e33ea9d	0.17569967
74	0x3e32cc1f	0.17460679
75	0x3e19e617	0.15029179
76	0xbd7f4838	-0.062324733
77	0xbe414128	-0.18872511
78	0x3e1fc615	0.15602906
79	0xbe2e7871	-0.17038132
80	0xbe07494d	-0.13211556
81	0x3de46972	0.111529246
82	0x3dec76d9	0.11546106
83	0xbe50fc0e	-0.20408651
84	0x3d79ea4d	0.061014462
85	0x3e3a1709	0.1817285
86	0xbd786ed6	-0.060652576
87	0x36e570e8	6.837876e-06
88	0x3de5c482	0.112191215
89	0x3c6954ec	0.014241438
90	0xbc56632c	-0.013085168
91	0xbc8f5029	-0.017494278
92	0xbe6e54cd	-0.23274536
93	0x3e0b7f21	0.13622715
94	0xbe091caa	-0.1338984
95	0xbe2706fc	-0.16311258
96	0x3e2c7873	0.16842823
97	0x3c05e98c	0.008173358
98	0x3d186864	0.03720893
99	0xbc65940e	-0.01401235
100	0x3e65577b	0.22396652
101	0x3d410915	0.047127802
102	0x3e1dd841	0.15414526
103	0x3d8ef315	0.06979958
104	0xbd45a311	-0.048251215
105	0x3da2e8c7	0.07954555
106	0xbcc37595	-0.023859778
107	0x3e265ffb	0.16247551
108	0x3e89d83a	0.2692278
109	0x3e797e52	0.24364594
110	0x3e0d545e	0.13801715
111	0x3e32ded7	0.17467819
112	0xbce48ac7	-0.027898205
113	0xbe14753f	-0.14497851
114	0xbcd7e798	-0.02635555
115	0x3d72a6cc	0.0592411
116	0x3dd58a74	0.104267985
117	0xbe025f29	-0.12731613
118	0x3d9261cb	0.07147559
119	0xbded7a8c	-0.115956396
120	0x3c8f1d2d	0.017469967
121	0xbcd2f3ff	-0.025751112
122	0xbc0c00b5	-0.00854509
123	0x3d9d7f1c	0.0769026
124	0xbd6a286e	-0.057167463
125	0xbdefab0a	-0.11702545
126	0x3e2ceff9	0.16888417
127	0xbdb1c4d4	-0.0868012
128	0x3d4c536f	0.049884256
129	0x3e047471	0.12935044
130	0x3d33b75a	0.04387603
131	0xbd974557	-0.073862724
132	0xbd7f4f73	-0.062331628
133	0xbc0598b3	-0.008154082
134	0x3e66c2db	0.22535269
135	0x3e901130	0.28138113
136	0xbd0fc639	-0.03510115
137	0xbdddf9ee	-0.10838686
138	0x3e63a4cf	0.22230838
139	0x3e80fb34	0.25191653
140	0x3d6b4288	0.057436496
141	0xbd89304a	-0.066986635
142	0x3dce2148	0.10064942
143	0xbcbfd5c0	-0.023417354
144	0xbe705526	-0.23469982
145	0xbddb584a	-0.10710199
146	0xbd7930eb	-0.060837667
147	0x3e7427a9	0.23843254
148	0x3e3adb4a	0.18247715
149	0xbe11b0bf	-0.1422758
150	0x3dfdc002	0.12390138
151	0xbcbca689	-0.023028629
152	0x3dc84b56	0.09779994
153	0xbda584ec	-0.080819935
154	0x3e63ff79	0.22265424
155	0xbcd9f4ac	-0.026605926
156	0xbd52f7bf	-0.0515058
157	0xbdc742ec	-0.09729561
158	0x3e12a36a	0.1432015
159	0xbc5ac307	-0.013352162
160	0x3db35b6d	0.087576725
161	0x3dd2850e	0.102792844
162	0x3c610c3a	0.013735825
163	0x3e508121	0.20361759
164	0x3e521b6e	0.20518276
165	0x3d2d6704	0.04233457
166	0xbd07e6f6	-0.033179246
167	0x3e1af3ef	0.15132116
168	0x3d47dd73	0.048795175
169	0x3e5f9c2f	0.21836923
170	0x3e8352ad	0.25649014
171	0x3e5ec7ea	0.21755949
172	0xbcb527d4	-0.022113718
173	0x3e02e06e	0.12780926
174	0x3d48609d	0.048920263
175	0x3e27e6c8	0.1639663
176	0x3e507964	0.20358807
177	0xbdf62b9b	-0.12020036
178	0x3da08358	0.07837552
179	0xbdd7e6cd	-0.10542069
180	0xbe443e5b	-0.19164412
181	0x3e3cb120	0.18426943
182	0xbe17e604	-0.14833838
183	0x3e0f1747	0.13973723
184	0xbe690dc1	-0.22759153
185	0x3e3e5fb5	0.18591197
186	0xbc373c21	-0.011183769
187	0x3e81d739	0.25359514
188	0x3da7a744	0.081862
189	0x3e12cb80	0.14335442
190	0xbd884179	-0.06653113
191	0x3e870d99	0.26377562
192	0x3dcc2a05	0.09968952
193	0x3dd4ac3b	0.10384413
194	0xbd7c2e4c	-0.06156759
195	0x3d1f1da5	0.03884663
196	0x3e66515f	0.22491978
197	0x3e8b2616	0.27177495
198	0x3d79e8f3	0.061013173
199	0x3de809fc	0.11330029
200	0xbe8f3a20	-0.27974033
201	0x3c118156	0.008880934
202	0x3dbc5673	0.091961764
203	0xbe91287d	-0.28351203
204	0x3d88d9c3	0.0668216
205	0x3dea5084	0.114411384
206	0xbddffd00	-0.10936928
207	0x3e2b81bc	0.16748708
208	0xbd1758f8	-0.03695008
209	0x3e183469	0.14863743
210	0x3df0554f	0.11735021
211	0x3e48440c	0.19557208
212	0xbd274386	-0.04083588
213	0x3d438b09	0.047740016
214	0xbe054a11	-0.13016535
215	0xbd8ab0df	-0.06772017
216	0x3e8e7f54	0.2783152
217	0xbd8802cc	-0.066411585
218	0x3c356ac1	0.011072815
219	0x3e36f9fb	0.17868797
220	0xbddcb7d7	-0.10777252
221	0xbe0f5a67	-0.1399933
222	0xbcef59b5	-0.02921758
223	0xbd91b805	-0.07115177
224	0xbe2a0cf2	-0.166065
225	0xbbe93ba0	-0.0071177036
226	0x3e6351ec	0.2219922
227	0x3e665ac4	0.22495562
228	0xbd28fe48	-0.041258126
229	0xbc2e598c	-0.010641467
230	0x3d550daf	0.052015003
231	0x3e03834e	0.12843058
232	0xbe2caa5a	-0.16861859
233	0x3e5ee0cd	0.21765442
234	0x3e22ec49	0.15910448
235	0x3e4d5361	0.20051338
236	0x3d9ee482	0.07758428
237	0x3d7e4a63	0.06208266
238	0xbe09774f	-0.13424419
239	0xbdf0ec86	-0.11763863
240	0xbe4ee5ec	-0.20204896
241	0xbdae0334	-0.08496705
242	0xbde2b136	-0.110689566
243	0xbeb4f77a	-0.3534506
244	0xbe4b4dff	-0.19853972
245	0x3ce898cc	0.028393172
246	0xbe8e9ec8	-0.27855515
247	0x3d63696c	0.05552046
248	0xbe9b94bc	-0.30386913
249	0xbe945bf5	-0.28976408
250	0xbe8d9f41	-0.27660564
251	0xbde25588	-0.1105147
252	0xbba33ee8	-0.0049818642
253	0xbe49f8fc	-0.19723886
254	0xbe8bdd1f	-0.2731714
255	0xbe8ccbc5	-0.27499214

weight f4 [20, 20]
0	0x3e62dcee	0.2215459
1	0x3c9c4340	0.019075036
2	0x3d7a2340	0.061068773
3	0xbe4d3cc3	-0.2004271
4	0xbd32ff98	-0.043700784
5	0x3e24aeb6	0.16082272
6	0xbb3b2700	-0.0028557181
7	0xbd31c6b8	-0.043402404
8	0xbde1fc6b	-0.11034473
9	0x3e508178	0.20361888
10	0x3de014c4	0.10941461
11	0xbd050044	-0.032470956
12	0xbe646339	-0.22303475
13	0xbde3c5f2	-0.111217394
14	0x3c26bce0	0.010176867
15	0x3e58428a	0.21119133
16	0x3e09653e	0.13417527
17	0x3e4896d8	0.19588792
18	0xbe1ff3f6	-0.15620407
19	0x3df4aa38	0.11946529
20	0xbe561662	-0.20906976
21	0x3e04cde2	0.12969163
22	0xbe00c7a4	-0.12576157
23	0xbe057f81	-0.1303692
24	0x3cd5db28	0.026105478
25	0xbbf092e0	-0.0073417276
26	0xbdddb5a0	-0.10825658
27	0x3e4a001a	0.19726601
28	0x3dd4eafc	0.10396382
29	0x3d8f082c	0.069839805
30	0x3da5cad0	0.08095324
31	0x3e453516	0.19258532
32	0x3e0d077a	0.13772383
33	0xbdc02828	-0.09382659
34	0xbdfee9a5	-0.12446908
35	0xbdc90b6c	-0.09816632
36	0xbdf64e2b	-0.12026628
37	0x3e2560c8	0.161502
38	0xbd74c2f4	-0.059756234
39	0xbe3f9430	-0.18708873
40	0xbe3b8b4e	-0.1831486
41	0x3e387524	0.18013436
42	0x3dc97898	0.098374546
43	0x3d6bd068	0.0575718
44	0x3d0fcf68	0.035109907
45	0x3c6d1240	0.014469683
46	0xbdf93cdb	-0.121698104
47	0x3d2e5710	0.042563498
48	0x3d377bf0	0.04479593
49	0x3e499954	0.19687396
50	0x3c7c55a0	0.015401274
51	0x3e46d0c6	0.19415578
52	0x3e2b46b8	0.16726196
53	0x3e2d112c	0.16901082
54	0xbe59aad7	-0.21256576
55	0x3e12c33e	0.14332291
56	0x3e33804a	0.17529407
57	0xbe4ed099	-0.20196761
58	0x3daf92dc	0.08572933
59	0xbd8a6a94	-0.067586094
60	0xbe3cee75	-0.18450339
61	0xbe024444	-0.12721354
62	0xbd698a38	-0.05701658
63	0xbe2f200f	-0.17102073
64	0xbe027e3c	-0.12743467
65	0x3d677a88	0.05651334
66	0xbc159430	-0.009129569
67	0x3e324a02	0.17411044
68	0x3e35f9a6	0.17771015
69	0x3e500c88	0.2031728
70	0x3e0e51f8	0.13898456
71	0xbda39f30	-0.07989347
72	0xbded0cea	-0.11574729
73	0x3e15de50	0.14635587
74	0xbe022759	-0.12710322
75	0x3d833e70	0.064083934
76	0x3e604b38	0.21903694
77	0xbd521908	-0.051293403
78	0x3c4e8a30	0.012606189
79	0x3dcb681c	0.09931967
80	0xbe275be5	-0.16343649
81	0xbe1f9b5c	-0.15586609
82	0xbd04353c	-0.03227733
83	0xbdab5316	-0.08365457
84	0xbe5f10bd	-0.21783729
85	0xbd26ac20	-0.040691495
86	0xbe267b93	-0.16258077
87	0xbda24c28	-0.07924682
88	0xbe601b4e	-0.21885416
89	0x3cf641f0	0.030060738
90	0xbdf1acad	-0.118005134
91	0x3e4f7c4a	0.20262256
92	0xbde0b4b5	-0.10971967
93	0x3daae1e0	0.083438635
94	0xbe2f91e7	-0.17145501
95	0x3e0e056c	0.13869256
96	0xbe28993a	-0.16464701
97	0x3d0521e8	0.03250304
98	0x3de9462c	0.11390337
99	0x3dc3d760	0.09562564
100	0xbe18c3d2	-0.1491845
101	0xbe249dfe	-0.16075894
102	0x3d093098	0.03349361
103	0xbda1edda	-0.07906695
104	0xbdd7511a	-0.10513516
105	0xbe3504dc	-0.17677635
106	0xbd298d7c	-0.041394696
107	0xbdd668a6	-0.10469179
108	0x3d429c80	0.04751253
109	0x3de5ab30	0.11214292
110	0x3d914858	0.070938766
111	0x3e1e6360	0.15467596
112	0x3d811fe4	0.06304911
113	0xbb950a40	-0.004548341
114	0x3d861494	0.06546894
115	0xbe04ac66	-0.1295639
116	0xbe18ac32	-0.14909437
117	0xbe42052a	-0.18947282
118	0xbd806882	-0.06269933
119	0xbe021a7e	-0.12705418
120	0xbe3a429e	-0.18189475
121	0xbd4ebbb4	-0.050471976
122	0x3e44ccd2	0.19218758
123	0xbe48d7be	-0.19613549
124	0xbd311de4	-0.043241397
125	0x3e4e7816	0.20162997
126	0xbbc07540	-0.0058733523
127	0x3c185980	0.009298682
128	0x3dc144d0	0.09436953
129	0xbd1c91f8	-0.038225144
130	0xbe615058	-0.22003305
131	0x3dead19c	0.11465761
132	0x3e5e83b0	0.21729922
133	0x3e40d262	0.18830255
134	0x3c0e2330	0.008675382
135	0x3d2132a8	0.03935495
136	0xbd9fde84	-0.07806113
137	0xbd90f096	-0.07077138
138	0xbdac4d04	-0.08413127
139	0x3e2290dc	0.15875572
140	0x3e5aaf4a	0.2135593
141	0x3e041ec2	0.12902358
142	0x3e13d066	0.14434966
143	0x3db394b0	0.08768594
144	0x3d3160a8	0.04330507
145	0x3e1974d4	0.14985973
146	0xbcdfe898	-0.027332589
147	0xbddcbe3b	-0.10778471
148	0x3daa1a0c	0.08305749
149	0xbc885088	-0.016639963
150	0x3db6af0c	0.08920106
151	0xbdfc6f02	-0.123258606
152	0xbcb2b920	-0.02181679
153	0xbd7e114c	-0.062028214
154	0xbd51b110	-0.05119425
155	0x3d0734c8	0.03300932
156	0xbd52f228	-0.05150047
157	0x3da9ccc8	0.08291012
158	0x3de92e8c	0.11385831
159	0xbc99ec28	-0.018789366
160	0x3e0f5850	0.13998532
161	0xbe1188de	-0.14212367
162	0x3cc181f8	0.023621544
163	0xbc800ff0	-0.0156326
164	0x3e2e876c	0.17043847
165	0x3df09d94	0.11748806
166	0x3e27d19e	0.16388556
167	0x3bd22580	0.0064131618
168	0xbe615a91	-0.22007205
169	0x3e309994	0.17246085
170	0xbe43fa86	-0.19138536
171	0xbe4428a3	-0.19156127
172	0xbe373eee	-0.178951
173	0xbe0c1150	-0.13678479
174	0xbe2baef7	-0.16765963
175	0x3d977c20	0.07396722
176	0x3d70d178	0.058793515
177	0x3ded747c	0.11594483
178	0xbdfcdd38	-0.12346882
179	0xbc8c9ef8	-0.017165646
180	0x3e0e634e	0.13905069
181	0xbe14f924	-0.14548165
182	0x3de2ae38	0.11068386
183	0x3e3c426e	0.18384716
184	0xbe231ac4	-0.15928179
185	0x3e2fa3b0	0.17152286
186	0x3d19cb00	0.03754711
187	0xbd0eaf10	-0.03483492
188	0xbd6656bc	-0.05623506
189	0x3e5eb5de	0.21749064
190	0xbde504fa	-0.1118259
191	0x3e4ec840	0.20193577
192	0x3c05ec80	0.008174062
193	0x3e4557b2	0.19271734
194	0x3e40a18e	0.18811628
195	0x3e625a62	0.22104791
196	0x3ded69b4	0.11592427
197	0x3c036810	0.008020416
198	0x3e0be87a	0.13662902
199	0x3cf6e910	0.03014043
200	0xbd8ea60a	-0.06965263
201	0x3e61d0ec	0.22052354
202	0xbe3b32f4	-0.18281156
203	0xbe1aa742	-0.15102866
204	0xbda2644a	-0.07929285
205	0xbe5aff63	-0.21386485
206	0xbd842100	-0.06451607
207	0x3db5bbd8	0.08873719
208	0x3e5abdaa	0.21361414
209	0x3e217d40	0.15770435
210	0xbe08021e	-0.13282058
211	0xbe527a6e	-0.20554516
212	0xbd5d2f40	-0.05400014
213	0xbd983b28	-0.07433158
214	0x3e16ba24	0.14719445
215	0x3d767710	0.06017214
216	0xbe1d329d	-0.15351339
217	0xbd6bee0c	-0.057600066
218	0xbd011cc8	-0.03152159
219	0xbd4e1244	-0.05031039
220	0x3d3791a0	0.044816613
221	0x3ca24748	0.01980938
222	0xbd85d574	-0.065348536
223	0x3cdce520	0.026964724
224	0xbdc16dd0	-0.09444773
225	0xbcd30590	-0.025759488
226	0xbd7c2938	-0.061562747
227	0xbdf4327a	-0.1192369
228	0xbdd8d186	-0.105868384
229	0xbe476a28	-0.19474089
230	0x3e1e37aa	0.15450922
231	0xbad89480	-0.0016523749
232	0xbdf5f039	-0.120087095
233	0xbd6ea9fc	-0.05826758
234	0xbe3b7528	-0.1830641
235	0xbe46ca8c	-0.19413203
236	0x3e404816	0.18777499
237	0xbbe79720	-0.007067576
238	0x3e40eb54	0.1883977
239	0xbd7e6ffc	-0.062118515
240	0xbe3403e6	-0.17579612
241	0xbd1de544	-0.038548723
242	0x3e36443a	0.17799464
243	0x3d25f1e0	0.040513873
244	0xbe4e7d70	-0.20165038
245	0xbbda0ec0	-0.0066545904
246	0x3e425b82	0.1898022
247	0x3c999668	0.018748477
248	0xbe15b6c7	-0.14620505
249	0xbc292720	-0.0103242695
250	0xbe1e1ea3	-0.15441374
251	0x3cbed5d8	0.023295328
252	0x3dd66898	0.104691684
253	0x3e35cdc8	0.1775428
254	0xbd247760	-0.040152907
255	0x3e30ea56	0.17276892

bias f4 [1, 20]
0	0x00000000	0.0
1	0x00000000	0.0
2	0x00000000	0.0
3	0x00000000	0.0
4	0x00000000	0.0
5	0x00000000	0.0
6	0x00000000	0.0
7	0x00000000	0.0
8	0x00000000	0.0
9	0x00000000	0.0
10	0x00000000	0.0
11	0x00000000	0.0
12	0x00000000	0.0
13	0x00000000	0.0
14	0x00000000	0.0
15	0x00000000	0.0
16	0x00000000	0.0
17	0x00000000	0.0
18	0x00000000	0.0
19	0x00000000	0.0

weight f4 [20, 20]
0	0xbe698e0a	-0.2280809
1	0xbe58c15e	-0.21167514
2	0xbe22a0c3	-0.15881638
3	0x3e3763af	0.1790912
4	0xbdfb7c9a	-0.12279625
5	0x3e4c4d28	0.19951308
6	0x3e507e09	0.20360579
7	0xbdc7193e	-0.097216114
8	0xbd8df883	-0.069321655
9	0x3e6fb71f	0.23409699
10	0xbe1b496d	-0.15164728
11	0x3dca98b9	0.09892411
12	0x3e208310	0.15674996
13	0x3d815984	0.06315902
14	0x3e02ac77	0.12761103
15	0x3e13aecd	0.1442215
16	0x3e05dc26	0.13072261
17	0xbc2f5d87	-0.010703451
18	0xbe2b0a07	-0.16703044
19	0xbe6251bd	-0.22101493
20	0x3e42fc9b	0.19041674
21	0xbc9c04e6	-0.019045305
22	0x3df1340b	0.117775045
23	0xbbb0c585	-0.00539464
24	0xbe54ec67	-0.20793305
25	0xbb442f84	-0.0029935548
26	0x3d600d89	0.054700408
27	0x3e29d3fa	0.16584769
28	0x3d92e0fa	0.07171817
29	0xbde2dca8	-0.11077243
30	0x3dd783ad	0.10523162
31	0x3df45fc3	0.119323276
32	0xbdecaefa	-0.11556812
33	0xbd0e653e	-0.03476452
34	0x3e75ded1	0.24010779
35	0xbd475866	-0.048668288
36	0x3d4a6e00	0.04942131
37	0xbc6a5e0b	-0.014304648
38	0x3e4d2053	0.20031862
39	0xbe0c8c3a	-0.13725367
40	0xbd004721	-0.031317834
41	0x3e86529a	0.26234895
42	0xbe581683	-0.21102338
43	0x3d538995	0.05164488
44	0x3d1f06b6	0.03882476
45	0x3e201aae	0.15635177
46	0xbd8fbb7f	-0.07018184
47	0x3e66917a	0.22516432
48	0xbe523476	-0.20527825
49	0xbe83badd	-0.25728503
50	0xbe78049f	-0.24220513
51	0xbe58a459	-0.21156444
52	0xbcb2d1d4	-0.02182857
53	0x3c7f4159	0.015579545
54	0x3dd21730	0.10258329
55	0xbe6d3748	-0.2316562
56	0xbc6b9144	-0.014377896
57	0x3e949eb6	0.29027337
58	0x3dee2617	0.11628359
59	0x3e3d629e	0.1849465
60	0xbe5183c8	-0.20460427
61	0x3b1f2f05	0.00242895
62	0xbb2fe5cc	-0.002683985
63	0xbe6554bf	-0.2239561
64	0x3df0caec	0.11757454
65	0x3dde965f	0.10868525
66	0x3e072f22	0.13201573
67	0xbdad434c	-0.084601015
68	0xbe2c6c49	-0.16838183
69	0xba03748f	-0.0005014622
70	0x3e2b0729	0.1670195
71	0x3c8d4882	0.017246488
72	0x3e0e4bb6	0.13896069
73	0xbc7c2353	-0.015389281
74	0x3e256f78	0.16155803
75	0xbd0cab0b	-0.034342807
76	0x3d61e7e9	0.055152807
77	0x3e1eea33	0.15519027
78	0xbe1fc554	-0.15602618
79	0x3dbaa1e6	0.09112911
80	0x3e088b59	0.13334407
81	0xbd0f312b	-0.034959
82	0x3e37b3e4	0.17939717
83	0x3e229824	0.1587835
84	0x3d87d54a	0.066324785
85	0xbe3e2ad3	-0.18571024
86	0x3e02a4a5	0.1275812
87	0x3e38016a	0.1796929
88	0xbe378095	-0.17920144
89	0x3dab02bb	0.0835013
90	0x3e203b2c	0.15647572
91	0xbe366b53	-0.17814378
92	0x3e39861c	0.18117565
93	0xbe5ac315	-0.2136348
94	0x3d6547d7	0.055976715
95	0x3dc30a4f	0.095234506
96	0xbe01565d	-0.12630601
97	0x3d35c752	0.04437954
98	0x3e6bf896	0.23044047
99	0x3e0a094c	0.13480109
100	0xbc255eb4	-0.01009338
101	0xbd90c688	-0.07069117
102	0x3dfc0d15	0.12307183
103	0x3e2f3674	0.17110616
104	0x3d0f7d9f	0.03503191
105	0x3d094d9e	0.033521287
106	0xbe1e216e	-0.1544244
107	0xbd85f412	-0.06540693
108	0xbe401efe	-0.18761823
109	0x3ddd8049	0.10815484
110	0xbe7c1b1c	-0.24619716
111	0x3d6150cf	0.055008706
112	0x3d17b943	0.037041914
113	0xbe01bf75	-0.12670691
114	0x3e8f101a	0.27941972
115	0xbd8fd007	-0.070221
116	0xbe4aa46c	-0.19789284
117	0xbcfff9de	-0.031247076
118	0xbd5cc711	-0.053900782
119	0xbceea932	-0.029133413
120	0xbc57c892	-0.013170378
121	0xbe152b9d	-0.14567418
122	0xbe121d06	-0.14268884
123	0x3e2f31b4	0.17108804
124	0x3e6746d1	0.22585608
125	0x3dfd648b	0.12372693
126	0x3c2c0764	0.010499809
127	0x3e4b0509	0.1982614
128	0x3b1fc001	0.0024375918
129	0x3eab9945	0.33515373
130	0x3d100cbe	0.035168402
131	0x3e05c996	0.1306518
132	0xbd1acb7e	-0.03779172
133	0x3d85fc66	0.06542282
134	0x3d8b55c0	0.06803465
135	0x3dc0b0be	0.09408711
136	0xbe4d23b9	-0.20033158
137	0xbe87035f	-0.2636976
138	0xbda0dbf9	-0.078544565
139	0xbe70350b	-0.23457734
140	0xbdcb75e3	-0.099345945
141	0xbe7c42ee	-0.24634907
142	0xbe342722	-0.17593053
143	0xbd9f6593	-0.077830456
144	0xbd66245f	-0.05618703
145	0xbdfd8747	-0.12379318
146	0xbc1dc143	-0.009628597
147	0xbd9497fe	-0.07255553
148	0x3d82d0f9	0.063875146
149	0x3dab526b	0.08365329
150	0x3d55a657	0.052160587
151	0x3e3c6028	0.18396056
152	0xbe27f0ca	-0.16400447
153	0x3e63524f	0.22199367
154	0x3a5b1528	0.00083573395
155	0x3c760baa	0.015017429
156	0xbe2e35b4	-0.17012674
157	0xbe6ddb90	-0.23228288
158	0x3d15da0e	0.036584906
159	0xbe8d0d7d	-0.27549353
160	0xbe4a861f	-0.19777726
161	0xbe351c5e	-0.17686602
162	0xbdc01f90	-0.0938102
163	0x3e6e4016	0.23266634
164	0x3e3218b1	0.17392232
165	0xbc8ce14f	-0.01719728
166	0xbe00ae7d	-0.12566562
167	0x3cf961b2	0.030442093
168	0xbda72767	-0.08161812
169	0x3e46e295	0.19422372
170	0x3e86ef09	0.26354244
171	0x3e2d8711	0.16946055
172	0x3d3b7ab0	0.0457713
173	0xbd2160e6	-0.03939905
174	0x3d6c5a38	0.057703227
175	0x3e75d7f1	0.24008156
176	0xbe18eb94	-0.14933616
177	0x3e0886ac	0.13332623
178	0x3d6e6463	0.058201205
179	0xbebb3d9a	-0.36570436
180	0xbdeea4ba	-0.11652513
181	0xbe2327b6	-0.15933117
182	0xba1be4bb	-0.0005946864
183	0xbd427ff7	-0.047485318
184	0x3e0fdec3	0.1404982
185	0x3e7b3ac1	0.24534132
186	0x3cfef19e	0.031121071
187	0xbd045e51	-0.03231651
188	0xbb7e13aa	-0.0038769045
189	0x3e31c5cb	0.17360608
190	0xbd411edc	-0.04714857
191	0x3e2d7cfa	0.16942206
192	0xbe075c9b	-0.1321892
193	0x3e3174d0	0.17329717
194	0x3d73e890	0.05954796
195	0x3d3976cb	0.045279305
196	0x3de99937	0.114061765
197	0x3dedc4dc	0.116098136
198	0xbdf49836	-0.119430944
199	0xbd7889da	-0.06067834
200	0xbe62247d	-0.22084232
201	0xbd09b72d	-0.033621956
202	0x3e05ccf7	0.13066469
203	0x3e4fe265	0.20301206
204	0xbd80ae5c	-0.062832564
205	0xbd49f887	-0.04930928
206	0x3dc4ac48	0.096031725
207	0xbe347d51	-0.1762593
208	0x3e0d7cab	0.13817088
209	0x3e4a3643	0.19747262
210	0xbd387137	-0.045029845
211	0x3c344205	0.011002068
212	0x3e12f71b	0.14352076
213	0x3e5cb2a2	0.21552518
214	0x3d81290a	0.06306656
215	0xbdd2c88d	-0.10292158
216	0xbe1c954a	-0.15291324
217	0x3e33b516	0.17549548
218	0xbe360bb8	-0.17777908
219	0x3d807d37	0.06273883
220	0x3e40561f	0.18782853
221	0x3e52d3a6	0.2058855
222	0x3e5175ee	0.20455143
223	0x3e316a4c	0.17325705
224	0xbded644e	-0.11591397
225	0xbe051ee9	-0.13000073
226	0xbe596153	-0.21228532
227	0xbe22b6c6	-0.15890035
228	0xbe482e15	-0.19548829
229	0xbdc34eb5	-0.095364965
230	0xbc1c426b	-0.00953732
231	0x3e16b8cd	0.14718933
232	0x3e707ba3	0.23484664
233	0xbdbba968	-0.09163171
234	0xbd7680bb	-0.06018136
235	0xbbbe0a70	-0.005799584
236	0xbdc19720	-0.09452653
237	0x3e90bc0a	0.28268462
238	0x3e5cfa7a	0.21579924
239	0x3e88532b	0.26625952
240	0xbe0e6745	-0.13906582
241	0x3d452a17	0.048135843
242	0x3e55b42c	0.20869511
243	0xbdfd9c0a	-0.12383278
244	0x3d0dc5df	0.034612533
245	0xbdc70310	-0.09717381
246	0x3e178c4c	0.14799613
247	0xbe1ee024	-0.1551519
248	0x3deb232e	0.11481319
249	0xbcbe3976	-0.023220759
250	0xbe55c174	-0.20874578
251	0xbe04bc8b	-0.12962548
252	0xbd2c03f4	-0.041995957
253	0xbe5d0a28	-0.21585906
254	0xba4a1f33	-0.00077103375
255	0xbba2762f	-0.0049579362

weight f4 [20, 5]
0	0xbe43d3d8	-0.1912378
1	0x3e20f5c4	0.15718752
2	0xbed61c2e	-0.41818374
3	0xbe0c6492	-0.1371024
4	0xbed0ff42	-0.40819746
5	0x3ec09570	0.37614012
6	0x3e025904	0.1272927
7	0x3e7ef8d4	0.24899608
8	0xbe5afe23	-0.21386008
9	0x3e5cf6d8	0.21578538
10	0x3d54ec10	0.05198294
11	0xbdb7cd54	-0.0897471
12	0x3edb8328	0.42873502
13	0xbe557980	-0.2084713
14	0x3e349bec	0.17637604
15	0x3e6bd340	0.23029804
16	0x3eb2ace6	0.34897536
17	0xbe72bc71	-0.23704697
18	0x3d56c8d8	0.052437633
19	0xbd9098fc	-0.070604295
20	0xbcdd3650	-0.027003437
21	0x3ecfec80	0.40610123
22	0xbe4d9985	-0.20078094
23	0xbeae2f99	-0.3402069
24	0xbd3f75f0	-0.046743333
25	0x3ecdf588	0.40226388
26	0x3e8cbf0a	0.274895
27	0xbe74431c	-0.23853725
28	0x3e023d3c	0.12718672
29	0x3da7e9e8	0.08198911
30	0x3ebb3d00	0.36569977
31	0xbdb83414	-0.08994308
32	0x3e007184	0.12543303
33	0xbe8deeb8	-0.2772119
34	0xbe69caf5	-0.22831328
35	0x3c9ded20	0.01927811
36	0xbeba426a	-0.36378795
37	0x3e92f764	0.2870437
38	0xbb891640	-0.0041835606
39	0xbcabb730	-0.020961374
40	0x3eae4538	0.34037185
41	0xbedc8ef5	-0.43077818
42	0x3ed10986	0.40827578
43	0x3ecb6dc6	0.39732188
44	0xbc657720	-0.014005452
45	0x3e1e3a4c	0.15451926
46	0x3e4f315c	0.20233673
47	0x3ec9a670	0.39384794
48	0x3ed9828e	0.42482418
49	0x3eae3078	0.34021354
50	0xbed7f655	-0.42180124
51	0xbdf6443c	-0.120247334
52	0xbe1afec2	-0.15136245
53	0x3dffa170	0.12481964
54	0xbecd98e2	-0.40155703
55	0xbdd2f880	-0.10301304
56	0xbeac9701	-0.33708957
57	0x3ed728f4	0.42023432
58	0xbeb147c0	-0.34625053
59	0xbe8233f4	-0.25430262
60	0x3e2660c0	0.16247845
61	0x3e67c914	0.22635299
62	0xbba2ed00	-0.0049721003
63	0xbea41530	-0.32047415
64	0x3cfacaa0	0.030614197
65	0x3dcf4610	0.10120785
66	0x3eb4d1dc	0.3531636
67	0x3da55ae0	0.08073974
68	0xbed46449	-0.41482762
69	0xbcfb6ec0	-0.030692458
70	0x3e8633fe	0.26211542
71	0x3e4ddb10	0.20103097
72	0xbe90ee88	-0.28306985
73	0x3e737e78	0.23778713
74	0xbe90e67b	-0.28300843
75	0x3ec866ae	0.39140838
76	0x3e10a2bc	0.14124578
77	0xbe313dd0	-0.17308736
78	0xbe87a020	-0.26489353
79	0xbe8cbce8	-0.27487874
80	0x3e06b088	0.13153279
81	0x3df84978	0.12123388
82	0xbe2f5832	-0.17123488
83	0xbecbfcf7	-0.39841434
84	0x3e777df8	0.24169147
85	0xbe9d1cd0	-0.30686045
86	0x3e0ed34c	0.13947791
87	0x3e929324	0.28627884
88	0xbe6edee5	-0.23327215
89	0x3e3eff74	0.18652135
90	0x3e4dd84c	0.20102042
91	0x3e35e3e8	0.1776272
92	0xbdf08b14	-0.11745277
93	0x3e088670	0.13332534
94	0x3d2fbf20	0.04290688
95	0xbba34ec0	-0.004983753
96	0x3e5157e4	0.20443684
97	0xbe0e274e	-0.13882181
98	0x3e3f1484	0.1866017
99	0x3e950786	0.29107302

bias f4 [1, 5]
0	0x00000000	0.0
1	0x00000000	0.0
2	0x00000000	0.0
3	0x00000000	0.0
4	0x00000000	0.0

weight f4 [5, 20]
0	0x3e2f0ba1	0.1709428
1	0x3d425197	0.04744109
2	0xbdded08b	-0.1087962
3	0xbe761706	-0.2403222
4	0xbbb1b124	-0.005422728
5	0x3de1c420	0.11023736
6	0xbca42888	-0.020038858
7	0x3e5cb89c	0.21554798
8	0x3e30fecc	0.17284697
9	0x3e32a9b6	0.17447552
10	0x3e0c69e2	0.13712266
11	0xbd92841a	-0.071541026
12	0x3cd94dd5	0.026526371
13	0x3e025bd6	0.12730345
14	0xbe78be24	-0.24291283
15	0x3e62086c	0.22073525
16	0xbd96c098	-0.07360953
17	0xbe2e530c	-0.17023867
18	0xbdf45edd	-0.11932156
19	0xbde62390	-0.11237252
20	0x3e759172	0.23981264
21	0xbd1ab022	-0.03776563
22	0xbe495491	-0.19661166
23	0xbd14a9b5	-0.036294658
24	0xbe1e57c8	-0.15463173
25	0xba03657e	-0.0005012377
26	0xbdb45bbc	-0.088065594
27	0x3bae7f88	0.0053252615
28	0x3e924fa8	0.28576398
29	0x3d0e400c	0.03472905
30	0xbd7c10eb	-0.06153957
31	0xbe25459e	-0.16139838
32	0x3d780703	0.060553562
33	0xbd517138	-0.051133364
34	0xbd35de68	-0.044401556
35	0xbc1108f3	-0.008852231
36	0xbe805f0e	-0.2507252
37	0x3e4df02f	0.20111154
38	0xbe2667b8	-0.16250503
39	0xbd86317c	-0.06552407
40	0xbd57e9bb	-0.052713137
41	0x3e39e8f9	0.18155278
42	0xbda0849f	-0.078377955
43	0xbc30a022	-0.010780366
44	0x3d31aacf	0.043375786
45	0xbd3add0c	-0.045620963
46	0x3e9280da	0.2861393
47	0xbb00b6af	-0.0019640138
48	0x3db1b399	0.08676834
49	0x3e56105a	0.20904675
50	0x3dec1001	0.1152649
51	0x3d4a8dc9	0.049451623
52	0x3d521948	0.05129364
53	0x3d9fc4e4	0.07801226
54	0xbe767929	-0.24069656
55	0x3e93a16c	0.28834093
56	0xbe104c4d	-0.14091606
57	0xbcbd26b3	-0.023089742
58	0xbe360cba	-0.17778292
59	0x3e33df02	0.1756554
60	0x3e1675c6	0.14693365
61	0xbe206a7e	-0.15665624
62	0x3d012b20	0.031535268
63	0x3d9b899d	0.07594607
64	0xbe65e3ca	-0.22450176
65	0xbe64e063	-0.22351222
66	0x3e51ca5c	0.2048735
67	0x3e395614	0.18099242
68	0x3e03798a	0.12839332
69	0x3d89f69c	0.0673649
70	0xbdc52208	-0.096256316
71	0xbd2b7a2c	-0.04186456
72	0xbe391931	-0.18076016
73	0xbe373a73	-0.1789339
74	0xbd3de513	-0.04636104
75	0x3e66a2a9	0.22522987
76	0x3d2401bb	0.040040713
77	0x3e7d9990	0.2476561
78	0xbdc42220	-0.09576821
79	0x3d50cd50	0.05097705
80	0x3dc9683b	0.098343335
81	0xbd2ddeec	-0.042448923
82	0xbe847eac	-0.25877893
83	0x3e0035cb	0.1252052
84	0xbe3d84f0	-0.18507743
85	0xbe34235d	-0.17591615
86	0xbdcad9dd	-0.099048354
87	0x3e184350	0.14869428
88	0x3e5b1f8f	0.21398757
89	0x3dd9a540	0.10627222
90	0xbccd2489	-0.025041835
91	0xbe4eaf1d	-0.20183988
92	0xbd6c04f4	-0.05762191
93	0x3d4073d8	0.046985477
94	0xbe0b7241	-0.13617803
95	0x3e40164b	0.18758504
96	0xbe243f7c	-0.16039842
97	0x3d1b42fb	0.037905674
98	0x3e0405f4	0.12892896
99	0xbe0416bc	-0.12899297
