neuromancer/train_scripts/papers/flexy/scalability/policy_flexy_N15.pth (torch, 21175 bytes, 9 tensors)

weight f4 [60, 20]
0.015946507 -0.04528992 0.048826694 -0.09567739 -0.11379599 -0.21463868 0.06656402 -0.05159758
-0.10439697 0.0061212033 -0.2027071 0.11098382 -0.071660325 0.16606638 -0.015916884 -0.026223138
0.021925017 0.2104086 0.13899249 -0.2052434 0.08770731 -0.13944829 0.08785343 -0.13649368
-0.13719547 0.15808222 -0.17515226 -0.057100236 0.09790295 0.015529439 0.14970994 0.042653143
-0.020311534 -0.008307219 0.11281484 -0.18308866 0.11911428 0.16752756 0.15902567 0.0034072548
-0.010002926 0.059939206 0.043857276 0.03795415 -0.039706975 0.21238908 -0.1827046 -0.19844036
0.023379058 -0.013499916 -0.14987206 0.009427264 0.16513771 0.06266317 0.18217519 -0.12968065
0.12623113 0.024304062 0.1080406 0.19024795 -0.031180784 -0.1181317 -0.21119253 0.06121072
-0.103885844 0.020276234 -0.15891519 0.12682948 0.008947298 0.21491182 -0.09371567 0.15562162
0.16677648 0.20572582 0.091295004 -0.030802742 0.029095411 0.0714736 -0.13367727 -0.12649299
-0.212578 0.12672487 -0.1884082 0.01782316 0.06577486 0.17136735 -0.0769794 -0.014243618
-0.1489867 -0.1371072 0.100462586 0.108712316 -0.12938876 -0.14020777 0.19912729 0.08134535
-0.17598712 0.05944863 0.07832989 0.108772844 0.20139381 0.028837442 0.124557436 0.016946718
-0.1647088 -0.025018424 0.069482595 0.013550609 0.08221683 -0.057957575 -0.06881952 -0.03746073
-0.05009444 0.013818666 0.16216421 0.08061752 -0.21362151 -0.12822774 -0.0129347 -0.014707297
-0.007930905 -0.15326367 0.08834183 0.17383546 -0.1312398 0.15475562 0.00013229251 -0.21169014
0.18344364 0.02887857 -0.0759335 -0.12036931 -0.21683972 -0.21665634 0.16497788 0.16392758
-0.10852524 -0.006578833 0.10396683 0.0850786 -0.069092214 0.09650159 0.09893003 0.19942728
0.053285778 -0.027412474 -0.16951586 0.20951769 -0.009320438 0.041128278 -0.15510291 -0.18207082
-0.11652775 0.16244334 -0.15106112 0.1885511 0.06690803 -0.053512737 0.10596326 -0.059197575
0.16742724 0.05003491 -0.07471724 -0.028871864 0.09740317 0.13927954 0.17494321 0.19835761
0.18910971 0.19363001 0.15189391 0.012933791 -0.00022396445 0.21297964 0.09941989 -0.1448878
0.2183046 -0.1135491 -0.075474724 -0.14840114 0.05740744 -0.12862131 0.00028049946 0.15283722
-0.2128753 -0.14067537 0.03499648 -0.1925956 0.12940305 -0.015393391 -0.021490633 -0.03490986
-0.000107795 0.110458165 0.09127179 0.22295654 -0.201067 0.0009737909 0.14619875 0.19516015
-0.19490054 -0.119883634 0.022331893 0.010541201 -0.06867728 0.043407172 0.08200219 0.19820255
-0.1553736 0.0017519146 0.09093115 -0.14407793 -0.10865895 -0.06040497 -0.15881914 -0.1029492
0.076860845 -0.101778604 0.21126458 0.15546384 -0.21578088 0.10146251 -0.04563473 -0.005272314
0.041380793 -0.020952255 0.05668795 0.16492403 -0.0451549 -0.11499713 -0.19901615 0.107191175
0.06682828 -0.19902667 -0.14282772 -0.04804471 -0.13392423 -0.17052454 -0.029943064 0.02955845
-0.13933372 -0.026917636 0.11999163 -0.07160491 0.20610541 0.2001999 0.016841799 0.1244826
0.004167855 0.06549105 -0.20860794 0.017372116 -0.18994556 -0.17755014 0.14709896 0.053615987
00000000: 40a2 823c ec81 39bd 80fe 473d 82f2 c3bd
00000010: df0d e9bd 3eca 5bbe b852 883d fc57 53bd
00000020: 14ce d5bd 6094 c83b 7392 4fbe 7c4b e33d
00000030: a6c2 92bd 4e0d 2a3e 2064 82bc e8d1 d6bc
00000040: 189c b33c 5a75 573e 0c54 0e3e 532b 52be
00000050: e49f b33d 88cb 0ebe 80ec b33d 00c5 0bbe
00000060: f87c 0cbe 4ee0 213e 1d5b 33be f0e1 69bd
00000070: 5881 c83d 306f 7e3c 904d 193e 10b5 2e3d
00000080: 6064 a6bc 001b 08bc 780b e73d 987b 3bbe
00000090: 30f2 f33d 588c 2b3e a0d7 223e 404c 5f3b
000000a0: 50e3 23bc d082 753d b0a3 333d d075 1b3d
000000b0: c8a3 22bd 867c 593e ea16 3bbe f333 4bbe
000000c0: 7085 bf3c c02e 5dbc 1078 19be d074 1a3c
000000d0: dc19 293e 8c55 803d 228c 3a3e 01cb 04be
000000e0: bc42 013e 5019 c73c 6444 dd3d 5cd0 423e
000000f0: d86e ffbc 08ef f1bd db42 58be 18b8 7a3d
00000100: 1ac2 d4bd 581a a63c aaba 22be 96df 013e
00000110: b097 123c d811 5c3e 00ee bfbd 465b 1f3e
00000120: 74c7 2a3e caa9 523e e0f8 ba3d 0856 fcbc
00000130: 8059 ee3c c060 923d b2e2 08be 6187 01be
00000140: 0cae 59be 2ac4 013e 14ee 40be e001 923c
00000150: f8b4 863d ec7a 2f3e 60a7 9dbd 105e 69bc
00000160: f88f 18be d465 0cbe 54bf cd3d 90a4 de3d
00000170: 7d7e 04be a092 0fbe 06e8 4b3e 6498 a63d
00000180: f835 34be 6880 733d 6c6b a03d 4cc4 de3d
00000190: 2e3a 4e3e 803c ec3c f817 ff3d d8d3 8a3c
000001a0: 6ca9 28be 70f3 ccbc e44c 8e3d 6003 5e3c
000001b0: 4c61 a83d ec64 6dbd 40f1 8cbd 6c70 19bd
000001c0: d42f 4dbd b067 623c 600e 263e cc1a a53d
000001d0: 99bf 5abe 224e 03be 10ec 53bc e0f6 70bc
000001e0: a0f0 01bc 27f1 1cbe 90ec b43d ec01 323e
000001f0: ba63 06be 4278 1e3e 00b8 0a39 4dc5 58be
00000200: a6d8 3b3e c092 ec3c 0683 9bbd 2f84 f6bd
00000210: 3b0b 5ebe 29db 5dbe f6ef 283e a2dc 273e
00000220: 7b42 debd 4093 d7bb 90ec d43d b03d ae3d
00000230: 3880 8dbd a0a2 c53d d49b ca3d aa36 4c3e
00000240: 3042 5a3d 2090 e0bc 9195 2dbe ce8b 563e
00000250: c0b4 18bc 2076 283d 4cd3 1ebe c670 3abe
00000260: 1aa6 eebd 8c57 263e c4af 1abe 8a13 413e
00000270: 1407 893d 2c30 5bbd 4403 d93d 2879 72bd
00000280: 0c72 2b3e 68f1 4c3d 5a05 99bd b084 ecbc
00000290: 507b c73d 4c9f 0e3e 5024 333e 421e 4b3e
000002a0: faa5 413e f246 463e 148a 1b3e 40e8 533c
000002b0: 00d8 6ab9 5617 5a3e a89c cb3d 785d 14be
000002c0: 3e8b 5f3e 6e8c e8bd 7e92 9abd 78f6 17be
000002d0: 1024 6b3d 4eb5 03be 0010 9339 5c81 1c3e
000002e0: fcfb 59be 340d 10be 7858 0f3d c837 45be
000002f0: 3c82 043e 9034 7cbc 200d b0bc a4fd 0ebd
00000300: 0010 e2b8 e437 e23d b4ec ba3d b84e 643e
00000310: 82e4 4dbe 0046 7f3a 20b5 153e 10d8 473e
00000320: 0294 47be 8d85 f5bd 60f1 b63c 00b5 2c3c
00000330: aca6 8cbd b8cb 313d c4f0 a73d 9cf5 4a3e
00000340: 421a 1fbe 80a0 e53a 1c3a ba3d 2a89 13be
00000350: 9588 debd 346b 77bd 7ca1 22be 08d7 d2bd
00000360: 3869 9d3d 4d71 d0bd be55 583e ea31 1f3e
00000370: aaf5 5cbe 94cb cf3d 7ceb 3abd 60c3 acbb
00000380: e87e 293d 10a4 abbc a031 683d d8e1 283e
00000390: 58f4 38bd 9e83 ebbd e4ca 4bbe 0c87 db3d
000003a0: 44dd 883d a6cd 4bbe 6e41 12be 88ca 44bd
000003b0: 6f23 09be fc9d 2ebe 284b f5bc 9024 f23c
000003c0: 80ad 0ebe 6082 dcbc 2cbe f53d 98a5 92bd
000003d0: 4c0d 533e 3401 4d3e d0f7 893c bcf0 fe3d
000003e0: 8092 883b 2c20 863d 529d 55be f84f 8e3c
000003f0: 1781 42be b4cf 35be 1ca1 163e 709c 5b3d

bias f4 [1, 20]
0.0 0.0 0.0 0.0 0.0 0.0 0.0 0.0
0.0 0.0 0.0 0.0 0.0 0.0 0.0 0.0
0.0 0.0 0.0 0.0
00000000: 0000 0000 0000 0000 0000 0000 0000 0000
00000010: 0000 0000 0000 0000 0000 0000 0000 0000
00000020: 0000 0000 0000 0000 0000 0000 0000 0000
00000030: 0000 0000 0000 0000 0000 0000 0000 0000
00000040: 0000 0000 0000 0000 0000 0000 0000 0000

weight f4 [20, 60]
0.054662775 -0.0004956658 0.039231908 0.052291173 -0.1029772 0.10807905 0.03316687 -0.1046427
-0.13790299 -0.07410936 -0.11265036 0.043895926 0.115890585 0.08135384 0.02377973 -0.09648643
0.056467 -0.15006961 0.07694043 0.067958795 -0.14060983 -0.14919637 0.009257591 0.06920729
0.05475025 -0.09087095 0.001507341 0.030969506 0.06546757 0.07274468 -0.06543811 0.062953226
0.06778996 -0.065780535 -0.014158235 -0.021536816 -0.14997324 0.00961991 -0.11006232 -0.11603714
-0.035750944 0.0034910876 0.06704841 -0.016723543 -0.087534495 0.002529888 0.054873027 0.02390083
-0.0034008876 -0.005021711 -0.13105476 -0.107515 -0.06178799 -0.15014558 0.049043514 0.089236364
-0.0330539 0.05339476 -0.038208187 0.069315106 0.036801808 0.11646546 0.10390074 -0.024544463
0.1060242 -0.10570821 0.009518561 0.07778566 -0.120216526 -0.052782327 0.053846203 0.028455343
0.06984926 -0.10232262 -0.027585555 0.11852559 0.13544285 -0.06474624 0.004745879 -0.065743394
-0.008384564 0.11878625 0.124112174 -0.08606286 -0.030588008 0.1322571 0.10111568 0.100246914
0.021057768 0.1648835 -0.07217941 0.0016750186 0.15388992 -0.007027811 0.05892867 0.03499261
-0.0016209736 -0.01953295 0.1316302 0.13461891 -0.029324897 -0.075909995 -0.053694457 0.11238344
0.06392162 0.040908754 0.16680934 0.0012489673 0.011808757 0.12351534 0.026884034 0.03925126
0.066218145 -0.0012252668 0.013406918 -0.0637904 -0.038140234 -0.007463177 0.12785488 -0.0031282557
-0.014615012 -0.02866078 -0.07971967 -0.058809843 0.085338056 -0.012390148 0.13233832 0.0036010714
-0.082024924 -0.022656098 0.10751147 0.035951253 -0.055171214 -0.088129476 0.06673803 0.068347976
0.12014097 0.032371573 -0.010921835 -0.030127972 -0.03213268 0.03850733 0.06858029 -0.06933158
-0.02625803 0.10474797 0.03594258 0.10938142 -0.09146997 -0.04472829 -0.018202662 -0.0864729
-0.10016618 -0.033665355 0.044622406 -0.023658274 0.0012239803 -0.04377975 -0.060162295 -0.041564777
0.04214887 0.09783869 0.07772374 -0.07032331 0.06128998 -0.08181245 -0.092123926 -0.12502448
-0.11312906 -0.0022701037 -0.031074943 0.07055773 0.057957195 0.011316606 -0.116094455 0.02668379
0.08946057 0.027615113 -0.11462651 -0.060013663 0.049498547 -0.08733581 0.06847029 -0.06500179
0.000860862 0.06517467 -0.030690473 0.0613764 -0.13421227 -0.007812838 -0.039862182 -0.15192647
-0.112399735 -0.054224193 -0.14094357 -0.14374717 -0.13594057 0.036753785 0.062588304 0.091779344
-0.09236322 -0.107941836 -0.11451333 0.08317341 -0.06550928 -0.08461755 -0.059023578 -0.076456055
0.011008581 0.05982781 -0.023068637 -0.10421274 -0.12969267 -0.11748951 -0.17195901 0.065557875
0.004558124 -0.18804432 -0.091525145 -0.004843903 -0.11143439 -0.13169703 0.04206649 -0.1808853
-0.14939779 -0.18883616 -0.20116018 0.010466568 -0.022672938 -0.04067743 -0.0786817 -0.16786352
-0.104607746 0.016376084 -0.10517987 -0.06782314 -0.0780275 0.029549174 -0.0084385155 -0.009952926
0.053797077 0.023696857 -0.10279176 0.07651827 -0.027768584 -0.0637789 -0.0878193 0.088208914
-0.02402964 -0.10697495 0.10378459 0.055174816 -0.067633316 0.07410858 0.085800625 -0.006944353
00000000: 13e6 5f3d 92ef 01ba a3b1 203d 452f 563d
00000010: b6e5 d2bd 8d58 dd3d fcd9 073d e94e d6bd
00000020: 7136 0dbe a6c6 97bd 3bb5 e6bd 37cc 333d
00000030: 0b58 ed3d d89c a63d b5cd c23c ad9a c5bd
00000040: f149 673d d9ab 19be f292 9d3d fb2d 8b3d
00000050: 06fc 0fbe efc6 18be 27ad 173c 8dbc 8d3d
00000060: cc41 603d 8c1a babd f991 c53a c3b3 fd3c
00000070: dd13 863d 2afb 943d 6a04 86bd 9fed 803d
00000080: 76d5 8a3d f2b7 86bd f1f7 67bc fa6d b0bc
00000090: 9692 19be d49c 1d3c 5b68 e1bd e1a4 edbd
000000a0: 956f 12bd bbca 643b ad50 893d d0ff 88bc
000000b0: 4945 b3bd 7acc 253b 8ac2 603d accb c33c
000000c0: 6de1 5ebb 2a8d a4bb 3833 06be d330 dcbd
000000d0: 6715 7dbd c3bf 19be dae1 483d 8ec1 b63d
000000e0: 8763 07bd 77b4 5a3d 3080 1cbd 14f5 8d3d
000000f0: 7ebd 163d 7185 ee3d e9c9 d43d 7811 c9bc
00000100: 3723 d93d 8c7d d8bd bdf3 1b3c 174e 9f3d
00000110: 1534 f6bd 4832 58bd d68d 5c3d 2e1b e93c
00000120: 210d 8f3d 868e d1bd 1afb e1bc 8bbd f23d
00000130: 88b1 0a3e ad99 84bd 5283 9b3b 79a4 86bd
00000140: 695f 09bc 3546 f33d 862e fe3d ba41 b0bd
00000150: b493 fabc 686e 073e bd15 cf3d 414e cd3d
00000160: 5781 ac3c 38d7 283e ccd2 93bd 4c8c db3a
00000170: 5295 1d3e 8d49 e6bb 305f 713d 6954 0f3d
00000180: d976 d4ba 9103 a0bc 11ca 063e 8ad9 093e
00000190: c43a f0bc b376 9bbd b8ee 5bbd 4a29 e63d
000001a0: 57e9 823d f08f 273d 11d0 2a3e 63b4 a33a
000001b0: 8479 413c 9cf5 fc3d e83b dc3c eec5 203d
000001c0: 619d 873d 2299 a0ba b1a8 5b3c 8ba4 82bd
000001d0: ef38 1cbd ab8d f4bb 64ec 023e 6c03 4dbb
000001e0: ce73 6fbc 03ca eabc 1144 a3bd 97e2 70bd
000001f0: b8c5 ae3d 0c00 4bbc b283 073e f4ff 6b3b
00000200: affc a7bd 4899 b9bc f92e dc3d 9f41 133d
00000210: 36fb 61bd 3a7d b4bd f3ad 883d 06fa 8b3d
00000220: 780c f63d 0e98 043d 7ff1 32bc f0ce f6bc
00000230: 8f9d 03bd ddb9 1d3d d373 8c3d b7fd 8dbd
00000240: 151b d7bc 1b86 d63d 8738 133d 5e03 e03d
00000250: 9c54 bbbd 0335 37bd c01d 95bc b418 b1bd
00000260: ed23 cdbd afe4 09bd fcc5 363d ffce c1bc
00000270: f76d a03a 6552 33bd bd6c 76bd d43f 2abd
00000280: 4ba4 2c3d a75f c83d a02d 9f3d ab05 90bd
00000290: 340b 7b3d 498d a7bd 78ab bcbd 6b06 00be
000002a0: 35b0 e7bd 05c6 14bb e190 febc 9280 903d
000002b0: 8664 6d3d 4969 393c eec2 edbd f797 da3c
000002c0: 1a37 b73d 1739 e23c 4ec1 eabd e3d0 75bd
000002d0: fdbe 4a3d 1edd b2bd 273a 8c3d a91f 85bd
000002e0: 79ab 613a 4c7a 853d 966a fbbc d265 7b3d
000002f0: f16e 09be 6b01 00bc 8746 23bd 9d92 1bbe
00000300: d531 e6bd 301a 5ebd 8353 10be 7532 13be
00000310: 0134 0bbe 238b 163d 4c2e 803d cff6 bb3d
00000320: ee28 bdbd 9c10 ddbd f785 eabd d256 aa3d
00000330: bb29 86bd f74b adbd b5c2 71bd fe94 9cbd
00000340: 565d 343c 010e 753d 70fa bcbc 7d6d d5bd
00000350: 28ce 04be 579e f0bd 0616 30be 3543 863d
00000360: 515c 953b b18e 40be 8971 bbbd 9ab9 9ebb
00000370: b737 e4bd 96db 06be e94d 2c3d ff39 39be
00000380: bcfb 18be 445e 41be effc 4dbe f87b 2b3c
00000390: 99bc b9bc 609d 26bd df23 a1bd 6ae4 2bbe
000003a0: 963c d6bd 2327 863c 8b68 d7bd dce6 8abd
000003b0: e2cc 9fbd 1c11 f23c b341 0abc 9911 23bc
000003c0: 535a 5c3d e91f c23c 7c84 d2bd 9cb5 9c3d
000003d0: f17a e3bc 839e 82bd 9bda b3bd e0a6 b43d
000003e0: cfd9 c4bc af15 dbbd 048d d43d fdfe 613d
000003f0: 5683 8abd 3dc6 973d 3db8 af3d 758d e3bb

weight f4 [20, 20]
-0.046386138 0.16637346 0.079443514 0.025024816 0.19504678 0.10820207 -0.17917472 0.02919823
0.19125637 -0.071961865 0.066823244 -0.09056078 0.056280702 0.039354622 -0.06253241 0.20021048
0.12710816 -0.06725322 0.17444524 -0.08238682 -0.102846846 -0.11580902 0.05155489 0.06665397
0.17649421 0.18541774 0.08054444 0.0044651777 0.09012887 -0.15389536 -0.06483394 -0.17669563
-0.14080575 -0.15749516 0.2149927 -0.034721106 0.08136153 -0.006058827 -0.097419396 -0.01834549
0.02015607 -0.027013972 0.18189621 0.15829453 0.19472796 0.19821459 -0.1031967 -0.1323435
-0.09424703 0.17782602 0.19640595 -0.2098533 0.20207387 0.21847892 -0.20780359 0.07596713
-0.19733232 -0.15914193 -0.20077413 -0.18121308 0.1319829 -0.17366408 0.100743085 -0.19958624
0.062047333 -0.1751426 0.003960386 0.013209254 -0.07831122 -0.03338319 -0.070272356 -0.059661776
-0.01934667 -0.042332545 0.1517418 0.06921059 -0.040863633 -0.036379084 -0.07493913 -0.12816364
-0.08551988 -0.003957644 0.0709452 0.12306708 0.13306344 0.17516667 0.21388304 -0.21987757
-0.21068655 0.12043443 0.05393666 0.09439427 -0.092070356 -0.030173048 0.15507865 0.113477975
-0.12691924 -0.12846996 0.15423125 -0.06732255 0.116999745 -0.1859843 0.06445789 -0.18679786
0.0014764518 -0.053584725 -0.08766937 0.11923471 0.10888538 0.081507206 -0.05318761 -0.08499287
-0.19247761 -0.16210902 -0.14058135 0.08024225 -0.21021207 -0.116298266 0.11008468 -0.11607737
0.21832937 0.2006841 0.19116879 0.038938314 -0.19967352 -0.040628105 0.059109986 0.014273092
0.1164656 0.059759945 -0.1655075 -0.00797081 -0.039878234 0.12182641 -0.13549219 0.21414143
0.05140215 0.1706422 -0.11321313 -0.035512835 0.009704232 -0.06930898 0.18234465 0.1561319
-0.0382808 -0.04524754 -0.09828584 0.13595086 -0.011551648 -0.15124485 0.16433528 0.08427742
0.1720944 -0.10818133 0.15061402 -0.07801846 0.09019911 0.14756244 -0.047862723 -0.17180505
-0.22201197 -0.17505498 0.0348846 -0.08599305 0.070051104 0.049056202 0.1854142 -0.117703974
0.11258739 -0.02536194 -0.092007026 0.13128647 0.1732665 0.089160144 0.06986329 -0.10631341
-0.016693145 -0.19765057 -0.20264806 -0.022509903 -0.10478556 0.08736426 -0.205584 -0.013748214
0.209389 -0.19081078 -0.0060079396 -0.18548387 0.14956373 0.013073459 0.19714928 0.03382048
0.2140316 0.018148363 -0.013987079 -0.09442842 -0.1904093 -0.19637409 0.15622416 0.033023864
0.10600394 0.21823937 0.06507853 -0.16642123 0.038481712 -0.124775864 -0.18712522 0.008732453
-0.1318227 0.094585 -0.14571397 0.20873043 0.07859248 0.0036240667 -0.0083195865 -0.045573875
-0.015809864 -0.1724689 -0.16617277 0.08853686 0.04460126 -0.18389975 -0.20245379 -0.1461957
0.0030048192 0.2106325 0.03312713 -0.13571447 -0.08711018 -0.19374774 0.14328736 0.066357404
0.08886731 -0.19521028 -0.003911242 0.08681223 -0.0810249 0.09366721 0.07043138 -0.20047393
-0.06070015 0.13155931 -0.126023 0.026652694 0.10583088 -0.11030101 0.21639255 -0.21669598
0.1385872 -0.079719156 0.20669311 -0.13978176 0.06108886 -0.17858888 -0.10012711 -0.13715713
00000000: 64ff 3dbd ce5d 2a3e 48b3 a23d d800 cd3c
00000010: 58ba 473e 0c99 dd3d 9479 37be 2031 ef3c
00000020: b6d8 433e be60 93bd a0da 883d ee77 b9bd
00000030: 9886 663d 5032 213d fe10 80bd fa03 4d3e
00000040: a428 023e 0ebc 89bd c6a1 323e 6cba a8bd
00000050: 5ea1 d2bd 482d edbd 382b 533d e081 883d
00000060: e6ba 343e 26de 3d3e 7cf4 a43d a050 923b
00000070: 7c95 b83d bf96 1dbe a8c7 84bd b3ef 34be
00000080: 622f 10be 6946 21be 0c27 5c3e b837 0ebd
00000090: e0a0 a63d 2089 c6bb d283 c7bd 4849 96bc
000000a0: 581e a53c 684c ddbc 0043 3a3e f617 223e
000000b0: c466 473e c4f8 4a3e cb58 d3bd 0e85 07be
000000c0: 9604 c1bd 0618 363e a41e 493e c9e3 56be
000000d0: 74ec 4e3e f0b8 5f3e 77ca 54be a894 9b3d
000000e0: 7c11 4abe 1af6 22be bc97 4dbe ec8f 39be
000000f0: 8626 073e ffd4 31be 6452 ce3d 5660 4cbe
00000100: 5825 7e3d 9558 33be 20c6 813b a06b 583c
00000110: a261 a0bd d0bc 08bd f4ea 8fbd e85f 74bd
00000120: e87c 9ebc e464 2dbd 3462 1b3e 48be 8d3d
00000130: a060 27bd 3c02 15bd b079 99bd 543d 03be
00000140: 0c25 afbd 20af 81bb b84b 913d 980a fc3d
00000150: c841 083e e45e 333e 2804 5b3e 9627 61be
00000160: 37be 57be 54a6 f63d b0ec 5c3d c851 c13d
00000170: 628f bcbd 782d f7bc f0cc 1e3e 2467 e83d
00000180: 1ef7 01be a18d 03be ccee 1d3e 68e0 89bd
00000190: 909d ef3d ab72 3ebe 8002 843d f047 3fbe
000001a0: 8085 c13a a87b 5bbd 008c b3bd 5431 f43d
000001b0: 4cff de3d 40ed a63d 40db 59bd be10 aebd
000001c0: da18 45be e8ff 25be 8ff4 0fbe 0c56 a43d
000001d0: d541 57be c92d eebd 1474 e13d f9b9 edbd
000001e0: bc91 5f3e 2280 4d3e c0c1 433e c87d 1f3d
000001f0: 3777 4cbe a869 26bd 501d 723d b0d9 693c
00000200: 8485 ee3d d8c6 743d cc7a 29be 0098 02bc
00000210: 5c57 23bd 2080 f93d 77be 0abe e447 5b3e
00000220: 108b 523d d4bc 2e3e 49dc e7bd e875 11bd
00000230: 80fe 1e3c def1 8dbd 8eb8 3a3e 0ae1 1f3e
00000240: 54cc 1cbd 7c55 39bd 164a c9bd b436 0b3e
00000250: 2043 3dbc eedf 1abe 8247 283e a499 ac3d
00000260: 8439 303e 2c8e ddbd 903a 1a3e 24c8 9fbd
00000270: 50ba b83d 9c1a 173e b40b 44bd aaed 2fbe
00000280: 1b57 63be 9d41 33be 28e3 0e3d 201d b0bd
00000290: f476 8f3d 28ef 483d 38dd 3d3e c80e f1bd
000002a0: 3894 e63d d8c3 cfbc 2e6e bcbd f66f 063e
000002b0: c66c 313e 9899 b63d 7c14 8f3d d8ba d9bd
000002c0: 10c0 88bc e964 4abe f982 4fbe b066 b8bc
000002d0: d099 d6bd 08ec b23d 9d84 52be 3040 61bc
000002e0: 126a 563e e763 43be 40de c4bb 7cef 3dbe
000002f0: 3c27 193e 1032 563c 80e1 493e 5887 0a3d
00000300: 1a2b 5b3e e0ab 943c 102a 65bc b063 c1bd
00000310: a8fa 42be 4a16 49be 3af9 1f3e 0844 073d
00000320: 9818 d93d 247a 5f3e e447 853d 546a 2abe
00000330: 009f 1d3d 7d8a ffbd c19d 3fbe 9012 0f3c
00000340: 88fc 06be c8b5 c13d 0b36 15be 6ebd 553e
00000350: 18f5 a03d c081 6d3b e04e 08bc acab 3abd
00000360: b083 81bc b09b 30be 3229 2abe d052 b53d
00000370: d0af 363d 3750 3cbe 0c50 4fbe 53b4 15be
00000380: 80ec 443b 0cb0 573e 50b0 073d bcf8 0abe
00000390: d266 b2bd cf65 46be ecb9 123e 64e6 873d
000003a0: 1000 b63d 34e5 47be e029 80bb 9cca b13d
000003b0: 62f0 a5bd 98d4 bf3d 543e 903d 0a49 4dbe
000003c0: b8a0 78bd 7cb7 063e 2c0c 01be c056 da3c
000003d0: dcbd d83d 7fe5 e1bd 0296 5d3e 8de5 5dbe
000003e0: cee9 0d3e cc43 a3bd 5ca7 533e f322 0fbe
000003f0: 5038 7a3d 01e0 36be 710f cdbd eb72 0cbe

bias f4 [1, 20]
0.0 0.0 0.0 0.0 0.0 0.0 0.0 0.0
0.0 0.0 0.0 0.0 0.0 0.0 0.0 0.0
0.0 0.0 0.0 0.0
00000000: 0000 0000 0000 0000 0000 0000 0000 0000
00000010: 0000 0000 0000 0000 0000 0000 0000 0000
00000020: 0000 0000 0000 0000 0000 0000 0000 0000
00000030: 0000 0000 0000 0000 0000 0000 0000 0000
00000040: 0000 0000 0000 0000 0000 0000 0000 0000

weight f4 [20, 20]
0.12759912 -0.21295676 0.07913424 0.11360888 -0.14975722 -0.0330847 0.067001745 0.17077221
0.116761155 -0.21437207 0.039261136 0.12629971 -0.10274794 -0.07033913 -0.165129 -0.055144794
-0.17798606 -0.10465422 -0.21330833 0.095906906 -0.15267013 0.0340976 0.042420793 0.23025069
-0.23027566 0.041436423 0.19069536 -0.120112926 -0.062329613 0.07090622 0.15669754 0.16134305
-0.04389215 -0.13120309 -0.120317854 -0.12547158 -0.12693863 0.18672003 -0.23400025 -0.22406937
0.18894966 -0.23949687 0.13160121 -0.16225213 0.08569612 0.060116116 -0.08676864 -0.028400121
0.18251212 0.06867591 -0.15052173 -0.06475506 0.063097954 -0.056320794 0.024765452 0.05045609
0.06319221 0.020525154 0.123473056 0.10307412 0.009367939 0.14657865 0.13344151 0.14853829
-0.16045855 0.21578082 0.21741503 -0.21143618 -0.12162788 -0.036861144 0.02355403 -0.04342493
-0.21006963 0.10484324 -0.16249979 0.23603034 0.14139122 0.20460647 -0.21300109 0.07276933
0.13764475 -0.13106178 0.09074263 0.07664264 0.13913745 0.18326662 0.09602908 0.13388844
0.19426492 0.16062884 0.10811986 0.016044306 -0.19512321 0.09556326 0.19112493 -0.25612274
-0.017814659 0.07870549 -0.07390056 0.110783406 -0.0012206773 -0.1343918 -0.10545915 -0.0018514845
0.15971921 0.10535963 0.07532094 0.18652043 0.0075635943 -0.13785051 -0.2726541 -0.18667135
0.051754937 -0.063299075 0.17111176 0.13249175 0.13081537 0.0975674 -0.10727448 0.13366589
0.010272144 0.17037721 0.23137881 -0.052558217 0.047159366 0.19610918 0.12819195 -0.17371124
0.17899002 0.022023946 -0.10821119 0.0068234205 0.11139482 -0.054487288 -0.111305386 0.27397946
0.012401292 0.1183194 -0.12170947 -0.12698711 -0.20734133 -0.16140983 -0.08665815 -0.0011452138
-0.0022920696 0.1285167 0.09832851 -0.1867316 -0.1683685 8.569503e-05 0.2065376 0.03962646
0.03790284 -0.19165188 -0.0365231 0.09586801 0.12274478 0.15283436 -0.15160961 0.18557462
0.22088124 -0.1724994 0.08593414 -0.019230803 -0.1871731 0.17480998 -0.021913977 -0.1377697
-0.011515172 -0.18541592 0.016432855 0.17959207 0.046220295 0.033398308 -0.14929348 0.30549607
0.041160673 0.15039869 -0.15452284 -0.20406593 -0.041655455 0.18078478 0.16713396 -0.070692085
0.11288418 0.1773511 -0.25522855 -0.070512325 0.09608519 -0.14278665 -0.03625182 -0.16442361
0.042520314 0.16138084 0.17277163 -0.25144592 0.20549418 0.16109352 -3.1111986e-06 0.11172291
-0.09597448 -0.05632147 -0.18903275 0.10383258 -0.010967508 -0.037585504 -0.08912924 0.005560291
0.14764139 0.23320462 0.12649171 -0.19657171 -0.025931938 0.2616649 -0.051762313 -0.28083313
-0.0008999551 -0.12372082 0.21925798 0.25736502 0.22142781 0.02573015 -0.13820049 0.22229117
-0.06864564 0.1065922 0.13757686 -0.1446783 -0.20396392 -0.119447656 0.14221834 -0.05456974
-0.136923 0.005910492 -0.2514893 0.072872266 -0.02272045 -0.028714113 -0.023265826 -0.061560143
-0.22478947 0.11977272 0.062110245 0.1157913 -0.13360907 -0.18360023 0.19156781 -0.01884995
-0.0064585665 -0.20678712 -0.03383293 -0.06542997 -0.15733841 -0.026204048 0.038482465 0.15107523
00000000: 58a9 023e 5611 5abe 2211 a23d c6ab e83d
00000010: f559 19be d383 07bd 3638 893d e9de 2e3e
00000020: 7920 ef3d 5a84 5bbe 49d0 203d b654 013e
00000030: 836d d2bd f60d 90bd 9417 29be 82df 61bd
00000040: fa41 36be f454 d6bd 806d 5abe d76a c43d
00000050: 8f55 1cbe eda9 0b3d 6dc1 2d3d d6c6 6b3e
00000060: 62cd 6bbe 3db9 293d a545 433e c4fd f5bd
00000070: 564d 7fbd 4837 913d 5275 203e 1d37 253e
00000080: 41c8 33bd 1a5a 06be 3569 f6bd 9f7b 00be
00000090: 33fc 01be 8933 3f3e c39d 6fbe 7172 65be
000000a0: 057c 413e ab3e 75be 78c2 063e 6c25 26be
000000b0: 7381 af3d 513c 763d c2b3 b1bd 5fa7 e8bc
000000c0: 75e4 3a3e f5a5 8c3d 5e22 1abe 4d9e 84bd
000000d0: 8039 813d a2b0 66bd ebe0 ca3c 0cab 4e3d
000000e0: eb6a 813d 5e24 a83c 71df fc3d 8618 d33d
000000f0: fc7b 193c b718 163e e4a4 083e 6c1a 183e
00000100: 3f4f 24be a6f5 5c3e 0ca2 5e3e ba82 58be
00000110: 0a18 f9bd b6fb 16bd 62f4 c03c 57de 31bd
00000120: 7e1c 57be 0db8 d63d 5866 26be f0b1 713e
00000130: dcc8 103e 5c84 513e f51c 5abe 1608 953d
00000140: bff2 0c3e 0f35 06be 46d7 b93d d1f6 9c3d
00000150: 0c7a 0e3e 3faa 3b3e e5aa c43d 0d1a 093e
00000160: 62ed 463e e37b 243e f26d dd3d 596f 833c
00000170: 61ce 47be acb6 c33d 41b6 433e 8522 83be
00000180: 0cf0 91bc 5830 a13d 2d59 97bd 69e2 e23d
00000190: 22ff 9fba 019e 09be f8fa d7bd 83ad f2ba
000001a0: 6f8d 233e cac6 d73d dd41 9a3d 36ff 3e3e
000001b0: 07d8 f73b af28 0dbe 5199 8bbe c626 3fbe
000001c0: fcfc 533d f2a2 81bd ec37 2f3e ebab 073e
000001d0: 77f4 053e 6bd1 c73d b9b2 dbbd b6df 083e
000001e0: 7f4c 283c 5d77 2e3e 91ee 6c3e 4947 57bd
000001f0: 2e2a 413d d8d0 483e c044 033e 5ce1 31be
00000200: 2949 373e 906b b43c d49d ddbd 0097 df3b
00000210: f822 e43d 102e 5fbd 14f4 e3bd 0947 8c3e
00000220: ca2e 4b3c 7151 f23d d142 f9bd e908 02be
00000230: 4951 54be 9e48 25be d479 b1bd 001b 96ba
00000240: 8c36 16bb e299 033e 7560 c93d 9236 3fbe
00000250: cb68 2cbe 2bb7 b338 987e 533e 5b4f 223d
00000260: 0240 1b3d 6440 44be 3f99 15bd 7256 c43d
00000270: 9d61 fb3d 9c80 1c3e 8d3f 1bbe 4607 3e3e
00000280: b12e 623e afa3 30be 3dfe af3d eb89 9dbc
00000290: 4eaa 3fbe 6301 333e f184 b3bc 8013 0dbe
000002a0: 22aa 3cbc acdd 3dbe 329e 863c fce6 373e
000002b0: 7e51 3d3d aacc 083d 64e0 18be fb69 9c3e
000002c0: 1898 283d 1d02 1a3e 3c3b 1ebe a9f6 50be
000002d0: e99e 2abd a51f 393e 2a25 2b3e 03c7 90bd
000002e0: d22f e73d 879b 353e 51ad 82be c468 90bd
000002f0: 50c8 c43d aa36 12be ca7c 14bd aa5e 28be
00000300: c829 2e3d 0541 253e 0ceb 303e 85bd 80be
00000310: 116d 523e b3f5 243e fcc9 50b6 fbce e43d
00000320: 458e c4bd 57b1 66bd cd91 41be 2da6 d43d
00000330: 10b1 33bc 42f3 19bd 6489 b6bd 1a33 b63b
00000340: 4e2f 173e 31cd 6e3e 0b87 013e 184a 49be
00000350: 376f d4bc f1f8 853e b804 54bd 5cc9 8fbe
00000360: f7ea 6bba 5761 fdbd 2a85 603e 59c5 833e
00000370: f9bd 623e 09c8 d23c 6e84 0dbe 4ca0 633e
00000380: 1696 8cbd 034d da3d f3e0 0c3e 8c26 14be
00000390: ebdb 50be f9a0 f4bd afa1 113e 8584 5fbd
000003a0: 8b35 0cbe cdac c13b 35c3 80be 0e3e 953d
000003b0: 3d20 babc dc39 ebbc f997 bebc 7d26 7cbd
000003c0: 362f 66be 664b f53d 5067 7e3d fd23 ed3d
000003d0: d1d0 08be b301 3cbe 5a2a 443e 366b 9abc
000003e0: 62a2 d3bb 01c0 53be 6694 0abd 2600 86bd
000003f0: 521d 21be dfa9 d6bc ca9f 1d3d 77b3 1a3e

weight f4 [20, 15]
-0.021119371 0.032891095 -0.090245545 0.1922015 -0.06858045 -0.15800817 0.14047864 -0.23695052
0.040438056 0.080604345 -0.12346618 -0.22920966 0.23077872 0.10538229 0.1489177 -0.0045585036
-0.17724521 -0.11664578 0.055731237 -0.13509767 -0.057351977 -0.12323566 0.019051343 0.22591275
0.24405137 0.05246517 -0.18099922 -0.23893513 -0.017631039 -0.05841151 0.19472057 -0.09070811
0.04341826 -0.14481571 -0.13032636 -0.08746663 -0.15396604 0.21620747 -0.22923368 -0.027767971
0.19501382 -0.06181547 -0.045644864 -0.107394174 -0.12077762 0.2070775 0.09362647 0.21306124
0.18149889 -0.15225403 -0.11752051 0.25342664 -0.085534036 -0.11888969 0.034106016 0.14853942
0.036611468 -0.20900331 0.11069876 -0.06673241 0.16634297 -0.20861545 0.03605169 -0.08114645
0.16317764 -0.15663531 0.16852376 0.09794241 0.00568375 0.032010376 -0.090807274 -0.10784498
-0.22038306 0.1393033 -0.18377596 -0.14680162 0.035249144 -0.06907809 -0.24991696 0.20150566
-0.25439188 0.23874655 0.083966374 -0.040311933 -0.1136194 0.15173042 -0.068102956 -0.16718976
-0.24651857 0.01610893 -0.09200999 0.25464675 -0.018504977 -0.101093724 -0.10015781 0.08966923
-0.16515473 0.16517329 -0.24623248 0.07522985 -0.13769452 0.16849875 0.027308315 0.11874333
-0.088005826 0.13398054 0.09195432 -0.04768133 -0.21383649 0.11973399 0.007284373 0.24441174
0.054695964 0.12287727 -0.10842462 0.24424508 -0.03224352 0.05102372 0.027148813 0.13948298
0.24320033 -0.1901923 0.23056948 0.21116671 0.25790164 0.22215927 -0.21141072 0.15631697
0.04090655 -0.13041195 0.04150024 0.12882122 0.17998216 0.14260483 0.031268924 -0.04188311
-0.03140217 -0.0014220476 -0.03216636 -0.14233953 0.21577239 0.10945168 -0.04424016 -0.21756595
0.032334447 -0.19241586 0.21992195 -0.22187431 0.021131217 0.004447043 -0.12669346 -0.19129851
0.15413341 -0.23773894 0.05880204 0.14708498 -0.006909728 -0.010078654 -0.21698846 -0.16871126
0.047510237 0.043280035 0.13975021 -0.110966474 0.10803619 -0.0032529235 -0.24363054 0.12680238
0.009192646 -0.23256949 -0.20845996 -0.08034994 -0.21652956 -0.031304106 -0.20131364 -0.18114173
-0.07580976 -0.06236495 0.15205494 0.11778462 -0.19873025 0.24392226 -0.11482243 -0.069947675
-0.24636339 0.22929868 -0.23358405 0.0773651 -0.042907164 -0.011112675 -0.0398459 -0.15799916
-0.1814157 -0.05896601 -0.21072264 0.23785013 0.1788516 -0.24947879 -0.14314887 0.21298477
0.18978807 0.12960768 -0.18582612 0.027832061 -0.08515282 -0.15746713 -0.11262137 -0.16056916
0.118361115 0.10948852 0.21104133 -0.2501591 0.059402376 -0.18124506 -0.105921745 0.040368557
0.20317835 -0.17966914 0.08994594 -0.21504125 -0.1338048 0.16634068 -0.21367522 0.086511046
-0.008546263 -0.15310949 0.16410685 0.22321361 0.023974657 -0.11521281 -0.21432294 0.18952566
-0.18535705 -0.02691701 -0.24622725 -0.059974015 0.054973632 -0.22983569 0.17270413 -0.17787601
-0.115378216 -0.12181382 0.20089781 0.10910055 0.08748433 0.060259104 0.14385149 -0.03570415
0.22368848 -0.07239187 0.18849418 0.25562724 0.25010952 0.13235462 0.18994254 0.17819709
00000000: 8802 adbc d0b8 063d a8d2 b8bd 78d0 443e
00000010: e873 8cbd e5cc 21be a2d9 0f3e 28a3 72be
00000020: 60a2 253d e413 a53d d6db fcbd f0b5 6abe
00000030: 4251 6c3e acd2 d73d e27d 183e 805f 95bb
00000040: c57f 35be fce3 eebd 7046 643d 0b57 0abe
00000050: e8e9 6abd fa62 fcbd 9011 9c3c ac55 673e
00000060: 9ae8 793e b8e5 563d dc57 39be 69ab 74be
00000070: f86e 90bc e840 6fbd d464 473e 2cc5 b9bd
00000080: 58d7 313d 924a 14be 4674 05be b421 b3bd
00000090: 46a9 1dbe 7e65 5d3e 3cbc 6abe a879 e3bc
000000a0: b4b1 473e 3832 7dbd 1cf6 3abd 7af1 dbbd
000000b0: 425a f7bd 200c 543e 3cbf bf3d ba2c 5a3e
000000c0: d8da 393e 7be8 1bbe 98ae f0bd 23c1 813e
000000d0: 782c afbd 707c f3bd c0b2 0b3d b81a 183e
000000e0: e8f5 153d f704 56be 08b6 e23d 00ab 88bd
000000f0: d055 2a3e 4a9f 55be f0aa 133d 1c30 a6bd
00000100: 0a18 273e 0265 20be 7e91 2c3e 0896 c83d
00000110: c03e ba3b 501d 033d 2af9 b9bd d4dd dcbd
00000120: 19ac 61be 86a5 0e3e c42f 3cbe 2a53 16be
00000130: 6861 103d d078 8dbd 3bea 7fbe 8057 4e3e
00000140: a73f 82be fa79 743e 90f6 ab3d 201e 25bd
00000150: 4ab1 e8bd 385f 1b3e 9079 8bbd cb33 2bbe
00000160: 5d6f 7cbe e0f6 833c bc6f bcbd 0f61 823e
00000170: c097 97bc 3a0a cfbd 8a1f cdbd 80a4 b73d
00000180: 521e 29be 3023 293e 5e24 7cbe 1c12 9a3d
00000190: cbff 0cbe f08a 2c3e b0b5 df3c b42f f33d
000001a0: 663c b4bd 3232 093e 8c52 bc3d 804d 43bd
000001b0: f4f7 5abe 1837 f53d c0b1 ee3b 1247 7a3e
000001c0: e008 603d 14a7 fb3d ba0d debd 621b 7a3e
000001d0: c811 04bd 40fe 503d 3067 de3c a0d4 0e3e
000001e0: 8209 793e c5c1 42be 681a 6c3e 163c 583e
000001f0: af0b 843e b87d 633e 0d7c 58be 8e11 203e
00000200: a08d 273d b68a 05be 28fc 293d b6e9 033e
00000210: 3e4d 383e 0007 123e d813 003d a08d 2bbd
00000220: 909f 00bd 0064 baba e0c0 03bd 74c1 11be
00000230: 70f3 5c3e 3428 e03d 2c35 35bd 9cc9 5ebe
00000240: 2071 043d aa08 45be 3833 613e 0533 63be
00000250: 601b ad3c 80b8 913b eebb 01be c2e3 43be
00000260: 26d5 1d3e d671 73be 68da 703d 729d 163e
00000270: 006b e2bb f020 25bc 3932 5ebe a5c2 2cbe
00000280: 189a 423d 6846 313d ae1a 0f3e 6442 e3bd
00000290: 1442 dd3d 002f 55bb 497a 79be 7cd8 013e
000002a0: c09c 163c b226 6ebe 8776 55be 828e a4bd
000002b0: edb9 5dbe bc38 00bd 2a25 4ebe 387d 39be
000002c0: 2642 9bbd 6472 7fbd 4ab4 1b3e 1039 f13d
000002d0: f17f 4bbe c2c6 793e 0628 ebbd ba40 8fbd
000002e0: af46 7cbe 46cd 6a3e a830 6fbe 9871 9e3d
000002f0: 6cbf 2fbd f011 36bc 7435 23bd 88ca 21be
00000300: 0ac5 39be 5886 71bd adc7 57be fc8e 733e
00000310: e024 373e 5e77 7fbe 9e95 12be ae18 5a3e
00000320: ce57 423e e0b7 043e 3449 3ebe 1000 e43c
00000330: 9a64 aebd 103f 21be 08a6 e6bd 3e6c 24be
00000340: 5067 f23d 843b e03d 381b 583e db14 80be
00000350: e84f 733d 4e98 39be 80ed d8bd 8059 253d
00000360: fc0d 503e 30fb 37be 9435 b83d c633 5cbe
00000370: 2004 09be 3655 2a3e adcd 5abe b42c b13d
00000380: a005 0cbc bcc8 1cbe a00b 283e 1c92 643e
00000390: 8066 c43c b2f4 ebbd 7977 5bbe 0413 423e
000003a0: 3dce 3dbe 1081 dcbc ff22 7cbe 50a7 75bd
000003b0: 082c 613d 0c5a 6bbe 5ad9 303e 2125 36be
000003c0: 6a4b ecbd 8679 f9bd 28b8 4d3e 1c70 df3d
000003d0: fc2a b33d 40d2 763d ce4d 133e 843e 12bd
000003e0: 980e 653e 3042 94bd 9e04 413e 93e1 823e
000003f0: 5b0e 803e f887 073e 4c80 423e 4c79 363e

bias f4 [1, 15]
0.0 0.0 0.0 0.0 0.0 0.0 0.0 0.0
0.0 0.0 0.0 0.0 0.0 0.0 0.0
00000000: 0000 0000 0000 0000 0000 0000 0000 0000
00000010: 0000 0000 0000 0000 0000 0000 0000 0000
00000020: 0000 0000 0000 0000 0000 0000 0000 0000
00000030: 0000 0000 0000 0000 0000 0000

weight f4 [15, 20]
-0.1840179 0.055413857 0.2108173 -0.13569613 0.20330414 -0.023337586 -0.03264667 0.12348957
-0.23453104 -0.03466545 -0.051218834 -0.04791334 0.08730397 -0.14494419 0.055612978 -0.16311722
0.09370575 -0.011448723 -0.16490118 0.05959657 -0.16171375 -0.05176384 -0.11842268 -0.06851296
-0.0014431896 0.19352812 -0.1900458 -0.08264988 -0.19701569 0.23440257 0.036306523 0.12665689
-0.11131943 -0.08196959 -0.05229615 -0.20609316 -0.06965634 0.078057446 -0.041865032 0.10027437
-0.16361101 -0.11037545 -0.10948209 0.02731721 -0.046158116 0.113192864 0.0068029403 -0.13813235
-0.15633531 0.1911506 -0.119268954 -0.10456073 0.02463434 -0.23456234 -0.076763436 -0.11700253
0.21445045 -0.16675359 0.080834694 0.1400693 -0.22891359 -0.077995114 0.019140752 0.13380542
0.21802628 0.17731984 -0.10137382 -0.107223414 -0.19387878 -0.0019582408 0.21193326 -0.1840268
0.09612108 0.0249453 0.12020943 0.03534096 -0.17735624 -0.044655077 -0.03024846 0.11058857
0.06037372 -0.17940906 -0.16380982 -0.020902745 0.03913065 -0.18441546 0.10269955 -0.22720705
0.084075294 0.1372884 0.23449926 -0.14445898 -0.2140637 -0.07646173 -0.11825277 -0.015994016
0.17007282 -0.21255122 -0.08583784 -0.10079596 -0.25704485 -0.03792526 -0.014400179 -0.22592883
-0.048982516 0.18013713 -0.1551858 0.18257949 -0.15568605 -0.15942241 0.030455088 -0.17577602
-0.2106746 -0.09374265 -0.17569274 -0.048108876 -0.07365229 -0.16244435 -0.07485985 -0.01070309
-0.044593588 -0.08473688 -0.157728 -0.19670998 -0.18681815 0.020391913 -0.13469711 -0.04772916
0.14571966 0.19349462 0.17664395 -0.20176288 -0.04174923 -0.03370347 -0.04851873 -0.18385795
-0.056213338 -0.16119333 -0.24300918 -0.24106672 -0.24560468 -0.2576821 0.25785887 0.07223134
0.021268617 0.07942302 -0.117945105 -0.05235543 -0.14918779 0.1199578 -0.03853291 0.10928145
-0.025803916 0.092719056 -0.10792573 0.030383315 -0.030582128 0.15896478 -0.23128551 -0.015261854
-0.050548594 -0.16559684 0.14990607 -0.24756014 0.021803973 0.037794176 -0.079551555 0.1429625
0.045286167 0.2190231 -0.017352303 -0.20466945 -0.110946804 0.0035269153 -0.19061755 -0.005219543
-0.17798871 -0.033093616 -0.22812968 -0.099496834 -0.22630848 -0.17453146 0.22145069 -0.16357495
0.10580832 -0.16453084 -0.01673041 -0.1295702 0.05638081 0.14628826 0.04709144 0.17872077
-0.057144787 -0.1622493 0.04493095 0.013307483 0.05593996 -0.12929091 -0.19230044 -0.19580446
-0.082850836 -0.044589203 -0.12264547 -0.051128127 -0.126887 0.20402652 -0.2022084 -0.15954761
0.026396913 0.2532097 0.28456223 0.05750853 -0.06783992 0.0790623 -0.043449458 -0.18005282
0.1200285 -0.19607529 0.029809106 -0.13520195 -0.17288591 -0.20150381 0.12971334 0.13918184
0.15466306 0.03959897 -0.151816 -0.13488758 0.066631116 0.053309668 -0.065603375 -0.17816979
0.0124555845 -0.13690595 -0.050737746 -0.15438008 0.1782491 -0.095212094 -0.0066503263 -0.17485234
-0.07736581 -0.0065733134 0.10853636 0.088136 0.11518518 0.08794495 -0.00975535 -0.19064899
0.024951035 -0.08288821 0.0712258 -0.22127782 -0.24062973 -0.1429444 -0.10897424 -0.22746313
00000000: 306f 3cbe a4f9 623d 7ee0 573e edf3 0abe
00000010: f62e 503e 772e bfbc 84b8 05bd 1ae8 fc3d
00000020: e828 70be 5cfd 0dbd d7ca 51bd c740 44bd
00000030: 6ccc b23d 406c 14be 6fca 633d 3308 27be
00000040: cde8 bf3d 6d93 3bbc dbdb 28be 881b 743d
00000050: 4a98 25be 5206 54bd 9787 f2bd 8650 8cbd
00000060: 6829 bdba 3c2c 463e 5e9b 42be 5744 a9bd
00000070: 7bbe 49be 3a07 703e 26b6 143d 58b2 013e
00000080: 71fb e3bd acdf a7bd 7d34 56bd 160a 53be
00000090: fca7 8ebd 95dc 9f3d ab7a 2bbd a65c cd3d
000000a0: a589 27be 860c e2bd 2538 e0bd 57c8 df3c
000000b0: 4b10 3dbd a9d1 e73d 33eb de3b 9172 0dbe
000000c0: 5d16 20be fcbc 433e 4843 f4bd f023 d6bd
000000d0: f5cd c93c 1c31 70be 2636 9dbd 069f efbd
000000e0: e698 5b3e 74c1 2abe a98c a53d 546e 0f3e
000000f0: 5368 6abe e7bb 9fbd 11cd 9c3c 4a04 093e
00000100: 4842 5f3e 5593 353e 149d cfbd f397 dbbd
00000110: 2988 46be d455 00bb 0805 593e 8571 3cbe
00000120: 21db c43d 165a cc3c 5d30 f63d afc1 103d
00000130: e09c 35be 3ee8 36bd 9ecb f7bc 437c e23d
00000140: 6f4a 773d 02b7 37be c3bd 27be 3c3c abbc
00000150: 7647 203d 68d7 3cbe 2454 d23d f7a8 68be
00000160: ab2f ac3d 5595 0c3e 9320 703e 0eed 13be
00000170: 8433 5bbe f897 9cbd 822e f2bd e205 83bc
00000180: 9227 2e3e 07a7 59be c0cb afbd 1d6e cebd
00000190: 629b 83be 8457 1bbd baee 6bbc e359 67be
000001a0: e4a1 48bd de75 383e 07e9 1ebe 1ef6 3a3e
000001b0: 2a6c 1fbe a13f 23be f37c f93c a1fe 33be
000001c0: 15bb 57be 25fc bfbd cce8 33be d00d 45bd
000001d0: 03d7 96bd d057 26be 1f50 99bd 035c 2fbc
000001e0: c4a7 36bd 888a adbd 7383 21be 576e 49be
000001f0: 424d 3fbe f10c a73c 0aee 09be a77f 43bd
00000200: 8937 153e 7423 463e 27e2 343e ee9a 4ebe
00000210: 3e01 2bbd a60c 0abd 93bb 46bd 4245 3cbe
00000220: f53f 66bd dd0f 25be 66d7 78be 32da 76be
00000230: cb7f 7bbe e9ee 83be 1406 843e 06ee 933d
00000240: 863b ae3c 89a8 a23d 348d f1bd a672 56bd
00000250: afc4 18be 6fac f53d afd4 1dbd f4ce df3d
00000260: bc62 d3bc 7de3 bd3d 2a08 ddbd 6ee6 f83c
00000270: 5f87 fabc aac7 223e 1cd6 6cbe db0c 7abc
00000280: 0b0c 4fbd 3892 29be fa80 193e 6880 7dbe
00000290: 3f9e b23c 11ce 1a3d edeb a2bd c364 123e
000002a0: fd7d 393d 9747 603e 6b26 8ebc de94 51be
000002b0: 1438 e3bd d223 673b 3f31 43be b308 abbb
000002c0: ac42 36be 2c8d 07bd d49a 69be ffc4 cbbd
000002d0: 69bd 67be 60b8 32be f8c3 623e 3180 27be
000002e0: 08b2 d83d c67a 28be 360e 89bc 0dae 04be
000002f0: 90ef 663d 97cc 153e f4e2 403d 9402 373e
00000300: a710 6abd ae24 26be 8409 383d a107 5a3c
00000310: 4d21 653d d664 04be 68ea 44be f780 48be
00000320: b3ad a9bd 2ba3 36bd 8c2d fbbd ba6b 51bd
00000330: aaee 01be 54ec 503e b80f 4fbe 7360 23be
00000340: 573e d83c b4a4 813e 24b2 913e 108e 6b3d
00000350: a8ef 8abd 6aeb a13d 0ff8 31bd c45f 38be
00000360: 81d1 f53d f6c7 48be 3a32 f43c 6172 0abe
00000370: 0109 31be 0457 4ebe 93d3 043e af85 0e3e
00000380: fe5f 1e3e 8832 223d a775 1bbe f81f 0abe
00000390: e575 883d 3d5b 5a3d 105b 86bd 2472 36be
000003a0: 8212 4c3c 1331 0cbe 62d2 4fbd d015 1ebe
000003b0: ef86 363e 8ffe c2bd fbea d9bb 7e0c 33be
000003c0: f771 9ebd f364 d7bb 5048 de3d a680 b43d
000003d0: 35e6 eb3d 7b1c b43d e7d4 1fbc 7d39 43be
000003e0: 1d66 cc3c 4bc1 a9bd d5de 913d a796 62be
000003f0: a467 76be 0460 12be e32d dfbd 18ec 68be
